experiment_anode_mnist_v2/model.pth (torch, 849769 bytes, 24 tensors)

0.weight f4 [64, 1, 3, 3]
0	0xbcdc83fc	-0.026918404
1	0xbc009d29	-0.00784997
2	0xbf45f2bb	-0.773235
3	0x3e35e1a2	0.17761853
4	0x3f057052	0.5212451
5	0x3e7fc757	0.24978386
6	0x3e4483ac	0.19190854
7	0xbe3a8752	-0.18215683
8	0x3f09a2be	0.5376395
9	0xbea219a7	-0.31660196
10	0x3e2b9ab5	0.16758235
11	0x3e4aea5b	0.19815962
12	0x3e904a08	0.2818148
13	0x3e0eca3b	0.13944332
14	0xbded6262	-0.11591031
15	0x3ea419a5	0.32050815
16	0x3d87bfcc	0.06628379
17	0x3ee2e039	0.44311693
18	0x3e02a212	0.12757137
19	0x3f0465a2	0.5171758
20	0xbd97138a	-0.07376774
21	0xbee1cd53	-0.44101962
22	0xbe0b4869	-0.13601841
23	0x3ea34729	0.31890228
24	0xbed7251b	-0.42020497
25	0xbe74ee65	-0.23919065
26	0x3ebddd5c	0.37082946
27	0x3adde662	0.0016929621
28	0xbeed7188	-0.4637568
29	0xbf37b2bf	-0.7175712
30	0x3e7b91a3	0.24567275
31	0x3f134a7a	0.5753552
32	0x3ce155b2	0.027506683
33	0x3e83b1b8	0.25721526
34	0x3d96f9df	0.07371878
35	0x3ed2ea8a	0.41194564
36	0xbf3f70d8	-0.7478156
37	0x3e98282e	0.29718155
38	0x3e118016	0.14209017
39	0x3eab4f8b	0.33459124
40	0x3ea6f955	0.326121
41	0xbe2277cd	-0.15866013
42	0x3e28216b	0.16418998
43	0xbe7a6ac6	-0.24454793
44	0x3e3cbf8e	0.18432447
45	0x3e1ca3ca	0.15296856
46	0xbe52f884	-0.20602614
47	0xbe4e8947	-0.20169555
48	0x3e899b51	0.2687631
49	0xbe0e3660	-0.1388793
50	0xbe869732	-0.26287228
51	0xbe218df5	-0.15776809
52	0xbe6ce77d	-0.23135181
53	0x3dc50d01	0.09621621
54	0xbe1b7fdd	-0.15185495
55	0xbe8125a5	-0.25224033
56	0xbf37beec	-0.717757
57	0xbeaaa536	-0.3332917
58	0xbdfa37d0	-0.12217677
59	0xbc400d45	-0.011721914
60	0x3c47e262	0.01219997
61	0x3db9fdd2	0.090816155
62	0x3f0f6171	0.5600806
63	0xbde1e06a	-0.11029132
64	0x3e409c98	0.18809736
65	0x3e8ccd86	0.27500552
66	0x3e820589	0.25394848
67	0xbd2aca38	-0.041696757
68	0xbd80844a	-0.06275232
69	0x3dfbabd9	0.12288637
70	0x3ebe021e	0.3711099
71	0x3e9619e7	0.29316637
72	0xbda94b18	-0.08266276
73	0x3e5d752c	0.21626729
74	0xbe5c2d3f	-0.21501635
75	0xbdaf7675	-0.08567516
76	0xbee20c44	-0.44149983
77	0xbe6d75d1	-0.23189475
78	0xbe900095	-0.28125444
79	0x3e0cea6d	0.13761301
80	0x3ecae639	0.3962877
81	0x3ed72559	0.42020682
82	0x3ca645b3	0.020296907
83	0xbe444b8a	-0.19169441
84	0xbec3f828	-0.38275266
85	0xbece5010	-0.40295458
86	0xbe7a8720	-0.24465609
87	0xbbe44e53	-0.006967345
88	0x3e662c5e	0.22477862
89	0x3df0c217	0.1175577
90	0x3e7396cd	0.23787995
91	0x3f063f28	0.5244012
92	0xbd8ef240	-0.06979799
93	0xbf1ff1eb	-0.6247851
94	0x3ee5419e	0.44776624
95	0x3e73e766	0.2381874
96	0xbf0da8a2	-0.5533544
97	0xbe93bef5	-0.28856626
98	0x3e9485f0	0.29008436
99	0xbe92d118	-0.2867515
100	0xbe6ac53c	-0.22926801
101	0xbe86bc07	-0.26315328
102	0xbe89235c	-0.2678479
103	0x3e13ac9c	0.14421314
104	0xbe19bd32	-0.15013579
105	0xbe352571	-0.17690064
106	0xbea05055	-0.31311288
107	0xbdce989b	-0.10087701
108	0x3d584b5a	0.052806236
109	0x3edb7c74	0.42868388
110	0x3ecc48bf	0.3989925
111	0xbe332966	-0.17496261
112	0x3ddef843	0.10887196
113	0x3ed6a8e0	0.41925716
114	0xbefc4761	-0.49273208
115	0xbf23c2f4	-0.6396935
116	0xbe83790d	-0.25678292
117	0x3ee51815	0.44744936
118	0x3ee4ea9e	0.4471025
119	0x3e9bff3e	0.30468172
120	0xbef0f002	-0.4705811
121	0xbf263671	-0.6492682
122	0xbef159ad	-0.4713873
123	0x3e691781	0.22762872
124	0x3e9e2f2c	0.30895364
125	0x3f24e25f	0.64407915
126	0xbe86d099	-0.26331022
127	0xbd3831a8	-0.04496923
128	0xbe799f42	-0.24377158
129	0xbe263684	-0.16231734
130	0x3d9fbc08	0.07799536
131	0xbdaa7949	-0.083239146
132	0xbde081ce	-0.10962258
133	0xbe724e3d	-0.23662658
134	0xbe59a41e	-0.21254012
135	0x3e6c68f4	0.23086911
136	0xbdf93ef5	-0.12170211
137	0xbe8e4daf	-0.27793643
138	0x3eede517	0.46463844
139	0xbf357ae7	-0.7089066
140	0x3d46fbed	0.0485801
141	0xbcac6f1d	-0.021049077
142	0xbf15d5cf	-0.5852937
143	0x3efe81de	0.49708456
144	0xbb983073	-0.0046444475
145	0x3ed14f6f	0.40880916
146	0x3e85a398	0.26101375
147	0xbeefa534	-0.46805727
148	0x3b8b77e1	0.004256234
149	0x3edcae1d	0.43101588
150	0xbf01dc30	-0.50726604
151	0xbc6d03d6	-0.014466247
152	0x3e53a530	0.20668483
153	0x3edd23ad	0.4319128
154	0xbe48fa43	-0.19626717
155	0xbedc74d5	-0.43057886
156	0x3efc0a9a	0.49226838
157	0xbee3e7fe	-0.44512933
158	0xbd02b4c5	-0.031910677
159	0x3f185d7b	0.5951764
160	0xbcc01af3	-0.02345035
161	0xbed4c08f	-0.4155316
162	0xbeb12fb1	-0.34606698
163	0xbe92ae93	-0.28648815
164	0xbe249c72	-0.16075304
165	0x3e32fe0a	0.1747972
166	0x3f042548	0.51619387
167	0x3dcb793c	0.09935233
168	0xbdcd40d3	-0.1002213
169	0x3e8f365d	0.27971163
170	0x3e942e8c	0.28941762
171	0xbd9d5987	-0.076830916
172	0x3e7ad42e	0.24495003
173	0xbe90df2a	-0.2829526
174	0x3ea465a2	0.3210879
175	0x3e8577e8	0.26068044
176	0xbd46359f	-0.04839098
177	0x3e95b6ef	0.2924113
178	0xbdbc243e	-0.091866
179	0x3cf20948	0.029545441
180	0xbe21870f	-0.15774177
181	0x3e80112d	0.25013104
182	0xbedea84e	-0.4348778
183	0xbeac99a4	-0.33710968
184	0xbeccd40e	-0.40005535
185	0x3b2c49d1	0.0026289115
186	0xbef6506e	-0.48108238
187	0x3ea19d39	0.31565264
188	0x3ee7a3d8	0.4524219
189	0xbef8c310	-0.4858632
190	0x3dbdb529	0.09263069
191	0x3e31b059	0.17352428
192	0xbe9f1798	-0.31072688
193	0x3eb948e2	0.36188418
194	0x3eae8c4d	0.34091416
195	0x3e63550c	0.22200412
196	0x3e65f7ff	0.22457884
197	0xbd657b09	-0.05602554
198	0x3f23862f	0.6387662
199	0x3e0bfa72	0.13669756
200	0x3e60ec62	0.21965173
201	0xbe288996	-0.16458735
202	0xbf1443f9	-0.5791622
203	0xbe018a7f	-0.12650488
204	0x3e4b76cc	0.19869536
205	0x3e87c93e	0.26520723
206	0x3ec64a2c	0.38728464
207	0xbeb366a2	-0.3503924
208	0xbd9a9162	-0.07547261
209	0x3eb92712	0.3616262
210	0xbe5b7e33	-0.2143486
211	0xbecceeda	-0.4002598
212	0xbf014267	-0.50491947
213	0x3f22d0d4	0.63599896
214	0xbcde9806	-0.0271721
215	0x3e245037	0.16046225
216	0x3cbc0eb5	0.022956232
217	0xbe1ba893	-0.15201025
218	0x3f01a991	0.5064936
219	0xbed91f4e	-0.42406696
220	0xbe48f8f2	-0.19626215
221	0x3d06c29c	0.032900438
222	0xbdcdb465	-0.10044173
223	0xbef5acb6	-0.4798333
224	0xbdb32cd6	-0.08748786
225	0x3dd1f6f0	0.10252178
226	0x3e8ec637	0.278856
227	0x3e019081	0.1265278
228	0x3ec1cfe8	0.37853932
229	0x3dda9fbe	0.10675
230	0xbe8f43df	-0.2798147
231	0xbd7f34de	-0.062306277
232	0x3db1bc61	0.086785085
233	0xbed4f597	-0.4159362
234	0x3d86face	0.06590806
235	0x3ea31cba	0.31857854
236	0x3ec3f3df	0.38271996
237	0xbf19a9ea	-0.60024893
238	0x3e6ed3e0	0.23323011
239	0x3e88f709	0.26750973
240	0xbf113e26	-0.56735456
241	0xbd24c560	-0.040227294
242	0x3e72418a	0.23657814
243	0x3f0b6f44	0.5446665
244	0x3d779c26	0.06045165
245	0xbed6fb13	-0.4198843
246	0xbcd2e529	-0.025744038
247	0xbf6ab8e0	-0.91688347
248	0x3d0d3700	0.03447628
249	0xbf018483	-0.5059282
250	0x3ec2aab0	0.3802085
251	0x3ed57dad	0.41697446
252	0x3e445c34	0.19175798
253	0x3dc2978a	0.0950156
254	0x3e7d6466	0.2474533
255	0x3d90b9c0	0.07066679

0.bias f4 [64]
0	0xbe45c028	-0.19311583
1	0x3e88ade4	0.26695168
2	0x3dca143b	0.0986714
3	0x3e8bab24	0.27279007
4	0x3e985d54	0.29758704
5	0xbe97d12b	-0.2965177
6	0xbdc85fbb	-0.09783884
7	0xbe1d1dc3	-0.15343384
8	0x3e8ebfee	0.27880806
9	0x3ea93a92	0.33052498
10	0xbdf801c0	-0.12109709
11	0x3e880022	0.265626
12	0xbe40e668	-0.18837893
13	0x3e5a8f1e	0.21343657
14	0xbd9172a0	-0.07101941
15	0xbea8951e	-0.32926267
16	0x3e5487bb	0.20754902
17	0x3e948232	0.2900558
18	0x3d116a4b	0.03550176
19	0xbbec0f43	-0.007203968
20	0xbe931e52	-0.2873407
21	0xbd5007cb	-0.050788682
22	0xbdcf2b56	-0.101156875
23	0xbc8b3d86	-0.01699711
24	0xbc51323e	-0.012768326
25	0xbe344938	-0.17606056
26	0xbd9b60d0	-0.07586825
27	0xbdbdc0d6	-0.09265296
28	0xbda0ad20	-0.07845521
29	0xbe323896	-0.17404398
30	0xbc37fd65	-0.011229848
31	0x3d96ad66	0.07357292
32	0xbe885163	-0.26624593
33	0x3c2dcd28	0.010607995
34	0x3ea22a4f	0.31672904
35	0xbc71ccb8	-0.014758281
36	0x3e6431c3	0.22284608
37	0xbe928882	-0.28619772
38	0xbd922c60	-0.0713737
39	0x3e48b446	0.19600019
40	0xbe2fedc3	-0.17180543
41	0xbea29c5a	-0.31759912
42	0x3e4e9dab	0.20177333
43	0xbd57daa6	-0.052698754
44	0xbcf0a0dc	-0.029373579
45	0x3e75a536	0.23988804
46	0xbe8a82f4	-0.27053034
47	0xbdf01ad0	-0.11723864
48	0xbe23ad2b	-0.15984027
49	0x3dcf7f0b	0.101316534
50	0xbea2008e	-0.31641048
51	0xbda7e4e0	-0.08197951
52	0xbdf14480	-0.117806435
53	0xbe8251a2	-0.25452906
54	0x3c8dc0cd	0.017303849
55	0xbe115dd3	-0.14195947
56	0xbea3797e	-0.3192863
57	0xbe8dff60	-0.27733898
58	0x3e93e12b	0.28882727
59	0x3c80b0a6	0.015709233
60	0xbd626d60	-0.05528009
61	0xbeaa95e8	-0.33317494
62	0x3e7c4083	0.24633984
63	0xbe7dbf26	-0.24779949

1.weight f4 [64]
0	0x3f47a600	0.7798767
1	0x3f2c92aa	0.6741129
2	0x3f5b1a8d	0.8558739
3	0x3f4ba9e8	0.7955613
4	0x3f2fab8a	0.6862112
5	0x3f886c5b	1.0658067
6	0x3f9e4f15	1.2367884
7	0x3f222c50	0.63348866
8	0x3f986717	1.190646
9	0x3f940d51	1.1566564
10	0x3f80857d	1.0040737
11	0x3f8cc06e	1.0996225
12	0x3f6ce9dd	0.9254435
13	0x3f4cc38d	0.79985887
14	0x3f8b3a7d	1.0877224
15	0x3fa7655c	1.3077807
16	0x3f582920	0.8443775
17	0x3f89d794	1.0768914
18	0x3f26d913	0.6517498
19	0x3f233ccc	0.63764644
20	0x3f95bdbb	1.1698526
21	0x3f42d0bd	0.7609976
22	0x3f3bb528	0.733233
23	0x3f9c95b3	1.2233185
24	0x3f960610	1.17206
25	0x3f303a11	0.688386
26	0x3f6580bf	0.89649576
27	0x3fac3e14	1.3456445
28	0x3f2df6d5	0.6795476
29	0x3f86be97	1.0526913
30	0x3f753b88	0.9579396
31	0x3f976e95	1.1830622
32	0x3f524b8d	0.8214653
33	0x3f8e7e03	1.1132206
34	0x3f9ea41e	1.2393835
35	0x3f6a2636	0.91464555
36	0x3f89cc86	1.0765541
37	0x3fa65121	1.2993509
38	0x3f8818d6	1.0632579
39	0x3f8af20b	1.0855116
40	0x3fab80c4	1.3398671
41	0x3f904cda	1.1273453
42	0x3f6fbec4	0.9365046
43	0x3f61bfd7	0.8818335
44	0x3fa407bb	1.2814859
45	0x3f8ab7e7	1.0837373
46	0x3f9c8563	1.2228206
47	0x3f3ae6e2	0.7300855
48	0x3f832160	1.024456
49	0x3f313d90	0.6923456
50	0x3f26eca7	0.6520485
51	0x3f717ce4	0.9433119
52	0x3f58c917	0.8468184
53	0x3f2e42f9	0.6807094
54	0x3f814498	1.0099058
55	0x3fad418e	1.3535631
56	0x3fa6dbdc	1.3035846
57	0x3f940346	1.1563499
58	0x3f8cefd7	1.1010693
59	0x3f6ca725	0.9244254
60	0x3f9acfc0	1.209465
61	0x3f4c9933	0.79921263
62	0x3f7021d2	0.93801606
63	0x3f9d3696	1.2282283

1.bias f4 [64]
0	0xbd93cbde	-0.07216619
1	0xbe8e8b92	-0.2784086
2	0xbe1ae465	-0.15126188
3	0x3d84ca00	0.06483841
4	0xbe601737	-0.21883856
5	0x3ddecd87	0.10879045
6	0x3de1451d	0.109995104
7	0xbe90c523	-0.28275403
8	0x3c57293e	0.0131323915
9	0x3d9225ff	0.071361534
10	0xbe81d592	-0.25358254
11	0x3bc23948	0.0059272386
12	0xbe0f1a49	-0.1397487
13	0xbeaf4917	-0.3423545
14	0xbb4d08da	-0.0031285794
15	0x3e0f58eb	0.13998763
16	0xbccc5050	-0.02494064
17	0xbe9078f7	-0.2821729
18	0x3dff31bb	0.12460657
19	0xbe931e35	-0.28733984
20	0xbd157388	-0.036487132
21	0xbeb414ef	-0.3517222
22	0xbe9713c8	-0.2950728
23	0x3dfe2f2c	0.12411341
24	0xbdbd6b57	-0.09248989
25	0xbdd31a61	-0.10307766
26	0x3d2c7b7c	0.04210995
27	0x3e6a4b6c	0.22880334
28	0xbea686bb	-0.32524666
29	0xbd763124	-0.060105458
30	0xbddc1dc1	-0.107478626
31	0xbe8db4cb	-0.27676997
32	0xbda173fb	-0.0788345
33	0xbded8521	-0.11597658
34	0x3e5f803a	0.21826258
35	0xbdc54a07	-0.0963326
36	0x3e23c491	0.15992953
37	0x3dea4616	0.11439149
38	0xbccb3fac	-0.024810635
39	0x3e1206af	0.14260362
40	0x3e92e577	0.28690693
41	0x3a499e71	0.0007691151
42	0xbd480175	-0.048829515
43	0xbe27106a	-0.16314855
44	0xba32f850	-0.00068271626
45	0x3d38adf2	0.045087762
46	0x3d047836	0.032341205
47	0xbe732390	-0.23744035
48	0xbe785d3e	-0.24254319
49	0x3ddec73d	0.108778454
50	0xbe83e4ca	-0.2576049
51	0xbe51bd27	-0.20482312
52	0xbe94da92	-0.29073006
53	0xbe80f8ef	-0.2518992
54	0xbdeb3ab0	-0.11485803
55	0xbdd67f8c	-0.104735464
56	0xbd727156	-0.059190117
57	0x3db162fd	0.08661459
58	0xbd92cd23	-0.07168033
59	0xbdaa5881	-0.08317662
60	0xbe873ec9	-0.2641509
61	0xbec7aec9	-0.39000538
62	0xbdb6f255	-0.0893294
63	0x3d141278	0.036150426

3.weight f4 [64, 64, 4, 4]
0	0x3d77718f	0.060411032
1	0x3be302d3	0.006927827
2	0x3ca5a0ad	0.020218218
3	0xbd7cb15d	-0.061692584
4	0x3d58eaa3	0.052958142
5	0xb90ff0b0	-0.00013727206
6	0xbda86e7d	-0.08224199
7	0xbdb79693	-0.08964267
8	0xbd057545	-0.03258254
9	0xbd78aa39	-0.060709212
10	0xbdad64b7	-0.084664755
11	0xbde985de	-0.11402486
12	0x3d9cd513	0.07657828
13	0xbc1c941d	-0.009556797
14	0xbd9b5f06	-0.07586484
15	0xbde4399c	-0.111438006
16	0x3db07382	0.08615781
17	0xbc5e7d67	-0.013579703
18	0xbd09b25e	-0.03361737
19	0x3b04cdd1	0.0020264278
20	0x3c8e3bcc	0.017362498
21	0x3c97da47	0.0185367
22	0xbd96fa65	-0.07371978
23	0xbd9ebd00	-0.07750893
24	0xbcb397cf	-0.021922974
25	0xbd81f700	-0.0634594
26	0xbdcb8413	-0.099373005
27	0xbd91a3ef	-0.07111346
28	0xbd4f639f	-0.050632115
29	0xbd9a1069	-0.07522661
30	0xbd9f6863	-0.07783582
31	0xbd9b8760	-0.0759418
32	0xbd5f1b48	-0.054469377
33	0xbcd0d48d	-0.025491977
34	0xbddd590e	-0.108080015
35	0xbbec4746	-0.007210645
36	0xbd68ba3d	-0.056818236
37	0xbd87d99a	-0.06633301
38	0xbd5a1d6e	-0.053250723
39	0xbdaad7bb	-0.083419286
40	0xbdc10471	-0.09424675
41	0xbd79a339	-0.060946677
42	0xbd88a131	-0.0667137
43	0xbdb17c4f	-0.08666288
44	0xbc0b0784	-0.008485679
45	0x3abb51a7	0.0014291302
46	0xbc446d27	-0.011988915
47	0xbdbe5789	-0.0929404
48	0x3d06d955	0.032922108
49	0x3d1ef027	0.038803246
50	0xbd0e7ff3	-0.03478999
51	0xbc78dd59	-0.015189492
52	0x3be854a7	0.0070901695
53	0xbcb9815c	-0.022644691
54	0xbd2382af	-0.03991955
55	0xbdd67728	-0.10471946
56	0xbc95c7d6	-0.018283766
57	0xbd2370bc	-0.039902434
58	0xbde35953	-0.111010216
59	0xbdb35336	-0.087561056
60	0x3ddb4096	0.10705678
61	0x3d1090f9	0.035294507
62	0xbb585eee	-0.0033015567
63	0xbdb4bd2a	-0.08825143
64	0x3e14c84c	0.14529532
65	0x3da21675	0.079144396
66	0x3dabbf26	0.08386068
67	0x3c13fecc	0.009032916
68	0x3d01ea54	0.031717613
69	0x3d744455	0.05963548
70	0xbd98dd1c	-0.07464048
71	0xbd4947cd	-0.04914074
72	0xbd759cb8	-0.05996391
73	0xbd833d91	-0.06408227
74	0xbdda27db	-0.10652133
75	0xbd3fecc4	-0.046856657
76	0xbd9e855f	-0.07740282
77	0xbd8b6241	-0.0680585
78	0xbda688a4	-0.08131531
79	0xbd1122dd	-0.03543364
80	0x3d1a9548	0.037740022
81	0xbc60f0af	-0.013729258
82	0x3c3419dd	0.010992494
83	0xbd41e8ab	-0.04734103
84	0xbbff5b5e	-0.0077928742
85	0xbcf34636	-0.029696565
86	0x3cedd5d7	0.02903263
87	0x3cbe69d5	0.023243824
88	0xbcb376e5	-0.02190728
89	0xbd03a963	-0.03214396
90	0x3b9d4cf8	0.004800435
91	0xbcc72f60	-0.024314582
92	0xbd9c051f	-0.07618164
93	0xbd6058c8	-0.05477217
94	0xbc048f7a	-0.008090848
95	0x3c6d0c34	0.0144682415
96	0xbbb73286	-0.0055907397
97	0xbc58e4e1	-0.013238163
98	0xbd122d09	-0.03568748
99	0xbd571fba	-0.05252049
100	0xbc40eeb0	-0.011775658
101	0xbb738ead	-0.0037163899
102	0xbd0194ff	-0.031636234
103	0xbd1d5c68	-0.038418204
104	0xbc403f6f	-0.011733874
105	0xbbc83f03	-0.006111027
106	0x3b9ffeaf	0.0048826556
107	0xbd72dd68	-0.05929318
108	0xbaaecadd	-0.0013335604
109	0x3b89d0e5	0.0042058104
110	0xbca274ab	-0.019831022
111	0xbdf53503	-0.11973002
112	0x3c3b0c92	0.011416571
113	0xbc5d9d9d	-0.0135263475
114	0xbcb5abf0	-0.022176713
115	0xbd007296	-0.031359278
116	0x3cd2c40d	0.02572825
117	0xbd16516f	-0.036698755
118	0xbc2fe271	-0.01073514
119	0xbd914dad	-0.070948936
120	0xbd52c8e5	-0.05146112
121	0xbd465223	-0.048418175
122	0xbdae1f54	-0.08502069
123	0xbd9549f9	-0.072895
124	0xbce2da75	-0.027692059
125	0xbce11158	-0.02747409
126	0xbd4eb008	-0.050460845
127	0xbde35e44	-0.11101964
128	0xbd6791bc	-0.056535468
129	0xbd0935da	-0.033498622
130	0xbd12c046	-0.035827897
131	0xbd5b4908	-0.053536445
132	0xbc17d8f1	-0.009268031
133	0xbb375bd4	-0.0027978318
134	0xbcee7b29	-0.029111462
135	0xbccfc4b6	-0.025362354
136	0x3c807a57	0.015683336
137	0xbb08f1ed	-0.0020896152
138	0xba5f6055	-0.00085211295
139	0xbd327537	-0.043568816
140	0x3cbd9191	0.0231407
141	0xbc0c3ebd	-0.00855988
142	0xbbfe892d	-0.0077678175
143	0xbd478545	-0.04871108
144	0x3e0de7b7	0.13857923
145	0x3d98c4b3	0.074593924
146	0x3d170927	0.036873963
147	0xbbe32d81	-0.0069329147
148	0x3d913dbf	0.07091855
149	0x3d670f87	0.056411292
150	0x3d553c0d	0.052059222
151	0xbc7346c6	-0.014848417
152	0x3c97f828	0.018550947
153	0x3cd65b2e	0.026166525
154	0xbb1bd5cc	-0.0023778556
155	0xbb35858f	-0.0027698015
156	0xbd06ea43	-0.032938253
157	0x3aca53db	0.0015436368
158	0x3b328a2c	0.0027243001
159	0x3d21980c	0.039451644
160	0xbdfbda92	-0.12297548
161	0xbd03ae22	-0.032148488
162	0xbd6cabd9	-0.057781074
163	0xbd2cc9c6	-0.042184614
164	0xbd8d2bca	-0.06893118
165	0xbd2f8548	-0.042851716
166	0xbc32d055	-0.010913928
167	0xbdca75b5	-0.09885732
168	0xbda94d9f	-0.08266758
169	0xbd91fa27	-0.07127791
170	0xbcb38a46	-0.02191652
171	0xbd7922cd	-0.060824204
172	0x3ce2cabd	0.027684564
173	0xbcd90c44	-0.026495107
174	0xbccfdec3	-0.025374776
175	0xbd86cc82	-0.065819755
176	0xbd63a40b	-0.055576365
177	0xbcb0afc8	-0.021568194
178	0xbd06d673	-0.03291936
179	0xbbf84fdc	-0.0075778794
180	0xbbee2308	-0.0072673596
181	0x3d3ee290	0.046602786
182	0x3caa5617	0.020793004
183	0x3cd2d1b4	0.02573476
184	0x3cc54ba2	0.024083916
185	0x3d4f910c	0.050675437
186	0x3d4ebd79	0.050473664
187	0x3ce1fb5b	0.027585676
188	0x3d17b197	0.037034597
189	0x3c572422	0.013131173
190	0x3d3915a2	0.045186646
191	0x3d02e17f	0.03195333
192	0xbc3738f5	-0.011183013
193	0xbd111505	-0.035420436
194	0x3d027629	0.031850968
195	0x3d1fee04	0.03904535
196	0x3c5b15e0	0.013371915
197	0xbcbfe043	-0.023422366
198	0xbcc18685	-0.023623714
199	0xbd328911	-0.043587748
200	0xbc8b48e1	-0.017002525
201	0x3c6af031	0.014339493
202	0xbcd14c5c	-0.025549106
203	0xbd1196b9	-0.03554413
204	0x3ca2ff4c	0.019897126
205	0x3ce56fb3	0.028007364
206	0xbd052d48	-0.032513887
207	0xbd1c1ab7	-0.038111415
208	0x3dbfe823	0.093704484
209	0x3d65ee2e	0.05613535
210	0xbbe39de0	-0.0069463104
211	0x3c7641d8	0.015030347
212	0x3da8c1f2	0.08240117
213	0x3cab65d3	0.020922577
214	0xbd1db886	-0.038506053
215	0xbda51801	-0.08061219
216	0x3d9a05eb	0.0752066
217	0x3cd198a3	0.025585478
218	0xbd3ecf6c	-0.04658453
219	0xbd2174c6	-0.039418004
220	0x3d9476bf	0.072492115
221	0x3d4e0601	0.050298695
222	0x3b426db7	0.0029667446
223	0xbd9e1db2	-0.07720508
224	0xbdb2042e	-0.086922035
225	0xbd4741f1	-0.04864687
226	0x3c13c87d	0.009019968
227	0xbc2d3391	-0.010571376
228	0x3cc6d6fe	0.024272438
229	0x3cb254c3	0.021768933
230	0x3d8121b2	0.06305255
231	0x3c507c9b	0.012725021
232	0x3d49e7e5	0.049293417
233	0x3d6dc2e3	0.058047187
234	0x3d51f334	0.051257327
235	0x3ca5e2a4	0.020249672
236	0x3cd18f2c	0.025580965
237	0xbbb6ed7b	-0.005582509
238	0x3bfae33e	0.007656484
239	0x3ce43306	0.027856361
240	0x3d4043db	0.046939712
241	0xbc33374c	-0.010938477
242	0xbd5dc6e8	-0.05414477
243	0xbd813ace	-0.06310044
244	0xbd56c5a2	-0.05243457
245	0xbda5a01c	-0.08087179
246	0xbd80dd5c	-0.06292221
247	0x3b365252	0.0027820063
248	0xbe00712f	-0.12543176
249	0xbddf4b69	-0.10903055
250	0xbd7aa818	-0.061195463
251	0xbcb02e84	-0.021506555
252	0xbe30c283	-0.172617
253	0xbd8292d2	-0.0637566
254	0xbd90027f	-0.07031726
255	0xbb1be828	-0.00237895

3.bias f4 [64]
0	0x3b5fe260	0.003416203
1	0x3c1c7118	0.009548448
2	0xbcb9ee6c	-0.022696696
3	0xbc8d46fe	-0.017245766
4	0xbbd21f68	-0.0064124353
5	0xbbfd3f48	-0.007728491
6	0x3ca5bbc0	0.020231128
7	0x3adce855	0.0016853908
8	0x3a3d436b	0.0007219824
9	0xbcb038e4	-0.021511503
10	0xbc8bfa64	-0.017087169
11	0x3cca03ce	0.024660017
12	0x3cd535d0	0.026026636
13	0xbcf6b2bc	-0.030114524
14	0x3bbd5b98	0.005778741
15	0xbad10539	-0.0015946991
16	0xbccf8b46	-0.025334965
17	0x3cd3918a	0.025826234
18	0x3ce82b7c	0.028341047
19	0x3c1b2854	0.009470064
20	0x3a9b78cb	0.0011861561
21	0x3b96ea10	0.004605539
22	0x3c850784	0.016238935
23	0x3c3d7370	0.011563167
24	0xbce3b9d8	-0.027798578
25	0x3c69b120	0.014263421
26	0x39e09d0b	0.00042841616
27	0xbcaa783a	-0.020809282
28	0xbcfe5bac	-0.031049572
29	0xbc504b94	-0.012713332
30	0xba937201	-0.0011249186
31	0xbcbdf76e	-0.023189273
32	0x3bb5d9c0	0.0055496395
33	0xbcaeba8a	-0.021329183
34	0x3c9e803c	0.019348256
35	0xbcbc02fa	-0.022950638
36	0x3ba1a600	0.004933119
37	0x3baabdb8	0.0052106045
38	0xbc8d9a4c	-0.017285489
39	0x3c06327c	0.008190747
40	0xbc0b1918	-0.00848987
41	0xbcc79c34	-0.024366476
42	0xbceab6c4	-0.028651603
43	0xbc3747f0	-0.011186585
44	0x3b0327b6	0.0020012683
45	0x3bb315c8	0.005465243
46	0xbb4a8864	-0.003090405
47	0x3cee3470	0.029077739
48	0xbb753ff2	-0.0037422148
49	0xbcad8926	-0.021183562
50	0x3c8ef69e	0.01745158
51	0x3ce613ca	0.028085608
52	0x3c43dad0	0.011954024
53	0x3c436f18	0.011928342
54	0xbc93b234	-0.01802931
55	0xbc847f4e	-0.016173985
56	0x39b82cf1	0.000351287
57	0xbc8dcedc	-0.017310552
58	0xba59ef54	-0.0008313556
59	0xbabfd614	-0.0014635944
60	0xbcdce6d4	-0.026965536
61	0x3cbcf4e8	0.023066
62	0xbcc84802	-0.024448399
63	0xbcc733be	-0.024316665

4.weight f4 [64]
0	0x3f32451f	0.6963672
1	0x3f47e4b7	0.78083366
2	0x3edd12ad	0.4317831
3	0x3f173f4e	0.5908097
4	0x3f17798c	0.5916984
5	0x3eb5687c	0.35431278
6	0x3ef20f4a	0.4727729
7	0x3f2b42d1	0.6689883
8	0x3f1cfa9c	0.613199
9	0x3f24abf9	0.6432491
10	0x3ec0cfc8	0.37658525
11	0x3f24d4e7	0.64387363
12	0x3ebcfb54	0.36910498
13	0x3ea73933	0.32660827
14	0x3f1b5a9d	0.6068514
15	0x3f2b2fa9	0.668696
16	0x3f156aba	0.58365977
17	0x3ec5c99f	0.38630387
18	0x3e9ed427	0.31021234
19	0x3f2a777c	0.6658857
20	0x3eaf50e8	0.34241414
21	0x3f1f0b19	0.6212631
22	0x3f14cb87	0.5812306
23	0x3f298e04	0.66232324
24	0x3f3d3b77	0.7391886
25	0x3f32237e	0.69585407
26	0x3f22a895	0.63538486
27	0x3f3045e9	0.68856674
28	0x3f2d497e	0.67690265
29	0x3f1c3636	0.6102022
30	0x3ecbd3cf	0.39810035
31	0x3f153ee1	0.5829907
32	0x3e974965	0.29548183
33	0x3f18345a	0.5945488
34	0x3f1ee60b	0.6206977
35	0x3f19a394	0.60015225
36	0x3eee2175	0.465099
37	0x3ef2b909	0.47406796
38	0x3ed34a92	0.4126783
39	0x3e9dd026	0.30822867
40	0x3f11c054	0.56934094
41	0x3ed122d2	0.40846878
42	0x3eef19eb	0.4669946
43	0x3eecad49	0.46225956
44	0x3f1db1df	0.61599535
45	0x3ebf3491	0.37344792
46	0x3f1cd45f	0.6126155
47	0x3f028ef8	0.50999403
48	0x3ed711ba	0.42005712
49	0x3f150aac	0.5821941
50	0x3f4462d6	0.7671331
51	0x3f27813a	0.6543156
52	0x3f2ff1f0	0.6872854
53	0x3f285987	0.6576161
54	0x3f298860	0.66223717
55	0x3f0771be	0.5290793
56	0x3f2a7b8b	0.6659476
57	0x3ecace80	0.39610672
58	0x3f21ecc6	0.6325191
59	0x3f2d3f0a	0.67674315
60	0x3f4340fe	0.76271045
61	0x3f638f47	0.888905
62	0x3ec5101c	0.38488853
63	0x3eef2b48	0.46712708

4.bias f4 [64]
0	0xbea928e8	-0.33039021
1	0xbe984acb	-0.29744563
2	0xbee881ff	-0.4541168
3	0xbd917ce6	-0.071039006
4	0xbea8a3a6	-0.32937354
5	0xbee97b6c	-0.45601976
6	0xbea8020e	-0.32814068
7	0xbed69ea7	-0.41917917
8	0xbed48101	-0.41504672
9	0xbe560ae3	-0.2090259
10	0xbed883ff	-0.42288205
11	0xbebaaf25	-0.3646175
12	0xbee383bb	-0.4443644
13	0xbf20e124	-0.6284354
14	0xbf08c554	-0.534261
15	0xbd525afc	-0.0513563
16	0xbe0a0aad	-0.13480635
17	0xbea1ed8c	-0.31626546
18	0xbebdfd88	-0.37107491
19	0xbe486bb0	-0.1957233
20	0xbf3e6706	-0.7437595
21	0xbe753e96	-0.23949656
22	0xbe39dadc	-0.18149894
23	0xbe8ab83d	-0.27093688
24	0xbe8be8c8	-0.27326035
25	0xbe9743d1	-0.29543927
26	0xbeb64540	-0.3559971
27	0xbe3dbe7f	-0.185297
28	0xbe88a2bd	-0.2668666
29	0xbe0e410a	-0.13891998
30	0xbf6d8136	-0.92775285
31	0xbe800f1e	-0.25011533
32	0xbeca71bd	-0.395399
33	0xbdd8aff9	-0.10580439
34	0xbe93c831	-0.2886367
35	0xbe9806a8	-0.29692578
36	0xbec33df1	-0.38133195
37	0x3dc944fd	0.098276116
38	0xbebceae2	-0.3689795
39	0xbf0ecb99	-0.55779415
40	0xbcb2c9e5	-0.021824786
41	0xbf443801	-0.76647955
42	0xbef222fa	-0.4729231
43	0xbf6996ef	-0.9124593
44	0xbdcfa95e	-0.10139726
45	0xbf2e54c2	-0.6809808
46	0xbe553863	-0.20822291
47	0xbe2d2980	-0.16910362
48	0xbf022749	-0.50841194
49	0xbea92cce	-0.33041996
50	0xbeaa8420	-0.33303928
51	0xbe60a9aa	-0.21939722
52	0xbeabecfb	-0.3357924
53	0xbe887ebc	-0.2665919
54	0xbe57e68a	-0.21084037
55	0xbecb3168	-0.3968613
56	0xbe414da7	-0.18877278
57	0xbf45ce5d	-0.7726801
58	0xbc123650	-0.008924082
59	0xbe83efd8	-0.25768924
60	0xbeb2e6bd	-0.34941664
61	0xbeee52b8	-0.46547484
62	0xbf2dd00b	-0.67895573
63	0xbf6a04bd	-0.9141348

6.weight f4 [64, 64, 4, 4]
0	0xbd6b03c4	-0.057376638
1	0xbdae89f1	-0.08522404
2	0xbce5a56c	-0.02803298
3	0xba8c3d26	-0.0010699376
4	0xbd087b7c	-0.03332089
5	0xbd1919cc	-0.037378117
6	0xbd025b9b	-0.031825643
7	0x3d109773	0.035300683
8	0xbdbf5fac	-0.0934442
9	0xbc709813	-0.014684695
10	0xbd94fcba	-0.07274766
11	0xbc87d03a	-0.016578782
12	0xbe0524d0	-0.13002324
13	0xbde2b891	-0.110703595
14	0xbe0efd69	-0.13963856
15	0xbd93c42d	-0.07215152
16	0x3d1e1eb7	0.03860351
17	0x3ca0aba9	0.019613104
18	0xbc49b46c	-0.012311082
19	0xbdc52a2d	-0.09627185
20	0xbc3e87f4	-0.011629093
21	0x3cf7b6ea	0.030238587
22	0x3c025042	0.007953705
23	0x3cb418a5	0.021984408
24	0x3ceba76e	0.02876636
25	0x3c0b22a7	0.0084921485
26	0xbbbf3f75	-0.005836422
27	0xbbf71a8c	-0.0075410064
28	0x3d822114	0.063539654
29	0x3cfe7840	0.031063199
30	0xbd664b69	-0.05622426
31	0xbd8c2944	-0.06843808
32	0xbbe8f531	-0.007109307
33	0xbba6b09a	-0.0050869705
34	0x3b80fdba	0.0039364966
35	0xbc8cea43	-0.017201548
36	0x3c395414	0.01131155
37	0x3cf2ea52	0.029652748
38	0xbd0e3e5e	-0.034727447
39	0x3d8caccd	0.06868897
40	0xbc777a77	-0.0151048815
41	0x3c75b438	0.014996581
42	0x3dbcad91	0.09212793
43	0x3ddf3510	0.10898793
44	0xbca5c789	-0.020236747
45	0xbcfd07a7	-0.030887438
46	0x3dccbb68	0.099966824
47	0x3d7d03a2	0.061771043
48	0xbd925cf7	-0.07146638
49	0xbd5070a6	-0.05088868
50	0xbd8a0da6	-0.067408845
51	0xbce06b5d	-0.027394945
52	0x3d97a269	0.07404024
53	0xbd9d61bc	-0.07684657
54	0xbd793def	-0.06085008
55	0xbd6b3be5	-0.057430167
56	0xbd928ae5	-0.07155398
57	0xbb69b8a3	-0.003566303
58	0xbdb7238c	-0.08942327
59	0xbc84ec4d	-0.016225958
60	0xbdaf2e4b	-0.085537516
61	0xbe0a3262	-0.13495782
62	0xbbbc50f7	-0.0057469564
63	0x3d8f9615	0.07011048
64	0xbd9b7aa4	-0.07591751
65	0xbcec07e9	-0.028812366
66	0x3b5f1f8a	0.0034045898
67	0x3d1813bb	0.03712819
68	0x3d37dc0a	0.04488758
69	0x3d1f9ebb	0.038969737
70	0x3d680d66	0.056653403
71	0x3dff7d8d	0.12475119
72	0xbd4f42f8	-0.050600976
73	0x3cb7d255	0.022439161
74	0x3dba2232	0.090885535
75	0x3d800419	0.062507816
76	0xbd6441c3	-0.055726778
77	0xbd4a384a	-0.049370088
78	0xbca47a9c	-0.020077996
79	0x3c4d3fdb	0.012527431
80	0xbe1539ac	-0.14572781
81	0xbdfdf7f7	-0.12400811
82	0xbdc12869	-0.09431536
83	0xbe1948c6	-0.14969167
84	0xbdc3d1d6	-0.095615074
85	0xbde73485	-0.11289314
86	0xbe0dbb40	-0.13840961
87	0xbe15882c	-0.14602727
88	0xbc84d1ba	-0.016213287
89	0x3cad5ed0	0.021163374
90	0xbdac36ba	-0.08408876
91	0xbdc2d385	-0.095130004
92	0xbd3d48a1	-0.046211842
93	0x3de2cde0	0.11074424
94	0x3d2c0b19	0.04200277
95	0x3e005567	0.12532578
96	0xbd44b11f	-0.04802048
97	0xbcdd9a4f	-0.02705112
98	0x3c6bed53	0.014399844
99	0x3c713d93	0.014724153
100	0xbe0490f2	-0.12945917
101	0xbdc29250	-0.09500563
102	0xbaf6321b	-0.0018783243
103	0xbbb7adf8	-0.0056054555
104	0xbd7401af	-0.059571918
105	0xbc069c56	-0.008215984
106	0xbd477184	-0.04869224
107	0xbe29e752	-0.16592148
108	0xbde367dc	-0.11103794
109	0xbdf0bae4	-0.117543966
110	0xbe1c3148	-0.15253174
111	0xbe32aa8a	-0.17447868
112	0xbc48e2f6	-0.012261143
113	0xbd1ec5b2	-0.038762756
114	0xbce3ff4f	-0.027831702
115	0x3c8068c2	0.015674952
116	0xbcfba57e	-0.030718561
117	0xbca98f09	-0.020698087
118	0x3b9f9541	0.0048700874
119	0x3b0493cd	0.0020229698
120	0xbca1a7d1	-0.019733341
121	0xbcb0173c	-0.021495454
122	0xbce87f11	-0.028380902
123	0xbd365413	-0.044513773
124	0xbcb0df34	-0.021590807
125	0xbdad4068	-0.0845955
126	0xbddd6750	-0.10810721
127	0xbd8d1a15	-0.068897404
128	0xbd952480	-0.072823524
129	0xbb906a47	-0.0044072005
130	0x3d3b67ed	0.04575341
131	0x3c1ccb0c	0.0095698945
132	0xbc89f8a5	-0.016842196
133	0xbd3cfc9b	-0.04613934
134	0xbb41d123	-0.0029574118
135	0x3d40c3d3	0.047061753
136	0x3c1e9572	0.009679185
137	0xbd563857	-0.052299824
138	0xbce4e73e	-0.027942296
139	0x3acdd18f	0.0015702712
140	0xbd57fedd	-0.05273329
141	0xbd28b341	-0.041186575
142	0x3d6a0d64	0.057141677
143	0x3d495b56	0.04915937
144	0xbd5b23d5	-0.05350097
145	0x3ce54acf	0.027989773
146	0x3c8a57b0	0.016887516
147	0x3d194dd9	0.037427757
148	0xbd81ef23	-0.0634444
149	0xbcd58c42	-0.026067857
150	0xbc39bb39	-0.011336141
151	0xbb09fcbd	-0.0021055185
152	0xbd095e32	-0.033537097
153	0xbd552b74	-0.052043393
154	0x3b4e3c70	0.003146913
155	0xbb080c68	-0.0020759348
156	0xbc9c2618	-0.019061133
157	0xbd0b0163	-0.03393687
158	0xbd404068	-0.046936423
159	0xbd7a1256	-0.061052643
160	0x3cd93b21	0.026517453
161	0x3ce02add	0.027364189
162	0x3d9b8f82	0.07595731
163	0xbd3a7cfb	-0.045529347
164	0xbe120431	-0.14259411
165	0xbdfa0c57	-0.12209385
166	0xbcc2e6ee	-0.023791756
167	0xbe1939d4	-0.14963466
168	0x3d22d442	0.039753206
169	0xbc7d2707	-0.015451199
170	0xbde42e8a	-0.11141689
171	0xbe1fda62	-0.1561065
172	0x3c53cbed	0.012927038
173	0x3c16d00c	0.009204876
174	0xbd1865c6	-0.037206434
175	0x3b598c59	0.0033195226
176	0xbc122293	-0.008919376
177	0xbbd81663	-0.0065944656
178	0xbd38e12d	-0.04513662
179	0x3c80a77e	0.015704866
180	0xbd1a6ee7	-0.03770342
181	0xbd048fbc	-0.03236364
182	0x3c3a2b13	0.011362809
183	0x3dacd594	0.08439174
184	0x3ce7e2a1	0.028306307
185	0xbc45d950	-0.012075737
186	0x3cefc45c	0.029268436
187	0x3c9ea535	0.019365886
188	0xbcd2de86	-0.025740873
189	0xbd3d8f88	-0.04627946
190	0x3d9c0246	0.07617621
191	0x3c2e5612	0.010640638
192	0xbac631bf	-0.0015121027
193	0xbd5ddedf	-0.054167625
194	0xbd52a52d	-0.051427055
195	0xbc6f5746	-0.01460821
196	0x3d7f66a5	0.06235375
197	0x3c9be82e	0.01903161
198	0xbd92255b	-0.07136031
199	0xbd97a174	-0.074038416
200	0x3ddec58b	0.10877522
201	0xbd4ac733	-0.049506377
202	0xbde291eb	-0.11062988
203	0xbdca094f	-0.09865057
204	0xbd54ce58	-0.051954597
205	0xbd52d1ae	-0.051469497
206	0xbd7764f4	-0.06039901
207	0x3d99d9fc	0.0751228
208	0xbd08c1ff	-0.033388134
209	0xbd9d0435	-0.07666818
210	0x3d2f273c	0.042762026
211	0x3c86f0c9	0.016472237
212	0xbcdbef6f	-0.02684757
213	0x3cc07762	0.023494426
214	0x3ce39f05	0.027785787
215	0x3d2469c8	0.040139943
216	0xbd265dbd	-0.04061674
217	0x3d16547a	0.036701657
218	0xbcaa01d5	-0.020752827
219	0x3b28e004	0.002576829
220	0xbcb8d6a8	-0.022563294
221	0x3bbb3aa1	0.005713776
222	0xbc3f6a09	-0.011682996
223	0xbd984e89	-0.074368544
224	0x3c3ffba9	0.011717715
225	0xbb4fc13a	-0.0031700865
226	0x3c978eee	0.018500771
227	0xbd48426a	-0.048891462
228	0x3e49a91d	0.19693418
229	0x3ddf1242	0.10892154
230	0x3d676c8f	0.056500014
231	0x3d991aba	0.07475801
232	0x3e18a895	0.14908059
233	0x3cf3f0f0	0.029777974
234	0xbaf35046	-0.0018563352
235	0x3cbebbcd	0.02328291
236	0x3bd17f8b	0.006393378
237	0xbd329974	-0.043603376
238	0xbd3097ee	-0.04311364
239	0x3d5110c6	0.051041387
240	0xbde1bb0d	-0.11022005
241	0x3d9068d9	0.07051248
242	0x3b75fe57	0.0037535632
243	0xbde145c8	-0.10999638
244	0xbba89a22	-0.005145327
245	0xbcf0b314	-0.029382266
246	0xbdb6d8d5	-0.08928076
247	0xbe000b8e	-0.12504408
248	0xbdcd04d3	-0.10010686
249	0xbde49478	-0.11161131
250	0xbdf7432e	-0.120733604
251	0xbd4ea319	-0.05044851
252	0xbe2006aa	-0.15627542
253	0xbd4df3e7	-0.05028143
254	0xbd4a9381	-0.049457077
255	0xbd92cf46	-0.071684405

6.bias f4 [64]
0	0x3c5d1eff	0.01349616
1	0x3c6cb434	0.014447261
2	0xbb23a86d	-0.0024972216
3	0xbc951605	-0.018198976
4	0xbd00f171	-0.031480256
5	0xbc4975de	-0.012296168
6	0xbbb6ad30	-0.005574845
7	0x3c3c81a2	0.011505516
8	0xbbac38b7	-0.0052557844
9	0x3c43c07b	0.011947746
10	0x3cad45d2	0.021151457
11	0xbc9e1763	-0.019298261
12	0xbcf64b2f	-0.030065147
13	0x3d00cd0c	0.031445548
14	0xbc1e48e8	-0.009660937
15	0x3ca5e3c2	0.020250205
16	0x3c30adab	0.010783593
17	0xbc2a14c5	-0.010380928
18	0x3cf18ca6	0.029486012
19	0xbc253231	-0.010082767
20	0x3ca508e1	0.020145835
21	0xbca21be8	-0.019788697
22	0xbc1edcb8	-0.009696178
23	0xbb6bb746	-0.0035967394
24	0xbbd71683	-0.006563963
25	0xbce86ebb	-0.028373113
26	0xbc19e30c	-0.009392511
27	0xba852c15	-0.0010160232
28	0x3b950fa8	0.0045489855
29	0xbc677857	-0.014127812
30	0x3cba656e	0.022753444
31	0xbbf835e5	-0.007574784
32	0x390b96e6	0.00013312287
33	0x3cd9b502	0.026575569
34	0x3cdac9ed	0.026707614
35	0x3a22ba99	0.0006207615
36	0xbcf7dda9	-0.030257063
37	0x3bac18a5	0.0052519613
38	0x3d019be0	0.031642795
39	0x3a67a410	0.0008836398
40	0x3cde207d	0.027115101
41	0x3c16e713	0.009210366
42	0xbbbb17f6	-0.0057096435
43	0x3b60fa7e	0.0034328992
44	0x3c6ca958	0.014444672
45	0xbbf1442a	-0.007362862
46	0x38da15ab	0.00010399086
47	0xbbef1b97	-0.00729699
48	0x3cb7434c	0.022370957
49	0xbcad6a7c	-0.02116894
50	0xbc92ad72	-0.01790497
51	0x3a4c51da	0.0007794179
52	0x3c9e1ab0	0.019299835
53	0xbb9ac404	-0.004723074
54	0x3cf45424	0.029825278
55	0xbc0598f3	-0.008154142
56	0xbcdcdc79	-0.026960598
57	0xbcfcafb7	-0.030845506
58	0x3c9f188c	0.019420885
59	0xbc3e8975	-0.011629452
60	0x3c8f365a	0.017481972
61	0x3cb7f2c8	0.022454634
62	0xbcf7a6cc	-0.030230902
63	0xbbcc7985	-0.006240072

7.odefunc.norm1.weight f4 [65]
0	0x3f965d85	1.174729
1	0x3f811e8c	1.0087447
2	0x3f5cf91e	0.8631762
3	0x3f9e1fa5	1.2353407
4	0x3f581ad5	0.8441594
5	0x3f8cd9ca	1.1003964
6	0x3fa1d49c	1.2643008
7	0x3f7cb534	0.98713994
8	0x3f6a8a49	0.91617256
9	0x3f887bc4	1.066277
10	0x3f8c0951	1.0940343
11	0x3f42483f	0.7589149
12	0x3fa1bf33	1.2636474
13	0x3f943c06	1.1580818
14	0x3f5f1c70	0.8715277
15	0x3f98866c	1.1916022
16	0x3f863604	1.0485234
17	0x3f91f0e4	1.1401639
18	0x3f981cd9	1.1883804
19	0x3f9d417d	1.228561
20	0x3f810e39	1.0082465
21	0x3f4ab617	0.791841
22	0x3f6ae397	0.91753525
23	0x3f5cb26d	0.86209756
24	0x3f9e3809	1.236085
25	0x3f5849b3	0.84487456
26	0x3f8bc2ea	1.0918858
27	0x3f72ba4e	0.9481553
28	0x3fa30e69	1.2738773
29	0x3f57744d	0.84161836
30	0x3f96bd64	1.1776547
31	0x3f9a5787	1.2057961
32	0x3f782429	0.96930176
33	0x3f80f966	1.007611
34	0x3f89c617	1.0763577
35	0x3f930ada	1.1487687
36	0x3f8db2b7	1.1070164
37	0x3fa23e3a	1.267524
38	0x3f7fd25a	0.99930346
39	0x3fa1b095	1.2632014
40	0x3f9eeac1	1.2415391
41	0x3f9720c1	1.1806871
42	0x3f48126c	0.7815311
43	0x3f67eef6	0.90599
44	0x3f6246f5	0.8838952
45	0x3f733cc6	0.9501461
46	0x3f9eef8f	1.2416857
47	0x3f9a83fb	1.2071527
48	0x3f661ecf	0.8989076
49	0x3f61e016	0.88232553
50	0x3f6004a3	0.87507075
51	0x3f51e1f6	0.81985414
52	0x3f4e0606	0.8047794
53	0x3f442e4c	0.76633143
54	0x3f88e34e	1.0694368
55	0x3f40b879	0.7528148
56	0x3f9e7aa2	1.2381175
57	0x3f883b35	1.0643069
58	0x3f9d3cf7	1.228423
59	0x3f9c812a	1.2226918
60	0x3f898d6f	1.0746287
61	0x3f9c223b	1.2197946
62	0x3f615d17	0.8803267
63	0x3f8fa588	1.1222391
64	0x3f825d5f	1.0184745

7.odefunc.norm1.bias f4 [65]
0	0xbe0e6f44	-0.13909632
1	0xbf1132c6	-0.567181
2	0xbf235ab3	-0.6381027
3	0xbe68971f	-0.22713898
4	0xbf446653	-0.76718634
5	0xbea33cba	-0.31882268
6	0xbe82b877	-0.2553136
7	0xbf457e32	-0.77145684
8	0xbe724100	-0.23657608
9	0xbe983b37	-0.29732677
10	0xbf1a3ad4	-0.60246015
11	0xbef964f8	-0.48709846
12	0xbec8c7d2	-0.3921495
13	0xbdad999e	-0.08476566
14	0xbf5132d2	-0.8171817
15	0xbe292caa	-0.16520944
16	0xbf2134cd	-0.6297119
17	0xbe95e174	-0.2927357
18	0xbf084cb9	-0.5324207
19	0xbea37c02	-0.31930548
20	0xbe9cdde9	-0.30638054
21	0xbf263453	-0.6492359
22	0xbf59d6ad	-0.85093194
23	0xbefb1bc1	-0.49044612
24	0xbe67d368	-0.22639239
25	0xbeedaf24	-0.46422684
26	0xbe52f43e	-0.20600984
27	0xbf439967	-0.7640595
28	0xbe5807e0	-0.21096754
29	0xbf118fca	-0.5686003
30	0xbe64bbaf	-0.2233722
31	0xbefca1de	-0.49342245
32	0xbf226f88	-0.63451433
33	0xbebe5fbd	-0.37182418
34	0xbea18950	-0.31550074
35	0xbe5f7c94	-0.21824867
36	0xbe450934	-0.19241792
37	0xbe9da3f8	-0.3078916
38	0xbe89d161	-0.26917556
39	0xbf001d77	-0.5004496
40	0xbeac47ef	-0.3364863
41	0xbdfd8f72	-0.12380876
42	0xbf10ac1f	-0.56512636
43	0xbf0409b7	-0.51577324
44	0xbf3c89b4	-0.7364762
45	0xbf2f6835	-0.6851838
46	0xbe3f7a2c	-0.18698949
47	0xbeb15854	-0.34637702
48	0xbf3deaeb	-0.7418658
49	0xbf1f40da	-0.6220833
50	0xbef36f59	-0.4754589
51	0xbec24eed	-0.3795084
52	0xbf493edd	-0.78611547
53	0xbf066878	-0.52503157
54	0xbe1501c0	-0.14551449
55	0xbf16635a	-0.5874535
56	0xbde72e54	-0.11288133
57	0xbf3da416	-0.740785
58	0xbdf9c19a	-0.1219513
59	0xbec5a508	-0.3860247
60	0xbe51a0b3	-0.20471458
61	0xbe4a8246	-0.19776258
62	0xbf0c17a4	-0.5472357
63	0xbf3f1f74	-0.7465737
64	0xbdf449f4	-0.11928168

7.odefunc.conv1._layer.weight f4 [65, 66, 3, 3]
0	0xbcbb4cdf	-0.022863803
1	0xbd153452	-0.03642685
2	0xbc7e8680	-0.015534997
3	0x3c82bc9a	0.015959073
4	0x3ca5c4e1	0.02023548
5	0xbd2fca41	-0.042917494
6	0xbc7c37ed	-0.015394193
7	0xbd4118e2	-0.04714287
8	0x3b1d98aa	0.0024047294
9	0x3cf184da	0.029482294
10	0x3da7098b	0.08156117
11	0x3e398a87	0.1811925
12	0xbd99e9ff	-0.07515334
13	0x3daed16f	0.0853604
14	0x3c719c70	0.01474677
15	0x3d1ed283	0.03877498
16	0x3e8b74a0	0.27237415
17	0x3d2d464f	0.04230338
18	0xbbf5c850	-0.0075006858
19	0xbad11e28	-0.0015954422
20	0xbe045eb3	-0.1292675
21	0xbdf4c70d	-0.119520284
22	0x3e89f992	0.2694822
23	0x3e0aaa61	0.13541557
24	0x3d16d51a	0.036824323
25	0x3e2436e0	0.16036558
26	0x3d1c4217	0.038148966
27	0x3dcc3b2d	0.099722244
28	0xbca56f03	-0.020194536
29	0x3db1e59c	0.08686373
30	0x3e046f9f	0.12933205
31	0xbdef8d27	-0.116968445
32	0xbdc1e3b1	-0.09467257
33	0xbd9c96b4	-0.07645932
34	0xbb9198bf	-0.0044432576
35	0x3caacc27	0.0208493
36	0xbd0e5794	-0.03475149
37	0x3da4b825	0.08042935
38	0xbd2bcb64	-0.041942015
39	0xbc7e23d0	-0.015511468
40	0x3d3f048b	0.046635192
41	0xbe13ab60	-0.14420843
42	0x3d94d6e6	0.07267551
43	0xbcd4ca0c	-0.02597525
44	0xbdc87511	-0.09787954
45	0xbcad8942	-0.021183614
46	0x3e552c9e	0.20817801
47	0x3e14e827	0.14541684
48	0xbe71ed79	-0.23625745
49	0xbd9fbf35	-0.07800142
50	0xbe2d9ef3	-0.16955166
51	0xbe011d4c	-0.12608832
52	0xbd1b8456	-0.037968002
53	0x3d8b45cc	0.06800422
54	0xbda753e5	-0.081702985
55	0xbe0d5b7a	-0.13804427
56	0x3c5b87b8	0.013399057
57	0xbdedffd2	-0.116210595
58	0xbe00c851	-0.12576415
59	0x3dc55885	0.096360244
60	0xbd6d1de8	-0.05788985
61	0xbdf65b79	-0.12029166
62	0xbd3f56a5	-0.04671349
63	0xbdf2812a	-0.11841042
64	0x3e0ee6f8	0.13955295
65	0x3e427a77	0.18992029
66	0xbd0941d2	-0.033510037
67	0x3e2bcdd0	0.1677773
68	0xbc3fcede	-0.011707036
69	0x3e72d624	0.237145
70	0xbc601c15	-0.01367857
71	0x3d1900f0	0.03735441
72	0xbbd68c8d	-0.0065475167
73	0x3d23a02e	0.03994768
74	0x3d96f783	0.07371428
75	0xbcd19c18	-0.025587127
76	0xbe0078b7	-0.12546049
77	0xbe88c839	-0.26715258
78	0xbe8d4489	-0.2759135
79	0xbe82a41d	-0.25515833
80	0xbea1e300	-0.316185
81	0x3d302a4e	0.043009095
82	0x3e16dfdd	0.14733835
83	0xbd3a4132	-0.04547233
84	0xbaa6d0f7	-0.0012727071
85	0x3d69590b	0.056969684
86	0x3de0aeb1	0.1097082
87	0xbd7a2a05	-0.06107523
88	0xbd7c2cdd	-0.061566222
89	0x3d11988c	0.03554587
90	0xbc85b799	-0.016322898
91	0xbc09b11a	-0.008404041
92	0x3c9f23c9	0.019426243
93	0xbcf98357	-0.030458136
94	0x3e0c0753	0.13674669
95	0x3d6de3e3	0.058078658
96	0x3da4dfe0	0.08050513
97	0xbd04e43c	-0.032444224
98	0x3c13973a	0.009008223
99	0x3a966c9b	0.0011476459
100	0xbd72e825	-0.05930342
101	0xbdb2fd66	-0.08739738
102	0xbb204e94	-0.0024460899
103	0xbdaa8c5c	-0.08327553
104	0xbd13481e	-0.03595745
105	0xbd4d6834	-0.050148204
106	0xbdfdef05	-0.12399105
107	0xbe42e17f	-0.19031332
108	0xbd805057	-0.062653236
109	0x3b08bc70	0.002086427
110	0xbce1f30f	-0.02758172
111	0x3e418a05	0.18900307
112	0x3d28b075	0.041183908
113	0x3db1a6cd	0.08674393
114	0xbd9325ab	-0.07184919
115	0xbe179e66	-0.14806518
116	0xbc4c5ae6	-0.012472844
117	0x3d237cc4	0.039913908
118	0xbd367a49	-0.044550214
119	0xbe397848	-0.1811229
120	0xbd00a5e2	-0.0314082
121	0xbde36a29	-0.11104233
122	0xbdb372d0	-0.08762133
123	0x3d2b5621	0.041830186
124	0xbd9b0c56	-0.07570712
125	0xbdd89151	-0.10574592
126	0xbd7d0eba	-0.061781622
127	0xbdc65b40	-0.09685373
128	0x3c3c44e0	0.01149103
129	0x3d84dd82	0.06487562
130	0xbcf9e851	-0.030506285
131	0x3d69f390	0.057117045
132	0xbcbc45d1	-0.02298251
133	0xbca204f3	-0.01977775
134	0xb9771e00	-0.00023566931
135	0xbe2dbff6	-0.16967759
136	0xbcff5d95	-0.031172553
137	0xbb9e85ba	-0.004837719
138	0xbd70787b	-0.05870865
139	0x3ce2135f	0.027597127
140	0xbe28b494	-0.16475135
141	0xbd461d44	-0.048367754
142	0xbdb79440	-0.08963823
143	0xbdcc5d69	-0.09978754
144	0xbd95ba2a	-0.073108986
145	0xbd1eef41	-0.03880239
146	0xbd5a5970	-0.05330795
147	0x3dc7a70e	0.0974866
148	0x3dea78ce	0.11448823
149	0xbd510763	-0.051032435
150	0x3c61546e	0.01375304
151	0x3e297bea	0.16551176
152	0x3cfc8e85	0.030829677
153	0xbd68d027	-0.056839135
154	0x3e120943	0.14261346
155	0x3d088004	0.03332521
156	0xbe3b3fdf	-0.18286084
157	0x3dfd1962	0.12358357
158	0x3e3bb903	0.18332295
159	0xbdfff19d	-0.12497256
160	0x3c2d4e24	0.010577712
161	0xbd400a8f	-0.04688507
162	0xbd3d965a	-0.046285965
163	0x3db7ab18	0.089681804
164	0xbda00c36	-0.07814829
165	0x3dd99c12	0.10625471
166	0xbcd5c1cc	-0.026093386
167	0xbc8aaf3d	-0.016929263
168	0x3d66007e	0.056152813
169	0x3e32c652	0.17458466
170	0x3dd1aea8	0.10238391
171	0xbb07ef2c	-0.0020741923
172	0xbe147f05	-0.14501579
173	0xbe6cc448	-0.2312175
174	0xbe027895	-0.12741311
175	0xbd629329	-0.055316124
176	0xbba28478	-0.004959639
177	0x3e1698b6	0.14706692
178	0xbca77afd	-0.020444388
179	0x3dc86457	0.09784763
180	0xbe11a1ee	-0.14221928
181	0x3cf4fe69	0.029906468
182	0x3dcdca6f	0.10048377
183	0xbdab7325	-0.083715715
184	0xbd51ef59	-0.05125365
185	0x3d8698fc	0.06572148
186	0xbc16920e	-0.009190096
187	0x3dcd8fcc	0.10037193
188	0x3da2fcba	0.0795836
189	0x3c924ecd	0.01785984
190	0x3dbf5371	0.09342087
191	0xbd4fc597	-0.050725546
192	0x3ad82bd2	0.0016492552
193	0x3d2cc9c3	0.042184602
194	0x3e69d7d8	0.22836244
195	0xbc380a71	-0.011232958
196	0x3d6c5cfd	0.057705868
197	0x3d9d33fd	0.076759316
198	0x3d670189	0.05639795
199	0x3d218822	0.039436467
200	0x3e1a6051	0.15075804
201	0xbda9f7bb	-0.08299204
202	0xbe00a880	-0.12564278
203	0xbd0f40f5	-0.034974057
204	0xbd323aa1	-0.043512944
205	0x3bfaa923	0.007649557
206	0xbd653218	-0.055955976
207	0xbca827b3	-0.020526743
208	0x3d645a67	0.055750277
209	0x3de216f3	0.110395335
210	0xbd90c141	-0.0706811
211	0x3ddc8d38	0.10769123
212	0x3e45f37a	0.1933116
213	0xbe0a0d43	-0.13481621
214	0x3d938b42	0.07204296
215	0x3d381aa4	0.04494728
216	0xbb8cfe08	-0.004302744
217	0xbdbb94c2	-0.09159233
218	0xbe1c235b	-0.15247862
219	0x3de22aa2	0.11043288
220	0xbe019502	-0.12654498
221	0xbd17374d	-0.036917973
222	0x3d4f1ef6	0.050566636
223	0xbd364e83	-0.04450847
224	0x3e0be727	0.13662396
225	0x3e1c746c	0.15278786
226	0xbd9fab4c	-0.07796344
227	0x3cef1c9d	0.029188449
228	0xbdc4f294	-0.096165806
229	0xbd9540a4	-0.0728772
230	0x3c868270	0.01641962
231	0xbd7c2c46	-0.06156566
232	0x3d318b47	0.043345716
233	0x3d1c7900	0.038201332
234	0x3c0c40a7	0.008560336
235	0xbb988ecc	-0.0046556946
236	0x3bb4f2b4	0.0055220965
237	0xbd685a8b	-0.056726974
238	0x3daa3e8a	0.0831271
239	0x3de2b383	0.110693954
240	0x3cfb1d9d	0.03065377
241	0x3e250325	0.16114481
242	0x3e1d2e5f	0.1534972
243	0x3da94e67	0.08266907
244	0x3d57bb56	0.05266889
245	0x3d22183f	0.039573904
246	0x3d957a8a	0.07298763
247	0x3d89d2e6	0.06729679
248	0xbdb77743	-0.08958294
249	0x3e050600	0.1299057
250	0xbc8a2cbe	-0.016867038
251	0x3cb59640	0.022166371
252	0xbd4a51b0	-0.04939431
253	0xbe814c97	-0.25253746
254	0xbd732f1f	-0.05937111
255	0x3a21731e	0.00061588164

7.odefunc.conv1._layer.bias f4 [65]
0	0x39175e57	0.00014435627
1	0xbd18069c	-0.03711568
2	0x3c65563b	0.01399761
3	0xbd20790c	-0.03917794
4	0x3d23a40b	0.039951365
5	0xbc0ee516	-0.0087216105
6	0xbca9e767	-0.020740224
7	0x3b397906	0.0028300895
8	0x3a39b280	0.00070837885
9	0xbd0f6953	-0.035012554
10	0xbc8c103e	-0.017097589
11	0xbca7a6a9	-0.020465212
12	0xbc95de9d	-0.018294627
13	0xbcda924e	-0.026681092
14	0x3cc61bb7	0.024183137
15	0x3d15e5fa	0.036596276
16	0x3c1fc869	0.009752371
17	0xbc59f8f6	-0.013303986
18	0xbd009a20	-0.031396985
19	0x3c8b99e1	0.017041149
20	0x3d01e064	0.031708136
21	0x3b8b0f2b	0.0042437515
22	0xbc197559	-0.009366357
23	0x3c7f30b7	0.015575579
24	0x3bd92786	0.006627026
25	0xbc15a32e	-0.009133143
26	0x3d2167ed	0.039405752
27	0x3c69a61d	0.014260796
28	0x3d20c5d6	0.03925117
29	0xbb642ab0	-0.0034815483
30	0xbcebb5dc	-0.02877324
31	0xbbfcaa09	-0.0077106995
32	0x39ed193b	0.0004522296
33	0xbd1864a8	-0.03720537
34	0x3cf531e9	0.029931026
35	0xbc81b428	-0.015832976
36	0x3c12294f	0.008920982
37	0xba9b3a99	-0.0011843025
38	0x3b664de8	0.003514165
39	0xbb77ef76	-0.0037831939
40	0x3cec55af	0.02884945
41	0xbc8e96ea	-0.017405946
42	0x3c83e984	0.01610256
43	0xbbcb9cbb	-0.006213752
44	0xbc9dd22a	-0.019265253
45	0xba9d47cc	-0.0011999547
46	0xbcdc10ea	-0.026863534
47	0xbca8a1bc	-0.020584933
48	0xbbc6dbcf	-0.0060686837
49	0x3c0eb048	0.008709021
50	0xbc8c26ca	-0.01710834
51	0xba84004c	-0.0010070889
52	0xbcbaa529	-0.022783833
53	0x3cd87d3c	0.026426904
54	0xbc9742d7	-0.018464489
55	0xbcd7d69a	-0.026347447
56	0xbc8e55fe	-0.017374989
57	0xbd11337c	-0.03544949
58	0xbc09ea0b	-0.008417617
59	0x3c918bf5	0.017766932
60	0x3c92d5f5	0.017924288
61	0xbd140feb	-0.036147993
62	0x39bb85e9	0.0003576719
63	0xbb8c5bcd	-0.0042834044
64	0x3d1106e4	0.035406962

7.odefunc.norm2.weight f4 [65]
0	0x3f821e16	1.0165431
1	0x3f4e18cd	0.80506593
2	0x3f609ffe	0.8774413
3	0x3f27f44c	0.6560714
4	0x3f5e1209	0.8674627
5	0x3f8edb46	1.1160667
6	0x3f632197	0.8872313
7	0x3f74ecf7	0.9567408
8	0x3f573267	0.8406128
9	0x3f79ac34	0.97528386
10	0x3f3aa595	0.7290891
11	0x3f517af3	0.8182823
12	0x3f31bed0	0.6943178
13	0x3f7ea058	0.99463415
14	0x3f44a767	0.76817936
15	0x3f500a7b	0.8126599
16	0x3f4fba62	0.8114377
17	0x3f813a62	1.0095942
18	0x3f526326	0.8218254
19	0x3f6da005	0.92822295
20	0x3f76f426	0.9646629
21	0x3f5e3b23	0.86808985
22	0x3f86ae8e	1.052202
23	0x3f6ddb39	0.9291263
24	0x3f69d6cf	0.91343397
25	0x3f9079ad	1.1287133
26	0x3f503b4a	0.8134047
27	0x3f64d058	0.8938041
28	0x3f5a6f86	0.8532642
29	0x3f877d9b	1.0585207
30	0x3f4b4762	0.79405797
31	0x3f588dc4	0.8459132
32	0x3f3e6c76	0.7438425
33	0x3f3e1264	0.7424681
34	0x3f48352e	0.78206146
35	0x3f884a25	1.0647627
36	0x3f607b32	0.8768798
37	0x3f899903	1.074982
38	0x3f803719	1.0016814
39	0x3f5cd376	0.86260164
40	0x3f882cf0	1.0638714
41	0x3f538a5e	0.82633007
42	0x3f502c64	0.81317735
43	0x3f731509	0.9495397
44	0x3f6c4889	0.9229818
45	0x3f643399	0.8914123
46	0x3f83760c	1.02704
47	0x3f69b7b5	0.9129594
48	0x3f784f66	0.9699615
49	0x3f66aa03	0.9010317
50	0x3f5747d3	0.8409397
51	0x3f856470	1.0421276
52	0x3f6d28db	0.92640465
53	0x3f72b670	0.9480963
54	0x3f6fec70	0.9372015
55	0x3f69e9ba	0.91372263
56	0x3f62f4a5	0.8865455
57	0x3f644551	0.8916827
58	0x3f86aced	1.0521523
59	0x3f5a0cf2	0.85176
60	0x3f54e73d	0.8316534
61	0x3f7a9fff	0.97900385
62	0x3f80c75c	1.006084
63	0x3f70c669	0.9405275
64	0x3f568fb6	0.83813035

7.odefunc.norm2.bias f4 [65]
0	0xbf0862c5	-0.5327571
1	0xbf4a2b0c	-0.78971934
2	0xbf13ef75	-0.5778726
3	0xbf42c74d	-0.7608536
4	0xbf2944d5	-0.66120654
5	0xbef6887c	-0.48151004
6	0xbf321817	-0.6956801
7	0xbeff5a15	-0.49873415
8	0xbf5ec7fd	-0.8702391
9	0xbf4dc064	-0.8037169
10	0xbf6bc4ca	-0.9209715
11	0xbf1db3dc	-0.6160257
12	0xbf2f4f06	-0.68479955
13	0xbf3a02e2	-0.7266065
14	0xbf20929d	-0.62723714
15	0xbf31c63c	-0.69443107
16	0xbf2ee9c5	-0.68325454
17	0xbf10acdf	-0.5651378
18	0xbf3811a3	-0.7190191
19	0xbef2ba84	-0.47407925
20	0xbf378e14	-0.7170117
21	0xbf40b07f	-0.7526931
22	0xbee2e3e5	-0.44314495
23	0xbf4a0d9a	-0.78927004
24	0xbf55860e	-0.83407676
25	0xbf28343a	-0.6570469
26	0xbf33896d	-0.7013157
27	0xbedf1b6f	-0.43575618
28	0xbedb4880	-0.4282875
29	0xbf02b3b5	-0.5105546
30	0xbf53ec3d	-0.82782346
31	0xbf484f68	-0.78246164
32	0xbf35a80d	-0.7095955
33	0xbf37b09d	-0.71753865
34	0xbf2aebad	-0.6676586
35	0xbf3ac7d1	-0.72961146
36	0xbefb4e4c	-0.49083173
37	0xbf6ef5e0	-0.93343925
38	0xbf2b6c88	-0.6696248
39	0xbf273a43	-0.65323275
40	0xbf3c62bc	-0.73588157
41	0xbf34e7d7	-0.7066626
42	0xbf3d7324	-0.74003816
43	0xbf4cf432	-0.8006011
44	0xbf4073dd	-0.75176793
45	0xbf24a3b2	-0.6431228
46	0xbf0e9372	-0.55693734
47	0xbf69fbb0	-0.9139967
48	0xbf06d0bf	-0.5266227
49	0xbf36070e	-0.71104515
50	0xbf5bf09c	-0.85914016
51	0xbeec513b	-0.46155724
52	0xbf1772ec	-0.5915973
53	0xbf2ee5be	-0.6831931
54	0xbf1e9b97	-0.6195616
55	0xbf0383da	-0.51373065
56	0xbf1dfde8	-0.61715555
57	0xbf140e4e	-0.5783433
58	0xbeecd0a0	-0.46252918
59	0xbf555e34	-0.8334687
60	0xbf26c178	-0.6513896
61	0xbf28e19b	-0.65969247
62	0xbf007b6a	-0.50188315
63	0xbf150bde	-0.5822123
64	0xbf1839a2	-0.5946294
