experiment_anode_mnist_v3/model.pth (torch, 849769 bytes, 24 tensors)

0.weight f4 [64, 1, 3, 3]
0	0xbea18bac	-0.31551874
1	0x3ee1f094	0.4412886
2	0xbe5e2902	-0.2169533
3	0x3e94bf9d	0.2905244
4	0x3f18a8b0	0.59632397
5	0xbf026d90	-0.5094843
6	0x3c99ae4e	0.018759873
7	0x3e190fc5	0.14947422
8	0xbef1de11	-0.47239736
9	0x3e913186	0.28358096
10	0xbe0248cd	-0.12723084
11	0xbeeb1ed2	-0.45921952
12	0x3ea183e9	0.31545952
13	0xbe39f2ad	-0.1815898
14	0xbe67a8cf	-0.22622989
15	0x3ebf798b	0.37397417
16	0xbe932780	-0.28741074
17	0xbee29f82	-0.4426232
18	0x3d8679ea	0.06566222
19	0xbd2b5c7d	-0.04183625
20	0xbe9aa72b	-0.30205664
21	0x3e2f7d05	0.17137535
22	0xbf1a436a	-0.60259116
23	0xbe479b24	-0.19492775
24	0x3f3dd3c0	0.7415123
25	0xbcf0d7ca	-0.029399771
26	0x3c8af92d	0.01696452
27	0xbd19366b	-0.037405413
28	0xbeea65d5	-0.45780817
29	0xbed13752	-0.4086252
30	0xbebc12ae	-0.36733
31	0xbeab07af	-0.334043
32	0x3e3ca935	0.18423922
33	0xbe08f32b	-0.13374011
34	0x3e44ffd2	0.19238213
35	0x3effe8b6	0.49982232
36	0x3e9500ec	0.29102266
37	0x3ec8310a	0.39099914
38	0x3c129f6c	0.008949142
39	0xbf036368	-0.51323557
40	0xbf118540	-0.5684395
41	0xbf2cec3d	-0.6754797
42	0x3e11d297	0.1424049
43	0x3e42ac7e	0.19011113
44	0x3e9923ba	0.2991007
45	0xbe31c742	-0.17361167
46	0xbf07b4c9	-0.5301023
47	0x3ee43e42	0.4457875
48	0xbe41d7e1	-0.18930008
49	0x3cce2d58	0.025168106
50	0x3efa7c01	0.48922732
51	0x3dc974a3	0.098367
52	0x3e22855e	0.15871188
53	0xbc8c3c41	-0.017118575
54	0xbe407690	-0.18795228
55	0x3e59b59e	0.21260688
56	0x3e74f3a1	0.23921062
57	0x3d86ae63	0.065762304
58	0x3e4e3585	0.20137604
59	0x3e8fe3a9	0.28103378
60	0x3e2f03a7	0.17091237
61	0x3e8a6609	0.27030972
62	0x3e3ea281	0.18616678
63	0x3ef3fe67	0.4765503
64	0xbd4d5125	-0.050126214
65	0xbef07e39	-0.469713
66	0x3e4a7212	0.19770077
67	0xbe78a81c	-0.24282879
68	0x3e98d460	0.2984953
69	0x3e1047a3	0.14089827
70	0x3e83547f	0.25650403
71	0x3c6cc986	0.014452344
72	0xbe956520	-0.29178715
73	0x3e950d24	0.29111588
74	0x3eba2250	0.36354303
75	0x3e998cac	0.29990137
76	0x3f11afa4	0.5690863
77	0xbef59cdb	-0.47971234
78	0x3dfd5714	0.123701245
79	0x3d48db72	0.049037404
80	0xbf198e40	-0.5998268
81	0x3e920ec1	0.2852688
82	0x3dc78948	0.09742981
83	0x3e32897f	0.17435263
84	0x3eba9c00	0.36447144
85	0xbe81a909	-0.25324276
86	0x3e7c1ae8	0.24619639
87	0xbd5861e0	-0.052827716
88	0x3dcd2293	0.1001636
89	0x3eaf462d	0.34233227
90	0xbea4ec4c	-0.3221153
91	0xbdaa9ea8	-0.083310425
92	0xbcaa7004	-0.020805366
93	0xbec6b50d	-0.38810006
94	0xbeda80b6	-0.42676324
95	0xbeb24437	-0.3481767
96	0x3f1d778b	0.61510533
97	0x3eb13e49	0.34617832
98	0xbde19b67	-0.11015969
99	0xbeec4f49	-0.4615424
100	0x3dd4bacf	0.103871934
101	0xbe5349a2	-0.20633557
102	0xbea0104c	-0.31262434
103	0x3e71c50b	0.23610322
104	0x3df0db3a	0.11760564
105	0xbf0a905e	-0.54126537
106	0x3bb7535a	0.005594653
107	0x3e589349	0.21149935
108	0x3e910c4c	0.28329694
109	0x3f042016	0.5161146
110	0xbe83b6b9	-0.25725344
111	0x3e2e32f3	0.17011623
112	0x3dd5edbf	0.10445737
113	0xbf11a3ec	-0.5689075
114	0xbe441589	-0.1914884
115	0xbed3cf0e	-0.41368908
116	0xbe295265	-0.16535337
117	0xbe0094b6	-0.12556729
118	0x3e950913	0.29108486
119	0x3e9688fb	0.29401383
120	0xbe5ea41f	-0.21742295
121	0xbe3a9684	-0.1822148
122	0x3e74ab6d	0.23893519
123	0xbe3c702c	-0.18402165
124	0xbe976eb5	-0.2957665
125	0xbee5f4a7	-0.44913217
126	0x3dfb49ab	0.122699104
127	0xbf1f5318	-0.62236166
128	0xbf15032c	-0.58207965
129	0x3ddbfe5c	0.107418746
130	0xbf090581	-0.53524023
131	0x3ef3230a	0.4748767
132	0x3ea74b2b	0.32674536
133	0x3e165f09	0.1468469
134	0x3f066413	0.5249645
135	0xbe679dcf	-0.22618793
136	0x3e340732	0.1758087
137	0xbf227852	-0.63464844
138	0x3ebed794	0.37273848
139	0x3f39fa47	0.7264752
140	0x3ebebf43	0.37255296
141	0xbf2e5aab	-0.681071
142	0xbe999ffb	-0.30004868
143	0x3d9f9fb3	0.07794132
144	0x3d3393b0	0.043842018
145	0x3e89f082	0.26941305
146	0x3e9a9a80	0.30196
147	0xbebc0d6e	-0.36728996
148	0x3f0bf6ae	0.5467328
149	0xbe115aff	-0.14194869
150	0xbf3d04ea	-0.73835623
151	0xbd1c2432	-0.038120456
152	0xbc4d73a4	-0.012539778
153	0x3cb9faa3	0.02270252
154	0xbec0da8f	-0.37666747
155	0xbf083ddc	-0.5321939
156	0xbd91369a	-0.070904925
157	0xbea4e0fc	-0.322029
158	0xbe9eb851	-0.30999997
159	0x3f1ce2fb	0.61283845
160	0x3f3a68f7	0.72816414
161	0x3ea88ab6	0.32918328
162	0x3dce696f	0.100787036
163	0xbe29b4e2	-0.16572908
164	0xbe9a3a59	-0.3012264
165	0x3e5bce8b	0.21465509
166	0xbdf44dbe	-0.11928891
167	0xbe8e6a19	-0.2781532
168	0xbebed707	-0.37273428
169	0xbedc5976	-0.43037003
170	0x3dd24ff2	0.102691546
171	0x3c72c3d4	0.014817197
172	0xbe11bf39	-0.14233102
173	0xbf664755	-0.89952594
174	0x3eb6b693	0.35686168
175	0x3f18c53e	0.5967597
176	0x3e0bd568	0.13655627
177	0xbde3d486	-0.1112452
178	0x3dbd2d77	0.09237187
179	0x3f1289ae	0.5724133
180	0x3e3a18b6	0.18173489
181	0x3e7cc532	0.24684599
182	0xbecffe0e	-0.40623516
183	0xbeb532d3	-0.35390338
184	0x3ed6ef56	0.41979474
185	0x3d5050d5	0.050858337
186	0xbec5504f	-0.38537833
187	0x3eea800b	0.45800814
188	0x3dbea98c	0.09309682
189	0x3cb7f074	0.022453524
190	0x3edffc62	0.4374724
191	0xbe2c55d7	-0.1682962
192	0xbf50677f	-0.8140792
193	0xbf04299a	-0.5162598
194	0xbb61e2cb	-0.0034467455
195	0x3f3d4e3b	0.73947495
196	0x3df61b36	0.12016909
197	0x3e59786d	0.21237345
198	0x3eb42c8c	0.35190237
199	0x3e993946	0.2992651
200	0xbe814e1f	-0.25254914
201	0x3cf8a112	0.030350242
202	0xbe8f9f7e	-0.2805137
203	0xbeb456f8	-0.35222602
204	0xbef14339	-0.471216
205	0xbd827277	-0.06369489
206	0xbdbbcf5d	-0.09170411
207	0x3ef276ce	0.47356266
208	0xbdc1dbbb	-0.094657384
209	0x3ecb8603	0.3975068
210	0xbecdf536	-0.40226144
211	0xbe1dbfd9	-0.15405215
212	0xbec62ab1	-0.38704446
213	0x3ed2825c	0.4111508
214	0x3e0f341d	0.13984723
215	0x3f0c9ec1	0.5492974
216	0x3ef0363a	0.46916372
217	0xbe203749	-0.1564609
218	0xbc2a7be2	-0.0104055125
219	0xbf23b606	-0.6394962
220	0xbf0b6e57	-0.5446524
221	0x3e89c0fa	0.26905042
222	0x3cbec47d	0.023287052
223	0x3ed1c3db	0.40969738
224	0x3f0c8aa5	0.54899055
225	0x3e8969a1	0.268384
226	0xbeacce63	-0.3375121
227	0xbe9309e6	-0.2871849
228	0x3ea1a6d3	0.3157259
229	0xbe86d1d6	-0.26331967
230	0x3d926226	0.071476266
231	0xbe23e2cd	-0.16004486
232	0xbe50aa1d	-0.20377393
233	0xbc31f117	-0.010860703
234	0x3e41c877	0.18924128
235	0x3d33842f	0.043827232
236	0x3e5f5f23	0.21813636
237	0x3e5c66ca	0.21523586
238	0xbdaad097	-0.083405666
239	0xbebcfec2	-0.36913115
240	0x3d7f96f1	0.06239981
241	0x3e8be11c	0.27320182
242	0x3ec2f867	0.3808014
243	0x3e305393	0.17219381
244	0xbea2e282	-0.31813437
245	0x3deaec7a	0.114708856
246	0xbe9ef765	-0.31048122
247	0xbee6275f	-0.44951913
248	0x3ed40703	0.414116
249	0x3d72326d	0.05913012
250	0x3e64f5e6	0.22359428
251	0x3f00f998	0.5038085
252	0xbe150447	-0.14552413
253	0x3cea0e64	0.028571315
254	0x3f376cc1	0.7165032
255	0x3c898105	0.016785154

0.bias f4 [64]
0	0xbdcc6986	-0.099810645
1	0xbdd337b0	-0.10313356
2	0xbe6de328	-0.23231184
3	0xbe85115e	-0.25989813
4	0x3e0dad10	0.1383555
5	0xbe3392f0	-0.17536521
6	0xbe00a836	-0.12564167
7	0x3be2d825	0.006922739
8	0xbcc7385e	-0.02431887
9	0xbb494675	-0.0030712162
10	0x3b782b50	0.0037867613
11	0x3e9bd12b	0.3043302
12	0x3e90e5a4	0.28300202
13	0x3e7db246	0.24775037
14	0x3e8b55fa	0.27214032
15	0x3e917c74	0.28415263
16	0xbd96f33b	-0.07370611
17	0xbe82ac6e	-0.25522178
18	0x3e7f1e1b	0.24913828
19	0x3e297ce8	0.16551554
20	0x3e5d8413	0.21632414
21	0xbe093128	-0.13397658
22	0x3ea3768e	0.31926388
23	0xbdb17cbb	-0.086663686
24	0xbe170168	-0.1474663
25	0x3e94b7c8	0.29046464
26	0x3e5707ce	0.20999071
27	0x3d16e1c0	0.036836386
28	0x3cb63a62	0.022244636
29	0xbcc25e8f	-0.02372673
30	0xbe380653	-0.17971162
31	0x3d0c10ab	0.034195583
32	0x3e5d1408	0.21589673
33	0x3cd1cb4c	0.025609635
34	0x3b105d4f	0.0022028273
35	0x3e8e136f	0.27749202
36	0x3e95b466	0.29239196
37	0x3e852bbb	0.26009926
38	0xbe8dbeff	-0.2768478
39	0xbe373ea8	-0.17894995
40	0x3e2ad928	0.16684401
41	0xbe8f4f70	-0.27990294
42	0xbe5c8f73	-0.21539097
43	0x3d442915	0.04789074
44	0x3e305a86	0.17222032
45	0xbe076d93	-0.13225393
46	0x3e5899b8	0.21152389
47	0x3d5965ca	0.05307559
48	0x3ea8e703	0.32988748
49	0xbe536d2e	-0.20647117
50	0xbe9f83ab	-0.31155142
51	0xbe32cba8	-0.17460501
52	0x3d9181c0	0.07104826
53	0xbe0ef900	-0.13962173
54	0x3e329d10	0.17442727
55	0xbe18948e	-0.14900419
56	0x3e517828	0.20455992
57	0x3e1fdb0e	0.15610906
58	0x3c70ad12	0.014689701
59	0xbdb7e63b	-0.0897946
60	0x3de34796	0.11097638
61	0x3e81506f	0.25256678
62	0x3c5f9dc7	0.013648457
63	0xbea2f772	-0.3182941

1.weight f4 [64]
0	0x3f77ca76	0.96793306
1	0x3f90f5d1	1.1325017
2	0x3f78c068	0.9716859
3	0x3fa2601d	1.2685581
4	0x3f9efe0c	1.2421279
5	0x3f487c94	0.7831509
6	0x3f2035db	0.62582177
7	0x3f2fafb8	0.686275
8	0x3f640e38	0.89084196
9	0x3f2b25d0	0.6685457
10	0x3fa1ff12	1.2655966
11	0x3f923621	1.1422769
12	0x3f99d561	1.2018243
13	0x3f913895	1.1345392
14	0x3f860fd1	1.0473577
15	0x3f7aca0f	0.97964567
16	0x3f609b31	0.87736803
17	0x3f85cfce	1.0454042
18	0x3f99e7e0	1.2023888
19	0x3f66865a	0.90048754
20	0x3f33ec6a	0.70282614
21	0x3f62cd38	0.8859439
22	0x3f9ae12e	1.2099969
23	0x3f3b59f6	0.73184144
24	0x3f642610	0.8912058
25	0x3f8bc29e	1.0918767
26	0x3f21d5e0	0.6321697
27	0x3f59724d	0.84940034
28	0x3f96e0ea	1.1787388
29	0x3f457ae8	0.77140665
30	0x3f8eda7d	1.1160427
31	0x3f52ba27	0.82315296
32	0x3f780968	0.9688935
33	0x3f5b4a4e	0.85660255
34	0x3f1c0772	0.6094886
35	0x3f93447d	1.1505276
36	0x3f713031	0.9421416
37	0x3f9913fa	1.1959221
38	0x3faf34b4	1.3687959
39	0x3f2a7027	0.6657738
40	0x3f8b50e9	1.0884067
41	0x3fa9ff0d	1.328096
42	0x3f1f6b7b	0.6227338
43	0x3fb0e26e	1.3819101
44	0x3f77ac87	0.9674763
45	0x3f478783	0.7794115
46	0x3f687f3e	0.90819156
47	0x3f7c7913	0.98622245
48	0x3f9ca171	1.2236768
49	0x3f3f5412	0.74737656
50	0x3fa5d706	1.2956245
51	0x3f486520	0.78279305
52	0x3f694ff1	0.91137606
53	0x3f2f7662	0.6854001
54	0x3f9b118a	1.2114727
55	0x3f72aeae	0.9479779
56	0x3fa9a794	1.3254266
57	0x3f1f9fdf	0.6235332
58	0x3f8db7f8	1.1071768
59	0x3f979952	1.1843665
60	0x3f77371a	0.96568453
61	0x3f95dc47	1.1707848
62	0x3f939306	1.1529243
63	0x3f913ae8	1.1346102

1.bias f4 [64]
0	0xbea66ea0	-0.32506275
1	0xbeae3b20	-0.34029484
2	0xbe2bc86e	-0.16775677
3	0x3e181e1d	0.14855237
4	0x3e988f98	0.29797053
5	0xbe1ed13a	-0.15509501
6	0xbe9d9a2d	-0.3078169
7	0xbeb3bea2	-0.3510638
8	0xbe588fef	-0.21148656
9	0xbeb6543f	-0.3561115
10	0x3e10d960	0.14145422
11	0x3bb81a0f	0.005618341
12	0x3e0012c2	0.12507156
13	0x3e0b9b8b	0.13633554
14	0xbd8d0c5b	-0.06887122
15	0xbe9d4c09	-0.30722073
16	0xbdec46b3	-0.11536922
17	0xbda47246	-0.080296084
18	0x3e849318	0.25893474
19	0xbdff12d9	-0.12454767
20	0xbeada5ae	-0.33915466
21	0xbd83df07	-0.064390235
22	0x3da66fe2	0.08126809
23	0xbe9c9e81	-0.3058968
24	0x3bedff4e	0.0072631007
25	0x3d967792	0.07347025
26	0xbe9f1629	-0.31071594
27	0xbd7cff30	-0.061766803
28	0xbda1b081	-0.078949936
29	0xbcfff8b0	-0.031246513
30	0x3dc3ac85	0.0955439
31	0xbc4dcddf	-0.0125612905
32	0xbe8bcb8a	-0.27303725
33	0xbe56fd87	-0.2099515
34	0xbe8cd6e2	-0.27507693
35	0x3e29b13c	0.16571516
36	0xbeae3412	-0.34024101
37	0x3e05f299	0.13080825
38	0x3e2163ca	0.15760723
39	0xbe9b3c48	-0.30319428
40	0x3d8ffb74	0.07030383
41	0x3e239766	0.15975723
42	0xbe03beee	-0.12865803
43	0x3e6a88b9	0.22903718
44	0xbc87b582	-0.016566042
45	0xbe761b9a	-0.24033967
46	0xbe67e9b3	-0.22647743
47	0xbd8503fc	-0.064949006
48	0x3cdd5e85	0.02702261
49	0xbe713d1d	-0.23558469
50	0xbd18e955	-0.037331898
51	0xbe7a61b1	-0.24451329
52	0xbdf03363	-0.11728551
53	0xbe801268	-0.25014043
54	0x3e0f8394	0.14015037
55	0xbe20a02d	-0.15686102
56	0xbeaeba57	-0.3412654
57	0xbe570bf3	-0.21000652
58	0xbebae159	-0.36500052
59	0x3ea3bf18	0.3198173
60	0xbe9309e0	-0.28718472
61	0xbeca34e8	-0.3949349
62	0xbee72e0d	-0.4515232
63	0xbe2ff439	-0.17183007

3.weight f4 [64, 64, 4, 4]
0	0x3a7e1faa	0.00096940494
1	0xbcd1cd10	-0.025610477
2	0xbd928039	-0.07153363
3	0x3d13019b	0.035890203
4	0xbe15aba0	-0.14616251
5	0xbdd9a350	-0.106268525
6	0xbc95e100	-0.018295765
7	0x3b088b7b	0.002083509
8	0xbe3ab624	-0.18233544
9	0xbdc288be	-0.09498738
10	0xbc6955ee	-0.014241679
11	0x3d5d6ec3	0.05406071
12	0xbe3c6edd	-0.18401666
13	0xbe0bbb4b	-0.13645665
14	0xbd00354b	-0.031300824
15	0xbcf00700	-0.029300213
16	0xbc0c5b22	-0.00856665
17	0xbd88b189	-0.06674487
18	0xbc66585c	-0.014059152
19	0xbcd6a3ee	-0.026201215
20	0xbd5b48d5	-0.053536255
21	0xbd37e50a	-0.044896163
22	0xbda9b64c	-0.082867235
23	0xbce1320c	-0.027489685
24	0xbdb5827a	-0.08862777
25	0xbdbd094c	-0.09230289
26	0xbd1639f4	-0.036676362
27	0xbc87be90	-0.01657036
28	0xbdbbe653	-0.0917479
29	0xbd9a477a	-0.07533164
30	0xbd4e886f	-0.050423082
31	0xbc93ef81	-0.01805854
32	0x3d37391a	0.04473219
33	0x3ca4a25c	0.02009695
34	0xbd1b65ac	-0.03793876
35	0xbd30db62	-0.04317797
36	0x3dc3e9e3	0.09566095
37	0xbd05f7ad	-0.032706905
38	0x3bc076b3	0.005873525
39	0xbd81f616	-0.06345765
40	0x3e23e574	0.16005498
41	0x3d986f9f	0.07443165
42	0x3bc91e0b	0.0061376146
43	0x3ba4bbb9	0.005027261
44	0x3dd38f29	0.1033004
45	0x3d886e87	0.066617064
46	0x3ca1d105	0.019752989
47	0xbca2f948	-0.019894257
48	0xbcd8e92d	-0.026478374
49	0xbb04299e	-0.0020166407
50	0xbdbd79ef	-0.092517726
51	0xbe13b0bb	-0.14422886
52	0xbdd852d4	-0.10562673
53	0xb9e49d98	-0.00043604965
54	0xbd076ead	-0.033064533
55	0xbd8c7b9f	-0.06859516
56	0xbdc1c100	-0.0946064
57	0x3d9c938b	0.07645329
58	0x3d6b707b	0.057480317
59	0x3d0ad83b	0.03389762
60	0xbdbb1a8c	-0.09135923
61	0xba819bae	-0.0009888315
62	0x3dadc18e	0.08484183
63	0x3e443b4f	0.1916325
64	0xbcae0e74	-0.021247126
65	0xbd87bbee	-0.066276416
66	0xbddce15c	-0.107851714
67	0xbe11947d	-0.142168
68	0xbd2f4bfd	-0.042797077
69	0xbc9ce2d1	-0.019151123
70	0xbe18bf75	-0.14916785
71	0xbe198397	-0.14991604
72	0xbc889c0f	-0.016675977
73	0x3cd69c2f	0.026197521
74	0xbc3f5899	-0.011678838
75	0xbd723a40	-0.059137583
76	0x3a89de5d	0.001051854
77	0xbbf208eb	-0.007386317
78	0x3d4e05cc	0.050298497
79	0xbcfbea20	-0.030751288
80	0xbdf48ef3	-0.11941328
81	0x3df3b80e	0.1190034
82	0x3db1e7ba	0.086867765
83	0xbd3c142e	-0.045917682
84	0xbe39d6d1	-0.18148352
85	0x3dee4f0c	0.11636171
86	0x3d9f6959	0.07783765
87	0x3d17f9af	0.03710335
88	0xbdd3d252	-0.1034285
89	0xbbee372e	-0.0072697615
90	0x3df0a697	0.117505245
91	0x3dc00352	0.09375633
92	0xbe15b800	-0.14620972
93	0xbdb2c163	-0.08728292
94	0x3c412b4e	0.01179011
95	0x3e135696	0.14388499
96	0xbd8a7369	-0.06760294
97	0xbd4b0491	-0.0495649
98	0x3d466987	0.048440482
99	0x3cc2b45b	0.02376764
100	0xbd791621	-0.06081212
101	0x3b4374a8	0.0029824171
102	0x3d5fbfc0	0.054626226
103	0x3cfb2554	0.030657448
104	0xbc631df8	-0.013862126
105	0x3d00796f	0.031365808
106	0x3d5364c8	0.051609784
107	0x3d193a1c	0.037408933
108	0xbe0164ec	-0.12636155
109	0xbd9e6918	-0.07734889
110	0xbcfa3a9e	-0.030545529
111	0xb91df839	-0.00015065157
112	0x3c2db9e4	0.010603402
113	0xbd30824a	-0.043093003
114	0xbe11f08d	-0.14251919
115	0x3d0e1e6e	0.03469699
116	0x3da253f1	0.07926167
117	0x3c5610a9	0.0130654955
118	0xbdbfe375	-0.09369556
119	0x3c6751e5	0.014118646
120	0x3dd41cb3	0.103570364
121	0x3c65feb9	0.014037781
122	0xbd1e6e46	-0.038679384
123	0xbd0f0164	-0.034913436
124	0xbd58c0f3	-0.052918386
125	0xbc2bfb27	-0.010496891
126	0xbda26c7d	-0.07930849
127	0xbcdf0986	-0.02722622
128	0xbd206275	-0.039156396
129	0xbdf849b8	-0.12123436
130	0xbd809e2a	-0.062801674
131	0xbc6b32a3	-0.014355334
132	0xbe70650e	-0.2347605
133	0xbe39c393	-0.18141012
134	0xbc57a1c3	-0.013161126
135	0xbd0e9b2a	-0.034815945
136	0xbe6811ff	-0.22663115
137	0xbe0235de	-0.12715861
138	0x3d38e632	0.045141406
139	0x3d353553	0.044240307
140	0xbe4c8e96	-0.19976267
141	0xbde598c3	-0.112107776
142	0x3d0d6500	0.03452015
143	0xbc4245ef	-0.011857494
144	0xbd8461ce	-0.06463967
145	0x3d19890f	0.037484225
146	0x3a0a81e6	0.00052836386
147	0x3ca1e89b	0.019764235
148	0xbbf0b536	-0.007345821
149	0x3be233f4	0.006903166
150	0x3bd443ce	0.0064778095
151	0x3cf58eb1	0.029975267
152	0x3c8e8ef2	0.017402146
153	0x3cadae57	0.021201296
154	0xbba5758a	-0.005049412
155	0x3bd6e883	0.0065584793
156	0xbd008f95	-0.03138693
157	0xbbefd403	-0.007318975
158	0xbd17d38c	-0.03706698
159	0xbc91ca6d	-0.01779672
160	0x3c70c647	0.0146957105
161	0x3d35fa34	0.044428065
162	0x3d0ed23b	0.03486846
163	0xbd80fc62	-0.06298138
164	0x3cfed214	0.031106032
165	0x3c3bc8b7	0.011461428
166	0xbc26c5cb	-0.010178993
167	0xbda4c031	-0.0804447
168	0x3e26c1c7	0.16284858
169	0x3de00378	0.109381616
170	0x3b8f57f2	0.0043744976
171	0xbccb5bd7	-0.024824066
172	0x3e035258	0.1282438
173	0x3dea2bbb	0.11434122
174	0x3d0e64bb	0.034764033
175	0xbe09b90b	-0.13449495
176	0xbd9b4231	-0.075809844
177	0x3aef0e1b	0.0018238457
178	0x3d7e81fe	0.06213569
179	0x3da3d78f	0.08000099
180	0xba3245bd	-0.0006800553
181	0xbb2d92c6	-0.002648519
182	0x3cb5e73d	0.02220499
183	0x3dcb0877	0.09913724
184	0xbd852c0f	-0.06502544
185	0xbd9861fc	-0.07440564
186	0xbd1edd9f	-0.038785573
187	0x3d2107c4	0.039314047
188	0xbdc7c5d0	-0.097545266
189	0xbd886b7f	-0.06661128
190	0xbdc34002	-0.09533693
191	0x3bee6b6e	0.00727599
192	0xbd9f3598	-0.07773894
193	0xbc09f125	-0.00841931
194	0xbdb142b2	-0.08655299
195	0xbde3da0c	-0.111255735
196	0xbe055da3	-0.13024001
197	0xbd3aa667	-0.04556885
198	0xbd53210a	-0.05154518
199	0xbd447512	-0.04796321
200	0xbe0a5469	-0.13508762
201	0xbd69a241	-0.057039503
202	0xbd3bdd76	-0.0458655
203	0x3c3fce31	0.011706875
204	0xbe02b118	-0.12762868
205	0xbc4ce351	-0.012505368
206	0xbab72332	-0.0013972281
207	0x3d92e643	0.07172825
208	0xbd7d444c	-0.06183271
209	0xbcdfb143	-0.027306205
210	0xbd48d4e9	-0.049031172
211	0xbbcb6af7	-0.0062078196
212	0xbd573ea9	-0.05254999
213	0xbd27694e	-0.04087191
214	0xbd252d1e	-0.04032623
215	0xbc3985fe	-0.01132345
216	0xbcb2bb3b	-0.021817794
217	0xbd341638	-0.043966502
218	0xbc1d65d3	-0.009606796
219	0xbde44925	-0.11146764
220	0x3d56ad77	0.052411523
221	0x39b59309	0.0003463256
222	0xbd56f0ce	-0.052475743
223	0xbd1c8952	-0.038216896
224	0x3afcc956	0.0019286077
225	0x3dc3325f	0.09531092
226	0xbdcfb1e1	-0.101413496
227	0xbe254fbe	-0.161437
228	0xbc3b0c89	-0.011416563
229	0x3db0c98b	0.08632191
230	0xbd4d4ac8	-0.050120145
231	0xbe12f291	-0.14350344
232	0x3da65800	0.081222534
233	0x3d83e4fb	0.06440159
234	0xbab272c8	-0.001361453
235	0xbc03c2bd	-0.008042035
236	0x3c04665b	0.008081044
237	0x3da5fa8b	0.08104428
238	0x3d0487e5	0.03235616
239	0x3d09f4bb	0.03368066
240	0x3bfc93e5	0.00770806
241	0xbd3b72d1	-0.045763794
242	0x3d89ed81	0.067347534
243	0x3e07c8d0	0.13260198
244	0x3e1122cb	0.14173429
245	0xbd9f9794	-0.07792583
246	0xbde02b8c	-0.10945806
247	0x3bd9ec40	0.0066504776
248	0x3d30eab0	0.043192565
249	0x3d332221	0.04373372
250	0xbd506b51	-0.050883595
251	0xbca4c6e8	-0.020114377
252	0xbdaaa3b4	-0.08332005
253	0xbd833154	-0.06405893
254	0xbe23fb10	-0.16013741
255	0xbe4719f0	-0.19443488

3.bias f4 [64]
0	0xbbb959ef	-0.005656473
1	0xbc68d130	-0.01421003
2	0x3c5afeb0	0.013366386
3	0x3b89d330	0.0042060837
4	0xbc888b02	-0.016667847
5	0x3cc5fed4	0.024169363
6	0xbb99e2b0	-0.0046962127
7	0x386fbe4c	5.7159268e-05
8	0x3cff80cc	0.031189345
9	0x3ce868ba	0.02837025
10	0x3cfe8c70	0.031072825
11	0x3cb86ca2	0.022512738
12	0xbbc3d6f0	-0.0059765503
13	0xbb20ce64	-0.002453708
14	0xbc8119fc	-0.01575946
15	0xbca3f5a4	-0.020014592
16	0xbcb58cc2	-0.022161845
17	0x3cf05e5a	0.029341865
18	0x3c350e50	0.011050776
19	0xbcb35e84	-0.021895654
20	0xbc86003c	-0.016357534
21	0xbc6fbec8	-0.014632888
22	0x3b83d4e8	0.004023183
23	0xbc71f864	-0.014768694
24	0xbcb152ae	-0.02164587
25	0xbc2429cc	-0.010019731
26	0x3c353e14	0.011062164
27	0xbc172bf0	-0.009226784
28	0xbb064aab	-0.0020491283
29	0x3c5463f0	0.01296328
30	0x3b10aef5	0.0022076939
31	0x3c8a3f5e	0.016875919
32	0xbcd32334	-0.025773622
33	0xb963acdf	-0.00021712806
34	0x3ba9eef0	0.0051859543
35	0x3b6f1ed1	0.0036486874
36	0xbc1eca60	-0.009691805
37	0xbc6162c8	-0.013756461
38	0xbc157d84	-0.009124164
39	0x3c989a1e	0.018628176
40	0x3cd223b4	0.02565179
41	0x3ce1b4e6	0.02755208
42	0x3c0787b4	0.0082721
43	0x3caf1698	0.021373078
44	0x3be2af68	0.0069178827
45	0xbc39cdcc	-0.01134057
46	0xbc892e88	-0.01674582
47	0xbc3f2bac	-0.011668127
48	0xbce92412	-0.028459582
49	0x3cf7e114	0.030258693
50	0xba9e6667	-0.0012084962
51	0xbb3b081b	-0.0028538767
52	0xbb9b7be0	-0.0047449917
53	0x3c5c926c	0.013462644
54	0x3c01fbb0	0.007933542
55	0x3ce1f038	0.027580366
56	0xbb923338	-0.004461672
57	0x3cd670a4	0.026176758
58	0xbc487dd8	-0.012237035
59	0xbcd4fc34	-0.025999166
60	0xbb8d2578	-0.004307445
61	0x3b37d65f	0.002805136
62	0x3a87cbd3	0.0010360427
63	0xbba4a8d0	-0.005025007

4.weight f4 [64]
0	0x3f0cf1c8	0.5505643
1	0x3efc1db7	0.4924142
2	0x3f3f4846	0.74719656
3	0x3f15d9ed	0.58535653
4	0x3ef6f544	0.48233998
5	0x3f0a4a00	0.54019165
6	0x3f3b4a52	0.7316028
7	0x3f466ab1	0.7750655
8	0x3f0cf5a1	0.550623
9	0x3ec49141	0.3839207
10	0x3f1f6bd9	0.6227394
11	0x3f2733b1	0.6531325
12	0x3f44c82f	0.76867956
13	0x3eb61ab9	0.35567263
14	0x3e7c005a	0.24609509
15	0x3f03a6fb	0.51426667
16	0x3f2de625	0.679293
17	0x3f1aee03	0.6051943
18	0x3f57a3e7	0.8423447
19	0x3f1bea1c	0.609041
20	0x3f1b4aa0	0.60660744
21	0x3f0a473a	0.54014933
22	0x3ed78710	0.42095232
23	0x3f18fcbe	0.59760654
24	0x3f4534cc	0.77033687
25	0x3f289988	0.6585927
26	0x3e92c46c	0.28665483
27	0x3ebacd80	0.3648491
28	0x3ed52211	0.41627553
29	0x3ecdf44d	0.4022545
30	0x3f0daeb4	0.553447
31	0x3f23714e	0.63844764
32	0x3f045a01	0.51699835
33	0x3f42a241	0.7602883
34	0x3f1245f1	0.5713797
35	0x3ec84e7b	0.39122376
36	0x3f0df632	0.5545379
37	0x3ed50aa8	0.41609693
38	0x3eb01c36	0.34396523
39	0x3f2b5374	0.66924214
40	0x3ebebe03	0.37254342
41	0x3ef96207	0.487076
42	0x3eae1c6c	0.3400606
43	0x3f242fee	0.64135635
44	0x3f13d511	0.5774699
45	0x3f2dbfc8	0.6787076
46	0x3ebd1153	0.3692728
47	0x3f4b4ad5	0.7941106
48	0x3efc3edf	0.49266717
49	0x3ebbb57b	0.36661896
50	0x3f153b2a	0.582934
51	0x3f12f87d	0.57410413
52	0x3ed6cd9e	0.41953748
53	0x3f3b17fe	0.73083484
54	0x3f3fba79	0.7489391
55	0x3f43ff39	0.76561314
56	0x3f000b94	0.50017667
57	0x3f0b65e4	0.5445235
58	0x3ecc065e	0.39848608
59	0x3f265eb3	0.6498825
60	0x3ebd4881	0.3696938
61	0x3f1e1813	0.61755484
62	0x3f3e9187	0.7444081
63	0x3f04ef14	0.51927304

4.bias f4 [64]
0	0xbf0438bf	-0.5164909
1	0xbf57eb68	-0.84343576
2	0xbeb21eb6	-0.34789056
3	0xbd1675d3	-0.03673346
4	0xbec4f7f5	-0.38470426
5	0xbeb27295	-0.34853044
6	0xbeb814b2	-0.3595329
7	0xbe686a9d	-0.2269692
8	0xbe5b64cc	-0.2142517
9	0xbecc8b5d	-0.39950076
10	0xbf4d14d4	-0.80109906
11	0xbea9a867	-0.33136293
12	0xbe11df2b	-0.14245288
13	0xbe91c2c0	-0.28468895
14	0xbed3ecaf	-0.41391513
15	0xbf0e8f77	-0.5568766
16	0xbeb47411	-0.35244802
17	0xbe82afce	-0.25524753
18	0xbe997804	-0.29974377
19	0xbe3adec1	-0.18249036
20	0xbea4e18c	-0.3220333
21	0xbf61123d	-0.87918454
22	0xbeb876cb	-0.36028132
23	0xbdf63524	-0.120218545
24	0xbe85cd08	-0.2613299
25	0xbe96ad4b	-0.29429087
26	0xbebb1990	-0.3654294
27	0xbe9d199e	-0.30683607
28	0xbe6b0d72	-0.22954348
29	0xbeed7a60	-0.46382427
30	0xbe1e71cc	-0.15473098
31	0xbe745bc5	-0.23863132
32	0xbe60e6bb	-0.21963017
33	0xbe7b6a06	-0.24552163
34	0xbdab7353	-0.08371606
35	0xbf3f3a36	-0.746982
36	0xbe49b53d	-0.19698043
37	0xbee6c6c6	-0.45073527
38	0xbf483eae	-0.7822064
39	0xbe80bd6f	-0.25144526
40	0xbefeafe2	-0.49743563
41	0xbf455afa	-0.77091944
42	0xbefeaf89	-0.49743298
43	0xbe03eeab	-0.12884013
44	0xbe962f07	-0.29332754
45	0xbdf6a458	-0.12043065
46	0xbf281646	-0.65658987
47	0xbe772921	-0.24136783
48	0xbe99862f	-0.29985186
49	0xbf44c3f3	-0.76861495
50	0xbe540122	-0.20703557
51	0xbeb11310	-0.34584856
52	0xbee83b6b	-0.45357832
53	0xbce08273	-0.027405953
54	0xbea88b01	-0.32918552
55	0xbef1cf2d	-0.47228375
56	0xbe4b0feb	-0.19830291
57	0xbea30b94	-0.3184477
58	0xbefcb5fa	-0.49357587
59	0xbe89ff57	-0.2695262
60	0xbf2a4918	-0.6651778
61	0xbe0c6930	-0.13712001
62	0xbe4e85ea	-0.20168272
63	0xbec790bd	-0.38977614

6.weight f4 [64, 64, 4, 4]
0	0xbc733bb1	-0.0148457745
1	0x3cd2de9f	0.02574092
2	0x3ce1f9a7	0.027584864
3	0xbc1e6857	-0.009668431
4	0x3c594968	0.01326213
5	0xbd075b3b	-0.03304599
6	0xbd77f9cf	-0.06054097
7	0xbd482cce	-0.048870854
8	0xbd9bd7da	-0.0760953
9	0xbe197512	-0.14986065
10	0xbe053baf	-0.13011049
11	0xbd0d1a12	-0.03444869
12	0x3d374b92	0.044749804
13	0xbccf2101	-0.025284292
14	0x3d3b2e55	0.045698483
15	0x3d3bf5a4	0.045888558
16	0x3b8444fa	0.004036543
17	0xbc4fae5c	-0.012675848
18	0xbd9ba622	-0.07600047
19	0x3de2dc1f	0.11077141
20	0xbc21528b	-0.00984634
21	0xbbd97478	-0.0066361986
22	0x3d22fb38	0.039790362
23	0x3d5eee1a	0.05442629
24	0x3dd6876a	0.10475047
25	0x3da71783	0.081587814
26	0x3d366d93	0.044538092
27	0x3d124b71	0.035716478
28	0x3d394ca3	0.045239102
29	0x3ca43b8e	0.02004793
30	0xbd2a0bdd	-0.04151522
31	0xbd684ace	-0.056711964
32	0x3d0579e0	0.032586932
33	0x3d19397c	0.037408337
34	0x3c1129c6	0.008860057
35	0x3c4eb57b	0.0126165105
36	0xbd33b079	-0.04386947
37	0x3c998df6	0.01874445
38	0x3c2ef77f	0.010679125
39	0x3ce3d829	0.027813034
40	0xbc6c5cae	-0.014426393
41	0x3ca8d729	0.020610409
42	0x3ccaeea3	0.024771994
43	0xbd92f319	-0.071752734
44	0xbc1869af	-0.009302541
45	0x3d7dd910	0.061974585
46	0xbcc8900f	-0.024482755
47	0x3d2ee7f7	0.042701688
48	0xbccc06f1	-0.024905654
49	0xbca7d656	-0.020487946
50	0xbc7495b7	-0.014928273
51	0xbc9ff52c	-0.019526087
52	0xbb8568f0	-0.0040713474
53	0x3c955006	0.018226635
54	0x3ddac2fd	0.10681722
55	0x3d70da90	0.058802187
56	0x3d100ad3	0.035166573
57	0x3d2e40d6	0.0425423
58	0x3da5eadf	0.08101439
59	0x3dca9848	0.098923266
60	0x3d329214	0.043596342
61	0xbd555fb3	-0.05209322
62	0x3abade88	0.0014256993
63	0x3d180d16	0.037121855
64	0xbd102274	-0.035189107
65	0xbaec0f70	-0.0018009972
66	0x3cd3083c	0.025760762
67	0x3cbd4baf	0.023107378
68	0x3de99867	0.114060216
69	0x3e15f93e	0.1464586
70	0x3d41c7a4	0.047309533
71	0x3d8b3549	0.06797273
72	0xbd125285	-0.035723228
73	0xbddecdd7	-0.108791046
74	0xbdb3344a	-0.08750208
75	0xbd832d21	-0.06405092
76	0xbe06eecd	-0.13177033
77	0xbe2d0fb8	-0.16900527
78	0xbdf6ba97	-0.12047308
79	0xbb00e165	-0.0019665596
80	0x3da64a44	0.08119634
81	0x3d7040a8	0.05865541
82	0x3d8a6788	0.06758028
83	0x3c205126	0.009784972
84	0xbc194ae2	-0.009356232
85	0xbc1c81f9	-0.009552472
86	0x3cfe865c	0.031069927
87	0x3bf9700b	0.0076122335
88	0xbd3004cb	-0.04297332
89	0x3cc89199	0.024483489
90	0x3c8097d7	0.015697403
91	0x3d36b5e1	0.044607047
92	0x3ce4c02f	0.027923672
93	0xbc968da9	-0.018378096
94	0xbd2ff595	-0.042958815
95	0xbd123bc6	-0.035701536
96	0x3cc26499	0.02372961
97	0x3d010948	0.031502992
98	0xbda56dba	-0.08077569
99	0xbd829d07	-0.06377607
100	0x3da0be38	0.07848781
101	0x3d61ecff	0.055157658
102	0xbdbe9ab6	-0.093068525
103	0xbd4ad07c	-0.049515232
104	0xbce51053	-0.027961886
105	0xbe16c064	-0.14721829
106	0xbd7d0fe6	-0.06178274
107	0x3d462841	0.048378233
108	0xbdf19828	-0.117965996
109	0xbdf3ae77	-0.11898511
110	0xbd040a87	-0.032236602
111	0xbcd819ad	-0.02637943
112	0x3c0693a2	0.008213909
113	0x3ccfeede	0.025382455
114	0x3d55e42e	0.052219562
115	0x3cdb880b	0.026798269
116	0x3c64dad5	0.013968189
117	0x3db54abb	0.08852144
118	0x3cf35670	0.029704303
119	0x3b90b433	0.0044160127
120	0x3c99a86e	0.018757071
121	0x3d7aa07c	0.061188206
122	0x3d1aeeef	0.03782552
123	0x3d929520	0.071573496
124	0xbd157a5c	-0.036493644
125	0x3c9983ec	0.018739663
126	0xbc6e4a6a	-0.014544109
127	0x3cd95620	0.026530325
128	0xbdc9257d	-0.098216034
129	0xbdea3da6	-0.1143754
130	0xbdf0b49e	-0.117532
131	0xbda8c333	-0.08240356
132	0xbcfe8bb8	-0.031072482
133	0xbc760d01	-0.015017749
134	0xbd416f06	-0.04722502
135	0x3c3de606	0.011590486
136	0x3ca68201	0.020325663
137	0x3cf4a6f6	0.02986477
138	0x3d9280c1	0.07153464
139	0x3df82120	0.12115693
140	0xbda15c0b	-0.07878884
141	0x3ca7ed89	0.020499008
142	0xbc65b216	-0.01401951
143	0xbd4ca70f	-0.049964007
144	0x3dc1079c	0.094252795
145	0x3dfc073b	0.123060666
146	0x3d49960d	0.049215365
147	0xbd09bef0	-0.033629358
148	0x3d2ff092	0.042954035
149	0x3cac4fde	0.021034177
150	0x3d2f5e8d	0.04281478
151	0x3d3dcb95	0.04633673
152	0x3c656a32	0.01400237
153	0x3ac71de0	0.0015191399
154	0x3c9dfc99	0.019285487
155	0x3d12321b	0.035692316
156	0xbc616f74	-0.013759483
157	0xbd9d764d	-0.0768858
158	0xbc4da399	-0.012551212
159	0x3cdb9e9b	0.026809027
160	0x3c42ac49	0.011881896
161	0x3c6d856b	0.014497141
162	0x3de1d70f	0.11027347
163	0xbcfee30c	-0.031114124
164	0x3d47e84d	0.048805524
165	0x3d5e8b3c	0.054332003
166	0x3c34126f	0.010990723
167	0xbc9df74b	-0.019282958
168	0xbc9179a5	-0.0177582
169	0xbd639bd6	-0.05556854
170	0xbd70505a	-0.05867038
171	0x3b9f0838	0.0048532747
172	0xbd296f8f	-0.041366156
173	0xbcf40986	-0.029789697
174	0xbda30070	-0.07959068
175	0xbc552470	-0.013009176
176	0x3b8fcd12	0.00438846
177	0xbcfa31ab	-0.030541262
178	0x3b94828c	0.004532164
179	0xbc5e36ac	-0.0135628395
180	0x3c3e13c6	0.011601394
181	0x3c3150fe	0.010822533
182	0x3b792949	0.0038018993
183	0xbcb51b1c	-0.022107653
184	0x3c7e81a8	0.015533842
185	0x3c7c6e58	0.015407167
186	0xbccd5b8a	-0.025068063
187	0xbc600f44	-0.013675515
188	0xbce10912	-0.027470145
189	0x3db041eb	0.08606323
190	0x3b119b72	0.0022217897
191	0x3cbce252	0.023057137
192	0xbd6e9fbe	-0.05825781
193	0xbd3f5012	-0.04670722
194	0xbdb26a47	-0.08711677
195	0xbd4e5dfc	-0.0503826
196	0xbbb25401	-0.005442143
197	0xbdbdd422	-0.09268977
198	0xbd231e75	-0.039823968
199	0xbd86a85c	-0.06575081
200	0xbd818fef	-0.06326281
201	0xbd861cc9	-0.06548459
202	0xbcfa18c1	-0.030529382
203	0x3d53fdf4	0.05175586
204	0xbdb77b0e	-0.08959018
205	0x3c9fccef	0.0195069
206	0x3dc3c036	0.09558146
207	0x3ce2ea8e	0.027699735
208	0xbdb61fb8	-0.088927686
209	0xbdcf5a43	-0.10124638
210	0x3bfacce4	0.0076538194
211	0xbd69b573	-0.05705781
212	0x3daede80	0.08538532
213	0x3b09ce3f	0.0021027473
214	0xbd86ab03	-0.06575587
215	0xbdfaa925	-0.12239293
216	0x3d7be30e	0.061495833
217	0xbdddfdc6	-0.10839419
218	0xbe2d5f59	-0.16930903
219	0xbe09dce5	-0.13463171
220	0xbceaa320	-0.028642237
221	0xbe3d6647	-0.18496047
222	0xbde39ad3	-0.11113515
223	0xbab33b8f	-0.0013674366
224	0x3da27473	0.07932367
225	0x3dc5eb35	0.09664003
226	0x3d6881d8	0.056764454
227	0xbcef81fa	-0.029236782
228	0x3c918d0a	0.017767448
229	0x3d7ac9e6	0.0612277
230	0x3c2017e0	0.009771317
231	0xbbbf04c6	-0.0058294265
232	0x3ced30e2	0.028953973
233	0x3cef7f5f	0.02923554
234	0xbdac1e11	-0.08404172
235	0xbd0dda70	-0.034632146
236	0xbd001f6b	-0.031279963
237	0x3c941430	0.018076032
238	0xbd7f2c84	-0.062298313
239	0xbceb5c22	-0.028730456
240	0xbd28aecf	-0.041182335
241	0xbc8adaa2	-0.016949955
242	0xbdbd7837	-0.09251445
243	0x3cae692f	0.02129039
244	0xbd22040f	-0.03955465
245	0xbd29c068	-0.04144326
246	0x3d1dcec9	0.038527284
247	0x3c58a862	0.013223739
248	0xbc16c249	-0.009201595
249	0x3d740202	0.059572227
250	0x3ace35a7	0.0015732542
251	0x3caa3a0a	0.020779628
252	0xbc94eab5	-0.018178323
253	0x3cb9b34e	0.022668507
254	0xbb20331c	-0.0024444526
255	0xbd6b06b2	-0.057379432

6.bias f4 [64]
0	0xbc8d632c	-0.017259203
1	0xbc294969	-0.010332444
2	0xbc70961c	-0.014684226
3	0x3cf42228	0.029801443
4	0xbc58d79e	-0.013235001
5	0xbc98f0bc	-0.018669479
6	0x3cadab7f	0.02119994
7	0x3ce55409	0.027994173
8	0xbc1ecc5e	-0.00969228
9	0xbcaccd33	-0.02109394
10	0x3bd6d824	0.0065565277
11	0x3c9c5b76	0.01908658
12	0xbca1ee53	-0.019766962
13	0xbc816495	-0.015795032
14	0xbcb83db8	-0.022490367
15	0xbba23e5b	-0.004951281
16	0x3baf52fa	0.0053504677
17	0xbc4c2095	-0.01245894
18	0x3c0a575d	0.008443681
19	0xbc138cd3	-0.009005743
20	0xbb76ed7f	-0.003767818
21	0xbc794d8d	-0.015216243
22	0x3c229afd	0.009924647
23	0xbcefe847	-0.029285563
24	0xbcc9b217	-0.024621053
25	0x3c8b3955	0.016995111
26	0xbc14d225	-0.0090833055
27	0xbcc4baf2	-0.024014924
28	0xbc2f13f9	-0.010685914
29	0x3b628cf1	0.003456887
30	0x3c89c9ed	0.016819919
31	0x3cfdde0a	0.030989666
32	0x3ca1281e	0.01967245
33	0x3cf541f2	0.029938672
34	0x3c944d47	0.018103255
35	0x3cef5a5c	0.029217891
36	0x3ca2cf9e	0.01987439
37	0xbcc96958	-0.024586365
38	0xbc51dedf	-0.012809484
39	0x3c8c9267	0.017159654
40	0x3bf9a52d	0.0076185674
41	0xbc0f6d08	-0.008754022
42	0x3cc44eab	0.023963293
43	0x3c555127	0.0130198365
44	0xbb5fc44c	-0.0034144102
45	0x3cecd4e9	0.028910117
46	0x3cfe3333	0.031030273
47	0x3b354069	0.00276568
48	0xbcaddf32	-0.021224592
49	0xbcd6035b	-0.026124647
50	0x3bce746a	0.0063004987
51	0x3b14d1e5	0.0022708115
52	0x3cd92829	0.026508408
53	0x3cfde963	0.030995077
54	0x3c258760	0.010103077
55	0xbc8f6d45	-0.017508158
56	0x3bc02bc4	0.0058645923
57	0xbcba7068	-0.022758678
58	0x3ce7a074	0.028274752
59	0xbca14b79	-0.019689308
60	0xbcd2e194	-0.02574233
61	0xbc653d83	-0.013991716
62	0xbc292f21	-0.010326178
63	0xbbfd0ffb	-0.0077228523

7.odefunc.norm1.weight f4 [65]
0	0x3f9a757a	1.2067101
1	0x3f91d8ef	1.1394328
2	0x3f5b9055	0.8576711
3	0x3f8381fa	1.0274041
4	0x3f5ac39f	0.85454744
5	0x3fa3253e	1.274574
6	0x3f8a3ea8	1.0800371
7	0x3f8758d7	1.0573987
8	0x3f99ed61	1.2025567
9	0x3f5e0700	0.8672943
10	0x3faef23a	1.3667672
11	0x3f606668	0.8765626
12	0x3f7f6858	0.9976859
13	0x3f7de88a	0.9918295
14	0x3f5e62c8	0.8686948
15	0x3f660fa8	0.8986764
16	0x3f6b6a1e	0.91958797
17	0x3f79b796	0.97545755
18	0x3fa1355a	1.2594407
19	0x3f4fe6ec	0.81211734
20	0x3f746e53	0.9548084
21	0x3fb6cf42	1.4282
22	0x3f89f408	1.0777597
23	0x3f88e174	1.0693803
24	0x3f688ea9	0.9084268
25	0x3f54b43a	0.83087504
26	0x3f5b34cf	0.85627455
27	0x3f7b9b5d	0.9828394
28	0x3f8db80c	1.1071792
29	0x3f9ca5a6	1.2238052
30	0x3f653d38	0.8954654
31	0x3fa2710e	1.2690752
32	0x3f451e70	0.7699957
33	0x3f89e56b	1.0773138
34	0x3faa9998	1.3328123
35	0x3f809750	1.0046177
36	0x3f3274e8	0.69709635
37	0x3f845832	1.0339415
38	0x3f5d63c1	0.8648034
39	0x3f9b9074	1.2153459
40	0x3f7d2cb3	0.9889633
41	0x3f662075	0.89893275
42	0x3f8f3cfe	1.1190488
43	0x3f829106	1.0200508
44	0x3f9d22fa	1.2276299
45	0x3f8925bb	1.071464
46	0x3f8d622b	1.1045583
47	0x3f73f3ba	0.9529377
48	0x3f539a93	0.82657737
49	0x3f8ecb1a	1.1155732
50	0x3f9c7f63	1.2226375
51	0x3f9dd112	1.2329428
52	0x3fa0433f	1.2520522
53	0x3fb17119	1.386264
54	0x3f9b3dd5	1.2128245
55	0x3f5685ab	0.8379771
56	0x3f952e67	1.1654786
57	0x3faa7e1f	1.3319739
58	0x3f82e917	1.0227383
59	0x3f8cc80d	1.0998551
60	0x3f6c8e5a	0.9240471
61	0x3f9b4f77	1.2133626
62	0x3f2da620	0.6783161
63	0x3f953004	1.1655278
64	0x3f66e8e0	0.9019909

7.odefunc.norm1.bias f4 [65]
0	0xbe717778	-0.2358073
1	0xbe880b86	-0.26571292
2	0xbf0f19a1	-0.5589848
3	0xbe30632d	-0.17225333
4	0xbef46bf2	-0.47738606
5	0xbe07273a	-0.13198557
6	0xbe7f8a30	-0.24955058
7	0xbe52e104	-0.20593649
8	0xbe7f4910	-0.24930215
9	0xbf06b702	-0.52623
10	0xbe70f44c	-0.23530692
11	0xbee8ca7d	-0.45466986
12	0xbf016d32	-0.50557244
13	0xbf501949	-0.8128858
14	0xbf2005e9	-0.6250902
15	0xbf18830a	-0.5957495
16	0xbf13661e	-0.57577693
17	0xbed94d6e	-0.42441887
18	0xbd400979	-0.046884034
19	0xbf3c4335	-0.7354005
20	0xbf05809c	-0.5214937
21	0xbec05388	-0.3756373
22	0xbed142f7	-0.40871403
23	0xbdeaca68	-0.11464387
24	0xbec90a4e	-0.39265674
25	0xbf2a6de6	-0.6657394
26	0xbf351d91	-0.7074824
27	0xbe55e75e	-0.20889041
28	0xbe4de644	-0.2010737
29	0xbe16880d	-0.14700337
30	0xbe862481	-0.26199725
31	0xbe2de1cf	-0.1698067
32	0xbf4cfad9	-0.80070263
33	0xbe182d4f	-0.14861034
34	0xbea78234	-0.32716525
35	0xbe8bb614	-0.27287352
36	0xbeb8d73b	-0.36101708
37	0xbef31142	-0.47474104
38	0xbf0c9ee8	-0.5492997
39	0xbef94d1f	-0.4869165
40	0xbe0f1be4	-0.13975483
41	0xbf31d7cd	-0.6946991
42	0xbe8db71c	-0.27678764
43	0xbe557135	-0.20843966
44	0xbdb73ad9	-0.08946771
45	0xbdffc190	-0.12488091
46	0xbe0a38d2	-0.13498238
47	0xbe43e1b5	-0.19129069
48	0xbf0f7a40	-0.56045914
49	0xbe8e3ff3	-0.27783164
50	0xbf1d91cc	-0.61550593
51	0xbecc8c71	-0.39950898
52	0xbe1e1426	-0.15437374
53	0xbe9af122	-0.30262095
54	0xbeb8fcbb	-0.36130318
55	0xbf250717	-0.64463943
56	0xbe65e306	-0.22449884
57	0xbe29b47d	-0.16572757
58	0xbf4d29b7	-0.80141777
59	0xbf1e809f	-0.6191501
60	0xbe0b727f	-0.13617896
61	0xbea487fd	-0.32135
62	0xbf332582	-0.6997911
63	0xbf170880	-0.58997345
64	0xbf4e330f	-0.8054666

7.odefunc.conv1._layer.weight f4 [65, 66, 3, 3]
0	0x3cd1e276	0.02562068
1	0x3b8000ea	0.003906359
2	0x3c8e320f	0.017357854
3	0x3c9eb9e3	0.019375747
4	0x3d17848e	0.03699165
5	0xbd562aa1	-0.052286748
6	0x3ceee7ae	0.029163208
7	0xbc9e16ab	-0.019297918
8	0xbd6e0feb	-0.05812065
9	0x3d2d39da	0.0422915
10	0xbd2aa538	-0.04166147
11	0xbcd037a7	-0.025417162
12	0xbdb79c44	-0.08965352
13	0xbe5fa10e	-0.21838781
14	0xbd93eb68	-0.072226346
15	0xbc6b32ed	-0.014355403
16	0x3e1c8b3e	0.15287492
17	0x3e0e037b	0.13868515
18	0x3d0a0934	0.033700183
19	0xbd28a788	-0.041175395
20	0x3db71db2	0.08941211
21	0x3e1ee7fc	0.15518183
22	0xbdead3d6	-0.11466186
23	0xbe01b559	-0.12666835
24	0xbc24d1bf	-0.010059773
25	0xbba0c32e	-0.0049060797
26	0xbd78e995	-0.060769636
27	0xbe2ea78b	-0.170561
28	0x3dc90beb	0.09816726
29	0x3e0081ec	0.12549561
30	0xbc10f405	-0.008847241
31	0xbc30f650	-0.010800913
32	0x3e7aade8	0.24480402
33	0x3c7ded43	0.015498462
34	0x3cb30e57	0.021857424
35	0xbd64b442	-0.05583597
36	0xbc983648	-0.01858057
37	0xbd35cafe	-0.04438304
38	0xbd0879b3	-0.033319186
39	0xbd215289	-0.039385352
40	0xba900f45	-0.0010990879
41	0xbc232aaa	-0.009958902
42	0xbd45163a	-0.0481169
43	0x3d5c67a2	0.05380977
44	0x3d27aca3	0.040936124
45	0x3b788413	0.003792052
46	0xbcd14cf6	-0.025549393
47	0x3de7b688	0.11314112
48	0xbdc42231	-0.09576834
49	0xbe0cf907	-0.13766871
50	0xbcaabb22	-0.020841185
51	0x3e1cb7c4	0.15304476
52	0x3cbc03a8	0.022950962
53	0x3c6decb2	0.014521765
54	0x3dc376fb	0.09544178
55	0xbd0cdc19	-0.03438959
56	0xbe3fabfe	-0.18717954
57	0xbe288611	-0.16457392
58	0xbd46768d	-0.048452903
59	0xbce7022b	-0.028199276
60	0x3e4b02fc	0.19825357
61	0x3ca7c9ca	0.020481963
62	0xbe42be19	-0.19017829
63	0x3c8418e6	0.016125154
64	0xbcd43aa2	-0.025906865
65	0xbd38b38d	-0.045093108
66	0x3d4fd098	0.05073604
67	0x3d29193d	0.041283835
68	0xbda635ea	-0.08115752
69	0x3d5b3194	0.05351408
70	0xbdcabc1c	-0.0989916
71	0xbe2f9da0	-0.17149973
72	0x3d17885d	0.03699528
73	0x3e11a309	0.14222349
74	0xbd4571b2	-0.04820413
75	0x3c6617d5	0.014043768
76	0xbc44b956	-0.012007078
77	0x3db49497	0.08817404
78	0xbe21f258	-0.15815103
79	0xbdac2075	-0.08404628
80	0xbcfa3db9	-0.03054701
81	0xbd8a2570	-0.06745422
82	0xbd305e0e	-0.043058448
83	0xbd3abdb5	-0.045591075
84	0xbe9a1955	-0.30097452
85	0xbdc37638	-0.09544033
86	0x3d9265ba	0.07148309
87	0xbd81097e	-0.063006386
88	0x3d044bb3	0.032298755
89	0xbd5639e4	-0.052301303
90	0xbd2d9f7e	-0.04238843
91	0xbdf2588f	-0.118332975
92	0xbe0b18f4	-0.13583738
93	0xbd97440d	-0.073860265
94	0x3b84b481	0.004049838
95	0x3e2c013a	0.16797343
96	0xbdbab84f	-0.09117185
97	0xbd5ab4ac	-0.05339496
98	0x3dd4712d	0.10373149
99	0xbd8055e2	-0.06266381
100	0xbcef72b4	-0.0292295
101	0xbc93a42c	-0.01802262
102	0xbd980ee6	-0.07424717
103	0xbd9cddf8	-0.07659525
104	0x3d27657f	0.04086828
105	0xbc1232d3	-0.00892325
106	0x3e152256	0.1456388
107	0xbd59e76c	-0.053199217
108	0xbdb1bf68	-0.08679086
109	0x3d2b5b15	0.04183491
110	0x3df1b7c8	0.118026316
111	0xbe2c1967	-0.16806565
112	0xbde826d1	-0.11335529
113	0x3dae29f7	0.08504098
114	0x3c7896c8	0.015172668
115	0x3df4ee1a	0.11959477
116	0xbd9e6ac4	-0.07735208
117	0x3d87e79f	0.06635975
118	0xbcbf0610	-0.02331832
119	0x3d672802	0.05643464
120	0xbd206514	-0.039158896
121	0xbe217824	-0.15768486
122	0xbc9a8d7b	-0.018866291
123	0x3daab344	0.083349735
124	0x3dc3f80e	0.09568797
125	0x3d074c4b	0.033031743
126	0xbe6ea907	-0.23306666
127	0xbd4f8521	-0.05066407
128	0x3d72e1b4	0.05929728
129	0x3e7728fc	0.24136728
130	0x3d963c28	0.07335693
131	0x3db45dfd	0.08806989
132	0x3ef633b2	0.48086315
133	0x3bb4c123	0.0055161878
134	0xbdbb357f	-0.09141063
135	0xbd802d8d	-0.06258688
136	0x3cf87ac5	0.030331979
137	0x3e551fe1	0.20812942
138	0xbd0995dd	-0.033590186
139	0x3cce9328	0.025216654
140	0x3d28de74	0.041227773
141	0x3dc62add	0.09676144
142	0x3d802cd3	0.062585495
143	0xbb0474d6	-0.0020211241
144	0xbcd504a4	-0.02600319
145	0xbd6b6d01	-0.057477
146	0xbae65661	-0.001757335
147	0x3a16417e	0.0005731805
148	0xbe12bd61	-0.14330055
149	0x3d792568	0.06082669
150	0xbba09c91	-0.0049014767
151	0x3d8ef1ed	0.069797374
152	0x3cdd75bc	0.02703368
153	0xbd95444d	-0.07288418
154	0xbd8bf82e	-0.06834446
155	0xbdc6c060	-0.09704661
156	0x3dfc514d	0.123201944
157	0x3d3a27ed	0.045448232
158	0x3e09c7b0	0.13455081
159	0x3e54533f	0.20734881
160	0x3d3acfa9	0.045608196
161	0x3df8993f	0.121386044
162	0x3da5b378	0.080908716
163	0x3e0e1f2a	0.13879076
164	0xbc174149	-0.009231874
165	0xbd545235	-0.05183621
166	0x3e301087	0.17193805
167	0xbcd546c0	-0.026034713
168	0xbb98fbcf	-0.00466869
169	0xbd4b6cb9	-0.049664233
170	0xbd99ad54	-0.07503763
171	0x3ba52a7d	0.0050404654
172	0x3cf147d8	0.029453203
173	0x3d2338b4	0.039849
174	0xbd77670e	-0.060401015
175	0xbdf04f55	-0.117338814
176	0xbe16a32e	-0.14710686
177	0x3c4b7e7e	0.012420295
178	0xbc3bd659	-0.011464679
179	0x3e3cbb23	0.18430762
180	0x3d0d0725	0.03443064
181	0xbdce7e41	-0.10082675
182	0xbdb7d8eb	-0.08976921
183	0xbb08fb34	-0.0020901682
184	0x3d7a5725	0.061118264
185	0x3cbfb604	0.023402222
186	0xbd426c06	-0.0474663
187	0x3dcec79d	0.10096667
188	0x3e39ea95	0.18155892
189	0xbdcfd559	-0.10148115
190	0xbe351ce9	-0.1768681
191	0xbc7f18b6	-0.015569856
192	0x3c9788da	0.018497873
193	0x3e6d7b16	0.23191485
194	0x3de69b40	0.1126008
195	0x3dee366a	0.116314724
196	0x3daa0687	0.08302026
197	0xbe0de094	-0.13855201
198	0xbd8ab3e5	-0.067725934
199	0x3e0ab675	0.13546164
200	0x3e0f61cc	0.1400215
201	0x3e10bc18	0.14134252
202	0x3cdb5872	0.026775572
203	0x3de5d115	0.1122152
204	0xbdd45d44	-0.103693515
205	0xbdfafd76	-0.12255375
206	0x3d08bde6	0.033384226
207	0xbbeb14e9	-0.0071741235
208	0xbc78ea9b	-0.015192653
209	0x3d698947	0.057015684
210	0xbce0f61e	-0.027461108
211	0x3b96772f	0.0045918445
212	0xbda8ea4f	-0.08247816
213	0xbd83fe03	-0.06444933
214	0x3bbbb7e8	0.0057287104
215	0x3c1cba1e	0.009565858
216	0x3ce89e69	0.028395848
217	0xbd27c3b9	-0.04095814
218	0x3cd507e0	0.026004732
219	0xbd22236b	-0.03958456
220	0x3d65de5c	0.05612026
221	0xbda6fc19	-0.081535526
222	0xbda446b8	-0.08021301
223	0xbcb516bc	-0.022105567
224	0x3d211a00	0.039331436
225	0xb9fb5c78	-0.00047943345
226	0x3dff186e	0.124558315
227	0x3e266184	0.16248137
228	0x3d9122b0	0.07086694
229	0xbcd1d187	-0.025612606
230	0x3bd90fe3	0.0066242083
231	0x3dad9641	0.08475924
232	0xbd0e83ab	-0.034793537
233	0xbd765416	-0.060138784
234	0xbda14ac7	-0.07875591
235	0x3dbb770b	0.09153565
236	0x3e10ab6a	0.1412789
237	0xbd4dac9a	-0.050213434
238	0x3c3974a6	0.011319315
239	0xbe5b02a9	-0.21387734
240	0xbd5a21ee	-0.053255014
241	0xbdd5a9bb	-0.10432764
242	0xbe2d83a5	-0.1694475
243	0xbe58443e	-0.21119782
244	0x3d9a8ee4	0.075467855
245	0x3eaa9bc5	0.33321968
246	0x3d918c41	0.071068294
247	0x3e06ebd1	0.13175894
248	0x3e2d2114	0.1690715
249	0x3e540cf0	0.2070806
250	0xbc1b3cbf	-0.009474932
251	0xbe3dcfa4	-0.1853624
252	0x3d5b8ca2	0.053600915
253	0x3cb266b0	0.02177748
254	0x3d812208	0.06305319
255	0xbdbf0da6	-0.09328775

7.odefunc.conv1._layer.bias f4 [65]
0	0xbd059e08	-0.032621413
1	0xbd03c48c	-0.032169864
2	0x3d151294	0.03639467
3	0x3c33ff23	0.010986122
4	0x3d12d60b	0.03584866
5	0x3ca8d814	0.020610847
6	0x3d015041	0.031570677
7	0xbc0515fb	-0.008122916
8	0x3ca2ca8d	0.019871974
9	0xbb987176	-0.0046521975
10	0xb9443613	-0.00018712161
11	0x3d0a33a5	0.03374066
12	0x3d0f308f	0.03495842
13	0x3c97e0c1	0.018539788
14	0xba788e75	-0.0009481677
15	0x3a9e9c9e	0.0012101119
16	0x3d0a0eab	0.033705395
17	0x3d0435eb	0.032277983
18	0xbc951d69	-0.0182025
19	0x3c3f2831	0.011667297
20	0xbc48cf75	-0.012256493
21	0xbc4730a4	-0.012157593
22	0x3cb70253	0.022339975
23	0x3c9fd04f	0.019508509
24	0xbb4233fb	-0.0029633034
25	0x3be0b94f	0.006858028
26	0x3c2c64f5	0.010522117
27	0x3d086705	0.033301372
28	0xbce47320	-0.027886927
29	0x3cbc6112	0.022995505
30	0xbd15cd30	-0.036572635
31	0xbc9bbd7f	-0.019011257
32	0xbcb991c9	-0.022652524
33	0x3c53c236	0.012924721
34	0xbcde45ef	-0.027132956
35	0xbcc5fccf	-0.0241684
36	0xbcdbe3b8	-0.026841983
37	0x3d0bb2f7	0.03410622
38	0xbcbdd7cb	-0.023174187
39	0x3d2365a7	0.039891865
40	0xbcd99374	-0.026559569
41	0xbbfb46ff	-0.0076683755
42	0x3d1dde3e	0.038542025
43	0x3b527b42	0.0032116924
44	0x3c8c5029	0.017128067
45	0xbd218b3e	-0.039439432
46	0xbc8d8489	-0.017275112
47	0x3b6a61d7	0.0035763883
48	0x3cc48173	0.023987507
49	0x3cd94755	0.026523272
50	0xbcd8f594	-0.026484288
51	0x3c8e9eff	0.0174098
52	0xbcfe4982	-0.03104091
53	0x3d24c554	0.04022725
54	0x3bfe96b0	0.007769428
55	0x3cf81cec	0.030287229
56	0xbc01ffeb	-0.007934551
57	0xbc04e581	-0.008111359
58	0xbb9331a1	-0.004492
59	0xbbdcf001	-0.006742478
60	0xbd24a542	-0.040196665
61	0x3d1fd54f	0.039021786
62	0xbcb6937d	-0.022287125
63	0x3cc4a9ed	0.024006808
64	0xbd112cf8	-0.035443276

7.odefunc.norm2.weight f4 [65]
0	0x3f3b503b	0.73169297
1	0x3f470a90	0.7775049
2	0x3f3286ab	0.69736737
3	0x3f739762	0.95152867
4	0x3f59eed2	0.85130036
5	0x3f4ccc6c	0.79999423
6	0x3f56aa7b	0.8385388
7	0x3f757da2	0.95894825
8	0x3f8460b0	1.0342007
9	0x3f8b60f9	1.0888969
10	0x3f97e20c	1.1865859
11	0x3f4787a5	0.7794135
12	0x3f735781	0.95055395
13	0x3f4d8f71	0.80297
14	0x3f7366f3	0.95078963
15	0x3f54c051	0.8310595
16	0x3f799a60	0.9750118
17	0x3f5bfd82	0.859337
18	0x3f7ae082	0.9799882
19	0x3f8bda29	1.0925952
20	0x3f6791d0	0.9045687
21	0x3f5bc10d	0.8584145
22	0x3f4b3dfb	0.7939145
23	0x3f521d29	0.82075745
24	0x3f58c008	0.84668016
25	0x3f5d1216	0.8635572
26	0x3f88902f	1.0669001
27	0x3f8670ed	1.0503212
28	0x3f682623	0.9068319
29	0x3f55268c	0.8326194
30	0x3f562fb1	0.8366652
31	0x3f8d8d14	1.1058679
32	0x3f712b3a	0.94206583
33	0x3f25659a	0.64608157
34	0x3f66b611	0.9012156
35	0x3f5837f0	0.84460354
36	0x3f66682c	0.90002704
37	0x3f4b7e8f	0.7948999
38	0x3f653261	0.8953
39	0x3f77bdfe	0.9677428
40	0x3f7f3bca	0.99700606
41	0x3f6b274b	0.9185683
42	0x3f7b5130	0.9817076
43	0x3f8823a2	1.0635874
44	0x3f492a85	0.78580505
45	0x3f777133	0.96657103
46	0x3f5bcec2	0.8586236
47	0x3f2a68b3	0.6656601
48	0x3f6efe8b	0.9335715
49	0x3f86a938	1.0520391
50	0x3f433deb	0.76266354
51	0x3f5710d0	0.8401003
52	0x3f586088	0.84522295
53	0x3f7635fb	0.9617612
54	0x3f689757	0.90855926
55	0x3f886591	1.0655996
56	0x3f6a84ce	0.91608894
57	0x3f673dfa	0.90328944
58	0x3f900cb7	1.125388
59	0x3f6784f7	0.90437263
60	0x3f717660	0.9432125
61	0x3f70d05d	0.9406794
62	0x3f61b4fa	0.88166773
63	0x3f70202d	0.93799096
64	0x3f7152f9	0.9426723

7.odefunc.norm2.bias f4 [65]
0	0xbf34b9b7	-0.7059588
1	0xbf29d357	-0.66338104
2	0xbf278baa	-0.65447485
3	0xbf455f27	-0.77098316
4	0xbf39c3bf	-0.7256431
5	0xbf2df538	-0.679523
6	0xbf0d3995	-0.5516599
7	0xbf13a9c8	-0.5768094
8	0xbf0b618a	-0.5444571
9	0xbed8f8b4	-0.42377245
10	0xbf1bae0c	-0.6081245
11	0xbf354f59	-0.708242
12	0xbf38db29	-0.7220941
13	0xbf2d7464	-0.67755723
14	0xbf4a27fa	-0.7896725
15	0xbf32163e	-0.6956519
16	0xbefba506	-0.4914934
17	0xbf4918b1	-0.785533
18	0xbf1ae658	-0.60507727
19	0xbf16ae74	-0.58859944
20	0xbf4a1769	-0.7894197
21	0xbf6dd3b3	-0.9290115
22	0xbf3cfdf8	-0.73825026
23	0xbf1c5f6b	-0.61083096
24	0xbf1411ce	-0.5783967
25	0xbf37e8c5	-0.71839553
26	0xbf050ec3	-0.5197565
27	0xbf165eeb	-0.58738583
28	0xbf3b891e	-0.732561
29	0xbf342dc1	-0.70382315
30	0xbf3b2c98	-0.7311492
31	0xbf403b5f	-0.75090593
32	0xbf3d4289	-0.7392965
33	0xbf31385c	-0.6922662
34	0xbf125c9b	-0.57172555
35	0xbf40db6a	-0.753348
36	0xbf2a94f1	-0.66633517
37	0xbf5710fb	-0.84010285
38	0xbf1e839c	-0.6191957
39	0xbf0e432e	-0.5557126
40	0xbf0465d3	-0.5171787
41	0xbf286a94	-0.65787625
42	0xbf28b440	-0.6590004
43	0xbed4ac64	-0.41537774
44	0xbf3dbeb6	-0.74119127
45	0xbf5771da	-0.841581
46	0xbf273793	-0.65319175
47	0xbf26e97b	-0.6520001
48	0xbf0d251b	-0.55134743
49	0xbf075bf8	-0.5287471
50	0xbf36f0c6	-0.7146114
51	0xbf44f71c	-0.7693956
52	0xbf27fbdc	-0.6561868
53	0xbf4c6d80	-0.79854584
54	0xbf3a7858	-0.7283988
55	0xbf11bda6	-0.56930006
56	0xbf1a564c	-0.6028793
57	0xbf06c289	-0.5264059
58	0xbf0a2c2c	-0.5397365
59	0xbefb0c39	-0.49032763
60	0xbea3a400	-0.3196106
61	0xbf1b339f	-0.6062564
62	0xbf494841	-0.78625876
63	0xbf2bc9e8	-0.6710496
64	0xbf0e1e2a	-0.55514777
