experiment_anode10_mnist_v3/model.pth (torch_old, 938011 bytes, 24 tensors)

0.weight f4 [64, 1, 3, 3]
00000000: bf92 73bc 879a abbd 9ff4 003f f24a 27bf
00000010: 80ee 163e d0e0 c13e bb7e acbe f937 dcbe
00000020: 9bcd a2bd 3444 13bf f2a6 1fbf 0f69 aebd
00000030: 7767 053f cc7b 0b3e cb2a acbd 0fab 8f3d
00000040: e7d5 bd3e 2b7b eebe 5d2a 7cbe 45ce 9fbe
00000050: 166a c33e 6e54 8bbd 4ea3 6dbe ba50 2dbd
00000060: df4f 013e fe5d aebe df02 6e3d 9500 723d
00000070: 8d25 e63e 3797 b73c 0666 8ebe e1ee 94bd
00000080: eb3d 52bf 30a9 9d3e b5b5 183f 4b89 7a3d
00000090: 0001 6d3e 6d8c 033e d8ec 873e 91d8 d03d
000000a0: d8d3 b73e e371 cf3e 193b 4e3e 6374 f7be
000000b0: ae77 9dbe 3bf0 d5bd 0a16 86bc f647 4d3c
000000c0: 6ff2 fd3e a1df 033e de99 61be c802 2a3f
000000d0: fe15 f2be 63fd f6be 4485 af3d e747 5abe
000000e0: 47ce ea3d 773a e13e 1c2e 813d 5d33 953e
000000f0: 4387 ab3d 3409 a73e d6c7 4d3e a374 493f
00000100: bad2 47be edd3 bdbd eff4 57be 607c e9be
00000110: 949c e13d 1fa1 15bf b5d8 e83e 4b52 3a3e
00000120: ca1d 5b3e 8296 60be 3a27 e1be 1a84 cd3e
00000130: 599d 82be 8016 d9be 919f b23e 1c09 04bf
00000140: 06ed 0abe 9c03 093f 43c0 2fbe dcdb dabe
00000150: de1d 203f c102 efbe 4a39 78be e7c1 fe3e
00000160: 752b dbbd f0bf 94bd 0b5c d83e a14e 393d
00000170: 6aa2 eabe 5abf 893e 746b a2bd 9daa 12bf
00000180: 9c44 e3bd 86ea 83be 2025 13be 0925 96bd
00000190: da6e 4dbd a271 82be fad2 95be 4cfb 26be
000001a0: 91ef 78be 52e3 e3bb e76c 78be 25d3 ac3e
000001b0: 7b8c c03e 1a51 0abd 871a e9be d34f 1a3f
000001c0: ee19 29be fc06 efbe a552 103f ef20 32be
000001d0: 86be c8bd 2f59 eebd 9ae2 2bbe 5201 77be
000001e0: 7c68 88be 89c9 67be 545c 92be 6da5 3b3e
000001f0: 3d8a 973e d71c e43d bc22 a43d fdc1 1abf
00000200: aca6 0ebf 8003 033f 6611 913e 873a 0fbf
00000210: 4924 c43e 500f f23d 643d c63e 0472 ee3b
00000220: f433 58be 6b70 53be 62f3 78be fc67 04be
00000230: 84c9 203e c439 a1bd 9a28 7cbe dbe8 b9be
00000240: def6 663e 18d9 e93c ef3d 013e 0868 1a3e
00000250: a5c8 623e ca03 ac3e 95e2 663e 3224 8bbd
00000260: 79b0 bcbd 4cd3 4a3e 38f4 d33d 41b3 c53e
00000270: ecd9 6d3e 1fea b13e e229 703e c7bc 08bf
00000280: 9d49 abbe b5c3 28bf 3e50 05bf 9741 ecbc
00000290: 5497 dd3e f57e b4be d149 583e e5d4 a63e
000002a0: 77f4 a33e dc0f 553e 15fe b23d 8ad2 7abe
000002b0: 5ce1 4bbf bfa2 8a3d dd05 14bf 6b7f 033e
000002c0: db89 403f bcce 1c3e 3026 f93e b2ee 3d3e
000002d0: af0d f73d 0b8e d03d 4432 d3be 2dc9 da3d
000002e0: d4be 703e d9bc a63e d824 213e 87a0 bb3e
000002f0: 3c68 cbbe 253a 6bbe f552 b7be 8ea7 8abe
00000300: e18c d1be 1c0c fb3d d91f f7bd 9dce a5bd
00000310: 8f8c 0e3e dee5 923e dffd dfbe f3ad 1b3f
00000320: 0998 b6be f2fb 8abe cc9f dc3e fdeb d7be
00000330: 8b67 563e 4de5 b83e a0fb 313e b211 8ebe
00000340: d147 bfbe 1283 213f 0023 9ebe bfe3 4fbe
00000350: eab3 b53e ca2f 1fbd 903d eebe f36f 79bd
00000360: 0f7e eebc 5a44 71be 6546 bfbe 65c4 c23e
00000370: 578d a5bd 74b8 afbe 20bc 35bd fa1b 3ebe
00000380: 7ab1 87be a058 153f 9003 8c3e 0c1a cf3d
00000390: d8bb 19bf 484f 4fbe 0d6c efbd 9eeb c3be
000003a0: dddc 30bd 46f0 d7be 3b24 92be 94bc 27be
000003b0: 39de 173e 9fb4 89bd c4c8 9dbe cb52 223e
000003c0: a579 8cbe df0e b8bd 0f0b 4cbe 21e3 b0be
000003d0: 6fcc 013e fc7f a63e 0e3e de3e c92a 8a3e
000003e0: 7d9f ce3e b1fa 1c3e a6e1 cdbe c296 b5bd
000003f0: 50d1 0f3d 65bc b6be f62d c6be 8f56 c5be
-0.01486653 -0.08379083 0.5037326 -0.6534873 0.14739418 0.3786683 -0.33690438 -0.43011454
-0.079493724 -0.57525945 -0.62364113 -0.08516132 0.52111 0.13621444 -0.084065996 0.07015049
0.37077257 -0.46578345 -0.24625535 -0.3121206 0.38166875 -0.06803213 -0.23206827 -0.042313315
0.12628125 -0.34056085 0.058108207 0.059082586 0.44950524 0.022410972 -0.27812213 -0.07272125
-0.8212573 0.30793142 0.5965226 0.06116609 0.23144913 0.12846537 0.26547885 0.10197557
0.3590381 0.40516576 0.20139731 -0.48330984 -0.3075537 -0.10446211 -0.01636793 0.012529364
0.49599025 0.12878276 -0.22031352 0.66410494 -0.47282404 -0.48240194 0.0857034 -0.21316491
0.114651255 0.43989918 0.06307623 0.2914075 0.083754085 0.3262421 0.20095763 0.786936
-0.1951398 -0.09268937 -0.21089529 -0.45602703 0.11016193 -0.58448976 0.45477834 0.18195455
0.21398082 -0.21932414 -0.4397524 0.40139848 -0.25510672 -0.4239998 0.34887365 -0.515764
-0.1356698 0.5352113 -0.17163186 -0.42745864 0.62545574 -0.4668179 -0.24240604 0.4975731
-0.10701648 -0.07263172 0.42257723 0.045241002 -0.45827037 0.26903802 -0.07930651 -0.57291585
-0.110970706 -0.25764865 -0.14369631 -0.07331283 -0.050154544 -0.2547732 -0.29262525 -0.163068
-0.24310137 -0.006954589 -0.24260293 0.3375484 0.37607178 -0.03376875 -0.4552805 0.6027805
-0.16513798 -0.46685016 0.56376106 -0.17395376 -0.098019645 -0.11638104 -0.1678566 -0.24121597
-0.26642215 -0.22635473 -0.28586066 0.18324824 0.29597655 0.11138313 0.080144376 -0.6045225
-0.5572307 0.51177216 0.28333586 -0.5594868 0.38308933 0.11819327 0.38718712 0.0072767753
-0.21113569 -0.20648353 -0.24311593 -0.12930292 0.15701872 -0.07872346 -0.24624863 -0.36310467
0.2255511 0.028545901 0.12621282 0.15078747 0.22146852 0.3359664 0.22547372 -0.06794013
-0.09213347 0.19807166 0.103493154 0.38613322 0.23227662 0.34748933 0.23453477 -0.5341305
-0.334546 -0.65923625 -0.52075565 -0.02883987 0.43279517 -0.3525311 0.21121909 0.325843
0.3202245 0.20806831 0.087398686 -0.24494377 -0.79640746 0.067693226 -0.57821447 0.12841575
0.7521035 0.15313238 0.48661947 0.18548086 0.12063157 0.101833425 -0.41249287 0.106829025
0.23510295 0.32565954 0.15736711 0.3664591 -0.39727962 -0.22971399 -0.3580548 -0.2708096
-0.40927795 0.12258169 -0.12066621 -0.08096049 0.13920806 0.28691 -0.43748376 0.608123
-0.3566287 -0.27145344 0.43090665 -0.42172232 0.20937936 0.36112443 0.17381144 -0.27747875
-0.3735948 0.6309062 -0.30886078 -0.20301722 0.35488826 -0.038863935 -0.46531343 -0.06089778
-0.029112844 -0.2356123 -0.37358394 0.38040462 -0.08083599 -0.34320414 -0.044368863 -0.1856536
-0.2650259 0.58338356 0.27346468 0.1011239 -0.6005225 -0.20245087 -0.11690531 -0.382657
-0.04317938 -0.42175502 -0.28543267 -0.1638053 0.14830865 -0.06723904 -0.30817235 0.15851896
-0.27436557 -0.089872114 -0.19926094 -0.34548286 0.12675641 0.3251952 0.4340672 0.26985767
0.40356055 0.15330006 -0.4021122 -0.088666454 0.035111725 -0.3569061 -0.3870694 -0.385426

0.bias f4 [64]
00000000: 636a 13be d6f0 7fbe 5c21 edbd e7aa 2d3e
00000010: 8fa8 1e3e afa5 423c 18db 58be 0c9b a2be
00000020: 251f e13a 2e3d 5b3c e8e0 99be 9098 5abe
00000030: e00d a4be 7365 26be 7337 9a3e c9d5 a13e
00000040: dee4 2cbe 38f5 093e 82b2 63be e57a 943e
00000050: 4595 acbc 76ff 2dbe 8b88 473d bea1 60bd
00000060: e80c 5cbe 7a61 83be 9199 883e 4c9c 3bbe
00000070: baf3 8abe aca3 86be e42d 1fbe 685c 693e
00000080: 728f 983d a8aa 06be 2620 79be 7490 87bd
00000090: 2128 3eba 1040 7ebe c1bf 7fbd 9dfd 503c
000000a0: b966 953e 5609 f33d fd28 a93e ca78 8abe
000000b0: c095 6dbe 57d1 8ebe 883c 40be e52a cebd
000000c0: 818c 86be 5999 8b3e 9379 3cbe a683 163e
000000d0: 5a69 673e c54d 553e e0f4 87be 4ee5 203e
000000e0: 8094 473e 3608 04be fc8f fc3d c6f2 10be
000000f0: 59a7 9b3e 311b 33be 3941 273e 0ab9 0ebd
-0.14396052 -0.24994215 -0.115786284 0.16959725 0.15493988 0.011880322 -0.21177328 -0.31758916
0.001717542 0.013381286 -0.30054402 -0.2134726 -0.32041836 -0.16249637 0.3012043 0.31608418
-0.16884181 0.1347245 -0.22236064 0.2900001 -0.021067271 -0.16991982 0.048714202 -0.05484175
-0.21489298 -0.25660306 0.26679662 -0.18321341 -0.27139074 -0.26296747 -0.1554485 0.22789156
0.07449235 -0.13151038 -0.2432867 -0.06619349 -0.00072539045 -0.24829125 -0.06243873 0.012755779
0.29179934 0.11867015 0.33039084 -0.2704528 -0.23201656 -0.2789409 -0.18773091 -0.10066775
-0.2627907 0.27265432 -0.18405752 0.14698657 0.22598782 0.20830448 -0.26554012 0.15712473
0.19490242 -0.12893757 0.1233215 -0.1415511 0.30401114 -0.17490841 0.16333474 -0.034844436

1.weight f4 [64]
00000000: a271 8e3f 9b3a 953f b429 8e3f 7f33 333f
00000010: 5bbb 2a3f 6720 603f 3165 383f e978 703f
00000020: 68e2 9d3f f178 7a3f 4980 923f 81cb 873f
00000030: cb04 7d3f 2f0e 833f 2ae9 683f 8051 843f
00000040: 3bb1 1d3f e4f7 533f b0bf 423f d430 8c3f
00000050: 4a54 1b3f 4a9b 873f f800 443f 243f 9a3f
00000060: d8ef 8e3f 83f4 913f 616e 893f a500 2a3f
00000070: 8501 9e3f 6f0b b03f 29de 903f d6ea 433f
00000080: 89de 903f b021 4b3f cd44 8c3f 4fc0 8d3f
00000090: 38dc 8c3f 995e b33f fe09 883f 210b 9f3f
000000a0: 5a11 873f 8dd5 5b3f a918 863f 33cf a43f
000000b0: 2ffb 503f 61d8 a23f ebf4 3a3f 6eb3 823f
000000c0: 47b3 4e3f 28b3 923f 8a83 983f 228f 913f
000000d0: 61b7 8c3f ffd1 363f 806f 543f f4fe 903f
000000e0: 4a8f 5d3f e227 8d3f cd13 8d3f c128 8f3f
000000f0: ee17 313f 66fa a93f d92a 763f 758b 513f
1.1128428 1.165851 1.1106477 0.7000045 0.6669213 0.8754944 0.72029406 0.93934494
1.2334719 0.9784079 1.14454 1.060898 0.9883544 1.0238703 0.9098078 1.0337372
0.6159856 0.82800126 0.7607374 1.0952401 0.6067549 1.0594265 0.7656398 1.2050519
1.1166945 1.1402744 1.073681 0.66407233 1.2344214 1.3753489 1.1317798 0.76530206
1.1317912 0.7934828 1.0958496 1.1074313 1.1004705 1.4013244 1.0628049 1.2425271
1.055217 0.8587273 1.0476276 1.2875732 0.81633276 1.2722284 0.73029965 1.0211008
0.80742306 1.1460924 1.1915143 1.1371806 1.0993463 0.7141418 0.82982635 1.1327806
0.86546767 1.1027796 1.1021668 1.1184312 0.6917714 1.327954 0.9615913 0.8185342

1.bias f4 [64]
00000000: 252b 5abd 4f4d ec3d 7761 753c 7161 5a3d
00000010: 0f4f 28be 1c8d 6ebe 0fbb 97be f0c5 3abe
00000020: f884 d73d 1572 83be 0d62 153e 46db 923c
00000030: 6aad 99be 4ef4 333d e8b9 a3bd 5d75 19bd
00000040: c6f0 74be b0ce bcbc b552 91be 6652 33be
00000050: be75 6abe 09cb 173c 2dfa 8a3d 8fd7 a1be
00000060: d3e0 fd3d 6679 b63c ea89 d8bc 8bfb 56be
00000070: 6a02 ee3d e163 a6bd 19fd 9dbe 1e5e dfbd
00000080: 53ec 52be 1ca8 c1bd f53e c03d 1a22 2bbc
00000090: dd17 d8bd 7655 a53e 6e67 0fbd 2cca 533e
000000a0: 126a 563e 1a2b 40bd d538 983d a6ba 923e
000000b0: 0f7b bbbe cb25 833d 0eeb 833b 2fa8 03be
000000c0: 0093 48bd 2577 1ebc bf42 e33d 4739 01be
000000d0: b562 963e 70b4 88be a850 18bb b942 473d
000000e0: 523f 05bf 8f1d 143e 3b87 49be 7016 aa3d
000000f0: 62b2 c4be a433 373d 8592 7abe d894 72be
-0.053263802 0.11538183 0.014976851 0.053315584 -0.16436408 -0.23296016 -0.29634902 -0.1823957
0.10523409 -0.25672975 0.14588185 0.017926823 -0.30015117 0.04393416 -0.07994443 -0.037465442
-0.23919973 -0.023047775 -0.28383413 -0.17511901 -0.22896478 0.009264716 0.067859985 -0.3160977
0.123963974 0.022274684 -0.02643295 -0.20994394 0.11621554 -0.08124519 -0.3085716 -0.10906623
-0.20597963 -0.094558924 0.09387008 -0.010445142 -0.105514266 0.32291764 -0.035010748 0.20682591
0.209389 -0.046916105 0.07432715 0.28658026 -0.36617324 0.06403693 0.0040258234 -0.12857126
-0.048968315 -0.009671961 0.11096715 -0.12619506 0.29372182 -0.26700163 -0.0023241434 0.048647616
-0.52049744 0.144644 -0.19680493 0.08305061 -0.38417345 0.044726983 -0.24469955 -0.23689592

3.weight f4 [64, 64, 4, 4]
00000000: 44d4 aebc 3f4f a3bd 8092 97bd f3bd 73bc
00000010: c9ec 7dbd 6833 b9bd 6052 babd 7b81 00bd
00000020: 8f2f 05be e603 d3bd efc6 f4bd d2b3 d6bc
00000030: 25e6 21bd dc4a 9dbd b5c8 e1bc 26ad a73b
00000040: 31fb 11bd ad59 3dbd 7c6d acbd 5641 5abd
00000050: 8313 593c 28c5 5f3c 08e7 b9bd a700 cabd
00000060: fb33 83bd 5d20 6cbd a655 8abd d0a0 a8bd
00000070: 3df2 b6bd f75a d5bd 7803 95bd 0d95 b4bd
00000080: a35b 7f3c 6312 a13b 4d84 4b3c 7705 6cbc
00000090: 678d 173d 5049 d13c 8bd6 173c 9096 6c3c
000000a0: 301b af3c acb4 1ebc 9a6d 1ebd 045e 16bd
000000b0: 2101 183c 98bd 59bc d421 32bd 4040 fb3b
000000c0: 1814 91bd 8fa0 4fbc da81 fd3b 721e de3d
000000d0: e965 ddbd d02d 37bd bc8c c6bd ade9 98bd
000000e0: 190c 48bd 5f54 5e3c c1af 5d3d 1e39 b53c
000000f0: 2094 933c 3fd2 393d b6ff fcbb 771b 8fbd
00000100: 246e e2bd 938c 33bd eb57 79bc d546 b33b
00000110: e727 cfbd ba92 5cbc d142 373d 70f5 383d
00000120: ed32 9ebc fd82 8b3d 3d48 0a3e 7656 df3d
00000130: 4da3 993a 4fe3 fcbb c5c6 8f3d 3676 e73d
00000140: 07ed 38be 90af 12be 818d c6bd c6ee 33bc
00000150: 0e04 0ebe 4dbd ebbd 2d27 03bd 3a8e 0cbb
00000160: e7e6 d2bd 86c3 2e3b 0719 3e3d b865 debc
00000170: d73a 82bd db48 56bc b192 8d3d 8aee cfbb
00000180: 88f1 80bd 2770 ef3c f4e3 803d 712b 2f3d
00000190: 4237 f8ba c300 4d3d ad64 b83d 44be 4a3d
000001a0: b32d 6a3d 5d96 803d 7d71 463d 19f2 c43d
000001b0: 8544 a1bc 70d8 c33c 1dfd 173d 5c78 343d
000001c0: 2340 77bd 52f7 06be 2155 f2bd 8735 f3bd
000001d0: b228 9cbd c2aa babd 2da0 14be 4915 b0bd
000001e0: c68c 0cbe 3c48 0cbe 2656 c7bd b8dd 7c3c
000001f0: 0293 15be 298e 85bd 128b e5bb 3012 04bc
00000200: dd02 37bd 2569 8ebd 254b 1bbd ff8e c43c
00000210: b43a 14bd a169 03bd b18a afbb c953 993d
00000220: 9e27 51bd 7c1f 07bd 2149 ca3b 5267 5ebb
00000230: 1c96 a7bd 410c 2cbd 592c 553d fee1 9ebd
00000240: 6f89 3cbe 43c3 45be 2453 2fbe bd01 6abc
00000250: 608f 41be aa0c 36be f0d9 c0bd f0da 0ebd
00000260: 3c1a 17be feb2 c6bd a348 42bd a058 e5bc
00000270: 346e e0bd 4214 37bd 946c 2dbb 2824 b3bd
00000280: 80a9 d9bd 9a78 b5bd e47e 22bd db11 863d
00000290: 3659 abbd d2fc 18bd b4dd 893c 99ae c03d
000002a0: 883d 40bd 5fe3 10bd 62b4 963c e595 083d
000002b0: 6085 a5bd 4a97 ecbc 5e36 433d 2d13 19bd
000002c0: 08aa 323d e297 613d b3a4 1bbc 8a3c 9dbc
000002d0: 14cb cd3c 9e8e 723d 67ff 3a3d f874 703c
000002e0: 64c4 3e3c 9a74 253d fe90 af3c 4c53 d2bc
000002f0: 0fc1 053d 3ec1 193b fdae 1dbd 7f78 9c3b
00000300: cec0 42be 5535 3abe 1639 04be 39fb a53c
00000310: 9895 41be 1bc7 14be f9af 12bd 8256 5c3b
00000320: 46af 07be ff27 a0bd 4816 573c 7685 fcbc
00000330: 1917 1fbe 2c91 d7bb 2c6e 573c 8647 8abd
00000340: 0841 f2bb 5cba 283d 6261 20bc 3d12 6abd
00000350: 3aac 09bc a727 003d c36b 3fbd 7702 21bd
00000360: 2034 ff39 beaf dd3c c11d 053d 4499 1e3c
00000370: ef82 ba3c da9f f439 63ed c5bb e027 d1bc
00000380: be63 71bd 81f2 aabd bfc9 bdbd 1675 5abd
00000390: 4587 7fbc 829f 44bd 7d31 a5bd c214 f2bc
000003a0: cb3a d6bd ca2b 88bd 7e2e d4bd 4e78 b3bd
000003b0: 6948 8bbd 73e2 94bd 53af 16bd a38a 983c
000003c0: d819 c53c 5611 b53c 1573 0a3c 3c76 78bb
000003d0: abf9 7c3c 6757 673d 8409 233c 23b7 683b
000003e0: a2f9 e33c e3f8 8abc 3015 3ebd 4e53 a7bc
000003f0: 0f1a 8fbc c270 12bc a73c 14bd a2b6 9bbb
-0.02134145 -0.07974099 -0.074009895 -0.01487683 -0.061993394 -0.09043008 -0.09097743 -0.031373482
-0.13006423 -0.10303478 -0.11952006 -0.026208792 -0.039526124 -0.07680294 -0.027561525 0.0051170764
-0.035639945 -0.0462281 -0.0841932 -0.053284965 0.013249281 0.013657846 -0.09077269 -0.09863406
-0.06406399 -0.05764805 -0.067546174 -0.082337976 -0.08932922 -0.10417741 -0.07276052 -0.08817492
0.015585813 0.004915522 0.01242168 -0.0144056 0.037000086 0.025547653 0.00926746 0.014440194
0.021375269 -0.00968663 -0.038678743 -0.036710754 0.009277613 -0.013289832 -0.043489292 0.0076675713
-0.07083911 -0.0126725575 0.007736427 0.10845651 -0.108104534 -0.044721425 -0.09694812 -0.07466445
-0.048839662 0.01356992 0.05412269 0.022121962 0.018014967 0.045366522 -0.007720913 -0.069876604
-0.11056164 -0.043835234 -0.015218715 0.0054710903 -0.10115033 -0.013462717 0.044741455 0.045155942
-0.019311393 0.068120934 0.13504119 0.10905163 0.0011721641 -0.007717527 0.07020334 0.11301844
-0.18059169 -0.14324784 -0.096949585 -0.010982221 -0.13868734 -0.11510716 -0.032019783 -0.0021447078
-0.102979474 0.0026666834 0.046410587 -0.027148113 -0.06358879 -0.013078894 0.06912745 -0.0063455747
-0.062960684 0.029228283 0.062934786 0.04276604 -0.0018937367 0.050049555 0.090035774 0.049497858
0.05717249 0.062786795 0.048448075 0.09616489 -0.019685993 0.023906916 0.037106622 0.044060096
-0.0603639 -0.13180283 -0.11832643 -0.11875444 -0.076249495 -0.09114601 -0.14514227 -0.0859781
-0.13725576 -0.1369943 -0.097332284 0.015433721 -0.1460686 -0.065212555 -0.007005104 -0.008060977
-0.044680465 -0.069536485 -0.03791346 0.023993967 -0.036188796 -0.032083157 -0.0053571095 0.07486684
-0.051063173 -0.03298901 0.0061732684 -0.0033936095 -0.08182928 -0.042003874 0.052044246 -0.07757948
-0.18411802 -0.19312768 -0.1712156 -0.014282641 -0.1890235 -0.17778268 -0.09416568 -0.034876764
-0.14756101 -0.09702109 -0.047432553 -0.027996361 -0.109585196 -0.044697054 -0.0026462423 -0.08747131
-0.10628033 -0.088608935 -0.039671794 0.065463744 -0.08366625 -0.037350483 0.01682935 0.09408302
-0.04693368 -0.035373088 0.01839656 0.033346076 -0.0808208 -0.028880734 0.04765927 -0.037371803
0.043619186 0.055076487 -0.009499717 -0.019193906 0.02512125 0.05921804 0.045653727 0.014676325
0.011643503 0.040394403 0.021431442 -0.025674485 0.03265482 0.0023461129 -0.03849696 0.0047751064
-0.19018862 -0.18184407 -0.12912402 0.020261394 -0.18904722 -0.14529078 -0.03581235 0.0033620899
-0.13250455 -0.07820129 0.013127871 -0.030825358 -0.15536155 -0.006578585 0.013148826 -0.06751923
-0.0073930062 0.04119335 -0.009788843 -0.0571463 -0.008402878 0.031287815 -0.04673363 -0.03930899
0.00048676226 0.02706134 0.03249908 0.009680096 0.022767512 0.00046658405 -0.0060402616 -0.02553171
-0.058933012 -0.08347035 -0.09266996 -0.053334318 -0.015596216 -0.04800368 -0.0806608 -0.029550914
-0.104604326 -0.06648977 -0.1036043 -0.08763181 -0.068009205 -0.07269754 -0.036788296 0.018620795
0.024060175 0.022102993 0.008450289 -0.003791227 0.015440385 0.056479838 0.009950999 0.0035509549
0.027828995 -0.016964382 -0.046406925 -0.020425465 -0.01746848 -0.008938016 -0.036190655 -0.004751996

3.bias f4 [64]
00000000: 848d b03c 0ba6 f93b 21ac 173c 4c6e d0bc
00000010: 707f 9b38 618c 9cbb ecbe 783c 28b0 d3bc
00000020: 045a ecbc 501d f0bb 7857 0cbc 0c1e 7cbc
00000030: e85a cabb e406 443c 94b2 5fb9 74d5 163c
00000040: fa89 d9bc 30e7 8e3c 4aff 8dbc 3e6d b4bc
00000050: 8849 603c 00dc 7e3c d918 e73b 04b8 f23b
00000060: ac6f febc da70 cbbc 8bd7 10bc 115e f7bb
00000070: 0056 f8bb 6ec1 ccbc 447c 003b 54bf 6fbc
00000080: 04cc 243c c8a5 9f3c a6e0 d1bc 58c4 93bc
00000090: 10a3 bcbc 5489 c93c 8ad6 f6bc 14f1 dabc
000000a0: 2ed0 a33c 7794 bcbb f184 223c cc8b be3c
000000b0: be26 92bc 8330 a83b 1021 5c3c b8a8 d63a
000000c0: 06ca 1ebc a335 e83b 88cf 98bc 720e b2bc
000000d0: dec0 c83c 148b 05bb 644e 813c a64e eb3c
000000e0: 263a 93bc d00b d33c 54e8 a7bc cc4a 413c
000000f0: c892 e23c 04ad a5bc 3c86 663c 587e 89bc
0.021551855 0.007618671 0.009257347 -0.025443219 7.414713e-05 -0.0047774767 0.015182238 -0.025840834
-0.028851517 -0.007327713 -0.008565776 -0.015388023 -0.0061753877 0.0119645335 -0.00021333463 0.009206165
-0.02655505 0.017444223 -0.017333645 -0.022024747 0.013689406 0.015555382 0.0070525226 0.0074071903
-0.031059109 -0.024834085 -0.008840452 -0.0075490554 -0.0075786114 -0.024994578 0.0019605318 -0.0146330185
0.010058407 0.01948823 -0.025619816 -0.01803796 -0.023026973 0.024601616 -0.030131597 -0.026726283
0.019996729 -0.005755003 0.009919391 0.02326002 -0.01784074 0.005132736 0.013435617 0.0016377186
-0.009691721 0.007086472 -0.018653646 -0.021735404 0.024506029 -0.0020377086 0.01578445 0.028724026
-0.017972063 0.025762469 -0.020496525 0.011797618 0.027657881 -0.020224102 0.01407009 -0.016783878

4.weight f4 [64]
00000000: 7be8 fc3e 7425 0c3f 86b8 193f 13d8 103f
00000010: 2bbf dc3e 18e2 263f ba74 3d3f 5c3b 283f
00000020: 8c0d f93e f58c 333f dd56 263f ff4c ec3e
00000030: 2e54 153f 032c fa3e 03e6 343f 6def 283f
00000040: ff89 113f 18bc 373f 10bb f73e e740 ef3e
00000050: 30d4 2b3f 57e3 393f 3e53 e23e 5f58 443f
00000060: dc5c 473f 1c3d 173f 6f8d e83e f413 b13e
00000070: 8223 203f 7f3b 273f e28d 263f 3bbe 103f
00000080: 8bdb 1e3f 54e2 0c3f fda2 0c3f 02c4 093f
00000090: 2dd0 193f 5993 bd3e 50bc 073f ff80 2b3f
000000a0: 113c c03e 65d9 043f 951c 1d3f 0317 3e3f
000000b0: d90f 363f 3f4c 233f 4781 0e3f 9b8b 1e3f
000000c0: a1bd 323f 8ebb 093f de18 253f 5500 f83e
000000d0: 258a 043f 7e33 253f 5d4a 2e3f 0b98 233f
000000e0: 6ec4 153f c246 323f 3cc3 253f 5065 d93e
000000f0: f13e e13e a285 f53e d32c 033f c26b 263f
0.4939612 0.5474465 0.60047185 0.56579703 0.431146 0.6518874 0.74006236 0.65715575
0.48643148 0.7013696 0.6497629 0.46152493 0.58331573 0.48861703 0.7066347 0.65990335
0.5685119 0.71771383 0.48384905 0.46729204 0.6712065 0.7261252 0.44204134 0.76697344
0.7787607 0.5907762 0.45420405 0.34585536 0.6255418 0.6532516 0.65060246 0.5654027
0.62053746 0.5503285 0.549362 0.5381471 0.60083276 0.3702648 0.5302172 0.6699371
0.37545827 0.5189422 0.6137174 0.74253863 0.7111793 0.6378822 0.5566601 0.6193177
0.698206 0.5380181 0.6449107 0.48437753 0.5177329 0.64531696 0.6808222 0.63903874
0.5850285 0.6963922 0.6475103 0.42460108 0.43993333 0.47953516 0.5124027 0.65008175

4.bias f4 [64]
00000000: 1f47 2cbe 8524 9fbd 9e23 bcbd 57c3 02bf
00000010: 3ac8 acbe a966 28be 0b72 b4be 716a b5be
00000020: 23f8 82bf c74a 93be b877 f9bd 108f babe
00000030: 5130 80bd 767a e1bd 996b 58be 9081 8bbe
00000040: 855d 06bf 19c6 8fbe 2088 8ebd 5cc8 88be
00000050: 3ccf e1be 694b 09be 6c89 cbbe 7302 adbe
00000060: 8bee bcbe e30c c2bd 800f a2be 7a20 72be
00000070: 8c1d 8ebf fcdf c6be 71ff 1abe a8c6 c0be
00000080: ca63 a9be 5ed3 a3be 7909 7ebc 8d51 bcbd
00000090: ba71 cabe 4391 20bf 3722 bfbe 4ab4 96be
000000a0: a2ae 16bf 5696 b2be b121 96be 65ff c7be
000000b0: 457a c1be a179 dfbe 223f 67bd 71ef 2bbe
000000c0: 9706 f0be 4b39 29bf afc0 b9be cd36 a7be
000000d0: 43c7 1fbf b3d6 53be 5269 2dbe a4fe 91be
000000e0: 5fe7 1abe 091c 2bbe d0a4 71be 08c4 76be
000000f0: dba7 7ebf 4315 07bf 4cbf 0abf ba17 9cbe
-0.16824006 -0.077706374 -0.09186481 -0.51079315 -0.3374651 -0.16445412 -0.35243258 -0.3543277
-1.0231975 -0.28767988 -0.12181038 -0.36437273 -0.062592156 -0.11009686 -0.21134795 -0.27247286
-0.5248645 -0.28080824 -0.069595575 -0.26715362 -0.4410342 -0.13407673 -0.39753282 -0.3379093
-0.36900744 -0.09475114 -0.3165245 -0.23645201 -1.1102767 -0.38842762 -0.15136506 -0.37651563
-0.33083946 -0.31997198 -0.015505188 -0.09195242 -0.3953989 -0.6272165 -0.3733079 -0.29434425
-0.5886022 -0.34880322 -0.2932258 -0.39062038 -0.37788597 -0.43647483 -0.056456693 -0.16790558
-0.46880028 -0.6610305 -0.36279818 -0.32658997 -0.62413424 -0.2068737 -0.16934708 -0.28514588
-0.15127324 -0.16709913 -0.23598027 -0.24098217 -0.9947488 -0.5276682 -0.54198146 -0.30486852

6.weight f4 [64, 64, 4, 4]
00000000: e4d5 49bd b511 83bd 7071 b1bc 7b14 35bd
00000010: 4405 433c b009 babc bbab c7bd c5be 32be
00000020: 4aa9 0e3e 7659 b03d 3465 84bd 407f 93bd
00000030: 82c7 c33d a3c7 383d 9393 cfbc 3d1c 9bbd
00000040: 3ea7 a3bd 638a abbd eda3 47bd 1270 0f3d
00000050: cf2e 8ebd 2c75 b6bd b7fb 02bc 2dc1 4f3c
00000060: 01db 46bd 51e5 b2bd 9385 4dbc a0d0 32bd
00000070: 2c83 2ebc b57a 4c3d b488 cc3b 55c3 9cbc
00000080: 9933 7d3d 9822 d63c 67e0 1c3d a2ba a63d
00000090: 5119 853b c122 2b3d 53f3 5a3e e288 673e
000000a0: 31e8 19bd 60c4 6c3d f0e6 c53d b5c3 2f3e
000000b0: 2a8e ce3d 4e85 2c3c 4270 63bd 0e62 b73d
000000c0: cb7b fdbc 9ddd d6bc dd76 5a3c 19c8 113d
000000d0: 2591 ae3c 7652 8bbc beff 30bc 39b6 0ebd
000000e0: ae87 0e3d 673f ad3d 82f4 8e3d eb03 eb3c
000000f0: 22ae 0cbd ba36 243d a32e 50bd 047a 593c
00000100: e7ae 1e3b 859e c9bc f634 1cbd c4c6 223b
00000110: a09e e4bc 8ecc fe3c eaa1 b73c db48 253d
00000120: 6e14 673d 62a3 85bc ad40 e2bc 8117 b23d
00000130: d653 28bc bf61 dfbb 1cc4 99bc c5c5 24bc
00000140: 552c 303d a168 83bc d592 2b3d 7f2f cb3c
00000150: 320f dd3c 72c7 263d 4d2b 9d3d 5870 fabc
00000160: 9f35 70bd b437 c03c 643a d33d 6252 2f3d
00000170: b66d ddbd 8a92 a6bd 4aeb ca3a 19b4 b13b
00000180: 4f72 8fbd 6716 393d 73a4 3d3d 86a4 61bc
00000190: cf38 0abe 5929 2fbd 3ac2 1ebd 59a6 33bd
000001a0: 18ce b7bd 2b51 3cbe b709 fbbd 4858 5cbe
000001b0: a32a f33c b9b0 8abd 65cb 27be 5da3 53bd
000001c0: 9cb5 0b3d 6ffd 9f3d c37f 543d 713a 133e
000001d0: c2b6 a83c ea61 473d 681e 193e 12ba bf3d
000001e0: 4e97 b9bc d8bd 033c 1cb6 a3bd 4310 22bd
000001f0: 0832 c13d 4880 3cbb 8767 cdbd 04ac 2bbe
00000200: 0446 40bd 43d3 01be 503b 15bd 6b9d 56bd
00000210: abc7 04bd a733 0dbe dd5d 14be d512 98bd
00000220: 6db3 6c3d d69e fdbc fcae 92bd 4d8a a03d
00000230: 3f58 133e dae9 c63d 3a58 973c 3a2d 3a3e
00000240: 3db2 9c3d 6a14 f6bc 8bc7 333c 3a5a 253c
00000250: baf3 06be a5e5 36bd c20a 29bd 0f00 eebc
00000260: e790 32be a65f 0ebe ca46 bdbd ca7b 93bd
00000270: 88bc ccbd 392e cdbd 7607 e0bd 0885 8abd
00000280: 516b 963d 895f 39bd db0b e0bc 5df8 d0bd
00000290: 0d17 a5bd fdbd c6bd f25f 3bbd 2c4a 87bc
000002a0: 87d7 1cbd 348b d6bd 589c 113b 34e0 6b3d
000002b0: 7c4e 03bd 13df 3ebd fd50 debb 234e af3d
000002c0: 0e39 c8bb cd41 a7bc 8378 63bc eafb 6cbd
000002d0: 1b0d 1bbd b033 8bbc f6a4 bdbd 0499 25bd
000002e0: ff24 153d 9bf0 6dbc f147 7f3d 0092 0b3e
000002f0: f273 af3c d441 523c 491f d93d 804b 1a3d
00000300: 400c 5ebc 8b36 aebd 8509 cf3b b6c9 1ebd
00000310: ace0 8cbd 96a9 92bd 16e2 903c a7fc 423d
00000320: 18ea 69bd c3e0 01bd afe9 d23d 9b41 d63d
00000330: 4a0b f9bc 93f1 453d 2131 8a3d 57d7 f73d
00000340: 60e7 e33c 3070 123d ae22 f03c 234e 98bc
00000350: ce5a 9d3d 2a11 413d 2009 08bc 0807 893d
00000360: 7239 6e3d 0425 e33d a4cd b83d 5974 f13d
00000370: 61ff 363d 5656 973d 4de5 9d3d de5f 063e
00000380: ae9e b7bc b2c9 5fbd ca60 5dbd e4a3 52bd
00000390: e9d6 3c3b 27f7 5a3c e4aa 71bc b7ef ba3c
000003a0: 3751 d73b 35d1 cdbc 794e 90bd e3fc cdbc
000003b0: 4977 2abe 866b 4abe 6cc5 c2bd 6ece 9cbd
000003c0: e243 a43c def9 e73a 86bb 22bc a73f 863c
000003d0: c426 183c bdc3 7a3c 63ae bbbc 701d 833d
000003e0: 26d0 53bc 617e bfbc 8bfc d2bc 71e1 04bd
000003f0: 205a 19bc 5529 493d 7e5f e93c 5a67 133d
-0.049276248 -0.06399862 -0.021660537 -0.044208985 0.011903111 -0.022709697 -0.09749552 -0.17455585
0.13931766 0.08610813 -0.064646155 -0.072020054 0.095595375 0.045112263 -0.025338924 -0.075737454
-0.07990883 -0.083760045 -0.048740316 0.035018988 -0.06942522 -0.089090675 -0.007994584 0.012680334
-0.048548702 -0.08735145 -0.012544054 -0.04365599 -0.010651391 0.04992171 0.006241882 -0.01913611
0.061816785 0.026139542 0.038299944 0.08141066 0.004061856 0.04178119 0.21381883 0.2261081
-0.03757495 0.057804465 0.096631885 0.171645 0.100857094 0.010529829 -0.05552698 0.08954249
-0.030942818 -0.02622872 0.013334003 0.03559122 0.021309445 -0.017007094 -0.010803161 -0.03484175
0.034797363 0.08459359 0.0698023 0.028688392 -0.034345753 0.040091254 -0.050825726 0.01327372
0.0024213137 -0.02461172 -0.038136445 0.0024837712 -0.02790767 0.031103399 0.022416074 0.040352684
0.056415968 -0.016313259 -0.02761873 0.08695889 -0.010273894 -0.006817072 -0.01877027 -0.010056918
0.04301103 -0.016041102 0.041888077 0.024802921 0.026984785 0.04071755 0.076742746 -0.030571148
-0.058644887 0.023464061 0.103138715 0.042803176 -0.10811941 -0.08133419 0.0015481499 0.0054230806
-0.070042245 0.04518738 0.04629941 -0.013772136 -0.13498233 -0.04276404 -0.038759448 -0.043859813
-0.08974856 -0.18390338 -0.12257712 -0.21518052 0.029683417 -0.067719884 -0.16386183 -0.051669467
0.034108743 0.078120105 0.051879656 0.14377762 0.020594958 0.048677363 0.14953005 0.09361662
-0.022655156 0.008040868 -0.07993719 -0.03956629 0.09433371 -0.0028762985 -0.10029512 -0.16764838
-0.046941772 -0.12678246 -0.036433518 -0.05239622 -0.03241698 -0.13789235 -0.14488931 -0.07425467
0.0577883 -0.030959528 -0.07162282 0.07838879 0.14389132 0.097125724 0.018474687 0.18181315
0.07651184 -0.030039031 0.010972868 0.0100923125 -0.13178912 -0.0446526 -0.041270025 -0.029052762
-0.17438088 -0.13903674 -0.092420176 -0.07201345 -0.09996897 -0.10018582 -0.10938923 -0.06763655
0.07344688 -0.045257125 -0.027349403 -0.102036215 -0.08061037 -0.09704206 -0.045745797 -0.01651486
-0.03829148 -0.1047577 0.0022218432 0.057586864 -0.03205727 -0.04659946 -0.006784557 0.08559825
-0.006110317 -0.020417118 -0.013883713 -0.05785743 -0.037854295 -0.01699242 -0.092599794 -0.04042913
0.036412235 -0.014522697 0.062324468 0.13629913 0.021417592 0.012833077 0.1060167 0.03766966
-0.013552725 -0.08506497 0.0063182735 -0.038766585 -0.0687879 -0.07161252 0.017685931 0.04760423
-0.057108015 -0.03170849 0.10298478 0.10461732 -0.03040089 0.048326086 0.06747652 0.1210162
0.02782029 0.03575152 0.029313412 -0.018591946 0.07683335 0.04713551 -0.008302957 0.06690794
0.058160253 0.110910445 0.09023598 0.1178977 0.044677142 0.07389514 0.07709751 0.13122508
-0.022414532 -0.05463571 -0.054047383 -0.05142583 0.002881462 0.01336459 -0.014750216 0.022819383
0.006570961 -0.025124172 -0.070462175 -0.025145 -0.16647066 -0.1976758 -0.095103115 -0.07656561
0.0200519 0.0017698368 -0.009932404 0.016387774 0.009286586 0.015305457 -0.022910303 0.06402099
-0.012928044 -0.023375692 -0.025755187 -0.03244156 -0.009359866 0.049111683 0.028487917 0.035987236

6.bias f4 [64]
00000000: 6327 bd3c 8fec 27bc 69b1 f1bc ebb3 513b
00000010: f892 133c 022b 973c b124 a1bc 8345 a33c
00000020: c90d c03c 09b5 f13c 25ab 6abc 7378 e33c
00000030: 24d5 e13c f1ea 9c3c b6b1 4d3b 8678 b43b
00000040: 8eed 58bc a6e8 e43c 2d19 d4bc 3b34 6bbc
00000050: 6e7a 40bc 71b0 cbbc 5f85 5bbc 4cd2 cdbc
00000060: c60f cb3c c4d3 3dbc b68a 85bb fa7e a1bc
00000070: dec6 a9bc 204e 8d3b 1d1e 6d3c c169 d23c
00000080: a0d9 e83c 6ca7 b0b9 c93d b63c 86e3 d73c
00000090: f6b3 113b c30b d33c 0f80 c73c dd06 9e3c
000000a0: a60a cabb 0860 e53c a810 f53c 3c91 cc3c
000000b0: 09ef de3c b6a8 babb c0a1 763a 59e1 853c
000000c0: e20f 8d3c e71c 363b a299 d2bc 4dd8 fcbc
000000d0: 00ae c13b 85f9 583b ecd3 b63a f3cc 92bc
000000e0: d9bc 513c b6fc 713c 89b1 db3c ebdd b4bc
000000f0: a198 6abc 287f ecbc 0f0e 9bbc a556 dabc
0.02309007 -0.010249271 -0.029503541 0.0031998109 0.009007208 0.018453125 -0.019670816 0.019930607
0.023444073 0.02950527 -0.014323031 0.027767396 0.027567454 0.019154998 0.0031386442 0.0055075316
-0.013240231 0.027942967 -0.025890911 -0.014355714 -0.0117479395 -0.024864407 -0.013398497 -0.025124691
0.024787795 -0.011586133 -0.0040753735 -0.019713867 -0.02072471 0.0043122917 0.014472512 0.025685193
0.028424084 -0.00033694075 0.022246258 0.026353609 0.002223251 0.025762444 0.024353055 0.019290382
-0.00616582 0.027999893 0.029915169 0.024971597 0.02721359 -0.0056963814 0.0009408258 0.016342806
0.017219488 0.0027788223 -0.025708023 -0.030864859 0.005910635 0.003310771 0.0013948656 -0.017919993
0.012801372 0.014769724 0.026818054 -0.022078475 -0.014318616 -0.028869227 -0.018927602 -0.026652643

7.odefunc.norm1.weight f4 [74]
00000000: 9271 933f f95f 983f 83e4 923f e4ed 703f
00000010: 5267 443f c0ca 883f 25e1 943f 0ef3 563f
00000020: 0822 8c3f c63a 3d3f 240c 783f 03dc 513f
00000030: d006 6e3f a255 4b3f fb47 833f cf4b 863f
00000040: 38f9 833f 5384 8b3f 74ca 9f3f 89e2 993f
00000050: e2e3 883f 430a 633f a54f 903f 3189 613f
00000060: ffa3 9e3f 46cc 2e3f da43 853f e4bb 7f3f
00000070: cfa6 843f 8b21 8c3f 23ec 5e3f 51d1 a63f
00000080: 2093 973f da14 9c3f bac5 943f a830 453f
00000090: 6275 863f 3ffb 253f 2668 593f 8256 1f3f
000000a0: e27d 9f3f 9893 673f 23cb 203f 4d65 9e3f
000000b0: e03e 883f 2f7d 803f 0db2 a33f 4f13 6b3f
000000c0: c133 5a3f 03ab 763f d320 ab3f 6f06 823f
000000d0: 10fc ae3f 4b60 4e3f 7dca 853f 9fc9 573f
000000e0: 00dc 573f 11cf 803f c0cb 4b3f ec5d 923f
000000f0: 13c3 743f e927 7f3f 3e41 773f 4009 843f
00000100: ae78 923f 1dcc 953f 1d4d 923f 2034 ad3f
00000110: 4691 a13f 017c 803f 4a02 8b3f 058f 973f
00000120: 31dd a83f 48f8 843f
1.1519034 1.1904289 1.1475986 0.9411299 0.76720154 1.0686874 1.1631209 0.8396462
1.0947886 0.73917806 0.96893525 0.81976336 0.92979145 0.7942754 1.0256342 1.0491885
1.031043 1.0899757 1.2483659 1.2022258 1.0694544 0.88687533 1.1274306 0.8809996
1.2393798 0.68280447 1.0411332 0.99896073 1.0363406 1.0947737 0.87079066 1.3032628
1.1841774 1.2193863 1.1622841 0.7702737 1.0504572 0.64836496 0.8492454 0.62241375
1.2460291 0.90459585 0.6280996 1.2374665 1.0644188 1.0038203 1.2788712 0.9182634
0.8523522 0.96354693 1.3369392 1.0158213 1.3670673 0.8061568 1.045242 0.84292024
0.8432007 1.0063192 0.7960777 1.1434913 0.9561016 0.99670273 0.96583927 1.0315323
1.1443079 1.1702915 1.1429783 1.3531532 1.2622459 1.0037843 1.0860074 1.1840521
1.3192502 1.038827

7.odefunc.norm1.bias f4 [74]
00000000: 2e52 b1be e023 c8bc 4f6b 9ebe 7049 acbe
00000010: b049 f9be 9029 06bf 4727 86be 83b2 51bf
00000020: 1758 23be b621 c2be b5ea 25bf 3950 28bf
00000030: 44dd eabe 3f27 12bf 1517 0abf e839 e6be
00000040: 8cc4 24bf 8ed6 55be e1d1 9bbe 2719 b3be
00000050: 91f6 64be 8a14 22bf 521e 16bf 7cce eabe
00000060: 0a8d bfbe 75d8 b5be 289c 38bf 41ad febe
00000070: 8a02 2bbe 81fa 91be 19d3 ffbe b65c 9cbe
00000080: 972e 66be fcd6 94be 976a 9fbe d4ca 1ebf
00000090: 7457 fbbd 5947 e0be 60f4 b4be 8d32 14bf
000000a0: e5b6 89be 6708 11bf 4558 16bf 8d1d 4cbe
000000b0: f1b3 84be 4444 15bf e58b b4bd 4aab 6bbe
000000c0: 04fa 01bf b6f6 cbbe f5a5 bcbe a7a6 24be
000000d0: 35fe ecbe 8dc0 0dbf dc41 1dbe ca9d 09bf
000000e0: 83b4 10bf 3a50 46bf 5909 1cbf 4604 1fbf
000000f0: e098 30bf 2f48 18bf 89d7 a4be 719b c4be
00000100: c7ee b0be ec1e 86be 45ba a3be 7cfd aebe
00000110: a7a5 6fbd db05 9cbe b34d 03bf 6493 2fbf
00000120: 4ff7 74be dd9c c7bd
-0.3463301 -0.024431169 -0.30941245 -0.33649778 -0.48689032 -0.5240717 -0.2620184 -0.8191301
-0.15951572 -0.37916344 -0.6481126 -0.6574741 -0.45871937 -0.57091135 -0.5394147 -0.44966054
-0.64362407 -0.20882627 -0.30433562 -0.34980127 -0.22359683 -0.6331259 -0.58640015 -0.4586066
-0.37412292 -0.35516706 -0.72113276 -0.49741557 -0.16700187 -0.28511432 -0.49965742 -0.30539483
-0.2247871 -0.2907027 -0.3113601 -0.6202824 -0.1227254 -0.43804434 -0.35342693 -0.57889634
-0.2689735 -0.56653446 -0.5872844 -0.19933148 -0.25918534 -0.5830729 -0.08815745 -0.2301456
-0.5077212 -0.39836663 -0.36845365 -0.16079198 -0.46287695 -0.55371934 -0.15357155 -0.5375639
-0.5652544 -0.77466166 -0.60951763 -0.62115896 -0.6898327 -0.59485143 -0.3219569 -0.38399842
-0.34557173 -0.26195467 -0.3197805 -0.34177768 -0.058507588 -0.30473217 -0.51290435 -0.68584275
-0.23922466 -0.09746716

7.odefunc.conv1._layer.weight f4 [74, 75, 3, 3]
00000000: 2daf c03c a54d fcbc 74dc 843c 036b b93c
00000010: 8c71 fb3c e46c afbc aa0b 543d 51ef fbb9
00000020: 3ffb a13c 9b5e 08be f145 a0bd 2e46 40bd
00000030: db03 923c 6f86 313d 509b a13d bfdf 03bc
00000040: 266a dbbd 9f3f ac3d f511 23bc 9434 873d
00000050: 1bb4 813d 61b0 523c 4a1b adbd 2698 b7bd
00000060: 7334 883c d310 763d 3c52 33bd 0864 0b3e
00000070: 3626 24be 3db9 553d 33f9 68bd 3012 06be
00000080: 39ad 44bd 6f7e b7bd 007d fcbc eb91 0b3e
00000090: 7ba1 11bd e5b8 2dbc 972a 14be 18d3 163c
000000a0: 4cdf de3d fa85 243d 6812 e43b 4163 4e3d
000000b0: 3271 ecbd 8b15 2dbd 28f6 ae3e b666 3b3e
000000c0: dce5 93bb d697 223e b897 bf3d a558 14bd
000000d0: 1b05 b23d bb72 113e 181d ccbd 4a91 e53d
000000e0: 14b6 ab3e fb93 debd 7a39 6cbe 80a0 143b
000000f0: d123 0ebe f5ff b83d a944 4e3d e04c 823d
00000100: 6416 733b f9e9 a5bd f136 5bbd 7aae 55bd
00000110: 54cb c0bd 5227 a1bb 1ba6 af3d 57e2 c93d
00000120: cea3 9a3d 2c1a d8bd 9c9d a33d 84b1 8dbd
00000130: c099 293e df97 f7bd a859 923d c38b d4bd
00000140: cba0 8e3c 695d 5abd 6693 debc 1a38 85bd
00000150: eb4d a13c f433 543c 9ac9 923c 0114 aa3b
00000160: c855 fe3c 5d3a 81bd b2a1 68bc 5190 0abd
00000170: d185 fbbc 756e ea3b fde7 46bb 3a75 be3b
00000180: 801c 743d 9201 a13c 5ebe dfbc 3f32 c3bc
00000190: 670e 7bbd 507e 923d c82a 9bbd 5b8b 303e
000001a0: d819 61bd 3e1b b7bc c49c 5e3d 29bc 53bc
000001b0: 948f 653b 1fb7 fb3d 5bdd 9c3b 601a 7abd
000001c0: 7981 c4bd bd4b 9dbd aa21 d0bc de82 45bc
000001d0: 31ba b93d 62b0 5abe 5580 83bd 395c 6f3d
000001e0: c098 8cbd ab08 18be b372 58bd 182d 283e
000001f0: 5817 853d 9b25 153e 81ae 1d3d 5f89 00be
00000200: ce02 f4ba 1f85 393e cb68 8a3c 91ae af3b
00000210: 186f 9c3c 556a 803c 11f2 b23d 1b63 cfbd
00000220: bc76 b3bd c14e 0abd bc2f 6f3d d02f 6cbe
00000230: 3eef 57bc 2064 ff3c 0d93 ecbc ee7d 2a3e
00000240: 8cdd 973b 0af5 babd e65a 123d a404 0b3d
00000250: 5d25 a73d cdcb 0d3d ba8c 99bb 91b0 1a3e
00000260: 40d3 3a3d f781 dc3a 8d86 2a3e 760b 85be
00000270: 6ba3 073e d638 2e3e f3f3 0fbe ee61 043d
00000280: ecbf 2abe 593f f1bd d3a0 463d b9a9 01be
00000290: 38a6 dbbd 80b8 c3bb 40d6 fe3c e954 d4bd
000002a0: bce7 d63d 787e fc3c 1f39 4bbe e118 f63d
000002b0: 1bb6 acbc c8b3 4abd ea6c 5f3d c8b1 a9bc
000002c0: e908 64bd ccd7 2dbc e1b5 43bd 90f7 923c
000002d0: 8886 133d 0b9d f03c 908c 40be 55ae 0bbc
000002e0: 342d 75bc d260 4e3d 5634 ebbd 3729 27bd
000002f0: 088d a5bd 3943 bbbd 0834 f1bd d629 eb3c
00000300: cad7 023d 34cf 403d 1af1 30bd ffae 45bd
00000310: 960b 2abd 70da 4a3d ca27 a23c 6a0f 60bd
00000320: dadf 833c e6d1 113d da85 533c 6906 ab3d
00000330: 746b a6bd 5684 0abe 7f7f 8b3d 5a75 39bd
00000340: 4e53 b3bc 1299 463e 19a7 c0bd 1aec c5bd
00000350: 6078 233e bde9 ca3c 9d23 9f3e a2fe 313d
00000360: 44b6 6b3a 4bdb 54bd f8f9 52bc d9a0 3b3a
00000370: 41b2 c93d d5f2 ca3d 816b b83a ffab 47bd
00000380: 6f00 04bd ba89 093d 4040 11bd 5362 bebd
00000390: 432e 2fbe f4e6 10be 1c5e 4ebd 7087 d33d
000003a0: d860 c63c 927b c33c 011d 593d d530 75bd
000003b0: 3879 d73c 691a 013d 152b 033e 9e12 25bb
000003c0: fecb 3b3c a35a 4fbc 893a 9e3d efae bf3d
000003d0: 2f9e 29bd 7331 073e 5082 33bd 75b6 8cbd
000003e0: 1fec 9cbc dae3 9bbd a66e 3dbd 2fcf 2bbc
000003f0: 55e7 8cbb 3e56 c63d 1fa5 703d 47ae 68bb
0.02352103 -0.030798743 0.016218401 0.022634035 0.030693792 -0.021414228 0.051768936 -0.00048052755
0.019773124 -0.13317339 -0.0782584 -0.04694193 0.017824104 0.043341096 0.07890952 -0.008048951
-0.107136056 0.08410572 -0.009953012 0.06601825 0.063331805 0.012859435 -0.084524706 -0.08964567
0.016626572 0.06007464 -0.043779597 0.13612378 -0.16030201 0.05217861 -0.05687828 -0.13092875
-0.04801676 -0.08959662 -0.030821323 0.13629882 -0.03555439 -0.010603164 -0.14469372 0.009205602
0.10882434 0.040166833 0.006960202 0.050387625 -0.11545028 -0.042256873 0.34172177 0.183009
-0.0045134854 0.15878233 0.0935511 -0.03621735 0.0869238 0.14203922 -0.09966487 0.11209352
0.33537352 -0.10868069 -0.230688 0.0022678673 -0.1388085 0.09033195 0.05035845 0.06362319
0.0037092203 -0.08101267 -0.053519193 -0.052168347 -0.09413782 -0.0049180174 0.08576604 0.09857624
0.075507745 -0.10551867 0.07989046 -0.06918624 0.16562557 -0.12089514 0.07146007 -0.1037822
0.017410656 -0.05331174 -0.027169894 -0.06504841 0.019690474 0.01295184 0.017918397 0.005190373
0.031046763 -0.0630996 -0.014198707 -0.033829037 -0.030703457 0.007154281 -0.0030350678 0.0058123143
0.059597492 0.01965407 -0.027312454 -0.02382767 -0.061293032 0.071529984 -0.07576519 0.1724066
-0.054956287 -0.022351857 0.054348722 -0.012923279 0.0035028206 0.12290787 0.00478713 -0.06106031
-0.095950074 -0.076804616 -0.025406677 -0.012055127 0.09068716 -0.21356347 -0.06420962 0.05843756
-0.06865072 -0.14847057 -0.05284376 0.16423452 0.06498593 0.14565127 0.038496498 -0.12552403
-0.0018616559 0.18117188 0.016895672 0.005361386 0.019095942 0.015675703 0.08737577 -0.10126325
-0.08762881 -0.03376651 0.058395132 -0.23065114 -0.013179598 0.031175673 -0.028878713 0.16649601
0.0046345647 -0.09128769 0.03573122 0.033939973 0.08161423 0.034618188 -0.0046859654 0.15106417
0.04561162 0.00168234 0.1665289 -0.25985307 0.13245933 0.17013869 -0.14057903 0.032319956
-0.16674775 -0.11779661 0.048493218 -0.126624 -0.10725063 -0.005972922 0.031108022 -0.10367758
0.104934186 0.030822024 -0.19846009 0.12016464 -0.021082928 -0.04948786 0.054547228 -0.020714656
-0.05567256 -0.010610532 -0.047780875 0.017940313 0.03601697 0.029371759 -0.1880362 -0.008525451
-0.014964391 0.050385304 -0.11484592 -0.04081079 -0.0808354 -0.09143681 -0.11777502 0.028706472
0.031944074 0.047072604 -0.043198682 -0.048262592 -0.041514955 0.049524724 0.019794364 -0.0547022
0.016097952 0.035600565 0.012910331 0.08350832 -0.08125964 -0.13527045 0.06811427 -0.04527793
-0.021890309 0.19394329 -0.09406871 -0.096641734 0.15963888 0.024769658 0.31081858 0.043455727
0.0008991698 -0.051966947 -0.01287698 0.0007157452 0.09848452 0.09909598 0.0014070125 -0.048748013
-0.032226976 0.033578612 -0.035461664 -0.092960976 -0.17107491 -0.14150602 -0.05038272 0.10328567
0.0242161 0.023862634 0.053006176 -0.059861023 0.026302919 0.031519327 0.12809403 -0.0025188099
0.01146221 -0.012655887 0.077260084 0.09359538 -0.04141062 0.13202457 -0.043825448 -0.068707384
-0.01915556 -0.076118186 -0.0462481 -0.010486408 -0.004300038 0.09684418 0.05875122 -0.0035504268

7.odefunc.conv1._layer.bias f4 [74]
00000000: 788c 283c b824 303c ba17 16bd 8630 94bc
00000010: 9b3a 05b9 f7e0 c4ba 7ac7 26bc 3828 0c3d
00000020: 8c66 6b3c 822f b33c 2879 6b3c 8275 a83c
00000030: 0075 ef3c 3187 a43a 03e1 643b 4aaa c9bc
00000040: 1a4d 013d d031 c93c b62e c4bc 007f 0a3c
00000050: 441f 033d 6867 f5bb 2ede f5bc dcab fe3c
00000060: 08bb 163c b830 183d 2c1b c5bc 808c c73c
00000070: 2113 223a f024 013c b4c7 1a3c 4a10 103d
00000080: b4e9 7b3c 065e b0bc 4451 323c 571c 923a
00000090: 943a 8abc 72ff 1a3d 9d0e d4bc 02a2 42bc
000000a0: f060 78bc 260d 2dbc 601f d4bc 786b 003d
000000b0: f6b4 bebc 649f ecbc bdeb 94bc ac55 30bc
000000c0: e434 4e3c e837 b9bb ae5a 133d 907c 073c
000000d0: 0802 99bc 88b0 8b3c 9940 09bd 40f8 453c
000000e0: 60ed 0e3d 15c3 77bb 34e0 0a3d 202b c2ba
000000f0: 8cbe 083d eb70 9abc 54cf 8b3c 508f 9cbc
00000100: 44d2 753c d8e8 0c3d 385e 58bc 1cec cb3c
00000110: 31cc d6bb e35b af3b 0c70 54bc 0afd 01bd
00000120: 430b 00bd 2025 823c
0.010287397 0.010750942 -0.03664372 -0.018089544 -0.000127057 -0.0015020658 -0.010179395 0.034218043
0.014367711 0.02187324 0.014372148 0.020563845 0.029230595 0.0012552497 0.0034924156 -0.024617333
0.03156767 0.024559885 -0.023948055 0.008453131 0.03201224 -0.0074891336 -0.03001317 0.031087808
0.009199865 0.037155837 -0.024060808 0.024358988 0.000618266 0.007882342 0.009447027 0.035171784
0.015375543 -0.021529209 0.010883633 0.0011147362 -0.016873635 0.037841268 -0.025885874 -0.011879446
-0.01515983 -0.010562217 -0.025893867 0.03135249 -0.023279648 -0.028884597 -0.018178815 -0.010762613
0.012585852 -0.0056524165 0.03597515 0.008269444 -0.018677726 0.01705195 -0.03350887 0.012083113
0.034894347 -0.0037805487 0.033905223 -0.0014813878 0.033384845 -0.018852672 0.017066635 -0.019111305
0.0150037445 0.034401745 -0.013206057 0.02489286 -0.006555103 0.00535153 -0.012966167 -0.031735457
-0.03126074 0.015886843

7.odefunc.norm2.weight f4 [74]
00000000: d9ec 513f 151f 473f a2cc 873f 61d0 7f3f
00000010: 9999 5b3f 147f 723f 9fc0 633f 1a7d 7b3f
00000020: 3862 5b3f 7408 7a3f 58b4 733f 6ec4 6b3f
00000030: 5a8a 5e3f dc46 743f 2d06 343f 956a 5f3f
00000040: 34ab 663f 7014 673f 8f6a 803f 853a 743f
00000050: 1f21 6b3f 9980 453f d612 633f 07a0 5c3f
00000060: 71d7 803f 2ca9 8f3f 1149 633f f323 653f
00000070: d7a2 853f c7fc 483f 7765 6d3f 2465 553f
00000080: e362 6e3f 673a 883f fd20 5d3f 2e99 7c3f
00000090: e01f 4a3f 1d83 843f 9134 5f3f c5c2 353f
000000a0: fcef 793f f22b 7c3f cd46 4f3f 78ab 5a3f
000000b0: 893c 493f bb2a 5b3f 50bc 713f 92f3 763f
000000c0: df8d 5c3f dab8 503f 5cd4 433f 11f4 3b3f
000000d0: 09c7 883f 4a67 423f ba4d 823f 4474 5c3f
000000e0: 3505 843f fcdd 603f 9719 483f 5adb 593f
000000f0: d930 853f f340 883f 2312 3a3f a4dc 813f
00000100: 63af 8e3f cf45 523f 9b28 4c3f 79a5 803f
00000110: d660 793f 081a 4b3f 9ad0 693f 56fb 553f
00000120: 1366 683f f38f 653f
0.82002026 0.777818 1.0609324 0.99927336 0.85781246 0.94725156 0.8896579 0.98237765
0.85696745 0.9766915 0.9519706 0.920966 0.8692986 0.9542062 0.70321923 0.87272006
0.90104985 0.9026556 1.0032519 0.95401794 0.91847414 0.7714935 0.88700616 0.8618168
1.0065747 1.1223502 0.88783365 0.8950798 1.044032 0.7851071 0.9273295 0.83357453
0.9311964 1.0642823 0.8637846 0.98671234 0.7895489 1.0352513 0.87189585 0.7100032
0.9763181 0.98504555 0.8096741 0.8541789 0.78607994 0.85612077 0.9442797 0.9646541
0.8615398 0.8153206 0.7649591 0.7341929 1.0685741 0.75938857 1.017997 0.8611491
1.0314089 0.8783872 0.78164047 0.8510033 1.0405532 1.0644821 0.72683924 1.0145459
1.1147274 0.8213777 0.7974946 1.0050498 0.97413385 0.79336596 0.91333926 0.83586633
0.9078075 0.89672774

7.odefunc.norm2.bias f4 [74]
00000000: 8ce2 20bf b9ec 31bf 45fa 0cbf 3b5d 18bf
00000010: 4cfc 09bf 5126 53bf 57f6 63bf c053 08bf
00000020: c1fe 55bf 78b8 23bf 6c46 ccbe 5b38 27bf
00000030: a16e 2dbf 811e 19bf 3cab 1bbf cbab efbe
00000040: ce2f 2bbf 36ac 08bf 0493 46bf 9924 5abf
00000050: f539 f7be 682c 0cbf fe81 13bf e863 14bf
00000060: b6df 39bf 9b86 3cbf f4e7 d4be 5987 32bf
00000070: dd16 24bf 54d0 16bf afd4 3abf 7377 70bf
00000080: 8bba 39bf ef47 1fbf 1ec9 3fbf 6a19 e8be
00000090: 3b8a 40bf 9624 2dbf e34f 30bf 2fe1 2fbf
000000a0: 6656 cdbe e26b e0be 0318 44bf aa32 14bf
000000b0: c596 1dbf 4383 4dbf cce8 f0be 6cac 04bf
000000c0: c455 21bf 322f 2cbf 0b1e 36bf b48d 2bbf
000000d0: 7a03 03bf 29f8 33bf 3570 15bf f323 4ebf
000000e0: 81fb 08bf 0442 e9be 6089 37bf 59b8 21bf
000000f0: a65a bdbe 2ea1 2bbf c94b 45bf dfc8 f6be
00000100: f75d 14bf 2bc5 3dbf 203c 42bf d3aa e8be
00000110: 723c 2dbf 50d1 1dbf 3727 62bf 59bf 13bf
00000120: 2c9e ffbe 5bad 3cbf
-0.62845683 -0.69501835 -0.5506938 -0.5951726 -0.539006 -0.8248034 -0.8904776 -0.5325279
-0.8359185 -0.6395335 -0.39897478 -0.65320367 -0.6774693 -0.5981217 -0.6080816 -0.46810755
-0.6686982 -0.53387773 -0.7756808 -0.85212094 -0.48286405 -0.5475526 -0.5762023 -0.57964945
-0.7260698 -0.7364289 -0.41583216 -0.69737774 -0.64097387 -0.58911633 -0.7298078 -0.93932265
-0.72550267 -0.62219137 -0.74916255 -0.4533189 -0.7521092 -0.6763395 -0.688719 -0.6870298
-0.4010498 -0.43832308 -0.7659914 -0.5788981 -0.6155818 -0.80278414 -0.4705261 -0.51825595
-0.6302149 -0.67259514 -0.7113959 -0.67013097 -0.5117718 -0.7030054 -0.5837434 -0.80523604
-0.53508765 -0.45558178 -0.7169399 -0.6317192 -0.36983222 -0.67042816 -0.77068764 -0.48200127
-0.5795588 -0.7412898 -0.75872993 -0.4544283 -0.6767036 -0.6164751 -0.8834109 -0.5771385
-0.49925363 -0.7370202
