experiment_anode_cifar_v2/model.pth (torch, 854377 bytes, 24 tensors)

0.weight f4 [64, 3, 3, 3]
0	0xbf3588c7	-0.7091183
1	0xbe8e7d75	-0.2783009
2	0x3db974f6	0.09055512
3	0xbeb7554f	-0.35807273
4	0x3dc65fec	0.096862644
5	0x3eaeb3e3	0.34121618
6	0x3f4faafb	0.8112027
7	0x3f6ab3c0	0.91680527
8	0x3d8372e3	0.06418397
9	0xbee74371	-0.4516864
10	0xbf02a026	-0.5102562
11	0xbe085981	-0.13315393
12	0xbef2f1a8	-0.47449994
13	0x3d15ac74	0.036541417
14	0xbe6ea7bb	-0.23306172
15	0x3ef1c02f	0.47216937
16	0x3f1d1725	0.6136344
17	0xbecb2fdd	-0.39684954
18	0xbebeee3d	-0.37291136
19	0x3e56333c	0.20917982
20	0x3f16b10c	0.588639
21	0xbe4ec6cd	-0.20193024
22	0x3ebbf213	0.36708125
23	0x3ea1c208	0.31593347
24	0x3f08ef38	0.5349002
25	0x3f566466	0.83746946
26	0xbe5164e6	-0.20448646
27	0x3fc4410a	1.5332348
28	0x3fb1e47a	1.389785
29	0x3f37c6ca	0.71787703
30	0x3fab06a1	1.3361398
31	0x3f868c43	1.0511554
32	0x3f817192	1.0112784
33	0xbeac7aa3	-0.33687314
34	0x3f9fa628	1.2472582
35	0x3fdb2086	1.71193
36	0xbec2aa4f	-0.3802056
37	0xbee9dbfc	-0.45675647
38	0xbf218785	-0.6309741
39	0xbe5d3f2c	-0.2160613
40	0xbf7da836	-0.99084795
41	0xbedd7e6e	-0.4326052
42	0xbfb71f55	-1.4306437
43	0xbe8710bd	-0.26379958
44	0x3e656095	0.22400124
45	0xbee28ec5	-0.4424955
46	0xbf2b2444	-0.6685221
47	0xc005fb61	-2.093468
48	0xbdd0854a	-0.10181673
49	0xbfb52293	-1.4151176
50	0xbfe063bf	-1.753044
51	0xbeb07b16	-0.34468907
52	0x3e260d70	0.16216063
53	0xbe9cbcdb	-0.30612835
54	0x3f2616f7	0.6487879
55	0x4000a23a	2.0099015
56	0x3fcf13e0	1.617794
57	0x3d7eaf27	0.062178757
58	0x3fcba96f	1.5911082
59	0x3faca0d4	1.3486581
60	0xbeb2b73f	-0.3490543
61	0xbea73e2a	-0.32664615
62	0x3eea09ab	0.457105
63	0xbf7dac0e	-0.9909066
64	0xbf3058ae	-0.68885314
65	0xbf9ba5ac	-1.2159934
66	0xbf6623e9	-0.89898545
67	0xbea5b233	-0.32362518
68	0xbf388770	-0.7208166
69	0xbe87876d	-0.2647051
70	0xbf8c66ea	-1.0968907
71	0xbf51313a	-0.8171574
72	0xbe6d106d	-0.23150797
73	0xbf165a7c	-0.5873182
74	0xbf933e17	-1.1503323
75	0x3f0ed1aa	0.5578867
76	0x3eb4ad13	0.35288295
77	0xbe46b38b	-0.19404428
78	0x3f9d5295	1.2290827
79	0x3e6197ff	0.22030638
80	0x3ea7f9d8	0.32807803
81	0xbf0f0e63	-0.5588133
82	0xbf0fef7d	-0.56224805
83	0xbf40d056	-0.75317895
84	0xbde5e21f	-0.1122477
85	0xbebb0e5e	-0.365344
86	0xbebe2108	-0.37134576
87	0xbd61f993	-0.055169653
88	0x3ea37b2c	0.3192991
89	0x3da9d188	0.08291918
90	0xbf08f4d5	-0.53498584
91	0xbf1fe5e9	-0.6246019
92	0xbf2640d9	-0.649427
93	0xbe8b6ba5	-0.27230564
94	0xbbde7209	-0.0067884964
95	0xbee4ac6e	-0.44662803
96	0x3c052de4	0.008128617
97	0x3ef48941	0.47760966
98	0x3e8a8985	0.27058044
99	0xbcb26c5a	-0.021780182
100	0xbed7d29f	-0.4215288
101	0xbf2b18cc	-0.6683471
102	0x3f004147	0.50099605
103	0x3e8e6189	0.27808788
104	0xbbc67ca8	-0.0060573407
105	0x3f197010	0.5993662
106	0x3f076a92	0.5289699
107	0x3f3b3aae	0.73136413
108	0xbe915137	-0.28382275
109	0xbfb74bf9	-1.432006
110	0xbfb46506	-1.409333
111	0xbf47964c	-0.7796371
112	0xbf32dcb3	-0.6986801
113	0xbfd4e90e	-1.6633623
114	0x3f81335d	1.00938
115	0xbf146590	-0.5796747
116	0xbfdcf68d	-1.7262741
117	0x3f5538d3	0.8328983
118	0x3ff04cc7	1.877343
119	0x3fdb91e1	1.7153894
120	0x3f019421	0.5061665
121	0x40246acb	2.5690181
122	0x3fe720a7	1.805684
123	0x3fb6b344	1.4273458
124	0x3f97babf	1.1853865
125	0x3e0719d4	0.13193446
126	0xbfcbca09	-1.5921031
127	0x3e10a6bd	0.14126106
128	0x3e9e51eb	0.30921873
129	0xbff03589	-1.8766338
130	0x3f344219	0.70413357
131	0x3f0006d9	0.5001045
132	0xbf5519c0	-0.83242416
133	0xbee21774	-0.44158518
134	0xbf43ab9e	-0.7643374
135	0x3e617d15	0.22020371
136	0x3cb9f0c6	0.022697818
137	0x3ec38838	0.38189864
138	0x3c9c634f	0.019090323
139	0xbe7a27e4	-0.2442928
140	0x3dc74821	0.09730554
141	0xbe152a9b	-0.14567034
142	0xbe803569	-0.2504075
143	0xbd7ee466	-0.062229536
144	0xbfb76e61	-1.433056
145	0xbf8ab896	-1.0837581
146	0xbf6a4b22	-0.91520894
147	0xbfbdeafb	-1.4837335
148	0xbf9597c5	-1.1686941
149	0xbfb17d70	-1.3866405
150	0xbf7952a0	-0.973917
151	0xbf92f788	-1.148179
152	0xbf71308b	-0.94214696
153	0x3f80cb30	1.0062008
154	0x3fc66fa6	1.5502822
155	0x3f9f3b48	1.2439966
156	0x3fb1e736	1.3898685
157	0x3fee1c9a	1.8602479
158	0x3fb5a22e	1.4190118
159	0x3fb6993b	1.4265512
160	0x3fb5eef5	1.4213549
161	0x3f98e2db	1.1944231
162	0x3f219d1d	0.6313036
163	0x3e389017	0.18023716
164	0x3fa00136	1.250037
165	0xbea98cd5	-0.3311526
166	0x3c1699bb	0.009191926
167	0x3edb8ac6	0.42879313
168	0xbf64d78b	-0.8939139
169	0x3e49e2d7	0.19715439
170	0xbf1fbe08	-0.6239934
171	0xbee17fc5	-0.44042793
172	0xbfadbee1	-1.3573877
173	0xbe971df6	-0.29515046
174	0xbec5c18a	-0.3862422
175	0xbf01e9b5	-0.50747234
176	0xbf281be4	-0.6566756
177	0x3ec7f309	0.3905261
178	0x3f883ecb	1.0644163
179	0xbd52f41b	-0.05150233
180	0x3cb75864	0.022381015
181	0xbf9fa6ca	-1.2472775
182	0xbe8ea259	-0.27858236
183	0x3e6f679f	0.23379372
184	0xbec10ad8	-0.37703586
185	0xbf0dcbfc	-0.5538938
186	0x3f2d2e3f	0.6764869
187	0x3fd3b300	1.6539001
188	0x3f3901d4	0.72268414
189	0xbef85194	-0.4849974
190	0x3d56f647	0.052480962
191	0xbf10341c	-0.5632951
192	0xbf29a45f	-0.66266435
193	0xbf9519a9	-1.1648456
194	0xbefc7ba1	-0.4931307
195	0x3f43c1ae	0.76467407
196	0x3fc1bfb0	1.5136623
197	0x3f832d2d	1.0248162
198	0x3f35f8bd	0.7108267
199	0x3faa4941	1.3303605
200	0x3e9f0d89	0.31065014
201	0xbf7c684b	-0.9859664
202	0xbf79bb28	-0.975512
203	0xbf3c3f18	-0.73533773
204	0xbed72905	-0.42023483
205	0x3e383ebd	0.17992683
206	0xbcacee41	-0.021109702
207	0x3f71ee7f	0.9450454
208	0x3fb64d7e	1.4242399
209	0x3f1ce474	0.6128609
210	0xbf4ec9f7	-0.80776924
211	0xbf5ec025	-0.8701194
212	0xbe390ad0	-0.18070531
213	0xbe7ead6b	-0.24870841
214	0xbda9ef8b	-0.08297642
215	0xbd1364e1	-0.035984877
216	0xbe00f761	-0.12594368
217	0x3eb7bbb3	0.3588539
218	0x3e07016c	0.13184136
219	0xbe5da9f6	-0.21646866
220	0xbf05cffd	-0.5227049
221	0xbf3a3a53	-0.72745246
222	0xbe2eff7b	-0.17089646
223	0xbf7167da	-0.9429909
224	0xbe80c7b7	-0.2515237
225	0x3f1367f8	0.5758052
226	0x3f9d0803	1.226807
227	0x3f3e2591	0.7427607
228	0x3f0567ec	0.521117
229	0x3e9b41ca	0.3032363
230	0xbdd2ec51	-0.1029898
231	0x3edce9fc	0.43147266
232	0xbe83aa0c	-0.25715673
233	0xbd6ca12f	-0.057770904
234	0x3e17daaf	0.14829515
235	0x3f874547	1.0568017
236	0x3ea81166	0.32825774
237	0x3e9fa577	0.31180927
238	0x3b470ce6	0.0030372678
239	0xbe92eaf4	-0.2869488
240	0x3e13f17c	0.14447588
241	0xbef4318b	-0.47694048
242	0xbe44e908	-0.1922952
243	0xbe0ad8f6	-0.13559327
244	0xbe56d4a4	-0.20979553
245	0x3f704cb0	0.93867016
246	0x3ef3f5fa	0.47648603
247	0x3e32beaf	0.17455553
248	0xbe55fa8f	-0.20896362
249	0xbe41be63	-0.18920283
250	0xbe066815	-0.13125642
251	0xbf70e9fa	-0.9410702
252	0xbdea6aed	-0.11446176
253	0xbe2f5baf	-0.17124818
254	0x3ecf29ff	0.40461728
255	0x3e8eff05	0.2792894

0.bias f4 [64]
0	0x3d38f0b6	0.045151435
1	0x3e2e73e2	0.17036393
2	0x3e1a40c6	0.15063772
3	0xbde53dda	-0.11193438
4	0xbcf313ff	-0.02967262
5	0x3cc9dfb2	0.024642799
6	0xbdea8843	-0.11451771
7	0x3dbb3e25	0.091427125
8	0x3d151cd3	0.036404442
9	0xbd89bed2	-0.06725849
10	0x3e1abb5c	0.15110534
11	0xbcc198ac	-0.02363237
12	0x3ceada78	0.028668627
13	0xbdb5cac6	-0.088765666
14	0xbd38583e	-0.04500603
15	0x3a4b1bd2	0.0007747981
16	0xbe23d98d	-0.16000958
17	0x3d9a0f6c	0.07522473
18	0x3da055fa	0.07828899
19	0xbd975d3c	-0.0739083
20	0x3d85ee86	0.06539635
21	0xbc38bc70	-0.011275396
22	0xbdcbf07c	-0.09957978
23	0xbdd859c4	-0.105639964
24	0xbe152535	-0.14564975
25	0xbe25f590	-0.16206956
26	0xbe20732f	-0.15668939
27	0x3dcf027d	0.101078965
28	0x3dc05b39	0.09392399
29	0x3dbfcc6e	0.09365164
30	0x3dd37bd6	0.10326354
31	0xbb0e2d1b	-0.0021694365
32	0x3e26d0fd	0.1629066
33	0xba717c9b	-0.0009211988
34	0xbce12a96	-0.027486127
35	0xbde29b53	-0.11064782
36	0x3d658ada	0.056040622
37	0x3e44abde	0.19206187
38	0xbe13f754	-0.14449817
39	0xbe157b2f	-0.14597772
40	0xbd2a191d	-0.041527856
41	0x3d75e774	0.060035184
42	0xbe07b94b	-0.13254277
43	0x3cff5b05	0.031171331
44	0xbe3f818d	-0.18701763
45	0x3d3901ba	0.045167662
46	0x3db7e43a	0.08979078
47	0x3c17f3b8	0.009274416
48	0x3ca05928	0.019573763
49	0x3df78c88	0.12087351
50	0x3e0b3b7e	0.13596913
51	0xbde924a1	-0.113839395
52	0x3e37743a	0.1791543
53	0xbdd475ba	-0.10374017
54	0xbe10b03e	-0.14129731
55	0xbded4523	-0.115854524
56	0xbd344a4a	-0.04401616
57	0x3d30b83f	0.04314446
58	0xbe2ce626	-0.1688467
59	0xbc3e55c1	-0.011617125
60	0xbe440b96	-0.19145045
61	0xbe3aacf0	-0.18230033
62	0xbded3e7c	-0.115841836
63	0x3e2c9e5e	0.16857287

1.weight f4 [64]
0	0x3f8c14b6	1.094382
1	0x3fca1eb5	1.5790621
2	0x3f84699d	1.0344731
3	0x3fbea2de	1.4893453
4	0x3f94e169	1.163129
5	0x3f8913ec	1.0709205
6	0x3fb07d4d	1.3788239
7	0x3fa64bff	1.2991942
8	0x3f95c79f	1.1701545
9	0x3fd6c45e	1.6778677
10	0x3fcabcac	1.5838828
11	0x3f860771	1.0471021
12	0x3fc3a202	1.5283816
13	0x3fa40286	1.281327
14	0x400c22f3	2.1896331
15	0x3f9cfef3	1.2265304
16	0x3f81e547	1.0148095
17	0x3fa17caf	1.2616175
18	0x3fd7559a	1.6822999
19	0x3fba7fea	1.4570286
20	0x3f93df20	1.1552467
21	0x3fe2f2e1	1.7730371
22	0x3fbff456	1.499644
23	0x3fed183f	1.8523024
24	0x3f79fe57	0.97653717
25	0x3ff869a9	1.9407245
26	0x3fd1e135	1.6396853
27	0x3f8ca68c	1.0988326
28	0x3fc80a77	1.5628194
29	0x3fb03015	1.3764673
30	0x401bdec4	2.4354715
31	0x3fda95be	1.7076948
32	0x3fc7060f	1.5548724
33	0x40066a93	2.1002548
34	0x3fc49790	1.5358753
35	0x3fb93ab3	1.4471039
36	0x3fab85a8	1.3400164
37	0x402b2e9e	2.6747203
38	0x3fefd698	1.8737364
39	0x3f79f265	0.9763549
40	0x3fef18d7	1.8679456
41	0x3fde7b94	1.7381463
42	0x4009ad98	2.1512203
43	0x40086e32	2.1317258
44	0x3fc22b2a	1.5169423
45	0x3fe55dd6	1.7919261
46	0x3fc2fdd5	1.5233713
47	0x3ffd579b	1.979236
48	0x4036584c	2.8491392
49	0x3fbf42cd	1.4942261
50	0x3fc49e7e	1.5360868
51	0x3ffe7954	1.9880776
52	0x3fa6a575	1.3019243
53	0x3fb9e2f9	1.4522392
54	0x3f9419e9	1.1570407
55	0x3f8ecb42	1.1155779
56	0x3fbe3939	1.4861213
57	0x3fddc2f4	1.732512
58	0x4004ae8c	2.0731535
59	0x3f9db70b	1.2321485
60	0x3f9fcac4	1.2483754
61	0x3f88b939	1.0681525
62	0x3fb380a8	1.4023638
63	0x3fc0b1f5	1.5054308

1.bias f4 [64]
0	0x3e120086	0.14258012
1	0xbc320abf	-0.01086682
2	0x3e23ea98	0.16007459
3	0xbede3c29	-0.43405274
4	0x3fe87fb4	1.8163972
5	0x3f8818f4	1.0632615
6	0x3e6f71c9	0.2338325
7	0xbe1e6bf8	-0.15470874
8	0x3d5b71a2	0.053575166
9	0xbec4beb4	-0.38426745
10	0xbef8c1e9	-0.48585442
11	0x3f2187ee	0.6309804
12	0xbbdd06a5	-0.006745177
13	0xbe8d96f7	-0.2765424
14	0xbfe33551	-1.7750646
15	0xbed1130f	-0.40834853
16	0xbdc42341	-0.09577037
17	0xbdf35c53	-0.11882844
18	0x3f7a5dd6	0.9779943
19	0xbdc42ce2	-0.09578873
20	0xbebf0e24	-0.37315476
21	0xbf80f650	-1.0075169
22	0x3f0a3ef8	0.5400233
23	0xbf148508	-0.5801549
24	0x3ebb3e91	0.36571172
25	0xbf5a0654	-0.85165906
26	0x3f41b5b7	0.756679
27	0xbd456388	-0.048190624
28	0x3e5fd311	0.21857859
29	0xbdd60766	-0.1045063
30	0xbcb2b579	-0.021815049
31	0x3fac6ad1	1.3470098
32	0xbef5e497	-0.48025963
33	0x3f03757b	0.51351136
34	0xbbb4e3d7	-0.0055203247
35	0xbec85a3a	-0.39131337
36	0xbd13a2c8	-0.036043912
37	0xbec65a87	-0.38740942
38	0xbfd2766d	-1.6442391
39	0x3f235547	0.63802
40	0xbf9e73e8	-1.2379122
41	0xbf4fafe9	-0.8112779
42	0xbecec762	-0.40386492
43	0xbd1f14bf	-0.038838144
44	0xbf0478e3	-0.5174696
45	0xbf8e7951	-1.1130773
46	0xbe0af6c8	-0.13570702
47	0x3fe9a74a	1.8254178
48	0xbebd44bb	-0.369665
49	0xbedfb60e	-0.43693584
50	0xbe6c6820	-0.23086596
51	0xbf38fa5f	-0.72257036
52	0x3ef205bb	0.47269997
53	0xbf03d49f	-0.5149631
54	0xbf3dadba	-0.7409321
55	0xbd0f7252	-0.035021134
56	0x3ed4d5df	0.4156942
57	0x3f20c820	0.62805367
58	0xbe1ef453	-0.1552289
59	0x3c86e089	0.016464489
60	0x3f28a221	0.6587239
61	0x3ecb29db	0.3968037
62	0xbf927e9c	-1.1444888
63	0x3dd517ac	0.10404906

3.weight f4 [64, 64, 4, 4]
0	0xbd4525a3	-0.048131596
1	0xbd9672d2	-0.07346119
2	0xbda96133	-0.082704924
3	0xbd3383e9	-0.04382697
4	0x3c886307	0.016648782
5	0xbbb9a71e	-0.005665674
6	0x3d3b2cbf	0.04569697
7	0x3e197567	0.14986192
8	0xbda50432	-0.08057441
9	0xbdae0cc9	-0.08498532
10	0x3d1d8828	0.038459927
11	0x3db93d0f	0.09044849
12	0xbca21796	-0.019786637
13	0x3d40452b	0.046940964
14	0x3d8e30ab	0.069428764
15	0x3dd85c0b	0.10564431
16	0xbe0fb800	-0.14035034
17	0x3e16f156	0.147405
18	0x3e3cfc75	0.1845568
19	0xbddcc72e	-0.10780178
20	0xbb58508c	-0.0033006994
21	0x3e8ddb2f	0.27706286
22	0x3e8c6522	0.27420908
23	0xbe554540	-0.20827198
24	0x3e7a7374	0.24458104
25	0x3ed83168	0.42225194
26	0x3eb9e1a6	0.3630497
27	0xbe712bb9	-0.23551835
28	0x3ec7c778	0.3901937
29	0x3eec15a1	0.46110252
30	0x3edf0b99	0.43563536
31	0x3c3f773d	0.011686143
32	0x3e4bcbad	0.19901915
33	0x3e8fc2d5	0.28078333
34	0x3ed32fac	0.41247308
35	0x3e760626	0.24025783
36	0x3e271251	0.16315581
37	0x3e8398a2	0.25702387
38	0x3ebf7893	0.37396678
39	0x3e44b041	0.1920786
40	0x3e352b3f	0.17692278
41	0x3dc807ff	0.0976715
42	0x3e376073	0.17907886
43	0x3d4239dc	0.04741846
44	0x3e637130	0.22211146
45	0x3dd9b65f	0.10630488
46	0x3cf36c67	0.029714776
47	0xbe223af5	-0.15842803
48	0xbd41bedb	-0.047301155
49	0x3ba3657d	0.0049864636
50	0xbd9d0a28	-0.07667953
51	0xbd83431a	-0.06409283
52	0xbe03c033	-0.12866287
53	0xbddcfb30	-0.10790098
54	0xbe2e7169	-0.1703545
55	0xbe3721e8	-0.17884028
56	0xbe36fe49	-0.1787044
57	0xbe13d5a3	-0.14436965
58	0xbe060fa0	-0.13091898
59	0xbe2b2ec2	-0.16717055
60	0xbe0b9538	-0.13631141
61	0xbe0cb5e6	-0.13741264
62	0xbdecde36	-0.11565821
63	0xbe14ce62	-0.14531854
64	0xbf3a02d8	-0.7266059
65	0xbf461af3	-0.7738487
66	0xbf818754	-1.0119424
67	0xbf645a5c	-0.8920038
68	0xbe2cc420	-0.16871691
69	0xbe11239d	-0.14173742
70	0xbebad23c	-0.3648852
71	0xbe166072	-0.14685228
72	0xbd740a2b	-0.05958001
73	0x3dac55b8	0.08414787
74	0xbd8aa4f0	-0.067697406
75	0x3df856bf	0.121259205
76	0xbd7afd05	-0.061276454
77	0x3e3fe61d	0.18740125
78	0x3d08520c	0.03328137
79	0x3e257c4a	0.16160694
80	0xbe12bd00	-0.1432991
81	0xbe88cd75	-0.2671925
82	0xbe1c55eb	-0.1526715
83	0x3d8f76b4	0.07005063
84	0x3e2eacdd	0.1705813
85	0x3deaded3	0.114682816
86	0x3e445d1b	0.19176142
87	0x3ef0043d	0.46878234
88	0x3e035731	0.1282623
89	0x3da023e9	0.07819349
90	0x3e245c80	0.16050911
91	0x3ebe9cb2	0.37228924
92	0xbcb6f35d	-0.022332842
93	0xbcf30b72	-0.029668543
94	0x3c1c9838	0.009557776
95	0x3df926d1	0.12165607
96	0x3d39db02	0.045374878
97	0x3dfba8ad	0.12288032
98	0x3e3abc3f	0.18235873
99	0x3d061ff8	0.03274533
100	0x3d455f71	0.048186723
101	0x3e181a00	0.14853668
102	0x3df771b2	0.120822325
103	0x3d466354	0.04843457
104	0x3d77b294	0.06047304
105	0x3d998977	0.074969225
106	0x3e5ee634	0.21767503
107	0x3dab0482	0.08350469
108	0x3cc35371	0.023843499
109	0x3d44a2a7	0.04800668
110	0x3db2ae55	0.087246574
111	0xbbf5904d	-0.0074940086
112	0x3e043cf6	0.1291388
113	0x3e0c56d2	0.13704994
114	0x3da6f430	0.08152044
115	0x3b113cf7	0.0022161582
116	0xbdba3cfd	-0.09093664
117	0x3d852eb6	0.0650305
118	0x3c878e47	0.016547335
119	0xbcc473c0	-0.023980975
120	0xbd9443e7	-0.07239514
121	0xbd0a0586	-0.033696674
122	0x3d7bce21	0.061475877
123	0xbcc2e6a5	-0.02379162
124	0xbc57c664	-0.013169859
125	0xbd4d049e	-0.05005323
126	0xbcdffd24	-0.027342387
127	0x3cd4e706	0.025989067
128	0x3d8c4da3	0.068507455
129	0x3dbc14e4	0.09183672
130	0x3c41fa96	0.0118395295
131	0xbde3c7f7	-0.11122125
132	0xbd459fe7	-0.048248198
133	0xbd527739	-0.05138323
134	0xbdb1fb84	-0.08690551
135	0xbe259f40	-0.1617403
136	0xbd4f9733	-0.050681304
137	0xbd90bd8c	-0.07067403
138	0xbcbd8e95	-0.023139277
139	0xbd1c1153	-0.03810246
140	0xbdf383c6	-0.11890368
141	0xbd64f1ed	-0.05589478
142	0xbdb2fc2a	-0.08739503
143	0xbdc4bbc9	-0.0960613
144	0xbe70d50a	-0.23518768
145	0xbc277b39	-0.01022225
146	0x3d9e4917	0.077287845
147	0xbd6a726f	-0.05723804
148	0xbb8dab79	-0.0043234196
149	0x3e469e24	0.19396263
150	0x3e3f3fb4	0.18676645
151	0x3d991e5a	0.07476492
152	0xbdb50c92	-0.08840288
153	0x3e01ac8b	0.12663476
154	0x3dbedba9	0.093192406
155	0x3c0a1779	0.008428448
156	0xbd5a870a	-0.05335144
157	0x3e3f766f	0.18697523
158	0x3e06b05c	0.13153213
159	0xbd11d260	-0.03560102
160	0xbebf5071	-0.3736606
161	0xbeae68ce	-0.34064335
162	0xbe8dfa90	-0.27730227
163	0xbef546c2	-0.47905546
164	0xbdc1c03a	-0.094604924
165	0xbc026ca7	-0.007960475
166	0xbad8588f	-0.0016505885
167	0xbe3e43b0	-0.18580508
168	0x3d2f5c15	0.042812426
169	0x3d5f8340	0.05456853
170	0x3dec1cd9	0.1152894
171	0xbdda92c8	-0.106725276
172	0xbd37b99a	-0.044854738
173	0xbcd6fb11	-0.026242765
174	0xbc730df7	-0.014834872
175	0xbe1c481d	-0.15261884
176	0xbd8525d5	-0.065013565
177	0x3dbd3a32	0.092396155
178	0x3b83a7a6	0.004017788
179	0x3d3d3c7b	0.046200257
180	0xbdba5355	-0.090979256
181	0x3c78ed07	0.0151932305
182	0xbca96faa	-0.020683128
183	0x3da07d0c	0.07836351
184	0x3d8495b2	0.064738646
185	0x3da3c7fb	0.079971276
186	0xbc18fee4	-0.009338114
187	0x3d91945e	0.07108377
188	0x3df18679	0.11793227
189	0x3b995578	0.004679378
190	0xbe2b40a3	-0.16723876
191	0xbe000a86	-0.12504014
192	0xbe0a8ce0	-0.13530302
193	0xbdfb23d7	-0.12262695
194	0xbdfe6828	-0.1242221
195	0xbd9e5953	-0.07731881
196	0xbdd5f500	-0.10447121
197	0xbd872a48	-0.065998614
198	0xbce05e2b	-0.027388653
199	0xbc2b8f07	-0.010471112
200	0xbd4c48c7	-0.049874093
201	0xbdc846d1	-0.09779132
202	0xbdaa8af3	-0.08327284
203	0xbd7e94e1	-0.0621537
204	0xbda96b04	-0.08272365
205	0xbda3a9e2	-0.07991387
206	0xbd4c8df6	-0.049940072
207	0xbdf87df3	-0.12133398
208	0xbda8fd26	-0.08251409
209	0x3d9be91a	0.0761282
210	0x3e033f89	0.12817205
211	0x3cba3d00	0.022734165
212	0x3dceab66	0.100912854
213	0x3e35e811	0.17764308
214	0x3e753921	0.23947574
215	0x3dfa9e29	0.12237198
216	0x3df71024	0.120636255
217	0x3e3d2c9a	0.18474045
218	0x3e6d0770	0.23147368
219	0x3dc72f09	0.09725768
220	0x3e0d0b12	0.13773754
221	0x3e4ce214	0.20008117
222	0x3e3a485a	0.18191662
223	0xbd27a485	-0.040928382
224	0x3dc10fe1	0.09426857
225	0x3dbcf350	0.09226096
226	0x3d9bb3eb	0.07602676
227	0x3e435dd3	0.1907876
228	0x3d1be676	0.03806158
229	0x3dd5f92b	0.10447916
230	0x3e0edb5b	0.13950865
231	0x3dbf5cd1	0.09343875
232	0x3db90de0	0.090358496
233	0x3e27bbe9	0.16380276
234	0x3d4c6735	0.049903113
235	0x3dc1086a	0.09425433
236	0x3db70dcd	0.08938179
237	0x3e03687a	0.12832823
238	0x3db7d3dd	0.089759566
239	0x3ad5d12a	0.0016312946
240	0xbd83a515	-0.06427971
241	0xbda76e36	-0.08175318
242	0xbd1aaa0c	-0.037759826
243	0xbd22d21c	-0.039751157
244	0xbe0e02b9	-0.13868226
245	0xbdbc6bbf	-0.092002384
246	0xbdf1be26	-0.11803846
247	0xbdf079a8	-0.11741954
248	0xbdd19715	-0.10233895
249	0xbdfa5485	-0.12223152
250	0xbcd0fdd3	-0.025511658
251	0xbdf04b7e	-0.11733149
252	0xbde429f5	-0.11140815
253	0xbe135e92	-0.14391544
254	0xbe202abc	-0.15641302
255	0xbe40ab76	-0.18815407

3.bias f4 [64]
0	0xbbb9dd55	-0.005672137
1	0xbc75c22e	-0.014999909
2	0xbcf02d6a	-0.02931853
3	0x3a8174d7	0.000987674
4	0x3cbdf450	0.023187786
5	0x3bb884e4	0.005631076
6	0x3c65b041	0.014019073
7	0x3c1b2cf4	0.009471167
8	0x3ba03fb2	0.0048904056
9	0xbc703ead	-0.014663381
10	0x3cc89a02	0.0244875
11	0xbb8a9cf8	-0.004230138
12	0x3b9038dd	0.00440131
13	0x3cebf928	0.02880533
14	0x3c9081c4	0.017640002
15	0xbca12938	-0.019672975
16	0xbcfbd792	-0.03074244
17	0x3c83e6d8	0.016101286
18	0x3cc8137e	0.024423357
19	0x3be23ecc	0.0069044586
20	0xbcf73a2e	-0.03017911
21	0xbc0a007c	-0.008422967
22	0xbc16e58c	-0.009210002
23	0xbccae5cc	-0.024767779
24	0x3c6750be	0.0141183715
25	0xbad60238	-0.0016327566
26	0x3a8bd60b	0.0010668648
27	0x39f738e6	0.00047153904
28	0xbcd97e32	-0.026549432
29	0x3ca19960	0.019726455
30	0xba514cce	-0.0007984162
31	0x3a606c08	0.000856102
32	0xbbfbbc2e	-0.007682345
33	0xbce4f0e4	-0.027946897
34	0xbcc8e128	-0.024521425
35	0xbc993a84	-0.01870466
36	0x3ca003c6	0.01953305
37	0x3c89bb88	0.016813055
38	0x39b0a80f	0.0003369455
39	0x3b658194	0.0035019862
40	0x3b0f570e	0.0021871957
41	0xbb394d4f	-0.002827484
42	0xbb835419	-0.004007828
43	0x3cb3e852	0.021961365
44	0x3c82afc2	0.015952948
45	0x3cb8d6c8	0.022563353
46	0x3ccffd96	0.025389474
47	0x3ba136c1	0.0049198573
48	0xbbf51611	-0.007479437
49	0xbbfa47bc	-0.007637946
50	0xbcd5ddec	-0.026106797
51	0x3cbc168e	0.022959974
52	0x3c300420	0.010743171
53	0x3cadc2ee	0.021211114
54	0x3cf772ae	0.03020605
55	0xbc0cc378	-0.008591525
56	0xbcca04d8	-0.024660513
57	0xbc511df8	-0.012763493
58	0x3cc17ca8	0.023619011
59	0xbca4559a	-0.02006035
60	0x3c384865	0.011247729
61	0xbc9a4354	-0.018830933
62	0xbbe18f7f	-0.006883561
63	0xbcbed6a0	-0.0232957

4.weight f4 [64]
0	0x3f2a208a	0.664559
1	0x3f6df0ec	0.9294574
2	0x3f868fdd	1.0512654
3	0x3f358914	0.7091229
4	0x3f45365b	0.77036065
5	0x3f530849	0.8243452
6	0x3f80d735	1.0065676
7	0x3f1787f5	0.5919183
8	0x3f9c81d7	1.2227124
9	0x3f971d0d	1.180574
10	0x3f340004	0.70312524
11	0x3f442838	0.7662387
12	0x3f4f29e0	0.8092327
13	0x3f80e874	1.0070939
14	0x3f76249a	0.961496
15	0x3fb62b6f	1.4232005
16	0x3f30f063	0.691168
17	0x3fd7fd7d	1.6874233
18	0x3f8d1399	1.1021606
19	0x3f8704d9	1.0548354
20	0x3fa21431	1.2662412
21	0x3f3eda88	0.745522
22	0x3f0e8140	0.5566597
23	0x3f9fcfe4	1.2485318
24	0x3fb66390	1.4249134
25	0x3fa72a4d	1.3059784
26	0x3f477584	0.7791369
27	0x3f9622e7	1.1729401
28	0x3f416116	0.75538766
29	0x3f78adb1	0.9714003
30	0x3fb5122b	1.414617
31	0x3f6d5d17	0.9272017
32	0x3fc38946	1.5276268
33	0x3f9351e7	1.150937
34	0x3f3f1926	0.7464775
35	0x3f751f7c	0.95751166
36	0x3f984f2a	1.1899159
37	0x3f1c62c1	0.61088187
38	0x3f91a19d	1.1377445
39	0x3f713ba3	0.94231623
40	0xbd83786d	-0.06419454
41	0x3f1d48ef	0.6143941
42	0x3f89ed89	1.0775615
43	0x3f0a1844	0.53943276
44	0x3fda1088	1.7036295
45	0x3f786415	0.97027713
46	0x3fbb5031	1.4633847
47	0x3f24a45e	0.64313304
48	0x3f29a838	0.66272306
49	0x3f658d17	0.8966841
50	0x3fd3fa59	1.6560775
51	0x3fb95669	1.4479495
52	0x3f45acc3	0.7721674
53	0x3f4715ce	0.77767646
54	0x3f81ebb9	1.0150062
55	0x3f0d0847	0.55090755
56	0x3f6500da	0.89454424
57	0x3f3b1a1f	0.7308673
58	0x3f7e9237	0.99441856
59	0x3f839913	1.028109
60	0x3fb39638	1.4030218
61	0x3f1a76d3	0.6033756
62	0x3f4042ec	0.75102115
63	0x3f62e354	0.88628125

4.bias f4 [64]
0	0xbec55954	-0.38544714
1	0xbf47da80	-0.7806778
2	0xbf35d75d	-0.71031743
3	0xbe1493ba	-0.14509478
4	0xbe95d318	-0.29262614
5	0xbede3ea5	-0.4340717
6	0xbf40efd7	-0.75365967
7	0xbf19ac3e	-0.60028446
8	0xbf30e55e	-0.69099987
9	0xbf7fc863	-0.9991514
10	0x3e45949b	0.1929497
11	0xbe9bd994	-0.30439436
12	0xbef21109	-0.47278622
13	0xbf2d7ccd	-0.67768556
14	0xbef3b9b6	-0.47602624
15	0xbff08c4d	-1.8792816
16	0x3ba895fd	0.005144833
17	0xbfa989ce	-1.324518
18	0xbf519051	-0.81860834
19	0xbf92a4b2	-1.1456511
20	0xbf94d514	-1.1627526
21	0xbe7fb278	-0.24970424
22	0xbb0e6d43	-0.0021732606
23	0xbf01aa48	-0.50650454
24	0xbfeccaa3	-1.849934
25	0xc0086cd8	-2.1316433
26	0xbd2aa146	-0.04165771
27	0xbf61e74d	-0.8824356
28	0xbe2aa925	-0.16666086
29	0xbef4e150	-0.4782815
30	0xbfbf7c79	-1.4959861
31	0xbf1fb686	-0.62387884
32	0xbfab3c37	-1.3377751
33	0xbf68de8a	-0.9096457
34	0xbea283d6	-0.31741208
35	0xbfa3f37c	-1.280868
36	0xbf6c7f9e	-0.9238223
37	0xbd753022	-0.059860356
38	0xbf9d459d	-1.2286869
39	0xbf0cbcaf	-0.5497541
40	0xbec46b5f	-0.38363168
41	0xbe8ff9e4	-0.2812034
42	0xbf589894	-0.84607816
43	0xbd972976	-0.07380955
44	0xbfc4f219	-1.5386382
45	0xbed86349	-0.4226325
46	0xc02b2681	-2.674225
47	0xbe8ffd07	-0.28122732
48	0xbe916277	-0.28395435
49	0xbf609b54	-0.8773701
50	0xbfcfd6c6	-1.6237419
51	0xbfcc498f	-1.5959948
52	0xbd9bdc8c	-0.07610425
53	0xbf04c9b8	-0.518703
54	0xbf485668	-0.78256845
55	0xbe13073b	-0.14358227
56	0xbf0db76d	-0.5535801
57	0xbeba7ee0	-0.36424923
58	0xbebced77	-0.3689992
59	0xbf361273	-0.711219
60	0xbfdc5caa	-1.7215779
61	0xbd234f81	-0.039870743
62	0xbea8116a	-0.32825786
63	0xbf6cd840	-0.9251747

6.weight f4 [64, 64, 4, 4]
0	0x3dd836e5	0.10557345
1	0x3cc94556	0.024569195
2	0x3dfa8eef	0.12234294
3	0x3e4497e1	0.19198562
4	0xbe3e146e	-0.18562481
5	0xbdf5395e	-0.119738325
6	0xbd057e41	-0.03259111
7	0x3afa8e8b	0.0019115967
8	0xbeef5001	-0.46740726
9	0xbecf1b90	-0.40450716
10	0xbe3234bd	-0.1740293
11	0xbe38d808	-0.1805116
12	0xbe953736	-0.29143685
13	0xbf156ec5	-0.58372146
14	0xbee6c83e	-0.45074648
15	0xbe101ce8	-0.14073527
16	0x3e134159	0.14380397
17	0x3dc252f7	0.094884805
18	0xbe05f779	-0.13082685
19	0xbefe6426	-0.49685782
20	0x3d32290e	0.043496184
21	0x3cfb06a7	0.03064282
22	0xbe0d3fdb	-0.1379389
23	0xbe826324	-0.25466263
24	0x3e8f6a1a	0.28010637
25	0x3ed02020	0.4064951
26	0x3e3d4d8d	0.18486615
27	0xbe72f1d5	-0.23725064
28	0x3e42f8f6	0.19040284
29	0x3ebff46f	0.37491176
30	0x3e318111	0.17334391
31	0x3e0dce30	0.13848186
32	0xbde5f55f	-0.112284414
33	0xbda3be82	-0.07995321
34	0xbdbb3333	-0.09140625
35	0xbe328daa	-0.17436853
36	0xbe25bc99	-0.16185226
37	0xbe233011	-0.15936305
38	0xbe1b131b	-0.15144007
39	0xbe11319d	-0.14179082
40	0xbc1b162b	-0.0094657345
41	0xbed40e82	-0.4141732
42	0xbe81c237	-0.25343487
43	0xbd9bc96c	-0.076067775
44	0x3cfe932a	0.031076033
45	0xbe6a3aac	-0.22873944
46	0xbe32208d	-0.1739523
47	0xbe0f3bbe	-0.13987634
48	0xbe5652a8	-0.20929968
49	0xbe8de148	-0.27710938
50	0xbe93a54a	-0.28837043
51	0xbe5aba52	-0.21360138
52	0xbf23baa0	-0.6395664
53	0xbecb1849	-0.39666966
54	0xbe5bf6ae	-0.2148082
55	0x3e1a748b	0.1508352
56	0xbf11046d	-0.5664738
57	0xbebeeee6	-0.3729164
58	0x3dc03547	0.09385162
59	0x3ebb4cb7	0.36581966
60	0xbed80c43	-0.42196855
61	0xbda675df	-0.08127951
62	0x3ece07f6	0.4024045
63	0x3f14667b	0.5796887
64	0x3e4a83ac	0.19776791
65	0x3e2c283f	0.16812228
66	0xbd22b63f	-0.039724585
67	0x3cbd1b18	0.023084208
68	0xbd190d2a	-0.03736607
69	0x3c139ef9	0.00901007
70	0x3d030a6b	0.031992357
71	0xbdb740c6	-0.089479014
72	0x3d78debb	0.060759287
73	0xbe209d09	-0.15684904
74	0xbd3b6ae4	-0.045756236
75	0xbdc1898c	-0.09450063
76	0xbda0024e	-0.078129396
77	0xbf05ea4a	-0.5231062
78	0xbeeab6ba	-0.45842534
79	0xbd85e01d	-0.06536887
80	0xbd067e0a	-0.032835044
81	0x3d83ee56	0.06441943
82	0xbdc8cdc9	-0.098048754
83	0x3d5f873d	0.054572333
84	0x3d0bc748	0.034125596
85	0x3ced0b64	0.028936096
86	0x3cc6885b	0.024234941
87	0x3ddf5d07	0.109064154
88	0x3aa51898	0.001259583
89	0xbbb380bc	-0.005477993
90	0xbe2b6a78	-0.16739833
91	0xbe14692a	-0.14493242
92	0x3e68acca	0.22722164
93	0xbdb3eac1	-0.0878501
94	0xbed11bff	-0.40841672
95	0xbf0946aa	-0.5362345
96	0xbe069df4	-0.13146192
97	0x3dc13fa2	0.09435965
98	0x3d55e4f6	0.052220307
99	0xbd5ae562	-0.053441413
100	0xbda45930	-0.08024824
101	0x3de12628	0.10993606
102	0xbdae800f	-0.08520519
103	0xbdccf4a8	-0.10007602
104	0x3d8af8c1	0.06785727
105	0x3e8be45a	0.27322656
106	0xbd107b1b	-0.035273653
107	0xbde068c8	-0.109574854
108	0x3e1b67ae	0.1517627
109	0x3ea3d914	0.32001555
110	0x3deee48f	0.11664688
111	0x3dc1b680	0.09458637
112	0x3df18a7b	0.11793991
113	0x3cd46a6f	0.025929658
114	0xbd7c5042	-0.061599977
115	0xbe1e54c6	-0.15462026
116	0xbdbc2be8	-0.09188062
117	0x3d09ef3d	0.03367542
118	0xbd09c7af	-0.0336377
119	0x3da502b9	0.0805716
120	0xbe271866	-0.16317901
121	0xbd43c4a6	-0.04779496
122	0xbd0af015	-0.033920366
123	0x3cb9e80e	0.02269366
124	0xbe675ca9	-0.22593941
125	0xbdefc9b3	-0.11708393
126	0x3e539b89	0.206648
127	0x3e9b7b89	0.30367687
128	0x3e1f3fa6	0.15551624
129	0x3da0fd61	0.07860828
130	0xbd1b8793	-0.03797109
131	0xbe55cf2a	-0.20879808
132	0x3d172ec1	0.036909822
133	0x3e0cab64	0.13737255
134	0x3d76d605	0.0602627
135	0xbd5bbe60	-0.053648353
136	0x3c3bfd0c	0.011473905
137	0x3d5c3223	0.05375875
138	0x3d695fe8	0.05697623
139	0x3e142f49	0.14471163
140	0xbd0a3563	-0.03374232
141	0xbddf9799	-0.10917587
142	0xbe04d552	-0.12972
143	0x3d2a0f98	0.041518778
144	0x3cdd6a50	0.027028233
145	0x3e582cce	0.21110842
146	0x3e313598	0.173056
147	0xbb929c73	-0.0044742166
148	0xbd9d7754	-0.07688776
149	0xbd89b715	-0.06724373
150	0x3d0619d2	0.032739468
151	0x3ddbcd41	0.107325085
152	0xbe5a0530	-0.21291041
153	0xbdf1e924	-0.11812046
154	0x3d181472	0.037128873
155	0x3e841245	0.2579519
156	0xbe0e8791	-0.13918902
157	0xbe1b509f	-0.15167473
158	0x3de536ba	0.11192079
159	0x3df58bb4	0.11989537
160	0xbe08aca5	-0.13347109
161	0x3e2ff432	0.17182997
162	0x3e335bbe	0.17515466
163	0xbba68f34	-0.005082989
164	0xbe090bdb	-0.13383429
165	0x3ed3da3c	0.41377437
166	0x3ebb9c0a	0.36642486
167	0x3d0984fe	0.033574097
168	0x3eaafe34	0.33397067
169	0x3ea20539	0.3164461
170	0x3d480242	0.04883028
171	0xbe8af92f	-0.27143237
172	0x3ea116fb	0.31462845
173	0x3d0334bd	0.032032717
174	0xbe8975f6	-0.2684781
175	0xbf05b72e	-0.52232635
176	0xbeb225fa	-0.347946
177	0xbe37456e	-0.17897579
178	0xbe77ec0b	-0.24211137
179	0xbe836d3a	-0.2566927
180	0xbe855f50	-0.2604928
181	0xbd0730ab	-0.033005398
182	0xbdeda4b1	-0.11603678
183	0xbea13ff3	-0.31494102
184	0x3cb8b307	0.022546304
185	0x3e2b9594	0.16756278
186	0x3e3929fa	0.18082419
187	0x3d25716d	0.040391374
188	0xbea678c2	-0.32514006
189	0xbd9340ec	-0.07190117
190	0xbd17a33d	-0.03702091
191	0xbdd0aed8	-0.10189599
192	0xbec90b29	-0.39266327
193	0x3ca7493a	0.02042066
194	0xbdd352ae	-0.10318504
195	0x3e130293	0.1435645
196	0xbd8a4bc5	-0.06752733
197	0x3e2c8735	0.16848452
198	0x3defc642	0.117077366
199	0x3de73d6a	0.11291011
200	0xbe24c4a8	-0.16090643
201	0x3e97b0f5	0.29627195
202	0x3e2cc9ec	0.16873902
203	0xbd80abef	-0.06282794
204	0x3d3a982f	0.04555529
205	0x3e4b9415	0.19880708
206	0x3d7bc2d8	0.061465114
207	0xbe4e1b11	-0.20127513
208	0xbecedd37	-0.4040315
209	0xbe6c865b	-0.23098128
210	0xbe271d5b	-0.16319792
211	0xbc642d01	-0.013926745
212	0xbe92fbd6	-0.2870776
213	0xbe0271e2	-0.12738755
214	0x3cf2157c	0.02955126
215	0x3e6bbbc0	0.2302084
216	0xbe61c24c	-0.22046775
217	0xbd18394f	-0.03716403
218	0x3dc21c90	0.09478104
219	0x3e91054b	0.2832435
220	0x3cdb0ffb	0.026741019
221	0x3d9a822f	0.07544362
222	0x3d85cbc8	0.06533009
223	0x3e24b4ad	0.16084547
224	0xbda37e18	-0.07983035
225	0x3d8e403e	0.06945847
226	0x3de0d874	0.10978785
227	0xbdbc48e9	-0.09193594
228	0xbe34cdac	-0.17656583
229	0xbd5172c4	-0.05113484
230	0xbdd2cd89	-0.10293109
231	0xbdcad99d	-0.09904788
232	0x3dd23a04	0.10264972
233	0x3e1471cd	0.14496537
234	0xbde1ab9b	-0.11019059
235	0x3e557bc9	0.20848002
236	0x3ead3639	0.3383043
237	0x3f1d6273	0.61478347
238	0x3e3ab497	0.18232952
239	0xbca4a313	-0.020097291
240	0x3e06b912	0.13156536
241	0xbd8a31dd	-0.06747792
242	0x3e59997e	0.21249959
243	0x3e14a213	0.14514951
244	0xbd93423f	-0.0719037
245	0xbe912577	-0.28348896
246	0x3d429284	0.04750301
247	0x3e138080	0.14404488
248	0xbe07e5e5	-0.13271292
249	0xbe9d7ab1	-0.3075767
250	0xbe0817b1	-0.13290288
251	0xbded7424	-0.11594418
252	0xbe40b757	-0.18819939
253	0xbeada438	-0.3391435
254	0xbe17f3cc	-0.14839095
255	0xbe0578b6	-0.13034329

6.bias f4 [64]
0	0xbccc7d34	-0.024962045
1	0xbc3ec013	-0.011642474
2	0x3c607cf5	0.013701667
3	0xbca3473b	-0.019931426
4	0xbb233f45	-0.0024909538
5	0xbc79ae62	-0.01523933
6	0x3c8587d9	0.016300129
7	0x3c9a4199	0.018830108
8	0xbcbba373	-0.022905087
9	0xbc8a93c3	-0.016916161
10	0xbc70dc79	-0.014701002
11	0xbc29af41	-0.010356725
12	0xbcfaebc7	-0.030630006
13	0xbca5122e	-0.02015027
14	0x3c5e8374	0.013581146
15	0x3bc4490b	0.0059901527
16	0xbbb69326	-0.0055717407
17	0x3cd00f44	0.025397904
18	0xbced3558	-0.0289561
19	0xbb31d145	-0.002713279
20	0xbbeb33d9	-0.0071778116
21	0x3cef41d3	0.029206192
22	0xbc35c3d3	-0.011094051
23	0xbc6bfca1	-0.014403493
24	0xbc674710	-0.014116064
25	0xbc99ced7	-0.018775387
26	0xbc7b16b1	-0.015325234
27	0xbc14e452	-0.009087639
28	0x3cbe5cd4	0.023237623
29	0xbcf8af17	-0.030356927
30	0x3c6993d2	0.0142564345
31	0x3c7fccab	0.0156127615
32	0xbc4bf0c2	-0.012447538
33	0xbcbd1604	-0.023081787
34	0xbca108bc	-0.019657485
35	0xbc02c657	-0.007981858
36	0x3aefa17c	0.0018282379
37	0xbb109619	-0.0022062121
38	0xbc9c1597	-0.019053264
39	0xbcc02549	-0.023455279
40	0xbc201fdf	-0.009773224
41	0x3c05c377	0.008164278
42	0xbce77e6b	-0.028258523
43	0xbc4875df	-0.012235134
44	0x3bd3fdef	0.00646948
45	0xbcdd130b	-0.02698662
46	0x3c1648ec	0.009172659
47	0x3c067c65	0.008208369
48	0x39e1ccff	0.00043068078
49	0x3d025249	0.031816754
50	0xbc2aed65	-0.010432576
51	0xbcdbd029	-0.026832657
52	0xbbed2648	-0.0072372295
53	0x3c4c54c3	0.012471381
54	0x3c1da0bc	0.009620842
55	0xbc5c047b	-0.013428803
56	0xbb83b8ec	-0.004019847
57	0x39f2c7f1	0.00046306805
58	0x3ccccb5c	0.024999313
59	0x3cbc50e9	0.0229878
60	0xbcd32f18	-0.025779292
61	0xbc1d2dee	-0.00959347
62	0xbc0a7bc0	-0.008452356
63	0xbb59a6c8	-0.0033210982

7.odefunc.norm1.weight f4 [65]
0	0x4012eec5	2.2958233
1	0x3ff99ad0	1.950037
2	0x3fd59596	1.6686275
3	0x3ff4d014	1.9126
4	0x40150778	2.3285809
5	0x4004dd44	2.076005
6	0x3fef8ab8	1.8714209
7	0x3fe32a45	1.7747275
8	0x3ff3bd15	1.9042078
9	0x4004e9ce	2.0767703
10	0x40028421	2.0393145
11	0x40050ed8	2.079031
12	0x3fcd7b84	1.6053319
13	0x40158de6	2.3367858
14	0x3ff1903e	1.8872144
15	0x400ac2d8	2.1681423
16	0x3ff6966e	1.9264657
17	0x3fd06992	1.6282218
18	0x3fee9745	1.8639914
19	0x3fe74d2b	1.8070425
20	0x40135f7a	2.3027024
21	0x40202086	2.501985
22	0x3ff22588	1.8917704
23	0x3ff349ed	1.9006935
24	0x4016a6a1	2.3539202
25	0x400b93f1	2.1809046
26	0x400dd87e	2.2163386
27	0x402faf71	2.745083
28	0x3feeb159	1.8647872
29	0x3ff4233a	1.907325
30	0x40072f1d	2.1122506
31	0x3fba0c1b	1.4534944
32	0x3fff19e1	1.9929773
33	0x3ffeaaf6	1.9895923
34	0x3fd76c93	1.6830009
35	0x401c98d1	2.4468272
36	0x3fe985a0	1.8243904
37	0x3fceaaa5	1.6145827
38	0x4002a6a3	2.0414207
39	0x40009b99	2.009497
40	0x3ff2b445	1.8961264
41	0x3fe78343	1.8086933
42	0x4002de03	2.0448005
43	0x3fe4897e	1.7854459
44	0x40193062	2.393578
45	0x4005d3e3	2.0910575
46	0x3fb47fea	1.4101536
47	0x400fa516	2.244451
48	0x40107dac	2.2576704
49	0x3f996f87	1.198716
50	0x3fe6bc95	1.8026301
51	0x400fec8b	2.2488124
52	0x40269370	2.6027489
53	0x3ff19070	1.8872204
54	0x400be22b	2.1856792
55	0x3fdbefcc	1.7182555
56	0x3f9cf2b1	1.2261564
57	0x4013435b	2.300986
58	0x3fcffac4	1.6248403
59	0x400ba889	2.1821616
60	0x400b18a2	2.1733785
61	0x400146c8	2.0199451
62	0x40049c03	2.0720222
63	0x4006ae74	2.1043978
64	0x3ffef85a	1.9919541

7.odefunc.norm1.bias f4 [65]
0	0xbf354934	-0.70814824
1	0xbe897472	-0.26846653
2	0xbec5bb7a	-0.38619596
3	0xbe91edf7	-0.28501865
4	0x3e72655c	0.23671478
5	0xbea93a90	-0.33052492
6	0xbf1a1b14	-0.6019757
7	0xbe173640	-0.14766788
8	0x3e3de17c	0.18543047
9	0xbee022e6	-0.43776625
10	0xbe85fb7a	-0.26168424
11	0xbf1c1813	-0.60974234
12	0xbf03c92e	-0.5147885
13	0xbfa2ad4b	-1.2709135
14	0xbeeea48f	-0.46609923
15	0xbf4eeecc	-0.80833125
16	0xbf23a16e	-0.639182
17	0x3e32e570	0.17470336
18	0x3eb9ccfd	0.36289206
19	0xbe679865	-0.22616728
20	0xbda7a331	-0.08185423
21	0xbf981c07	-1.1883553
22	0xbe8b86fa	-0.27251416
23	0xbf016b1d	-0.50554067
24	0xbf41a9da	-0.756498
25	0xbea30e95	-0.31847063
26	0x3e3686f4	0.17824918
27	0xbfea1272	-1.8286879
28	0xbf2faf4d	-0.6862686
29	0xbe797ad6	-0.24363264
30	0xbe49f0f5	-0.19720824
31	0x3e401ee6	0.18761787
32	0xbee9ab81	-0.4563866
33	0xbf6e309e	-0.93042934
34	0x3f2742fd	0.6533659
35	0xbf9a8ad9	-1.2073623
36	0x3e001e26	0.125115
37	0x3df3003d	0.1186528
38	0xbf645ab0	-0.8920088
39	0xbf29edf6	-0.66378725
40	0xbc10a798	-0.00882902
41	0x3dd53059	0.10409612
42	0xbf54ad90	-0.83077335
43	0x3e959ddc	0.29222
44	0xbfb60137	-1.4219121
45	0xbd4eab69	-0.05045644
46	0x3e829c59	0.2550991
47	0xbf21c8b6	-0.63196886
48	0xbf86ab35	-1.0520998
49	0x3ef056ce	0.46941227
50	0xbe285dba	-0.16442004
51	0xbeb3a4d7	-0.350867
52	0xbf242339	-0.64116246
53	0xbf15aec8	-0.5846982
54	0xbf2c1ea2	-0.6723424
55	0x3ecdbe25	0.4018413
56	0x3f1aed6d	0.60518533
57	0xbf944abf	-1.1585311
58	0xbea01ec5	-0.31273475
59	0xbd1bdcb9	-0.038052294
60	0xbf8b324a	-1.0874722
61	0xbf09e8e4	-0.5387099
62	0xbf41ab6f	-0.7565221
63	0xbeaec9f8	-0.34138465
64	0xbea214e6	-0.3165657

7.odefunc.conv1._layer.weight f4 [65, 66, 3, 3]
0	0xbdaa397f	-0.08311748
1	0xbd47cee7	-0.0487813
2	0x3ce3b87d	0.027797932
3	0x3ca7a765	0.020465562
4	0xbbe52172	-0.0069925124
5	0x3daba737	0.08381503
6	0xbdd69341	-0.10477305
7	0xbe43340e	-0.19062826
8	0xbe018b17	-0.12650715
9	0xbe7900e7	-0.2431675
10	0xbebffbe7	-0.37496874
11	0xba4eb77c	-0.00078856177
12	0xbe239f31	-0.15978695
13	0x3e89de32	0.26927334
14	0x3e93e741	0.2888737
15	0xbe8639c6	-0.26215953
16	0x3e58960a	0.21150985
17	0x3e04aad7	0.12955795
18	0x3e499c20	0.19688463
19	0x3e91bccf	0.28464362
20	0x3cf02e84	0.029319055
21	0xbe25c815	-0.16189606
22	0x3e466fa0	0.19378519
23	0xbe5bdf1d	-0.2147183
24	0x3e8a0df7	0.2696378
25	0x3e766cff	0.24065016
26	0xbec5ebdc	-0.3865651
27	0xbeac75f0	-0.3368373
28	0x3d76843d	0.060184706
29	0x3dc0390b	0.0938588
30	0xbdbc17ca	-0.09184225
31	0x3e452313	0.19251661
32	0x3dc78110	0.097414136
33	0xbd788c18	-0.06068048
34	0x3e2063c2	0.15663055
35	0x3dc623dd	0.09674809
36	0x3d9935c4	0.07480958
37	0xbe86dd48	-0.263407
38	0x3e749dfe	0.23888394
39	0xbe523c87	-0.20530902
40	0xbeb27941	-0.34858134
41	0xbe41a529	-0.1891066
42	0x3e9ec31b	0.3100823
43	0x3f058701	0.52159125
44	0x3cdd4c6f	0.027013985
45	0xbee7d82d	-0.45282117
46	0x3f13e5be	0.57772434
47	0xbd9bf58c	-0.07615194
48	0x3d6fe6d3	0.05856974
49	0x3db13f7e	0.08654688
50	0x3e612cbd	0.21989723
51	0xbc602545	-0.013680761
52	0x3daf5811	0.08561719
53	0x3db53047	0.08847099
54	0xbdf45bd4	-0.11931577
55	0x3dec3d85	0.115351714
56	0xbc3eee47	-0.011653489
57	0x3f09d773	0.53844374
58	0x3eda907b	0.42688355
59	0x3e1500c9	0.14551081
60	0xbf080c29	-0.53143555
61	0xbf1bf2d2	-0.6091739
62	0xbecddc82	-0.40207297
63	0x3ca688db	0.02032893
64	0xbe212290	-0.15735841
65	0xbc611309	-0.0137374485
66	0x3de037be	0.10948132
67	0xbd299b81	-0.041408066
68	0x3e4705e2	0.19435838
69	0x3ded0c44	0.11574605
70	0x3d9c7baa	0.076407745
71	0x3ec9db00	0.39424896
72	0xbf394106	-0.7236484
73	0x3da7fdfd	0.08202741
74	0x3d17df81	0.037078384
75	0x3e6c0a2f	0.2305076
76	0x3e6a5d1a	0.22887078
77	0x3e05e76e	0.13076565
78	0xbe8fda5e	-0.28096288
79	0xbe2296d5	-0.1587785
80	0x3d9cf75f	0.0766437
81	0xbf500c8b	-0.8126914
82	0xbe942a69	-0.28938606
83	0xbf204bfd	-0.6261595
84	0xbe1f9667	-0.15584718
85	0x3f0c4bf3	0.5480339
86	0xbe9b20d6	-0.3029849
87	0x3e8ef68e	0.2792248
88	0x3ec34eda	0.38146096
89	0xbea50751	-0.32232144
90	0xbbd33ede	-0.0064467033
91	0x3ae195c2	0.0017210769
92	0x3ce58a35	0.028020004
93	0x3e0eb204	0.13935095
94	0x3c9c0f8b	0.01905038
95	0xbe6a7ec8	-0.22899926
96	0xbe87a949	-0.26496342
97	0xbea126e6	-0.3147499
98	0xbe2794c6	-0.16365346
99	0x3d9306b6	0.071790144
100	0xbdde0e45	-0.108425654
101	0xbe0c9250	-0.13727689
102	0x3f248f8d	0.6428154
103	0x3f01a9b0	0.5064955
104	0x3f0a18ac	0.53943896
105	0x3e005e8a	0.12536064
106	0xbd75ae7e	-0.05998086
107	0xbf209e52	-0.6274158
108	0x3ea763d8	0.32693362
109	0x3e4b27fb	0.1983947
110	0x3e214fc8	0.1575309
111	0xbe8e59d5	-0.2780291
112	0xbfa0bd35	-1.2557741
113	0x3d92e009	0.071716376
114	0xbb79294a	-0.0038018995
115	0xbdd73f1b	-0.10510083
116	0x3ea11578	0.31461692
117	0xbe573780	-0.21017265
118	0xbe0690c5	-0.13141163
119	0x3db6ea1b	0.08931371
120	0xbe8db035	-0.27673498
121	0xbcd994b1	-0.02656016
122	0x3e133819	0.14376868
123	0xbe019fb6	-0.12658581
124	0x3e59f1a0	0.21283579
125	0xbd07d385	-0.033160705
126	0xbe86e9d0	-0.2635026
127	0xbda2de38	-0.07952541
128	0xbd02db63	-0.031947505
129	0x3e9a791f	0.30170533
130	0x3ed1b4f7	0.40958378
131	0x3e536d35	0.20647128
132	0x3e952f3f	0.29137608
133	0xbcfd31cf	-0.03090754
134	0x3b869408	0.004107002
135	0x3e30aea6	0.17254123
136	0xbcd3c5c0	-0.02585113
137	0xbefbb3d3	-0.49160632
138	0xbe4df401	-0.20112611
139	0x3eb8f667	0.3612549
140	0xbb0e14b2	-0.0021679816
141	0x3befe9fb	0.007321594
142	0x3ecdf61a	0.40226823
143	0xbe19553c	-0.1497392
144	0xbe47dcc7	-0.19517814
145	0xbe802282	-0.25026327
146	0xbe613e79	-0.21996488
147	0xbecd6594	-0.4011656
148	0xbf056f9e	-0.5212344
149	0xbe9d14f9	-0.30680063
150	0x3d004dbd	0.031324137
151	0x3e061962	0.1309562
152	0xbd476328	-0.048678547
153	0xbd5d5583	-0.05403663
154	0x3dc8465d	0.09779046
155	0x3e4b32c9	0.19843592
156	0x3e9ee5fe	0.31034845
157	0x3eadf112	0.33972985
158	0x3e31d796	0.17367396
159	0xbea6c3cf	-0.32571265
160	0xbe310a53	-0.17289095
161	0xbf199c46	-0.6000408
162	0xbc107a82	-0.008818271
163	0x3ea357f4	0.3190304
164	0x3dc91585	0.09818558
165	0xbeadb2d7	-0.33925506
166	0xbd2f2d5d	-0.04276787
167	0x3d191702	0.037375458
168	0x3cf9c024	0.030487128
169	0x3e441cc3	0.19151597
170	0xbeb4de11	-0.35325673
171	0x3d32c254	0.043642357
172	0xbdebe0c3	-0.11517479
173	0xbe9932a9	-0.29921463
174	0x3e0b9bbc	0.13633627
175	0x3e2480cf	0.16064762
176	0x3daee77b	0.08540245
177	0xbe974396	-0.2954375
178	0xbe60050e	-0.21876928
179	0xbe82cb33	-0.25545654
180	0xbe801678	-0.25017142
181	0xbc0848f2	-0.008318173
182	0xbdb80efc	-0.08987233
183	0xbe5b33ea	-0.21406522
184	0xbe9c23f7	-0.3049619
185	0xbd50e354	-0.050998047
186	0xbedb300a	-0.42810088
187	0xbe87670f	-0.26445815
188	0x3d8f1d48	0.06988007
189	0xbdeeaabe	-0.1165366
190	0xbdcb5b32	-0.099295035
191	0x3d4c4c27	0.049877312
192	0x3e82c869	0.25543526
193	0x3e841020	0.25793552
194	0x3ea7caa2	0.32771784
195	0x3e0f1d30	0.13975978
196	0xbd8bb1f7	-0.068210535
197	0x3e140747	0.14455901
198	0xbc414cf9	-0.011798137
199	0xbc60c6da	-0.013719285
200	0x3c5c502a	0.013446847
201	0x3e255d0b	0.16148774
202	0xbeed729d	-0.46376505
203	0xbcabb4dc	-0.020960264
204	0xbb5ad871	-0.003339317
205	0xbed92d6d	-0.4241747
206	0xbe04009b	-0.12890856
207	0x3d13dac0	0.036097288
208	0x3ea1cb7b	0.31600556
209	0xbe8e560b	-0.2780002
210	0xbeef9a7f	-0.4679756
211	0xbeb536e0	-0.3539343
212	0xbe9aa173	-0.302013
213	0xbf2abc62	-0.666937
214	0xbe2c8d48	-0.1685077
215	0xbe77807d	-0.24170108
216	0x3ea499f6	0.32148713
217	0x3dfd6cac	0.12374243
218	0xbeab640e	-0.33474773
219	0x3dd05912	0.10173239
220	0x3e1b1314	0.15143996
221	0x3e02aebd	0.1276197
222	0xbd51051a	-0.051030256
223	0xbe0cddb4	-0.13756448
224	0xbf388390	-0.7207575
225	0x3e564430	0.20924449
226	0xbd391b99	-0.045192335
227	0x3cef99ce	0.029248144
228	0xbe09ec2a	-0.13468996
229	0x3e09f808	0.13473523
230	0xbe9a8b2a	-0.301843
231	0xbe97ee29	-0.2967389
232	0x3ea4acf7	0.32163212
233	0xbe9c8a33	-0.30574188
234	0xbe678cfe	-0.22612378
235	0xbf0b0d79	-0.5431743
236	0xbe91bbb5	-0.28463522
237	0xbe791c1d	-0.2432713
238	0xbd890b7e	-0.06691645
239	0xbb74f9c6	-0.0037380322
240	0xbcb3035a	-0.021852184
241	0x3f071f0a	0.52781737
242	0x3e6a0f4a	0.22857395
243	0x3c920392	0.017823968
244	0xbec7dd9c	-0.39036262
245	0x3dcc2c62	0.09969403
246	0x3d1752a0	0.03694403
247	0xbe6db8ea	-0.2321507
248	0xbda970d8	-0.08273476
249	0xbf4be90c	-0.79652476
250	0xbf973f44	-1.1816182
251	0xbd0c6ff7	-0.034286465
252	0x3c148d87	0.009066946
253	0x3d1bce73	0.038038682
254	0xbdd94cc0	-0.10610342
255	0x3e8e5d07	0.2780535

7.odefunc.conv1._layer.bias f4 [65]
0	0xbca9f061	-0.020744504
1	0x3c48fbc0	0.012267053
2	0xbc96d9e7	-0.01841445
3	0xbcef07ee	-0.029178586
4	0x3cde1d85	0.027113685
5	0x3c8fe06c	0.017563067
6	0x3bbab34a	0.0056976425
7	0x3c18f313	0.009335297
8	0xbc6c3492	-0.014416831
9	0x3b8b6b12	0.004254707
10	0x3c86d0cb	0.016456982
11	0x3bd817c4	0.00659463
12	0xbcebb2ab	-0.028771719
13	0xbb9a674d	-0.0047120214
14	0xbcc71ba2	-0.024305169
15	0x3d024d84	0.031812206
16	0x3bbea0e6	0.0058175204
17	0x3c3440e8	0.011001803
18	0xbb2c199f	-0.0026260389
19	0xbc8340fe	-0.016022202
20	0x3d10becc	0.035338208
21	0xbd1541b6	-0.03643962
22	0x3cd3cec1	0.025855424
23	0xbb95d811	-0.0045728763
24	0xbc6ee478	-0.014580838
25	0x3c3dd89a	0.011587286
26	0xbc9bcdaf	-0.019018976
27	0x3d1bd77b	0.038047295
28	0xbd070f5a	-0.032973625
29	0xbd11737a	-0.035510518
30	0xbc974de8	-0.018469766
31	0xbd225958	-0.039635986
32	0x3c7ec219	0.015549206
33	0x3cf13afb	0.02944707
34	0x3d0c4cb0	0.034252822
35	0x3d256afb	0.040385228
36	0xbce04fa8	-0.027381733
37	0x3cdbb1c6	0.026818167
38	0xbbd77040	-0.0065746605
39	0x3c281ad1	0.0102603
40	0x396dd1d2	0.00022680245
41	0x3b3032da	0.0026885779
42	0xbd1d9b0b	-0.03847794
43	0x3d0dcdf0	0.034620225
44	0xbd075cec	-0.0330476
45	0x3d127911	0.03575999
46	0xbc99967d	-0.018748516
47	0xbc48d756	-0.012258371
48	0x3b91edc6	0.0044533936
49	0x3d2614d5	0.04054721
50	0xbd18cb5a	-0.037303306
51	0xbbbf04b7	-0.0058294195
52	0xbb8ca5f8	-0.004292246
53	0xbad806e8	-0.001648155
54	0x3b7ea0e6	0.0038853227
55	0x3d1fbc1e	0.038997762
56	0xbcfd5380	-0.030923605
57	0xbc706160	-0.0146716535
58	0x3ba8e803	0.005154611
59	0xbc8e8f16	-0.017402213
60	0x3d0b8699	0.03406391
61	0xbb0380ab	-0.0020065706
62	0xbca1c605	-0.019747743
63	0x3cf1136d	0.029428208
64	0xbc20e640	-0.009820521

7.odefunc.norm2.weight f4 [65]
0	0x3ff16126	1.8857772
1	0x3ff2584e	1.8933198
2	0x40025e55	2.0370076
3	0x40087aa0	2.1324844
4	0x3fd95a83	1.6980747
5	0x40000dac	2.0008345
6	0x3fd93754	1.697001
7	0x3ffa64ed	1.956205
8	0x4002a057	2.0410364
9	0x400e6445	2.22487
10	0x400191f7	2.024534
11	0x4010fd98	2.2654781
12	0x4005cb3e	2.09053
13	0x40096528	2.146799
14	0x3feef3ea	1.8668187
15	0x3fff0890	1.9924488
16	0x3fe467cd	1.7844177
17	0x4003d12f	2.0596426
18	0x3ffea695	1.9894587
19	0x400b4e13	2.1766403
20	0x3ffc3216	1.9702785
21	0x400fcee4	2.2470026
22	0x401a855e	2.41439
23	0x3ff222ae	1.8916833
24	0x3ffca5f0	1.973814
25	0x3feee9bc	1.866508
26	0x4008b7b4	2.1362123
27	0x3ff17353	1.8863319
28	0x40030bcb	2.0475948
29	0x4006fc4d	2.1091492
30	0x400d3434	2.2063112
31	0x3fffeee7	1.9994782
32	0x3fe77d5d	1.8085133
33	0x4009d07f	2.1533506
34	0x4009f1ba	2.1553788
35	0x3ffe81de	1.9883382
36	0x3fd9236a	1.6963933
37	0x3ff10606	1.8829963
38	0x3ff61173	1.9224075
39	0x4033683a	2.8032365
40	0x3feaa52b	1.8331655
41	0x40014162	2.0196157
42	0x3feafc00	1.8358154
43	0x400d3e07	2.2069108
44	0x3fedbd0e	1.857332
45	0x3ff0315b	1.8765062
46	0x401c5318	2.4425716
47	0x4009ef3f	2.1552274
48	0x4011857e	2.2737727
49	0x3fdd2e54	1.7279763
50	0x3fdebd75	1.7401568
51	0x40026980	2.0376892
52	0x400f0c93	2.2351425
53	0x40026c25	2.0378506
54	0x3ffe8fd0	1.9887638
55	0x4006bc34	2.105237
56	0x400420b3	2.0644958
57	0x4000bbfc	2.0114737
58	0x3fef213f	1.8682021
59	0x400760a1	2.1152728
60	0x3fe302d6	1.773524
61	0x400662b2	2.099774
62	0x4018dca1	2.3884661
63	0x40061572	2.095059
64	0x40091057	2.1416223

7.odefunc.norm2.bias f4 [65]
0	0xbcbf8067	-0.023376657
1	0xbfd56487	-1.6671304
2	0xbfcc7604	-1.5973516
3	0xbf9483d6	-1.1602733
4	0xbf4d9f65	-0.8032134
5	0xbf37b866	-0.71765745
6	0xbf58ee6b	-0.84738797
7	0xbf08194e	-0.5316361
8	0xbfc8d34b	-1.5689481
9	0xbfc36e7b	-1.5268091
10	0xbfc246e5	-1.5177885
11	0xbfa5cac8	-1.2952509
12	0xbfe8af58	-1.8178511
13	0xbff61ea7	-1.9228104
14	0xbfe33239	-1.7749702
15	0xbfa49374	-1.2857499
16	0xbf8a4500	-1.0802307
17	0xbf33b96a	-0.70204794
18	0xbfa06015	-1.2529322
19	0xbfb1ce8d	-1.3891159
20	0xbfe129ab	-1.7590841
21	0xbf93b1bd	-1.1538616
22	0xbfb49014	-1.4106469
23	0xbfb5a293	-1.4190239
24	0xbf4f18fa	-0.80897486
25	0xbed896e9	-0.42302635
26	0xbfc11647	-1.5084924
27	0xbe2e06f6	-0.16994843
28	0xbfae29be	-1.3606489
29	0xbfaab72d	-1.3337151
30	0xbfaf13f1	-1.3677961
31	0xbfad5995	-1.3542963
32	0xbf8bd5d2	-1.0924628
33	0xbfe37843	-1.7771076
34	0xbfbeb24c	-1.4898162
35	0xbfc891a1	-1.5669442
36	0xbe8e9e51	-0.2785516
37	0xbe6861e7	-0.22693597
38	0xbf255298	-0.64579153
39	0xc01eecff	-2.483215
40	0xbf2707e1	-0.652464
41	0xc009bc98	-2.1521358
42	0xbfca2f9b	-1.5795778
43	0xbf9eb3f2	-1.2398665
44	0xbf824476	-1.0177143
45	0xbf2f8a75	-0.68570644
46	0xc004d539	-2.075514
47	0xbfce276e	-1.6105783
48	0xbf85838b	-1.0430769
49	0xbeb3714f	-0.35047385
50	0xbf249dae	-0.643031
51	0xbf92e4a9	-1.1476032
52	0xbf9541de	-1.1660726
53	0xbfadb459	-1.3570663
54	0xbfdb22d4	-1.7120004
55	0xbf5fcc5e	-0.87421215
56	0xbf9f6270	-1.2451916
57	0xbfd88b3c	-1.6917491
58	0xbf1ed1c5	-0.6203883
59	0xbfd47629	-1.659856
60	0xbfac5ed6	-1.3466442
61	0xbf9cb5ef	-1.2243022
62	0xbfa15765	-1.2604796
63	0xbf31ac9e	-0.6940402
64	0xbff21899	-1.8913757
