experiment_anode10_cifar_v2/model.pth (torch_old, 942615 bytes, 24 tensors)

0.weight f4 [64, 3, 3, 3]
0.52338636 0.7665195 1.0362574 -0.5045832 -0.82542175 -0.22883199 0.25159076 -0.565695
-0.9052058 0.21083094 0.49613455 0.35168692 -0.3496018 -0.9629353 -0.44197252 0.55034286
-0.03686805 -0.49891427 -0.16842878 0.084022105 0.12377557 -0.14301957 -0.71441156 0.09245871
0.3576729 0.19546883 -0.08668596 -0.18506047 -0.12895869 -0.20676066 0.069433644 -0.097056784
-0.060488157 0.5439961 0.67655396 0.44335026 -0.6555448 -0.86049354 -0.5827226 -0.99836355
-0.67897826 -0.8242774 -0.7290156 -0.76317286 -0.47057873 1.0757327 1.2469423 1.1129528
0.6811867 0.96259916 0.89203686 0.37860894 0.39941776 0.39914912 0.42080143 0.6087449
1.754565 0.23308505 -0.00884393 0.64397794 -1.068417 0.29427215 -0.62242883 0.06057251
-0.6460989 0.59797025 0.7772482 -0.31288722 -0.34116068 0.28961304 1.0509502 -0.7609532
-1.3608029 -1.9446529 -0.66191393 0.47943932 -0.97277105 -0.79467505 1.0648472 1.8313036
-0.6087122 0.038636845 0.36269787 0.38811108 -0.32744268 -0.013100947 0.13799393 -0.048314154
-0.07464177 0.28054553 -0.43559033 0.140788 -0.10116049 -0.5910248 -0.38989115 0.0073934672
-0.35248297 0.0060486305 0.13212642 0.4647187 0.53277767 0.19855177 0.16625169 0.3234448
0.34938067 0.2889264 0.26331624 0.35479367 0.44928512 0.06582753 0.2643816 -0.028806815
0.85234666 -0.7529847 -0.3927013 1.685602 0.43447536 0.2982327 -0.58524406 -0.6021404
0.07229546 0.25708616 -1.7344862 -0.6723811 1.2089438 -0.6709 0.35800445 0.30177522
0.07020476 0.30471593 0.91116655 -1.260794 -0.47153318 1.2690206 -0.66726303 -0.8407614
-0.390966 1.1648391 0.015164119 -1.3846223 0.49456945 0.19409119 -0.791838 0.48302725
-0.07339806 -0.09931897 0.48726082 1.0892549 -1.1110568 -0.23288499 0.9226218 -0.43728462
-0.586894 0.3646714 0.25213397 0.97480595 1.2467196 -0.801359 0.26606983 0.6909896
-0.4418905 -0.4841837 -0.67804164 0.017041309 0.8735252 1.051547 -0.47083986 -0.36342946
1.0271032 -1.5910596 0.2099182 -0.24204671 0.16534106 0.39919457 1.2363992 -0.7080903
-0.6785837 1.2148609 -1.6411425 -0.11213764 -0.011338564 -0.2281257 -0.20892008 1.461077
-0.31580862 -0.9699594 1.876617 -1.0357625 -0.028922088 -0.05890266 0.22404368 -0.31013536
0.40470457 0.31311277 -0.21794236 0.8594628 0.6339438 0.28026256 0.105568305 -0.10146421
-0.16928591 -0.48296902 -0.66211563 -0.7999759 -0.35397825 -0.95394665 -0.86557835 0.2834512
0.18663377 0.45832062 0.29107988 0.1224244 0.31269005 -0.24911922 -0.39768356 0.30390096
0.19547847 0.0729895 0.2518604 -0.0016818751 0.1210724 0.20046997 -0.018181 0.09236563
0.17309698 -0.044160176 -0.07985874 -0.072051175 0.08311768 -0.1602963 -0.16782084 0.09841051
0.051906206 -0.0059249545 0.2616992 0.44728592 0.4466876 0.52250123 0.35841557 0.28679404
0.39789128 0.47075692 0.4872113 -0.88751984 -1.5575929 0.828529 1.2025546 -0.6795894
-1.104159 -0.2440519 1.1382749 -0.13685288 -0.2631475 -1.3983635 0.30185962 1.8057911
00000000: a6fc 053f 9f3a 443f 15a4 843f 5d2c 01bf
00000010: d74e 53bf ef52 6abe 81d0 803e 63d1 10bf
00000020: 91bb 67bf 11e4 573e 5905 fe3e 4f10 b43e
00000030: 02ff b2be ee82 76bf 394a e2be 45e3 0c3f
00000040: f402 17bd b171 ffbe 9878 2cbe c813 ac3d
00000050: 0c7e fd3d b973 12be ade3 36bf fe5a bd3d
00000060: e720 b73e fb28 483e 6988 b1bd 7e80 3dbe
00000070: bf0d 04be 11b9 53be 3a33 8e3d b5c5 c6bd
00000080: 6ec2 77bd 5443 0b3f a432 2d3f cefe e23e
00000090: c9d1 27bf 4e49 5cbf 4f2d 15bf c194 7fbf
000000a0: 85d1 2dbf d803 53bf c4a0 3abf 4c5f 43bf
000000b0: b2ef f0be 9cb1 893f ce9b 9f3f 3d75 8e3f
000000c0: 4062 2e3f e66c 763f 875c 643f 08d9 c13e
000000d0: 7c80 cc3e 465d cc3e 4973 d73e b5d6 1b3f
000000e0: 9695 e03f d9ad 6e3e 22e6 10bc bddb 243f
000000f0: e3c1 88bf d7aa 963e 7f57 1fbf e11a 783d
00000100: bd66 25bf 9414 193f bdf9 463f c132 a0be
00000110: 9dac aebe 2948 943e 8985 863f d4cd 42bf
00000120: ca2e aebf 63ea f8bf 3173 29bf 1279 f53e
00000130: 8607 79bf d36f 4bbf ea4c 883f 2868 ea3f
00000140: 90d4 1bbf ab41 1e3d 89b3 b93e 7fb6 c63e
00000150: 91a6 a7be 5ba5 56bc 484e 0d3e 10e5 45bd
00000160: c9dd 98bd aaa3 8f3e b205 dfbe bb2a 103e
00000170: 3b2d cfbd 674d 17bf d09f c7be e644 f23b
00000180: a678 b4be 9733 c63b 264c 073e 9cef ed3e
00000190: 1e64 083f 2851 4b3e e23d 2a3e 8f9a a53e
000001a0: 06e2 b23e 29ee 933e 63d1 863e 84a7 b53e
000001b0: b308 e63e 96d0 863d 065d 873e 45fc ebbc
000001c0: 6433 5a3f 9bc3 40bf 2510 c9be cec1 d73f
000001d0: 8e73 de3e f5b1 983e 8ed2 15bf e025 1abf
000001e0: a40f 943d cca0 833e a503 debf 2b21 2cbf
000001f0: acbe 9a3f 1ac0 2bbf 5c4c b73e 4882 9a3e
00000200: 83c7 8f3d ba03 9c3e 3642 693f b361 a1bf
00000210: cc6c f1be 446f a23f c0d1 2abf 243c 57bf
00000220: b22c c8be 7319 953f ed72 783c 4e3b b1bf
00000230: 3538 fd3e d7bf 463e e5b5 4abf 594f f73e
00000240: b951 96bd bf67 cbbd 407a f93e b46c 8b3f
00000250: 1c37 8ebf 6779 6ebe f130 6c3f c5e3 dfbe
00000260: af3e 16bf 36b6 ba3e b417 813e e28c 793f
00000270: 8294 9f3f dd25 4dbf 4e3a 883e b2e4 303f
00000280: 793f e2be ede6 f7be 2394 2dbf 379a 8b3c
00000290: 599f 5f3f 1899 863f ec11 f1be 6d13 babe
000002a0: 1e78 833f d7a7 cbbf ccf4 563e 18db 77be
000002b0: 2b4f 293e 3b63 cc3e 5442 9e3f 6845 35bf
000002c0: a9b7 2dbf 9080 9b3f f510 d2bf 6ba8 e5bd
000002d0: 62c5 39bc c999 69be 25ef 55be 9204 bb3f
000002e0: abb1 a1be 424f 78bf fc34 f03f de93 84bf
000002f0: 04ee ecbc ea43 71bd b56b 653e 10ca 9ebe
00000300: 7035 cf3e 5150 a03e 482c 5fbe c105 5c3f
00000310: 244a 223f 937e 8f3e 3234 d83d 78cc cfbd
00000320: 4959 2dbe b747 f7be 6980 29bf 38cb 4cbf
00000330: a33c b5be d935 74bf 8b96 5dbf 8420 913e
00000340: ec1c 3f3e 00a9 ea3e 6c08 953e a5b9 fa3d
00000350: e918 a03e 1c19 7fbe 2e9d cbbe e898 9b3e
00000360: 822b 483e 857b 953d d9f3 803e 5d72 dcba
00000370: cef4 f73d 0048 4d3e 52f0 94bc 312a bd3d
00000380: 5640 313e 4de1 34bd fb8c a3bd 918f 93bd
00000390: 9a39 aa3d b724 24be 3ad9 2bbe 738b c93d
000003a0: 9a9b 543d 1f26 c2bb 70fd 853e a902 e53e
000003b0: 3db4 e43e a4c2 053f 3f82 b73e abd6 923e
000003c0: 68b8 cb3e 0d07 f13e c273 f93e 8034 63bf
000003d0: 345f c7bf 7a1a 543f 4fed 993f 92f9 2dbf
000003e0: 1555 8dbf bee8 79be feb2 913f 2923 0cbe
000003f0: 45bb 86be 93fd b2bf 588d 9a3e 2a24 e73f

0.bias f4 [64]
0.13155906 -0.079459734 -0.14350338 -0.0025850227 -0.05902581 -0.025632955 -0.14048432 0.151586
0.08316513 -0.17797573 -0.030150333 -0.16707724 -0.1683687 -0.0076369764 -0.1229123 -0.0714243
-0.14486618 0.10221883 -0.12621894 0.19242772 0.14820437 0.0976531 -0.050572973 0.13493474
-0.12968296 -0.08830405 -0.15320335 0.06917868 -0.18635753 0.09225008 -0.050023675 -0.13250442
-0.058149833 0.1515145 -0.1750065 0.09565189 -0.15672603 0.01636324 0.17695136 0.123092584
-0.1768782 0.10739602 -0.019128924 -0.07831519 -0.05680174 0.19045614 0.14905456 0.040435817
0.1486322 -0.1589997 0.19077864 0.15915667 0.09721338 0.18779479 0.17071155 -0.18805131
0.029351674 0.18710747 0.105229 -0.087636486 0.1375677 0.17545775 0.07762011 -0.09793684
00000000: 6bb7 063e c9bb a2bd 8df2 12be 7c69 29bb
00000010: 0cc5 71bd 34fc d1bc 1fdb 0fbe 5c39 1b3e
00000020: 7b52 aa3d 453f 36be d5fd f6bc 4c16 2bbe
00000030: d868 2cbe 9a3f fabb 72b9 fbbd e746 92bd
00000040: cd57 14be 1b58 d13d 8a3f 01be c60b 453e
00000050: e3c2 173e 59fe c73d 9b25 4fbd 552c 0a3e
00000060: 9ccb 04be c1d8 b4bd 57e1 1cbe 8dad 8d3d
00000070: 82d4 3ebe 9ced bc3d a0e5 4cbd 3daf 07be
00000080: 852e 6ebd 9e26 1b3e e734 33be 23e5 c33d
00000090: ca7c 20be 340c 863c bd32 353e f717 fc3d
000000a0: 8f1f 35be 72f2 db3d 43b4 9cbc b763 a0bd
000000b0: f1a8 68bd ef06 433e c2a1 183e 07a0 253d
000000c0: 0a33 183e d1d0 22be 7a5b 433e f7f9 223e
000000d0: cf17 c73d 474d 403e 02cf 2e3e 8690 40be
000000e0: ec72 f03c 1a99 3f3e 4d82 d73d c27a b3bd
000000f0: 8cde 0c3e 32ab 333e 4bf7 9e3d 1c93 c8bd

1.weight f4 [64]
1.6010804 0.7251109 1.8130904 1.2120858 1.4012247 1.1395422 1.9262617 1.6323407
0.9307658 1.6548036 1.2093698 1.7811972 1.3938426 2.0549414 1.2543148 1.3152674
2.4460666 2.0164952 1.4306482 1.0878001 1.4697059 1.5497247 0.8770498 1.4309181
1.1584007 1.0907972 1.931065 0.9966667 1.4358042 1.0409187 1.7343197 2.3458147
1.5051316 1.5242368 1.0866 1.4582713 1.3445244 1.6831344 1.679236 1.401916
1.2780404 2.6909103 1.6033481 1.964543 1.7762676 1.5606337 2.2801957 1.9122107
2.9231617 2.7729347 1.698245 1.1646175 2.5985465 1.8806596 0.6607657 1.1474779
1.2671298 2.0084386 1.4207989 1.3578246 2.438153 0.9366188 1.7226522 1.224296
00000000: 34f0 cc3f dea0 393f 5913 e83f a125 9b3f
00000010: 555b b33f 85dc 913f be8f f63f 8af0 d03f
00000020: ab46 6e3f 9bd0 d33f a1cc 9a3f 45fe e33f
00000030: 6f69 b23f 2984 0340 638d a03f af5a a83f
00000040: 5b8c 1c40 420e 0140 7b1f b73f 093d 8b3f
00000050: 531f bc3f 615d c63f 5686 603f 5328 b73f
00000060: 7946 943f 3e9f 8b3f 232d f73f 8d25 7f3f
00000070: 6fc8 b73f d33c 853f 30fe dd3f d421 1640
00000080: 27a8 c03f 311a c33f b515 8b3f a2a8 ba3f
00000090: 6019 ac3f f370 d73f 35f1 d63f fc71 b33f
000000a0: d496 a33f e037 2c40 833a cd3f 2576 fb3f
000000b0: bd5c e33f d8c2 c73f baee 1140 52c3 f43f
000000c0: 1515 3b40 c377 3140 1860 d93f 3012 953f
000000d0: 964e 2640 74b9 f03f f127 293f 8ee0 923f
000000e0: 4f31 a23f 428a 0040 bddc b53f 32cd ad3f
000000f0: b30a 1c40 40c6 6f3f de7f dc3f bbb5 9c3f

1.bias f4 [64]
-0.33379176 0.67910665 -0.76543075 -1.0317335 0.48646846 0.102051795 0.008215116 -0.74821544
0.11372622 0.81929713 -0.15914208 -0.84015626 -0.4293351 -0.999611 -0.31998485 0.27655602
-0.13045584 -0.41129142 0.003124771 -0.089198746 0.04861146 0.038839452 0.42181975 -0.49432984
0.68773645 0.21333231 -1.5996951 1.0181868 -0.6572068 1.4831102 -0.22688676 -0.49639854
-0.47886574 0.014162127 -0.24594495 -0.42732528 0.8199103 -0.050580774 0.07281273 -0.2643156
0.48341727 -0.5392261 0.87907284 -0.24862942 -0.62560385 -0.7370741 -1.2088538 -1.5230628
-0.1459213 -0.15516426 0.30635294 0.90258735 -0.24962784 0.21959987 0.1850977 0.17064133
-0.34740657 -0.3110313 -0.2125276 -0.46720225 -0.06698965 -0.032016985 -0.7337692 -0.41181856
00000000: c1e6 aabe efd9 2d3f 45f3 43bf d80f 84bf
00000010: 6512 f93e 8800 d13d b298 063c 0c8b 3fbf
00000020: 4be9 e83d 75bd 513f 24f6 22be 7b14 57bf
00000030: cfd1 dbbe 82e6 7fbf 0ed5 a3be c098 8d3e
00000040: 3796 05be ca94 d2be f5c8 4c3b d5ad b6bd
00000050: cf1c 473d 1e16 1f3d c2f8 d73e cd18 fdbe
00000060: 7f0f 303f c973 5a3e cfc2 ccbf f253 823f
00000070: b43e 28bf 8ed6 bd3f 0155 68be f327 febe
00000080: e42d f5be 4408 683c fed8 7bbe 61ca dabe
00000090: a4e5 513f c92d 4fbd d71e 953d 6054 87be
000000a0: 7882 f73e b90a 0abf eb0a 613f b698 7ebe
000000b0: 9327 20bf e3b0 3cbf b9bb 9abf b9f3 c2bf
000000c0: 656c 15be 61e3 1ebe 4bda 9c3e f70f 673f
000000d0: 719e 7fbe cade 603e 408a 3d3e 9abc 2e3e
000000e0: 46df b1be 7f3f 9fbe d6a0 59be 2235 efbe
000000f0: df31 89bd 3e24 03bd 4cd8 3bbf e2d9 d2be

3.weight f4 [64, 64, 4, 4]
-0.0051986594 0.06442114 0.21795088 0.027993755 -0.0018402083 0.28185067 0.31979033 0.2079205
-0.11075243 0.018140333 0.2644005 0.12788267 -0.32155648 -0.030638466 0.055366766 0.08847581
0.08048483 0.029997788 0.050349914 -0.024718516 0.09303347 0.09511876 0.055076864 -0.06393058
0.112206005 0.121983826 0.11305776 0.01020126 -0.03222486 0.021234352 0.022746656 -0.07215337
0.040360928 0.002197228 0.0073440857 -0.026042474 0.2016744 0.07307536 0.18464468 0.09078351
-0.0059012948 0.041349713 0.002407835 0.09721651 -0.10409883 -0.18901743 0.10017838 0.1931234
-0.014480315 -0.03612435 -0.029949691 -0.01239212 0.0036397348 0.03661333 0.037228014 0.029690094
-0.007435999 0.010352779 0.010946813 0.008818883 -0.079516806 0.013557696 -0.0003797486 -0.012527139
0.08685437 -0.06936156 0.19624154 0.011846035 0.050464656 0.013519301 0.23548678 0.089357324
0.018339084 -0.10105747 0.1512857 0.015959334 -0.03126807 -0.026321376 0.18753932 0.2803986
0.08020604 0.086920656 0.061820168 -0.056018393 0.09711558 0.107700296 0.01859226 0.0030801157
-0.021585828 0.016360411 0.012672693 -0.044165272 -0.100271665 -0.059008 -0.017250493 -0.018796913
-0.007246436 0.19942051 0.07758992 -0.047428347 0.037018128 0.03327752 0.008596876 -0.102125764
-0.15656468 0.021613581 -0.06818219 -0.20084989 -0.27432004 -0.073731944 0.069603875 -0.06930267
-0.09951866 0.026322182 0.18653 -0.038900666 -0.10314989 0.06976991 0.19548507 0.029564308
-0.022318576 0.13988376 0.3577506 0.2089305 -0.28143412 -0.13159579 0.13267994 0.036357433
-0.12032917 -0.08217369 -0.07857077 -0.06356109 -0.052209146 -0.048769377 0.018565226 0.037790414
-0.14182341 -0.059960805 0.026000453 0.040650714 -0.12082553 -0.109722756 0.0070434767 0.03050481
0.05059412 0.07931148 0.100292906 0.045415517 0.22406356 0.17248246 0.27885944 0.29320225
-0.022148145 0.07339157 0.05881803 0.08075254 -0.07119417 -0.0003524679 0.22414193 0.29900903
0.00155222 -0.0852316 -0.089061685 -0.07534633 0.13775265 0.08825672 0.10842598 0.13612656
-0.039414905 -0.12103 -0.01820696 0.008243701 0.016861942 -0.029846275 0.04669348 0.045272592
-0.21172357 -0.20899223 -0.1376647 -0.10848644 -0.091750875 -0.06644968 0.025528513 0.13453074
-0.17707881 -0.15984721 -0.054252386 0.053233486 -0.056366906 0.010382718 0.03749512 0.10721568
-0.09952363 -0.008068616 -0.11579079 -0.10494906 0.044842176 0.12564471 -0.029846912 -0.0050512403
-0.055815756 -0.024201304 -0.087342575 -0.024126858 0.006838512 -0.05308943 -0.071065515 -0.047023654
0.021213947 -0.013066429 -0.091027856 0.024822101 0.02549125 -0.028002704 -0.002254989 0.17908141
-0.023130534 -0.03581093 -0.003844825 0.16342682 -0.061336778 -0.15541258 -0.0996607 0.057849754
0.122490756 0.12152194 0.12829311 -0.033291474 0.058087286 0.005156887 0.0009590028 -0.163502
0.21936543 0.20972674 0.2740488 0.025975464 0.11528238 0.09391521 0.15183629 -0.038400546
-0.1975849 0.0951506 0.03692002 0.08826219 -0.2870561 -0.027622307 -0.025818758 -0.043807283
-0.076273754 0.18830165 0.23402372 0.19184223 -0.28593075 0.017862342 0.051461153 0.01720328
00000000: 8459 aabb 3bef 833d 842e 5f3e 2953 e53c
00000010: 2533 f1ba bb4e 903e 8fbb a33e 1de9 543e
00000020: 2cd2 e2bd 099b 943c 815f 873e adf3 023e
00000030: 0da3 a4be 85fd fabc 43c8 623d ce32 b53d
00000040: 3bd5 a43d ecbd f53c b63b 4e3d 7c7e cabc
00000050: 5588 be3d a0cd c23d 4798 613d 09ee 82bd
00000060: 43cc e53d a8d2 f93d d48a e73d 3023 273c
00000070: 37fe 03bd aaf3 ad3c 3257 ba3c 25c5 93bd
00000080: 8051 253d 5eff 0f3b a8a6 f03b 0757 d5bc
00000090: bc83 4e3e 89a8 953d 7f13 3d3e b4ec b93d
000000a0: a65f c1bb 515e 293d c5cc 1d3b 7319 c73d
000000b0: c431 d5bd c98d 41be 532a cd3d 24c2 453e
000000c0: d83e 6dbc 20f7 13bd 0e59 f5bc 5208 4bbc
000000d0: 9e88 6e3b dcf7 153d 677c 183d a438 f33c
000000e0: aea9 f3bb b49e 293c 435a 333c 147d 103c
000000f0: b5d9 a2bd 1921 5e3c ff18 c7b9 a13e 4dbc
00000100: b4e0 b13d 6f0d 8ebd 8bf3 483e df15 423c
00000110: 07b4 4e3d 0f80 5d3c 7223 713e f900 b73d
00000120: d93b 963c 38f7 cebd a3ea 1a3e 26bd 823c
00000130: f312 00bd ed9f d7bc 4f0a 403e 6890 8f3e
00000140: 1043 a43d 7503 b23d 2537 7d3d 8b73 65bd
00000150: 89e4 c63d f991 dc3d cc4e 983c c4db 493b
00000160: c3d4 b0bc 4506 863c 20a1 4f3c a5e6 34bd
00000170: 3b5b cdbd 5fb2 71bd e850 8dbc fcfb 99bc
00000180: 8373 edbb e434 4c3e 77e7 9e3d 3a44 42bd
00000190: 52a0 173d 024e 083d e9d9 0c3c 5027 d1bd
000001a0: 7e52 20be f70e b13c 1ba3 8bbd 98ab 4dbe
000001b0: ad73 8cbe c600 97bd 7a8c 8e3d 8fee 8dbd
000001c0: 70d0 cbbd 9ea1 d73c b801 3f3e 4e56 1fbd
000001d0: 4040 d3bd 87e3 8e3d 3d2d 483e d930 f23c
000001e0: 72d5 b6bc b03d 0f3e 162b b73e e1f1 553e
000001f0: 2218 90be 0cc1 06be 40dd 073e 88eb 143d
00000200: 246f f6bd ae4a a8bd b6e9 a0bd 512c 82bd
00000210: 42d9 55bd 66c2 47bd 1a16 983c 1fca 1a3d
00000220: 283a 11be 7699 75bd e7fe d43c 5d81 263d
00000230: 6073 f7bd 53b6 e0bd f7cc e63b 39e5 f93c
00000240: c83b 4f3d 0f6e a23d 5e66 cd3d 9f05 3a3d
00000250: eb70 653e 3e9f 303e aac6 8e3e 9b1e 963e
00000260: 0770 b5bc 524e 963d 2deb 703d 9661 a53d
00000270: 40ce 91bd 71cb b8b9 7685 653e b617 993e
00000280: dc73 cb3a e88d aebd f965 b6bd 2d4f 9abd
00000290: 080f 0d3e f0bf b43d 710e de3d c364 0b3e
000002a0: 8671 21bd 94de f7bd c326 95bc 9710 073c
000002b0: 0e22 8a3c 2d80 f4bc aa41 3f3d c16f 393d
000002c0: 10ce 58be 0f02 56be faf7 0cbe 232e debd
000002d0: e2e7 bbbd c516 88bd 2c21 d13c 6dc2 093e
000002e0: 2654 35be fdae 23be c037 5ebd 5b0b 5a3d
000002f0: fce0 66bd 471c 2a3c 7c94 193d e593 db3d
00000300: 0cd3 cbbd 3a32 04bc b923 edbd 88ef d6bd
00000310: 6eac 373d 02a9 003e 8381 f4bc e084 a5bb
00000320: 109f 64bd d041 c6bc aae0 b2bd b0a5 c5bc
00000330: 9915 e03b 4d74 59bd cc8a 91bd e09b 40bd
00000340: dfc8 ad3c 9314 56bc d06c babd b857 cb3c
00000350: 07d3 d03c ed65 e5bc 70c8 13bb 1e61 373e
00000360: 3f7c bdbc 7bae 12bd 76f9 7bbb 5c59 273e
00000370: 463c 7bbd 7a24 1fbe e91a ccbd ddf3 6c3d
00000380: 6fdc fa3d 7fe0 f83d 455f 033e a45c 08bd
00000390: efec 6d3d 1bfb a83b 9765 7b3a 116d 27be
000003a0: 55a1 603e 9bc2 563e 2050 8c3e 7fca d43c
000003b0: 2b19 ec3d 9e56 c03d f97a 1b3e e449 1dbd
000003c0: b253 4abe 51de c23d 7239 173d cfc2 b43d
000003d0: 04f9 92be 2d48 e2bc dc81 d3bc 446f 33bd
000003e0: 6a35 9cbd 26d2 403e eaa3 6f3e 4a72 443e
000003f0: 8465 92be 0c54 923c eec8 523d e5ed 8c3c

3.bias f4 [64]
0.0052055083 0.02103205 -0.024171356 0.016978621 0.014418589 0.0014935966 0.020435195 0.003667477
-0.021365756 -0.01830098 -0.021386512 -0.006519026 -0.022903653 0.0035379303 -0.030856114 0.00609476
-0.030110579 0.023394424 0.028280169 -0.028896516 -0.031230815 0.017411046 0.025898864 -0.029114868
0.02755183 0.0110857105 -0.023572918 -0.031090017 -0.016810505 -0.009550315 0.009609234 0.0112181315
0.003048063 -0.02959881 -0.016030189 0.009134284 0.01959004 -0.008226509 0.0038926266 -0.023493934
-0.0027453823 -0.022723243 -0.009983053 0.005630019 -0.030742116 -0.0030329127 -0.0052375784 0.0002497833
0.010168662 -0.007818911 -0.0036634775 0.026983758 -0.025559777 0.008449334 -0.0103534805 0.0187634
0.020812562 -0.023891862 0.006060388 -0.018687975 -0.0021534632 -0.014465423 -0.017707283 0.021057758
00000000: f892 aa3b 684b ac3c 0203 c6bc c016 8b3c
00000010: f23b 6c3c c9c4 c33a b667 a73c 0e5a 703b
00000020: 3d07 afbc f0eb 95bc c432 afbc 8e9d d5bb
00000030: 71a0 bbbc 9fdc 673b f6c5 fcbc 8db6 c73b
00000040: 76aa f6bc aaa5 bf3c d0ab e73c 63b8 ecbc
00000050: c4d7 ffbc 9ca1 8e3c db29 d43c 4e82 eebc
00000060: 60b4 e13c d7a0 353c fe1b c1bc 7eb0 febc
00000070: 2fb6 89bc ed78 1cbc 0c70 1d3c 41cc 373c
00000080: 03c2 473b 3479 f2bc be51 83bc f7a7 153c
00000090: 4b7b a03c 7bc8 06bc 701b 7f3b 5a76 c0bc
000000a0: dfeb 33bb 1826 babc f68f 23bc 067c b83b
000000b0: e4d6 fbbc d5c3 46bb fe9f abbb 59f5 8239
000000c0: 769a 263c e41a 00bc f416 70bb 0b0d dd3c
000000d0: bd62 d1bc 136f 0a3c a5a1 29bc b4b5 993c
000000e0: 1b7f aa3c deb8 c3bc 3896 c63b 8617 99bc
000000f0: 1e21 0dbb 6200 6dbc dd0e 91bc 5281 ac3c

4.weight f4 [64]
0.506119 0.7694801 0.94875467 0.97512054 0.9451747 0.8494103 0.8902184 0.634668
1.1192895 0.66085523 0.55764276 2.1738107 0.9051574 1.0165184 0.8043807 1.0402266
0.767373 1.1203419 0.052392833 1.4042984 0.6778974 0.95492715 1.7172261 0.7385666
0.5755018 1.0397712 0.85041344 0.8329756 1.0876466 0.55696094 1.0564104 0.9064437
1.0629535 0.56976616 0.6915398 1.314878 0.9678284 0.99404 0.5683339 0.869756
0.84032506 1.2017812 1.4350908 1.0280199 0.46268722 1.2537826 0.7877694 0.41745135
1.4059424 1.0738401 0.677038 0.9575946 0.7755279 0.7925914 0.8221765 0.95975894
0.9319398 0.82298756 0.91029006 1.4546565 1.0827866 1.1434746 1.698998 0.74624026
00000000: 0491 013f a6fc 443f 96e1 723f 80a1 793f
00000010: f8f6 713f f472 593f 5ae5 633f 9a79 223f
00000020: e144 8f3f cf2d 293f adc1 0e3f b71f 0b40
00000030: 65b8 673f 461d 823f e5eb 4d3f 2526 853f
00000040: 8f72 443f 5d67 8f3f de99 563d 0dc0 b33f
00000050: af8a 2d3f 1b76 743f 11ce db3f b312 3d3f
00000060: 1654 133f 3917 853f b2b4 593f e43d 553f
00000070: 0138 8b3f fe94 0e3f 7538 873f b20c 683f
00000080: dc0e 883f 32dc 113f c108 313f ec4d a83f
00000090: 9ac3 773f 6879 7e3f 557e 113f 54a8 5e3f
000000a0: 8b1f 573f f7d3 993f 0eb1 b73f 2896 833f
000000b0: 57e5 ec3e f37b a03f 41ab 493f 2fbc d53e
000000c0: ecf5 b33f 9873 893f 5d52 2d3f eb24 753f
000000d0: ff88 463f 45e7 4a3f 297a 523f c3b2 753f
000000e0: 9b93 6e3f 50af 523f c508 693f 2f32 ba3f
000000f0: c098 8a3f 605d 923f c478 d93f 9a09 3f3f

4.bias f4 [64]
-0.030340994 -0.0005530113 -0.9037609 -0.51696384 -0.5968773 -0.25346905 -0.3290216 -0.27351406
-0.82374924 -0.14231326 -0.089849606 -1.8778015 -0.5600589 -0.6314631 -0.3527249 -1.1083723
-0.06920086 -1.3898511 -0.45512417 -1.3773438 -0.17360234 -0.4972582 -1.3351926 -0.039188538
-0.12774555 -0.88280267 -0.38874653 -0.72040963 -0.8002716 -0.2731028 -0.7909991 -0.3044228
-1.0737499 -0.05764043 -0.5066393 -1.1708605 -0.4014016 -0.6944458 0.21111193 -0.4332117
-0.16951779 -1.0549312 -1.4710535 -1.0822772 0.056545626 -1.7214389 -0.5346119 -0.2677913
-1.4415797 -0.5915833 -0.2576484 -1.1512958 0.031114524 -0.29921925 -0.26529968 -0.39521408
-0.653099 -0.47914892 -0.7428346 -1.0371947 -1.3595965 -0.79017967 -1.6815023 -0.53858775
00000000: ad8d f8bc f6f7 10ba e05c 67bf be57 04bf
00000010: f3cc 18bf b2c6 81be 8575 a8be 090a 8cbe
00000020: 3be1 52bf 91ba 11be 1203 b8bd cd5b f0bf
00000030: 0560 0fbf 91a7 21bf 5c98 b4be 25df 8dbf
00000040: 2eb9 8dbd a4e6 b1bf 0906 e9be cd4c b0bf
00000050: d0c4 31be a098 febe 97e7 aabf 2984 20bd
00000060: bbcf 02be 5bff 61bf c909 c7be c46c 38bf
00000070: 99de 4cbf 21d4 8bbe eb7e 4abf 4edd 9bbe
00000080: a370 89bf 5f18 6cbd 1db3 01bf c2de 95bf
00000090: 8384 cdbe 33c7 31bf ba2d 583e edcd ddbe
000000a0: 1296 2dbe fc07 87bf 7b4b bcbf 0f88 8abf
000000b0: 639c 673d 1c58 dcbf 53dc 08bf f11b 89be
000000c0: af85 b8bf 0172 17bf 7eea 83be a95d 93bf
000000d0: e3e3 fe3c 4433 99be 5cd5 87be 8059 cabe
000000e0: 7f31 27bf 0253 f5be 692a 3ebf ccc2 84bf
000000f0: 4207 aebf 3749 4abf 783b d7bf e3e0 09bf

6.weight f4 [64, 64, 4, 4]
0.26091063 0.059555344 0.1596194 0.12980549 0.02201509 -0.19100395 0.051528532 0.050193883
-0.4387138 -0.50264996 -0.2923083 -0.28238836 0.0046443073 -0.15555121 -0.10116089 -0.11811433
0.0551406 0.43269256 0.45910764 0.39155102 -0.20623867 0.2095257 0.36170948 0.1902244
-0.38690242 -0.15064412 -0.09430469 -0.19656232 -0.24815576 -0.2811235 -0.20308822 -0.18858214
-0.022511302 -0.017418517 0.13906759 0.054364447 0.015897335 0.06877641 0.06602969 0.029847894
-0.10166591 0.021532275 0.0022839594 -0.049203414 -0.25767684 -0.048612945 -0.09862439 0.014261438
-0.13087052 -0.20604116 0.029184012 -0.05948995 0.0075121135 0.14686948 0.21270972 0.11640798
0.005675094 -0.07199485 -0.033966944 -0.10404013 -0.15040787 -0.13243924 -0.13625479 -0.123243675
0.1334648 0.07554101 -0.09795272 -0.030319491 0.124950506 -0.07991462 0.050885454 0.1864838
-0.07016824 -0.11058936 -0.1714288 -0.05731099 -0.29324147 -0.13309433 -0.23430446 -0.04690745
0.16761877 0.12620535 0.026531681 0.1616193 -0.03577345 0.089608684 -0.1624716 -0.023341648
-0.21450973 -0.01766739 -0.14069894 -0.15302178 -0.2042466 0.03686989 0.037883185 -8.145349e-05
-0.050501272 0.024572529 -0.06214538 -0.21896854 0.109223686 0.038035613 0.023112856 -0.22225872
0.07767457 0.18520989 0.19297451 -0.052690282 0.26470655 0.2645192 0.11789992 -0.029517997
0.047874637 -0.07774714 -0.045080103 -0.039679658 -0.021562152 0.036114376 -0.13269955 -0.17913058
-0.1630128 -0.077441216 -0.029497832 -0.15133011 -0.0098631 -0.10690276 0.027712861 0.08369449
-0.096928686 -0.040863913 0.14693595 0.05859245 0.0014940402 0.039895985 0.23660073 0.18525884
0.19608301 0.23526083 0.20538896 -0.040481135 0.13892767 0.226302 0.14278783 0.13186781
-0.1290654 -0.06039274 0.05946467 -0.06894005 -0.08713613 0.031927787 -0.058020346 -0.06986559
-0.012074709 -0.028277755 -0.013047694 -0.25559247 0.10422954 -0.07995867 -0.25444877 -0.13977747
-0.07336003 0.1659487 0.024394253 -0.17387427 0.028613133 -0.008376743 0.08051376 0.040450476
0.15842588 -0.0884662 0.014517144 0.007943065 0.024384916 -0.1264047 0.024281414 0.08084854
0.1021129 0.25003698 0.28721923 0.24163921 -0.03446608 0.21353017 0.1464915 0.20493087
-0.048260346 0.030248081 -0.13249154 -0.087182514 0.008208815 0.12460079 -0.083512 -0.31512526
-0.062381078 -0.08488521 -0.049536597 -0.0688376 0.107690684 0.13275377 -0.00608285 -0.13844937
0.40872216 0.2887831 -0.05752818 -0.09222371 0.22118849 0.1432571 -0.29153994 -0.27242282
-0.005913694 0.0605851 0.2861858 0.42237228 -0.10642923 0.06466622 0.49857736 0.43520316
-0.1729322 -0.08188777 0.24844164 0.24687026 -0.20698594 -0.0077969 0.104606055 0.14279626
-0.011082204 0.017318249 0.08487293 0.062292654 -0.14127187 -0.2002566 -0.11783051 -0.0007076569
0.020164212 0.028841726 -0.021121094 0.11362649 0.0935033 0.017480081 0.08569018 -0.011924435
-0.023979766 -0.16563585 -0.110113814 -0.075844675 0.024118857 -0.032626443 0.02920603 -0.22364703
0.018401457 -0.16119488 -0.10174132 -0.2731378 -0.037439413 -0.029820947 -0.028869906 0.045929085
00000000: 1496 853e 4ef0 733d 4573 233e bbeb 043e
00000010: fd58 b43c 8a96 43be 950f 533d 1a98 4d3d
00000020: 189f e0be abad 00bf 6fa9 95be 3595 90be
00000030: 462f 983b d148 1fbe 712d cfbd ede5 f1bd
00000040: 1cdb 613d e189 dd3e 2810 eb3e 6079 c83e
00000050: 3b30 53be e88d 563e fc31 b93e 2fca 423e
00000060: 1318 c6be 7442 1abe d122 c1bd a247 49be
00000070: 8b1c 7ebe 6bef 8fbe 5cf6 4fbe ad1b 41be
00000080: 9f69 b8bc 47b1 8ebc bc67 0e3e 41ad 5e3d
00000090: 213b 823c a5da 8c3d 933a 873d 9283 f43c
000000a0: 3736 d0bd 7464 b03c 7bae 153b 8589 49bd
000000b0: 38ee 83be 5e1e 47bd 96fb c9bd cea8 693c
000000c0: ec02 06be 74fc 52be 4f13 ef3c bcab 73bd
000000d0: 2d28 f63b f464 163e 94d0 593e 4f67 ee3d
000000e0: 24f6 b93b 0972 93bd ec20 0bbd fe12 d5bd
000000f0: 8504 1abe 279e 07be 6086 0bbe 2e67 fcbd
00000100: ffaa 083e 3fb5 9a3d 709b c8bd 9560 f8bc
00000110: 0de6 ff3d 47aa a3bd 446d 503d 9cf5 3e3e
00000120: 5eb4 8fbd ad7c e2bd 088b 2fbe eebe 6abd
00000130: bf23 96be e149 08be 82ed 6fbe 0722 40bd
00000140: 41a4 2b3e fa3b 013e f858 d93c 887f 253e
00000150: 2e87 12bd c284 b73d f55e 26be fc36 bfbc
00000160: 70a8 5bbe 34bb 90bc 6213 10be beb1 1cbe
00000170: 0526 51be e204 173d 662b 1b3d 02d2 aab8
00000180: 6cda 4ebd 544c c93c 278c 7ebd 4a39 60be
00000190: abb0 df3d 3bcb 1b3d 2c57 bd3c ca97 63be
000001a0: d813 9f3d a9a7 3d3e 1c9b 453e c4d1 57bd
000001b0: 9e87 873e 106f 873e 8375 f13d bacf f1bc
000001c0: 3218 443d e439 9fbd eaa5 38bd 2387 22bd
000001d0: 1ca3 b0bc abec 133d 64e2 07be 026e 37be
000001e0: d4ec 26be 8099 9ebd 70a5 f1bc 48f6 1abe
000001f0: d798 21bc d6ef dabd 1506 e33c 0468 ab3d
00000200: 8c82 c6bd eb60 27bd 6176 163e a3fe 6f3d
00000210: acd3 c33a f969 233d 7647 723e 7eb4 3d3e
00000220: fcc9 483e 37e8 703e 7c51 523e 8ccf 25bd
00000230: 0e43 0e3e b6bb 673e f936 123e 5b08 073e
00000240: b829 04be 615e 77bd 3a91 733d 7130 8dbd
00000250: 6d74 b2bd b6c6 023d bea6 6dbd b115 8fbd
00000260: 00d5 45bc c0a6 e7bc ffc5 55bc 04dd 82be
00000270: 4c76 d53d 5fc1 a3bd 1c47 82be d321 0fbe
00000280: c93d 96bd 75ee 293e 75d6 c73c 190c 32be
00000290: 1766 ea3c 9b3e 09bc 66e4 a43d 66af 253d
000002a0: 653a 223e c42d b5bd 51d9 6d3c a123 023c
000002b0: e0c2 c73c 3c70 01be d1e9 c63c eb93 a53d
000002c0: 9120 d13d d904 803e 660e 933e 4570 773e
000002d0: 4e2c 0dbd a7a7 5a3e de01 163e 66d9 513e
000002e0: a4ac 45bd d3ca f73c ddab 07be bf8c b2bd
000002f0: 447e 063c b32e ff3d 5708 abbd 1958 a1be
00000300: 4d83 7fbd 4cd8 adbd e3e6 4abd bafa 8cbd
00000310: ef8c dc3d 9bf0 073e a552 c7bb acc5 0dbe
00000320: 0844 d13e 61db 933e aba2 6bbd c9df bcbd
00000330: 3c7f 623e fdb1 123e b944 95be 017b 8bbe
00000340: a9c7 c1bb 1528 783d f286 923e 2e41 d83e
00000350: 91f7 d9bd b96f 843d 8845 ff3e f3d2 de3e
00000360: 2315 31be c6b4 a7bd 7c67 7e3e 8fcb 7c3e
00000370: 1ff4 53be 237d ffbb b33b d63d 2f39 123e
00000380: 2292 35bc 00df 8d3c dcd1 ad3d 9526 7f3d
00000390: 93a9 10be 1110 4dbe 1f51 f1bd 0d82 39ba
000003a0: 6b2f a53c 7c45 ec3c 2506 adbc 01b5 e83d
000003b0: a87e bf3d 6332 8f3c 557e af3d b55e 43bc
000003c0: 3771 c4bc 729c 29be 5a83 e1bd 7454 9bbd
000003d0: e994 c53c 4ea3 05bd 7c41 ef3c ba03 65be
000003e0: a7be 963c 4510 25be c15d d0bd b8d8 8bbe
000003f0: 125a 19bd 0f4b f4bc 9580 ecbc 2320 3c3d

6.bias f4 [64]
-0.01033937 0.009376279 0.012292313 0.03317923 0.0059638997 -0.021486131 -0.0031617628 -0.0056597553
0.03017147 0.018413128 -0.021423109 -0.029890724 -0.01351648 -0.02717902 0.03253498 0.0013396973
0.021896645 -0.013003744 -0.013165957 -0.032291856 -0.017703287 0.023605837 0.023110818 0.008509003
0.016245533 -0.025722405 -0.024350828 0.007653435 -0.00039592455 -0.005812589 0.017847193 0.024713194
0.026004124 0.026027972 0.030661196 0.016579058 0.018061046 -0.003042114 0.031406637 -0.016981047
0.011958801 0.015151468 -0.021009779 0.024192184 0.012630139 -0.022461668 -0.029205926 -0.02924664
-0.008475427 0.008047177 0.023803344 -0.017789105 0.027499387 0.02290604 0.026720181 -0.026473753
0.013439607 -0.026345382 0.020838961 0.003501218 0.023376785 -0.02132861 0.005949521 -0.011782202
00000000: 7666 29bc f79e 193c b365 493c f2e6 073d
00000010: d16c c33b af03 b0bc 9435 4fbb 7875 b9bb
00000020: 292a f73c 21d7 963c 847f afbc 64dd f4bc
00000030: 3a74 5dbc 89a6 debc 6643 053d c898 af3a
00000040: 9860 b33c a80d 55bc 07b6 57bc 7744 04bd
00000050: 7c06 91bc 0761 c13c e652 bd3c 5869 0b3c
00000060: 5a15 853c cbb7 d2bc 637b c7bc abc9 fa3b
00000070: 1894 cfb9 8877 bebb 4734 923c 5373 ca3c
00000080: 9a06 d53c 9d38 d53c 302d fb3c ced0 873c
00000090: c2f4 933c 345e 47bb 3fa4 003d d61b 8bbc
000000a0: d9ee 433c dd3d 783c b31c acbc b02e c63c
000000b0: a4ee 4e3c 8801 b8bc 4441 efbc a696 efbc
000000c0: 84dc 0abc 4fd8 033c 3bff c23c 75ba 91bc
000000d0: 6546 e13c 73a5 bb3c 48e4 da3c 7cdf d8bc
000000e0: cc31 5c3c 45d2 d7bc 78b6 aa3c b174 653b
000000f0: ac80 bf3c 56b9 aebc 33f4 c23b 230a 41bc

7.odefunc.norm1.weight f4 [74]
1.7772627 1.7951123 1.8935759 1.6537507 1.6193647 1.449 1.8896786 1.9110221
1.8049095 2.0470345 2.010051 1.5142087 1.5397986 2.0787513 1.555354 1.479235
1.7668988 1.9738003 1.9954748 1.8918133 1.8391993 1.9399717 1.8660134 2.0093226
1.7921942 1.9433922 2.1338055 1.6923764 1.8713318 2.0491757 1.8700198 1.339082
1.8740445 1.9613764 1.49493 1.6287851 2.2478685 1.9964701 1.2620568 2.0546494
2.0033662 1.78867 1.8954545 2.0911822 1.8597434 1.6462283 1.5090526 1.8627951
1.9940579 2.4131653 1.9010109 2.0911286 2.2234704 1.4723917 2.083299 1.7091855
1.9144917 1.7704399 2.0319123 1.5057448 2.1670685 1.7837535 2.2142487 1.6852974
2.0571792 1.9826193 2.634393 2.049287 2.1345067 2.034964 2.0445347 2.0836985
1.9388168 2.3623025
00000000: 587d e33f 3dc6 e53f b260 f23f 1aae d33f
00000010: 5847 cf3f d578 b93f fde0 f13f 5f9c f43f
00000020: 4607 e73f 9d02 0340 ada4 0040 97d1 c13f
00000030: 1f18 c53f 430a 0540 d715 c73f 9357 bd3f
00000040: bd29 e23f 7da5 fc3f b86b ff3f f026 f23f
00000050: e26a eb3f fe50 f83f 87d9 ee3f be98 0040
00000060: 9f66 e53f 13c1 f83f 4590 0840 ca9f d83f
00000070: cd87 ef3f b225 0340 cf5c ef3f 0a67 ab3f
00000080: b1e0 ef3f 620e fb3f de59 bf3f 087c d03f
00000090: 14dd 0f40 558c ff3f 148b a13f 607f 0340
000000a0: 2737 0040 23f3 e43f 419e f23f eed5 0540
000000b0: 120c ee3f 9cb7 d23f a328 c13f 1270 ee3f
000000c0: 4a3d ff3f 4d71 1a40 5354 f33f 0dd5 0540
000000d0: 574d 0e40 5577 bc3f c554 0540 97c6 da3f
000000e0: 100e f53f c69d e23f da0a 0240 3fbc c03f
000000f0: 40b1 0a40 0952 e43f 40b6 0d40 d3b7 d73f
00000100: d3a8 0340 78c6 fd3f e599 2840 8527 0340
00000110: c29b 0840 da3c 0240 a8d9 0240 515b 0540
00000120: 262b f83f f72f 1740

7.odefunc.norm1.bias f4 [74]
-0.17098165 -0.14485116 -0.32079083 0.3013834 0.18649665 0.35740948 -0.8657866 -0.1292874
-0.8132328 -0.49846375 -0.5036972 0.3453544 -0.09954392 -0.68621844 0.4038188 -0.27456942
-0.36380208 -0.37847131 -0.7217265 -0.72675765 -0.13651796 -0.741558 0.20636992 -0.11233696
0.0036635282 0.32404777 -0.88367265 -0.21397844 -0.46402717 -0.6708491 0.04723604 0.6050757
-0.69819635 -0.2791819 -0.012209821 0.051493447 -1.4205145 -0.72367543 0.32506806 -0.9866927
-0.47687054 -0.095545 -0.49679515 -0.23523718 -1.02919 -0.20269053 -0.36738566 -0.7233301
-0.663915 -1.0477787 0.40626556 -0.48773637 -1.169241 -0.08960086 -0.28147373 -0.06628692
-0.40570366 0.13424546 -0.7061643 -0.033994123 -0.18015891 0.12248527 -1.4495003 -0.25907093
-0.6571514 -1.0538734 -0.4255213 -0.95805174 -1.2134086 0.20805235 0.20600933 -0.15423885
-0.11718663 -1.1333594
00000000: d015 2fbe dd53 14be b23e a4be ed4e 9a3e
00000010: faf8 3e3e 60fe b63e 31a4 5dbf eb63 04be
00000020: 0630 50bf a436 ffbe 4df2 00bf 4bd2 b03e
00000030: afdd cbbd 03ac 2fbf 56c1 ce3e 5d94 8cbe
00000040: 4444 babe fec6 c1be 11c3 38bf ca0c 3abf
00000050: 5dcb 0bbe bfd6 3dbf a352 533e ec10 e6bd
00000060: ce17 703b 97e9 a53e 5f38 62bf 2a1d 5bbe
00000070: f894 edbe c4bc 2bbf 947a 413d 3ee6 1a3f
00000080: ffbc 32bf eef0 8ebe b30b 48bc cbea 523d
00000090: 6bd3 b5bf cb42 39bf 526f a63e e597 7cbf
000000a0: 6028 f4be 19ad c3bd ef5b febe 04e2 70be
000000b0: 7fbc 83bf 1b8e 4fbe f919 bcbe 292c 39bf
000000c0: 55f6 29bf 9d1d 86bf 0a02 d03e 95b8 f9be
000000d0: b0a9 95bf a880 b7bd 531d 90be 70c1 87bd
000000e0: 64b8 cfbe a477 093e 2fc7 34bf 6c3d 0bbd
000000f0: 947b 38be 8fd9 fa3d 3a89 b9bf f2a4 84be
00000100: 133b 28bf 53e5 86bf eedd d9be e142 75bf
00000110: f950 9bbf ad0b 553e 1cf4 523e caf0 1dbe
00000120: 8bff efbd ec11 91bf

7.odefunc.conv1._layer.weight f4 [74, 75, 3, 3]
0.043150578 0.010493246 0.050779473 0.03842266 -0.003115263 -0.005667489 -0.046557933 -0.085766405
-0.07456335 -0.008448881 0.19180912 -0.031732455 -0.053189244 -0.11204992 -0.03315662 -0.021996003
-0.32696828 0.16721469 -0.1371134 -0.1576524 -0.26567522 0.11207783 0.2529659 0.00810623
-0.08026554 -0.05028185 0.13902612 -0.27378374 -0.43717042 -0.05634603 -0.078183964 -0.23593691
-0.27881667 0.121165864 -0.14396517 -0.19090037 0.26544383 0.004801579 0.22553326 0.39295083
-0.19390775 0.05328954 0.0015113652 -0.3588309 0.097122684 -0.057097577 -0.12982084 0.33948904
-0.21008675 -0.0024478368 -0.0710171 -0.011988988 0.39057484 0.495067 0.004622021 0.11540734
0.0030853124 0.03358071 0.08843141 -0.07798308 0.08979421 0.2598456 0.01600971 0.46592227
0.024491606 0.20838906 0.22266413 -0.1086264 0.11083805 -0.012354163 0.14171828 0.21053304
-0.40377206 0.021365445 -0.26179212 0.10826426 0.38033012 -0.3577051 0.22430739 -0.0805713
-0.13299781 -0.38698637 -0.6699826 -0.26852462 -0.14262635 -0.04818858 -0.24042478 -0.13625616
-0.036771916 -0.1169446 -0.06883305 0.1772855 0.04317409 0.34071273 0.031046862 -0.24732155
0.15792297 -0.16838318 -0.44046336 -0.15841973 -0.0633981 0.0743146 0.22868854 0.3084799
0.22487003 0.18047209 0.20831123 0.009929309 0.24426207 -0.1244207 -0.42427137 -0.22342388
-0.47209483 -0.21193145 -0.24749127 -0.17848484 -0.011392402 -0.054960895 -0.3808989 -0.05054961
-0.11851912 -0.4454247 -0.14296134 0.024684437 -0.04231933 0.0665917 -0.0899835 -0.07159787
0.06120735 0.33666795 0.28643703 -0.29874024 0.11105042 0.28748953 0.07690952 0.04425412
-0.6648933 -0.2988484 0.2709322 -0.104444966 -0.0712758 -0.101525 0.09659219 0.19373766
-0.33717299 -0.21776003 0.19059734 -0.07602174 0.46302685 0.062239584 0.05836927 0.050077997
0.059001546 -0.20547609 -0.23529401 -0.21543497 0.0150046935 0.15338735 -0.0420277 0.10959478
0.27555516 0.25235862 -0.1617089 -0.35697725 0.039830223 -0.12975796 -0.4880013 0.07940259
0.40201864 0.195747 0.20071824 0.024679257 0.38854295 0.03841705 -0.1532334 0.5506315
0.04267543 0.025766214 -0.020096615 0.1940537 -0.32529575 -0.31265545 -0.18054573 -0.13420177
-0.36504564 0.06840573 0.3011872 0.10813546 0.3004103 -0.3183532 -0.1334247 0.10305407
-0.22794947 -0.044107813 0.06450603 0.14435083 0.13703753 0.022428473 -0.08412634 0.015083054
0.25268522 -0.19083947 -0.22993216 -0.015638301 -0.12636365 -0.15908843 -0.12206249 -0.23156892
-0.14098428 0.17243895 0.04423262 0.06365183 0.050581444 -0.2904432 -0.21497172 -0.0074633253
-0.12549432 -0.27960485 -0.16164818 0.003934192 -0.22092906 0.006188026 0.15490498 -0.21573997
-0.034737904 -0.3054785 -0.13022095 0.48928544 -0.17568594 0.28660122 0.28813338 0.08011221
0.06847806 -0.09821362 0.6383724 0.4680189 -0.03452089 0.4068731 0.21122324 0.03003298
0.14409126 -0.11990012 0.00805061 -0.10780763 -0.16531087 -0.17119858 0.27438474 -0.15425669
0.04637823 0.050613016 -0.3765001 -0.028647436 -0.16297965 0.38175377 -0.22977248 0.049427275
00000000: a9be 303d ddeb 2b3c 23fe 4f3d 1461 1d3d
00000010: 7129 4cbb 58b6 b9bb 88b3 3ebd 4ca6 afbd
00000020: abb4 98bd 2d6d 0abc 9c69 443e e4f9 01bd
00000030: f7dc 59bd 6e7a e5bd 3ccf 07bd f630 b4bc
00000040: 6368 a7be 543a 2b3e 7567 0cbe a16f 21be
00000050: 9506 88be 1089 e53d bf84 813e fecf 043c
00000060: 4262 a4bd 57f4 4dbd dd5c 0e3e 622d 8cbe
00000070: cdd4 dfbe 18cb 66bd ea1e a0bd 7299 71be
00000080: 0fc1 8ebe cf25 f83d 9b6b 13be 637b 43be
00000090: 41e8 873e 9056 9d3b 31f2 663e da30 c93e
000000a0: c18f 46be 2246 5a3d 0019 c63a afb8 b7be
000000b0: 42e8 c63d 26df 69bd c1ef 04be 82d1 ad3e
000000c0: fb20 57be e36b 20bb 6a71 91bd 766d 44bc
000000d0: 6df9 c73e 6c79 fd3e 5374 973b af5a ec3d
000000e0: f432 4a3b ed8b 093d 871b b53d 98b5 9fbd
000000f0: 07e6 b73d 7c0a 853e cc26 833c 5d8d ee3e
00000100: 9fa2 c83c f163 553e 1102 643e 8577 debd
00000110: 0fff e23d 1e69 4abc 991e 113e f995 573e
00000120: 36bb cebe 9606 af3c 9e09 86be a7b9 dd3d
00000130: a1ba c23e 1f25 b7be d6b0 653e 9102 a5bd
00000140: 9430 08be 1423 c6be fb83 2bbf 0f7c 89be
00000150: a40c 12be 6361 45bd ea31 76be bc86 0bbe
00000160: 269e 16bd a780 efbd 58f8 8cbd 558a 353e
00000170: 51d7 303d e671 ae3e fd55 fe3c dc41 7dbe
00000180: 8fb6 213e a46c 2cbe 6a84 e1be c838 22be
00000190: ddd6 81bd 4132 983d 542d 6a3e 14f1 9d3e
000001a0: 5444 663e adcd 383e 8a4f 553e 8aae 223c
000001b0: d61f 7a3e 48d0 febd 193a d9be 3bc9 64be
000001c0: 6ab6 f1be 8f04 59be 5a6e 7dbe bbc4 36be
000001d0: 33a7 3abc ad1e 61bd 2e05 c3be 1c0d 4fbd
000001e0: 27ba f2bd b50e e4be 7564 12be 0437 ca3c
000001f0: 0957 2dbd 3b61 883d 4549 b8bd e7a1 92bd
00000200: 8fb4 7a3d be5f ac3e e0a7 923e 7bf4 98be
00000210: 676e e33d d431 933e bd82 9d3d cf43 353d
00000220: 7336 2abf a802 99be a0b7 8a3e 3ee7 d5bd
00000230: 0cf9 91bd 57ec cfbd 20d2 c53d 2a63 463e
00000240: f0a1 acbe 7cfc 5ebe f32b 433e 49b1 9bbd
00000250: db11 ed3e efee 7e3d 9e14 6f3d 961e 4d3d
00000260: 9bab 713d 5368 52be eaf0 70be fc9a 5cbe
00000270: 3fd6 753c 9311 1d3e 3d25 2cbd 3a73 e03d
00000280: 9115 8d3e 2635 813e 0597 25be b9c5 b6be
00000290: 0425 233d 45df 04be 4edb f9be d39d a23d
000002a0: 63d5 cd3e e771 483e 1589 4d3e 272c ca3c
000002b0: 1aef c63e 325b 1d3d 37e9 1cbe 30f6 0c3f
000002c0: 6fcc 2e3d ab13 d33c a8a1 a4bc 03b6 463e
000002d0: 2a8d a6be 6014 a0be fbe0 38be 306c 09be
000002e0: 43e7 babe 4e18 8c3d 3535 9a3e 2076 dd3d
000002f0: 61cf 993e 31ff a2be 7ca0 08be 030e d33d
00000300: 966b 69be 65aa 34bd bd1b 843d b4d0 133e
00000310: 9153 0c3e ebbb b73c 6e4a acbd ea1e 773c
00000320: f55f 813e 6c6b 43be 5673 6bbe e51b 80bc
00000330: 7965 01be 14e8 22be e6fb f9bd 6720 6dbe
00000340: 2f5e 10be d693 303e 442d 353d e45b 823d
00000350: 7d2e 4f3d f9b4 94be 8c21 5cbe e98e f4bb
00000360: 9581 00be 5e28 8fbe 1a87 25be 65ea 803b
00000370: 3a3b 62be edc4 ca3b 699f 1e3e f0ea 5cbe
00000380: 5549 0ebd ae67 9cbe a458 05be 9f83 fa3e
00000390: 04e7 33be 65bd 923e 3886 933e df11 a43d
000003a0: 3a3e 8c3d 3924 c9bd 606c 233f 2ca0 ef3e
000003b0: c765 0dbd ac51 d03e e84a 583e b907 f63c
000003c0: a98c 133e 328e f5bd b5e6 033c 3fca dcbd
000003d0: 4147 29be ae4e 2fbe 287c 8c3e 77f5 1dbe
000003e0: 19f7 3d3d 984f 4f3d 9fc4 c0be 07ae eabc
000003f0: 23e4 26be 3b75 c33e 7a49 6bbe 4174 4a3d

7.odefunc.conv1._layer.bias f4 [74]
-0.029395884 -0.031919867 -0.025918525 -0.009960607 -0.026770415 0.021916416 -0.021675207 0.011814594
0.02376549 -0.02284281 0.026472097 -0.029713947 -0.013256103 -0.020635685 -0.0005483536 -0.004277319
0.022771321 -0.018674579 -0.0013097045 -0.013309968 -0.031406317 0.026991844 0.0014653509 0.020559099
-0.0357492 0.024592571 0.032812826 0.015591897 0.0002454105 -0.034978744 0.00056612625 -0.014367008
0.022680815 -0.0009875934 0.03140287 0.03526833 -0.036778934 0.0053246845 0.014712073 -0.020976916
-0.016158488 -0.029841827 -0.02439911 0.03717784 0.02631358 0.029123627 0.020664003 0.0155300945
-0.034222186 0.00065278675 0.037653662 -0.014771268 0.0037746814 0.024413891 -0.005791115 0.0042136326
-0.002970161 -0.020373115 0.018616013 0.018444497 -0.022560813 0.010739934 -0.008382678 0.0037938582
-0.001809555 0.018111177 0.014435107 0.009226263 0.0014594329 0.03213767 0.025254942 -0.0016670672
-0.0051646014 0.012863062
00000000: a3cf f0bc 68be 02bd 1653 d4bc d031 23bc
00000010: a14d dbbc 0e8a b33c 3490 b1bc 0092 413c
00000020: d8af c23c d820 bbbc 03dc d83c aa6a f3bc
00000030: 2030 59bc 2b0c a9bc 63bf 0fba c128 8cbb
00000040: ec8a ba3c 6efb 98bc 64aa abba 0d12 5abc
00000050: e9a3 00bd 001e dd3c 0411 c03a 8e6b a83c
00000060: c16d 12bd 5c76 c93c be66 063d 2875 7f3c
00000070: 71aa 8039 df45 0fbd 1768 143a 9963 6bbc
00000080: 1ecd b93c 2372 81ba 4ca0 003d 8675 103d
00000090: 82a5 16bd b17a ae3b e80a 713c c8d7 abbc
000000a0: ce5e 84bc d976 f4bc a4e0 c7bc ca47 183d
000000b0: 948f d73c ac94 ee3c 8e47 a93c f071 7e3c
000000c0: 902c 0cbd c71f 2b3a ba3a 1a3d 3003 72bc
000000d0: a560 773b a4ff c73c 65c3 bdbb 8312 8a3b
000000e0: 08a7 42bb 85e5 a6bc 9c80 983c ea18 973c
000000f0: 74d1 b8bc 8cf6 2f3c 8057 09bc 61a2 783b
00000100: 972e edba e45d 943c 3a81 6c3c c029 173c
00000110: 714a bf3a caa2 033d 74e3 ce3c 7e81 daba
00000120: d13b a9bb 98bf 523c

7.odefunc.norm2.weight f4 [74]
1.789736 1.7603201 1.6585289 1.9120079 2.1578202 2.144031 2.0502634 1.78525
2.1339154 1.7960004 2.3096201 1.7575 1.9971759 1.6457936 1.8756804 2.1128793
2.0695472 1.8383954 1.5625014 2.1780179 1.8029393 1.8913624 2.0018883 2.070088
1.8457658 1.6253744 1.7973473 2.0151198 1.7673188 1.7228897 2.2667103 2.0118816
1.3437024 1.7857662 1.9335868 1.8259301 1.8149041 2.4527297 1.7351587 1.6589459
2.1921124 2.1950288 1.8928849 1.9293914 2.1117318 1.8565738 1.9432403 1.7896497
2.1094034 1.89853 1.9660661 2.0987701 2.003863 1.4177194 1.8587362 2.0874066
1.9227836 1.7600731 1.8605767 2.0047262 2.249866 1.8160042 1.763336 1.8186471
1.8909583 1.8005629 1.8659358 2.0365531 2.5456736 2.0190585 2.1193163 1.8217479
1.7975612 1.9693547
00000000: 1216 e53f 2b52 e13f ad4a d43f adbc f43f
00000010: ba19 0a40 ce37 0940 8437 0340 1283 e43f
00000020: 1292 0840 57e3 e53f d1d0 1340 c3f5 e03f
00000030: 76a3 ff3f 5da9 d23f 4c16 f03f 6a39 0740
00000040: 7673 0440 8a50 eb3f 0c00 c83f a564 0b40
00000050: b7c6 e63f 2a18 f23f f01e 0040 527c 0440
00000060: 0e42 ec3f 450c d03f 7a0f e63f b9f7 0040
00000070: 8137 e23f a687 dc3f c811 1140 abc2 0040
00000080: 71fe ab3f fd93 e43f c67f f73f 14b8 e93f
00000090: c74e e83f 86f9 1c40 ae19 de3f 5758 d43f
000000a0: 924b 0c40 5a7b 0c40 0d4a f23f 4cf6 f63f
000000b0: 9d26 0740 36a4 ed3f 19bc f83f 3e13 e53f
000000c0: 7700 0740 0803 f33f 0ea8 fb3f 4052 0640
000000d0: 4b3f 0040 d477 b53f 11eb ed3f 1298 0540
000000e0: c61d f63f 134a e13f 6127 ee3f 6f4d 0040
000000f0: cefd 0f40 d372 e83f feb4 e13f 6ec9 e83f
00000100: ec0a f23f d878 e63f fcd6 ee3f e356 0240
00000110: 51ec 2240 4138 0140 e1a2 0740 092f e93f
00000120: 7c16 e63f d113 fc3f

7.odefunc.norm2.bias f4 [74]
-0.71864235 -0.9296106 -1.1456006 -0.91955054 -1.8279955 -1.6992437 -0.7457237 -1.0711166
-1.3629495 -0.45476913 -1.2564 -0.985098 -1.3076404 -1.1036792 -1.2659147 -1.3689857
-1.9070098 -0.5708909 -0.6297401 -1.5695583 -0.77078265 -1.1072546 -1.4795437 -1.4126633
-1.280943 -1.2535948 -1.2146697 -0.6680085 -0.52911925 -0.81899357 -1.5088054 -0.949996
-0.6648509 -1.050853 -1.3671069 -1.4023116 -1.0484003 -2.1794598 -1.3708595 -1.600544
-0.89950997 -1.7136081 -1.208368 -1.2994647 -1.0197674 -1.6459906 -1.176048 -0.8385629
-1.5335996 -1.0022684 -1.088599 -1.0704083 -1.4266547 0.1542793 -1.4503033 -1.0962085
-0.74368215 -1.1838846 -1.2698548 -1.3038408 -1.6584268 -1.1263849 -1.1116688 -0.8814828
-0.7929547 -1.197478 -1.4346248 -1.3258362 -1.8913952 -0.8698178 -1.521585 -1.029227
-1.1199415 -0.9808009
00000000: f2f8 37bf f6fa 6dbf 0aa3 92bf aa67 6bbf
00000010: c2fb e9bf d180 d9bf c0e7 3ebf 591a 89bf
00000020: 2175 aebf 80d7 e8be b7d1 a0bf 622f 7cbf
00000030: c360 a7bf 5c45 8dbf 7e09 a2bf ec3a afbf
00000040: e618 f4bf e825 12bf a636 21bf 49e7 c8bf
00000050: 0352 45bf 85ba 8dbf b061 bdbf 27d2 b4bf
00000060: f1f5 a3bf cb75 a0bf 4c7a 9bbf 9b02 2bbf
00000070: 5c74 07bf 90a9 51bf 8920 c1bf f032 73bf
00000080: ab33 2abf 5a82 86bf 5cfd aebf f27e b3bf
00000090: fb31 86bf 457c 0bc0 5378 afbf a0de ccbf
000000a0: 4946 66bf 8357 dbbf cdab 9abf dc54 a6bf
000000b0: bd87 82bf d2af d2bf be88 96bf 0fac 56bf
000000c0: fe4c c4bf 554a 80bf 3657 8bbf 2403 89bf
000000d0: 9f9c b6bf 65fb 1d3e 8aa3 b9bf 8f50 8cbf
000000e0: f461 3ebf 8889 97bf 9a8a a2bf 41e4 a6bf
000000f0: 5447 d4bf 612d 90bf 2a4b 8ebf dba8 61bf
00000100: 14ff 4abf f646 99bf c9a1 b7bf 00b5 a9bf
00000110: 3d19 f2bf 61ac 5ebf 4cc3 c2bf b6bd 83bf
00000120: 3e5a 8fbf c515 7bbf
