experiment_node_cifar_v3/model.pth (torch, 844201 bytes, 24 tensors)

0.weight f4 [64, 3, 3, 3]
0	0x3f002dca	0.5006987
1	0x3e091bea	0.13389555
2	0x3d6d3e2c	0.05792062
3	0xbf2607f0	-0.6485586
4	0x3f720366	0.94536436
5	0x3f7cdaa6	0.9877113
6	0xbf91ba1a	-1.1384919
7	0xbccb44f6	-0.024813157
8	0x3f069b46	0.5258068
9	0x3e8472f3	0.2586895
10	0x3e85e379	0.2615011
11	0x3f239022	0.63891804
12	0xbf220d20	-0.6330128
13	0x3f889485	1.0670325
14	0x3f919bfb	1.1375726
15	0xbf3f05c8	-0.74618196
16	0x3daa8bf2	0.08327474
17	0x3e9f53d5	0.31118646
18	0x3df00bb7	0.117209844
19	0xbf06ca0a	-0.5265204
20	0xbf2177db	-0.6307351
21	0xbf6a0dc8	-0.9142728
22	0xbd0818d8	-0.033226818
23	0xbe846d81	-0.25864795
24	0xbf4c3a1e	-0.7977618
25	0xbed2f1b2	-0.41200024
26	0xbe59f8c7	-0.21286307
27	0x3e88b03d	0.2669696
28	0xbf1474d3	-0.5799076
29	0xbf58139a	-0.8440491
30	0xbe5147b5	-0.2043751
31	0xbf97859f	-1.1837653
32	0xbf98bce5	-1.1932646
33	0xbebf15d7	-0.3732135
34	0xbf8acae7	-1.0843171
35	0xbf3ecb8c	-0.7452934
36	0x3f77718a	0.9665762
37	0x3d942d70	0.07235229
38	0xbf123c3b	-0.57123154
39	0x3f2d71f4	0.67752004
40	0xbf3294a0	-0.69758034
41	0xbf2a96dc	-0.66636443
42	0xbdb8bb2e	-0.09020077
43	0xbf4df7a6	-0.80456007
44	0xbe94f331	-0.2909179
45	0x3f909930	1.1296749
46	0x3ed31c39	0.4123247
47	0xbef6bf3c	-0.48192775
48	0x3f62c590	0.88582706
49	0xbe38c3c4	-0.18043429
50	0xbe8b73c0	-0.27236748
51	0x3f0cc6dc	0.54990935
52	0xbd5f1663	-0.05446471
53	0x3e5544a4	0.20826966
54	0x3ef1e883	0.47247705
55	0x3fb416fc	1.4069514
56	0x3f486156	0.7827352
57	0x3f14f0f7	0.58180183
58	0x4011820a	2.273562
59	0x3fa5acfd	1.2943417
60	0x3e86ec7e	0.26352304
61	0x3f8c4ac6	1.0960319
62	0x3f28114c	0.6565139
63	0xbf853bfe	-1.0408933
64	0xbf5b0430	-0.85553265
65	0xbfc04e5c	-1.5023913
66	0xbfd42df9	-1.657653
67	0xbf873c26	-1.0565231
68	0xbfc055ea	-1.5026219
69	0xbf81e39c	-1.0147586
70	0xbfc52ed1	-1.5404912
71	0xbfd697c5	-1.6765066
72	0x3fa534c3	1.2906727
73	0x3f843e49	1.0331508
74	0x3f24ac69	0.6432558
75	0x3e4d0496	0.2002128
76	0x3f56e65f	0.8394527
77	0x3f2b7664	0.66977525
78	0x3ea22731	0.31670526
79	0xbd8cbf59	-0.06872434
80	0xbdb52379	-0.088446565
81	0xbdedb6f6	-0.11607163
82	0xbfa013b1	-1.2506009
83	0xbf68dd53	-0.90962714
84	0xbf3138f2	-0.69227517
85	0xbfad0915	-1.3518397
86	0xbef1af28	-0.47203946
87	0xbee0492f	-0.43805835
88	0xbf7420a3	-0.953623
89	0xbecfdc57	-0.40597793
90	0x3f7d80d1	0.99024683
91	0x3e5463ca	0.20741192
92	0x3eb175cc	0.34660184
93	0x3f33553f	0.7005195
94	0x3ec58e8d	0.3858532
95	0x3f51875a	0.81847155
96	0x3f76660e	0.96249473
97	0x3f5edabe	0.87052524
98	0x3f89288f	1.0715503
99	0xbed42d4c	-0.4144081
100	0xbf893bf9	-1.0721427
101	0xbea75b47	-0.32686827
102	0xbeb08b55	-0.34481302
103	0xbf46da7a	-0.7767712
104	0xbba47838	-0.005019214
105	0x3da69565	0.081339635
106	0x3c0adeb2	0.008475946
107	0x3f0b574d	0.54430085
108	0x3e72b8fb	0.23703377
109	0x3e28fd91	0.16502978
110	0x3ccc1b22	0.024915282
111	0x3bbb1fe3	0.0057105883
112	0xbe43eef2	-0.19134119
113	0xbe17a4f0	-0.14809012
114	0xbeeaf1bc	-0.45887554
115	0xbed29604	-0.41130078
116	0xbde3c195	-0.11120907
117	0x3eb369d3	0.35041675
118	0x3cc04a88	0.02347304
119	0x3f09d077	0.5383372
120	0x3e985a8f	0.2975659
121	0x3da605b9	0.0810656
122	0x3e91d132	0.28479916
123	0xbdbcdfef	-0.092223994
124	0x3e3ed017	0.18634067
125	0x3b800fac	0.0039081182
126	0x3e9b3120	0.30310917
127	0x3d918fcb	0.071075045
128	0x3f198bb8	0.5997882
129	0x3eda57f3	0.42645225
130	0x3e6f4177	0.23364817
131	0x3f22719a	0.6345459
132	0x3e9e02f2	0.30861622
133	0x3e8a4022	0.27002054
134	0x3eee89d6	0.46589535
135	0x3dbbf2fc	0.09177205
136	0x3d29a710	0.04141909
137	0x3ea04783	0.3130456
138	0x3d7475b3	0.05968256
139	0x3e540a9d	0.20707174
140	0x3ef174ee	0.47159523
141	0x3e60f2de	0.21967646
142	0x3edfc208	0.43702722
143	0x3f0ddc16	0.5541395
144	0xbe1c39d3	-0.15256433
145	0xbea547c4	-0.32281315
146	0xbe523076	-0.20526299
147	0xbe67af46	-0.22625455
148	0xbe9f5f7f	-0.31127545
149	0xbd1c7c96	-0.038204752
150	0xbe5707dd	-0.20999093
151	0x3d7c1863	0.061546694
152	0xbe0063ba	-0.12538043
153	0xbf190d26	-0.5978569
154	0xbedb77c9	-0.42864826
155	0xbea214aa	-0.3165639
156	0xbed0103a	-0.4063738
157	0xbe33087e	-0.17483708
158	0xbec250c4	-0.37952244
159	0xbf163a4e	-0.58682716
160	0xbe2a0db7	-0.16606794
161	0xbeb52b24	-0.35384476
162	0xbe54b7a1	-0.20773174
163	0xbe988cf9	-0.29795054
164	0x3e83e51e	0.2576074
165	0x3f5bfe46	0.85934865
166	0x3f0cd063	0.5500547
167	0xbe3ac49f	-0.18239067
168	0x3f243935	0.6414979
169	0xbcab685e	-0.02092379
170	0xbe1114ec	-0.14168137
171	0x3f7805d0	0.9688387
172	0x3f27cb05	0.6554416
173	0x3f00629e	0.5015048
174	0x3fcca1bc	1.5986857
175	0x3fa97f2d	1.3241936
176	0x3e2d0948	0.16898072
177	0x3f9e230d	1.2354447
178	0x3f2a61cd	0.6655548
179	0x3f52ae84	0.8229754
180	0xbf66b66d	-0.9012211
181	0xbf77950b	-0.96711797
182	0xbead3eb5	-0.33836904
183	0xbf698009	-0.9121099
184	0xbf9342fe	-1.1504819
185	0xbf836e0e	-1.0267961
186	0xbfa3e9bd	-1.2805706
187	0xbfa4dd9a	-1.2880127
188	0xbeed7dff	-0.4638519
189	0x3f0fe7c1	0.56213003
190	0x3fa48aa3	1.2854809
191	0x3f4841d0	0.7822542
192	0xbf0a5895	-0.54041415
193	0xbe5ffbda	-0.21873417
194	0xbdf2139a	-0.11820145
195	0xbf227773	-0.63463515
196	0xbf31b915	-0.6942304
197	0xbec964a9	-0.3933461
198	0x3f2060d2	0.62647736
199	0x3f950a2d	1.164373
200	0x3f1bc022	0.60840046
201	0xbf0ad1ea	-0.54226553
202	0x3d3b1a57	0.045679417
203	0xbe5e2665	-0.21694334
204	0xbf533595	-0.82503635
205	0xbf85f767	-1.0466126
206	0xbeb3595f	-0.35029122
207	0x3eaeeb69	0.3416398
208	0x3fa5add5	1.2943674
209	0x3f3c21fc	0.73489356
210	0xbf1db6ec	-0.6160724
211	0x3ea413c7	0.3204634
212	0x3e8a43c7	0.27004835
213	0xbf5b5ec4	-0.85691476
214	0xbf35aee1	-0.7096997
215	0xbf0af0fc	-0.5427396
216	0x3d40bc6d	0.047054697
217	0xbdce14ce	-0.10062562
218	0xbd2ffbe8	-0.042964846
219	0xbe7e613e	-0.24841782
220	0xbe053bbc	-0.13011068
221	0x3d8108f4	0.06300536
222	0xbd0687b7	-0.03284427
223	0x3d52e92e	0.05149191
224	0x3d37a0b0	0.044830978
225	0x3ec8ca2e	0.3921675
226	0x3d950799	0.0727684
227	0x3da8477f	0.08216762
228	0x3e297564	0.16548687
229	0x3e92ae92	0.28648812
230	0xbc431dbc	-0.011908945
231	0x3e14c0a1	0.14526607
232	0x3dba4c1b	0.09096547
233	0x3d9e82b3	0.07739773
234	0x3e457287	0.1928197
235	0xbdc63200	-0.096775055
236	0x3d580827	0.05274215
237	0x3c85f256	0.016350906
238	0xbbcbd70e	-0.006220705
239	0x3e865d1e	0.26242918
240	0xbdecedd8	-0.115688026
241	0x3e440f6e	0.19146511
242	0x3e596120	0.21228456
243	0xbee0c0bf	-0.43897054
244	0xbed44be0	-0.41464138
245	0xbf0e3c2e	-0.55560577
246	0x3eabbba6	0.33541602
247	0x3ed19989	0.4093745
248	0x3e9e14f9	0.30875376
249	0xbf37b382	-0.7175828
250	0xbc61756e	-0.013760908
251	0xbdfa5881	-0.12223912
252	0xbf1a4731	-0.6026488
253	0xbeeb7896	-0.45990437
254	0xbf305430	-0.6887846
255	0x3e097a13	0.13425474

0.bias f4 [64]
0	0xbe1ff000	-0.15618896
1	0x3e8af3cb	0.27139124
2	0xbf327200	-0.697052
3	0x3f2d5573	0.6770851
4	0xbe8a7d95	-0.27048936
5	0x3ebe5036	0.3717057
6	0x3f073c3e	0.528263
7	0xbec5973e	-0.3859195
8	0xbef64306	-0.4809801
9	0x3e9291f3	0.28626975
10	0xbe9c163b	-0.3048571
11	0x3f0ca2d5	0.5493596
12	0xbf4154f8	-0.7552028
13	0x3f54acf3	0.830764
14	0xbf8a05f2	-1.0783064
15	0x3f5beb50	0.85905933
16	0xc00e0950	-2.2193184
17	0x40050396	2.0783439
18	0x3ed35799	0.4127777
19	0xbeb0be56	-0.34520215
20	0x3f5a657e	0.85311115
21	0xbf877052	-1.0581152
22	0x3d9caee3	0.076505445
23	0xbe1e0e2b	-0.15435092
24	0xbecf7603	-0.40519723
25	0x3e20abb4	0.156905
26	0xbf4a6618	-0.7906203
27	0x3f2e4853	0.6807911
28	0xbda2e84c	-0.07954463
29	0x3e1b8ad4	0.15189677
30	0xbfd8ac4a	-1.6927578
31	0x3fc4aaf0	1.5364666
32	0xbe1be78f	-0.15225051
33	0x3e3620a8	0.17785895
34	0x3e771d1e	0.24132201
35	0xbe26f217	-0.16303287
36	0x3e679a24	0.22617394
37	0xbdfd8a96	-0.12379949
38	0xbeab0b73	-0.33407173
39	0x3e73543c	0.23762602
40	0x3ef71f48	0.48266053
41	0xbf13a2ec	-0.57670474
42	0xc0239aa7	-2.5563142
43	0x402b0c8e	2.6726413
44	0xbe1fafe3	-0.15594439
45	0xbd6e4dc4	-0.05817963
46	0xbe837d6e	-0.25681633
47	0x3e6df346	0.23237333
48	0x3f577286	0.84159124
49	0xbf828a73	-1.0198501
50	0x3e5f08ea	0.21780744
51	0xbce10e2f	-0.027472584
52	0x3ea5daff	0.32393643
53	0xbea0faf4	-0.31441462
54	0xbe403cd5	-0.18773206
55	0x3c6ee694	0.014581341
56	0xbed5f472	-0.4178806
57	0x3f1ba38c	0.6079643
58	0xbb96a7a3	-0.0045976206
59	0xbe12399a	-0.14279786
60	0xbf9433aa	-1.1578267
61	0x3f800d55	1.0004069
62	0xbd9d4602	-0.076793686
63	0x3ecba739	0.39776018

1.weight f4 [64]
0	0x3fe98eb3	1.8246673
1	0x40344a63	2.8170402
2	0x3fb55d36	1.4169071
3	0x3fe22064	1.7666135
4	0x3f817fc2	1.0117114
5	0x3fd772ef	1.683195
6	0x400b8389	2.1799033
7	0x3fc7209a	1.5556824
8	0x3f45ddbf	0.7729148
9	0x3fdc518c	1.7212386
10	0x3f695303	0.9114229
11	0x3fe3321e	1.774967
12	0x3feed119	1.8657562
13	0x40216de2	2.5223317
14	0x3fbb81f8	1.4649038
15	0x3fce685a	1.6125596
16	0x3fce0c01	1.6097413
17	0x4000604f	2.0058782
18	0x3fb2e14a	1.3975003
19	0x3f9f844f	1.2462252
20	0x3f8261c0	1.0186081
21	0x4036f5cd	2.8587525
22	0x404f87d3	3.242665
23	0x400810a6	2.1260161
24	0x3fa5b96b	1.294721
25	0x400ac8ab	2.1684978
26	0x40394d70	2.8953514
27	0x3fe35d14	1.776278
28	0x3f6806df	0.90635484
29	0x3f9f0167	1.2422303
30	0x3fc7b3b7	1.560172
31	0x3f97c0ff	1.1855773
32	0x3fd6d96a	1.67851
33	0x3fae37f9	1.3610831
34	0x3f352889	0.70764977
35	0x3f792707	0.97325176
36	0x40176afa	2.3659043
37	0x3ffbd827	1.967534
38	0x4011d1f3	2.2784393
39	0x3ff8179b	1.9382204
40	0x3ff4f0bd	1.9135967
41	0x4016dc85	2.3572094
42	0x4014bded	2.3240921
43	0x3fc5b7e9	1.544675
44	0x3f8b08cb	1.0862058
45	0x3f61a20b	0.8813788
46	0x3fb14677	1.3849629
47	0x3fc0f553	1.5074867
48	0x3ffbb340	1.9664078
49	0x3fdfbbc4	1.7479177
50	0x3f995ad0	1.1980839
51	0x405c3621	3.4408038
52	0x3ff1f40a	1.89026
53	0x40054931	2.0825922
54	0x400458de	2.067924
55	0x3fe67f69	1.8007632
56	0x40043167	2.0655153
57	0x400d37fd	2.2065423
58	0x4008b6d0	2.136158
59	0x3f863daa	1.0487568
60	0x3fd7ff25	1.6874739
61	0x3ff024ce	1.8761232
62	0x3ff261b3	1.8936065
63	0x3facc080	1.3496246

1.bias f4 [64]
0	0xbea150ab	-0.31506857
1	0xbecd8a76	-0.401447
2	0xbda85765	-0.08219794
3	0xbd9cdc54	-0.07659212
4	0xbee1f2ce	-0.44130558
5	0x3eca8868	0.39557195
6	0xbfafed18	-1.374423
7	0x3fc062f2	1.5030196
8	0xbea53aa3	-0.322713
9	0xbe88a625	-0.26689258
10	0xbeb95890	-0.3620038
11	0xbeb298d3	-0.3488222
12	0x3f762334	0.96147466
13	0xbf0161ef	-0.5054006
14	0x3c855c13	0.016279256
15	0xbf3152a6	-0.69266737
16	0xbe7ee3d8	-0.24891603
17	0xbf71a2fc	-0.9438932
18	0xbf1534c2	-0.5828363
19	0xbe71533c	-0.23566908
20	0xbf052fb5	-0.5202592
21	0xbebce346	-0.36892146
22	0xbf035b2f	-0.5131101
23	0xbf06bba3	-0.5263006
24	0x3ee5da87	0.44893286
25	0xbf8a9983	-1.0828098
26	0x400c1fb1	2.1894343
27	0xbf8de154	-1.108439
28	0xbe519a73	-0.20469074
29	0xbf007281	-0.5017472
30	0xbe8ee432	-0.27908474
31	0xbeb5bdd4	-0.3549639
32	0xbe8d2c88	-0.27573037
33	0x3ecd3cf3	0.40085563
34	0xbebb65ff	-0.36601254
35	0xbe1ccb0e	-0.15311834
36	0x3f02b80c	0.51062083
37	0xbe1e6b69	-0.15470661
38	0x3ff41045	1.9067465
39	0xbe16ae4b	-0.14714925
40	0xbea82295	-0.32838884
41	0x3f712574	0.94197774
42	0x3e0de89f	0.13858269
43	0xbe9c55f8	-0.3053434
44	0xbea53656	-0.32268018
45	0xbf2c5871	-0.6732245
46	0x3f560097	0.8359465
47	0xbdca1be4	-0.09868601
48	0xbf3d5f38	-0.7397342
49	0x3ef8eaad	0.48616543
50	0xbf2ae3d1	-0.6675387
51	0x3f7ea342	0.9946786
52	0xbee79911	-0.45233968
53	0x3f0426a0	0.5162144
54	0x3eebae2f	0.4603133
55	0xbf6f77db	-0.9354226
56	0xbed20a1b	-0.41023335
57	0xbe3179db	-0.1733164
58	0x3ed08cc7	0.40732405
59	0xbf0c665c	-0.5484369
60	0xbfc5f118	-1.5464201
61	0xbe8d9b88	-0.27657723
62	0xbf53e4c3	-0.8277094
63	0xbe8cbe51	-0.2748895

3.weight f4 [64, 64, 4, 4]
0	0x3e378439	0.17921533
1	0x3e7a668f	0.24453185
2	0x3e2c1ac9	0.16807093
3	0x3dbc47e1	0.09193397
4	0xbd1b439f	-0.037906285
5	0xbcd4cbcf	-0.02597609
6	0xbd665825	-0.056236405
7	0xbe38081d	-0.17971845
8	0xbe0dc81f	-0.13845871
9	0xbe1657a5	-0.14681871
10	0xbe83af7e	-0.25719827
11	0xbea7e169	-0.32789162
12	0xbe835b3c	-0.25655544
13	0xbe9f9d61	-0.31174758
14	0xbea59660	-0.3234129
15	0xbead1479	-0.33804682
16	0xbcbfc0d5	-0.02340738
17	0x3d0ac6c5	0.033880968
18	0x3cefb44a	0.029260773
19	0x3c3e3da5	0.011611377
20	0xbdebe761	-0.115187414
21	0xbd6417f5	-0.05568691
22	0x3c1035be	0.008801876
23	0x3ce08aa0	0.027409852
24	0xbe13c753	-0.14431505
25	0xbd81dfbf	-0.06341504
26	0xbd0f4d72	-0.034985967
27	0x3c2a12f4	0.010380495
28	0xbe7dfd32	-0.24803618
29	0xbe338996	-0.17532954
30	0xbe1199d9	-0.14218844
31	0xbd708a71	-0.058725778
32	0x3df40138	0.11914295
33	0x3e7805e1	0.24220993
34	0x3e8d6f23	0.27623853
35	0x3e462203	0.19348912
36	0xbdd28b52	-0.102804795
37	0xbc0346d1	-0.008012489
38	0x3d8e77d3	0.069564484
39	0x3c88d44f	0.0167028
40	0xbddbec7b	-0.107384644
41	0x3b461d77	0.0030229965
42	0x3d52d652	0.051473923
43	0x3d3c2f87	0.045943763
44	0xbcd5b835	-0.026088813
45	0x3d803782	0.06260587
46	0x3df66438	0.12030834
47	0x3d807ef6	0.06274216
48	0xbd12a54a	-0.035802163
49	0xbce1845e	-0.027528938
50	0x3d622276	0.055208646
51	0x3d243b3e	0.04009556
52	0x3c5ea249	0.0135884965
53	0xbd8af02f	-0.06784093
54	0x3c9694ee	0.018381562
55	0x3d1d8f7b	0.03846691
56	0xbe1df47a	-0.15425292
57	0xbe0ba450	-0.13636899
58	0xbdda0e65	-0.10647277
59	0xbcfd58db	-0.030926159
60	0xbddfd610	-0.10929501
61	0xbdbbd8b6	-0.09172194
62	0xbd229235	-0.039690215
63	0x3c44086e	0.0119649
64	0x3c011bfa	0.007880205
65	0x3ab19482	0.0013548287
66	0x3d9b7a69	0.07591707
67	0x3da8c356	0.082403824
68	0xbd0396cf	-0.032126244
69	0xbcd90284	-0.026490457
70	0xbcabe455	-0.0209829
71	0x3ca247a9	0.01980956
72	0xbd65cba0	-0.056102395
73	0xbcc36561	-0.023852052
74	0x3cb0f056	0.021598976
75	0xbb190a46	-0.002335207
76	0xbd5a8381	-0.05334807
77	0xbdcbec8f	-0.09957229
78	0xbd8e79fa	-0.06956859
79	0xbdf5b76e	-0.11997877
80	0xbd42d1e8	-0.047563463
81	0xbd553a98	-0.052057832
82	0xbcbeda31	-0.023297401
83	0xbdb4b553	-0.08823647
84	0xbdbc53f6	-0.09195702
85	0xbdf58f3d	-0.11990211
86	0xbdbd0939	-0.09230275
87	0xbdf4e0f3	-0.11956968
88	0xbdf3baf0	-0.1190089
89	0xbdb02ceb	-0.086023174
90	0xbde8dc05	-0.113700904
91	0xbdddd345	-0.10831312
92	0xbda2a3c2	-0.079413906
93	0xbd943526	-0.072367
94	0xbdfa06fe	-0.12208365
95	0xbddcf653	-0.1078917
96	0x3daeb5fa	0.08530803
97	0x3dc8e2bc	0.09808871
98	0xbc8ae0e2	-0.016952936
99	0xbd89deba	-0.06731935
100	0xbe3035cf	-0.17208026
101	0xbe189ecc	-0.14904326
102	0xbe4053dd	-0.18781991
103	0xbe3f8cb5	-0.18706019
104	0xbecafcb1	-0.39645913
105	0xbeabbb23	-0.3354121
106	0xbeb0d902	-0.34540564
107	0xbeaecd09	-0.34140804
108	0xbeb8b4a8	-0.3607533
109	0xbe9afcbf	-0.30270955
110	0xbe96ed40	-0.29477882
111	0xbeb6fff2	-0.35742146
112	0x3deea45f	0.11652445
113	0x3db8ab9e	0.090171084
114	0x3e00f5ff	0.1259384
115	0x3e2cc3c0	0.16871548
116	0xbc740388	-0.01489342
117	0xbda4eecc	-0.080533594
118	0xbc8d3be8	-0.01724048
119	0xbccfedb4	-0.0253819
120	0x3e31f4ae	0.17378494
121	0x3e0c5c7a	0.13707152
122	0x3e3f993e	0.18710801
123	0x3e4bf840	0.19918919
124	0xbcdb774c	-0.026790284
125	0xbcda43d0	-0.026643664
126	0x3d332be2	0.04374302
127	0x3d368dd6	0.04456886
128	0xbcfd0253	-0.030884897
129	0xbd3df4eb	-0.04637615
130	0x3ccbb5ab	0.0248669
131	0x3cabc390	0.020967275
132	0xbcf25ab9	-0.029584276
133	0xbc74b329	-0.014935293
134	0xbcc206ec	-0.023684941
135	0xbcf63a97	-0.030057235
136	0xbca61705	-0.020274648
137	0x3b9cdc94	0.004787037
138	0x3bb7a95f	0.0056049074
139	0xbc2d0aa0	-0.010561615
140	0xbd39bdc9	-0.04534701
141	0xbc326ebd	-0.01089066
142	0xbc0d88a7	-0.0086385375
143	0xbcbfc696	-0.023410123
144	0xbde8d418	-0.11368579
145	0xbdb8fa61	-0.09032131
146	0xbe0cb4b8	-0.13740814
147	0xbd8081d4	-0.06274763
148	0xbe1b0d54	-0.15141803
149	0xbe0e400a	-0.13891616
150	0xbe13f10e	-0.14447424
151	0xbdf573cc	-0.11984977
152	0xbdb1fa9c	-0.08690378
153	0xbe0894b6	-0.13337979
154	0xbdb541d2	-0.08850445
155	0xbdc8aefa	-0.09798999
156	0x3d2131f5	0.039354283
157	0xbd230669	-0.039801035
158	0xbd05aa61	-0.03263319
159	0x3b945154	0.0045262966
160	0xbcf31d8e	-0.029677179
161	0xbce2af58	-0.027671501
162	0x3d013291	0.031542365
163	0x3ca8cd66	0.020605754
164	0xbccd4225	-0.025055954
165	0xbd18009c	-0.037109956
166	0xbd0942b0	-0.033510864
167	0xbcf2963e	-0.029612657
168	0xbcd1167a	-0.025523413
169	0xbd184fe3	-0.03718556
170	0xbd76794d	-0.060174275
171	0xbd8c24c3	-0.06842949
172	0xbd84e6b8	-0.064893186
173	0xbd7af89b	-0.061272245
174	0xbcd24e42	-0.025672082
175	0xbdb9aa2f	-0.09065663
176	0xbd8d73b0	-0.06906831
177	0xbd4f5ca6	-0.050625466
178	0xbd31647f	-0.04330873
179	0xbd714019	-0.05889902
180	0xbd9112a4	-0.070836335
181	0xbddc7012	-0.10763563
182	0xbdcf7d9f	-0.10131382
183	0xbd9f0882	-0.077652946
184	0xbdb6567d	-0.08903215
185	0xbdaad58e	-0.083415136
186	0xbd96b118	-0.07357997
187	0xbe178cb9	-0.14799775
188	0xbda0f736	-0.07859652
189	0xbce09ee5	-0.027419517
190	0xbd2fcb04	-0.04291822
191	0xbd818de1	-0.063258894
192	0xbeb56597	-0.3542907
193	0xbe90c911	-0.28278401
194	0xbe9eb51a	-0.30997545
195	0xbe5d2b96	-0.21598658
196	0xbed768ef	-0.42072245
197	0xbec0a45e	-0.37625402
198	0xbed42769	-0.41436318
199	0xbe9782c6	-0.2959196
200	0xbedaeaf7	-0.4275739
201	0xbec3169b	-0.38103184
202	0xbee6e1a6	-0.4509403
203	0xbea04d75	-0.31309095
204	0xbe960f8a	-0.2930873
205	0xbe774a9b	-0.24149553
206	0xbea12e17	-0.31480476
207	0xbe77ac71	-0.24186875
208	0xbdc48eda	-0.09597559
209	0xbbe38a99	-0.0069440124
210	0x3d0a8927	0.033822205
211	0x3d66f033	0.056381416
212	0xbe3b1c36	-0.1827248
213	0xbe55a44b	-0.20863454
214	0xbd2c515f	-0.04206979
215	0x3d50a0e1	0.050934676
216	0xbe000e90	-0.12505555
217	0xbe37db1e	-0.1795468
218	0xbdde6701	-0.1085949
219	0xbd6c71a8	-0.05772558
220	0xbe336435	-0.17518695
221	0xbe9762bc	-0.29567516
222	0xbe38a518	-0.18031728
223	0xbdab8ab4	-0.08376065
224	0xbded2c88	-0.11580759
225	0xbe10ec96	-0.1415275
226	0xbe035074	-0.12823659
227	0xbe5a7f9c	-0.21337742
228	0x3c80df5b	0.015731504
229	0xbc9917a8	-0.018688038
230	0x3cd04828	0.025425032
231	0xbe057ba9	-0.13035454
232	0x3d52385d	0.051323283
233	0x3d9f1419	0.07767505
234	0x3e2e161e	0.17000625
235	0x3c9efa66	0.019406509
236	0x3e16da71	0.14731766
237	0x3e5c90ad	0.21539564
238	0x3e774260	0.24146414
239	0x3dca5856	0.0988013
240	0x3e6c3a6e	0.23069164
241	0x3e4a2d19	0.19743766
242	0x3ddd09a0	0.107928514
243	0x3d0d63a1	0.03451884
244	0x3d3dce8a	0.04633955
245	0x3d1951cb	0.03743152
246	0xbd292cc6	-0.041302465
247	0xbddb0802	-0.10694887
248	0xbe532811	-0.20620753
249	0xbe3d01c9	-0.18457712
250	0xbe4a2ece	-0.19744417
251	0xbe5084fb	-0.20363228
252	0xbe47eaf5	-0.19523223
253	0xbe0c95be	-0.13728997
254	0xbe1994c3	-0.14998154
255	0xbe0c3032	-0.1369026

3.bias f4 [64]
0	0xbd364fa0	-0.04450953
1	0x3ccf1d0d	0.025282407
2	0x3ee20f21	0.44152167
3	0xbeebb238	-0.46034408
4	0xbe9413b8	-0.28921294
5	0x3e9ac07e	0.30224985
6	0x3d82b844	0.06382802
7	0xbd39b12a	-0.045334972
8	0xbec227a4	-0.37920868
9	0x3eda0087	0.42578527
10	0xbe7e42fd	-0.24830242
11	0x3e8a8d02	0.27060705
12	0xbda7707e	-0.08175753
13	0x3dbfc109	0.093629904
14	0xbe5a98c2	-0.21347335
15	0x3e5b2790	0.2140181
16	0xbeaac1c5	-0.3335096
17	0x3eb35f54	0.35033667
18	0x3f122bb8	0.5709796
19	0xbf092683	-0.5357439
20	0x3f265cc1	0.6498528
21	0xbf1e136b	-0.6174838
22	0x3ddc94ae	0.10770546
23	0xbd6edcb9	-0.058315966
24	0xbef1fe5a	-0.47264367
25	0x3ef7ef02	0.48424536
26	0x3cb7a54c	0.022417687
27	0xbd4ad37d	-0.049518097
28	0x3e547f30	0.20751643
29	0xbe534709	-0.20632567
30	0xbc752ca4	-0.014964256
31	0x3c4a05a8	0.01233045
32	0x3df57e6b	0.11987003
33	0xbdf9a0b9	-0.121888585
34	0x3e52cbbb	0.2058553
35	0xbe4a2ee7	-0.19744454
36	0x3ea36758	0.31914783
37	0xbeb53bf8	-0.35397315
38	0xbe277ac4	-0.16355425
39	0x3e45e485	0.19325455
40	0x3ed1ffc9	0.4101546
41	0xbed58436	-0.4170243
42	0x3e7491a9	0.2388369
43	0xbe8258ca	-0.25458366
44	0x3e0bde43	0.13659005
45	0xbe1b5159	-0.1516775
46	0x3dc624f7	0.09675019
47	0xbd7fe0c0	-0.062470198
48	0xbf0d2f9c	-0.5515077
49	0x3f0edbbf	0.55804056
50	0x3e807b20	0.25093937
51	0xbe7f0a98	-0.24906385
52	0xbdea795d	-0.114489295
53	0x3de00b55	0.109396614
54	0xbe4f65e6	-0.20253715
55	0x3e68bdd1	0.22728659
56	0xbda45fa4	-0.080260545
57	0x3d4bc3be	0.04974722
58	0xbc97f28f	-0.018548278
59	0x3c442b14	0.011973161
60	0xbdd1ff6b	-0.10253795
61	0x3de2fafc	0.11083028
62	0xbe24a736	-0.16079411
63	0x3e1032d7	0.14081894

4.weight f4 [64]
0	0x3f8c68f8	1.0969534
1	0x3fa869a5	1.315724
2	0x4005af34	2.0888186
3	0x3f98aab0	1.192709
4	0x3fbb6895	1.4641291
5	0x3f70fa52	0.9413196
6	0x3f54019e	0.8281497
7	0x3fb9c06c	1.4511847
8	0x3fb7f170	1.4370556
9	0x3fff65b3	1.9952911
10	0x3ff1666e	1.8859384
11	0x3fa57846	1.292733
12	0x3f8d9504	1.1061101
13	0x3fa8c37d	1.3184658
14	0x3fdaec1e	1.7103307
15	0x3f92bfaa	1.1464741
16	0x3fafbebf	1.3730086
17	0x3fce1d8b	1.6102766
18	0x3ffe2d2f	1.9857539
19	0x3f9cb470	1.2242565
20	0x3f9ca3af	1.2237452
21	0x3faa48ac	1.3303428
22	0x3f8b7478	1.0894918
23	0x3fa03515	1.2516199
24	0x3fa293f2	1.2701399
25	0x3fe03992	1.7517569
26	0x3fd81520	1.6881447
27	0x3f68d959	0.90956646
28	0x3f8ffc08	1.1248789
29	0x3f923c85	1.1424719
30	0x3fd808e2	1.6877711
31	0x3f110eb8	0.56663084
32	0x3f892239	1.0713569
33	0x3fa77e9e	1.3085515
34	0x3fab1d5c	1.3368335
35	0x3fa18e62	1.2621577
36	0x3fea3f5b	1.8300585
37	0x3f97207a	1.1806786
38	0x3fa664e6	1.2999542
39	0x3fb6bbe1	1.4276086
40	0x40168972	2.352139
41	0x3fe24764	1.7678037
42	0x3ff70cb6	1.9300754
43	0x3f96f9ac	1.1794944
44	0x3fcd3de3	1.6034511
45	0x401739a2	2.3628926
46	0x3f87e127	1.0615586
47	0x3f6eb4cd	0.9324463
48	0x3faaa11c	1.3330417
49	0x3faeeef5	1.3666674
50	0x3fce0d9f	1.6097907
51	0x3fa07b75	1.2537676
52	0x3ff284a3	1.8946728
53	0x3fd338b7	1.6501683
54	0x3f92da87	1.1472939
55	0x3f93b96a	1.1540959
56	0x3fb69e24	1.4267011
57	0x3fa88b71	1.3167554
58	0x3fb9311b	1.4468111
59	0x3f9280d2	1.1445563
60	0x40019e6b	2.025294
61	0x3f9f7269	1.245679
62	0x3fa0d31a	1.2564423
63	0x3ff5378a	1.9157574

4.bias f4 [64]
0	0xbf387e7b	-0.72067994
1	0xbf896ffc	-1.07373
2	0xbfd3c9c5	-1.654595
3	0xbd561cfe	-0.052273743
4	0xbe801979	-0.25019434
5	0xbf737da1	-0.9511357
6	0xbec374b3	-0.38174972
7	0xbfc2328c	-1.5171676
8	0x3f02255d	0.5083826
9	0xc00179fc	-2.0230703
10	0xbeb92cf6	-0.36167115
11	0xbfc7b3f0	-1.5601788
12	0xbfa1b931	-1.2634641
13	0xbfbbb16a	-1.4663517
14	0xbf100afc	-0.5626676
15	0xbfb8ebfc	-1.4447017
16	0xbf238f18	-0.6389022
17	0xbf9a65a3	-1.2062267
18	0xbfeae003	-1.8349613
19	0x3eae68a2	0.34064204
20	0xbf8d43f4	-1.1036363
21	0x3eb27eb1	0.34862283
22	0xbfac17d2	-1.3444769
23	0xbfb95f80	-1.4482269
24	0xbea111ca	-0.31458884
25	0xbfccc412	-1.5997336
26	0xbfcc1ecc	-1.5946898
27	0xbf4be6bb	-0.7964894
28	0xbf34ca81	-0.70621496
29	0xbf36e8fe	-0.7144927
30	0xbfc5d09f	-1.5454291
31	0xbe4684a5	-0.19386537
32	0xbef5126a	-0.4786561
33	0xbfd5fd43	-1.6717914
34	0xbfbb305d	-1.4624134
35	0x3f062fb8	0.52416563
36	0xc00780d8	-2.117239
37	0x3eb76fcb	0.3582748
38	0xbfcbb02f	-1.5913142
39	0xbf5f9c2e	-0.87347686
40	0xc0188ad1	-2.3834727
41	0x3f193cf1	0.59858614
42	0xbffc6f79	-1.9721519
43	0x3e290991	0.16507556
44	0xc0134075	-2.3008091
45	0x3fac5239	1.3462592
46	0xbf722819	-0.94592434
47	0xbee72ed6	-0.4515292
48	0x3e84c5df	0.25932214
49	0xbf993ca7	-1.1971635
50	0xbff95540	-1.9479141
51	0x3eb2fea5	0.34959903
52	0x3e361fe5	0.17785604
53	0xbfca1431	-1.5787412
54	0xbf33ebad	-0.7028149
55	0xbf9806ca	-1.1877072
56	0xbf0a9c73	-0.5414497
57	0xbfec82ee	-1.8477457
58	0xbfbb4580	-1.4630585
59	0xbf48affb	-0.78393525
60	0x3f64016a	0.8906466
61	0xbfaf2fea	-1.3686497
62	0xbe9c8ed5	-0.30577722
63	0xc00b4451	-2.1760447

6.weight f4 [64, 64, 4, 4]
0	0x3e129f84	0.14318663
1	0x3e07fe57	0.13280617
2	0x3e2192eb	0.15778701
3	0x3d214d4f	0.039380368
4	0x3e7a0378	0.24415386
5	0x3e7037dc	0.23458809
6	0x3e39240f	0.18080162
7	0xbd5ae79d	-0.05344354
8	0x3dc81580	0.09769726
9	0x3da017a1	0.07817007
10	0x3e88757d	0.26652136
11	0xbd570f08	-0.05250457
12	0x3da27328	0.079321206
13	0x3e039e9e	0.12853476
14	0x3dc5b29b	0.09653207
15	0xbd9819bf	-0.07426786
16	0xbd0e6519	-0.034764383
17	0xbd7f6b01	-0.062357906
18	0x3dc591f5	0.0964698
19	0x3de3fddf	0.111324064
20	0xbe5a0866	-0.21292266
21	0xbe59c85e	-0.2126784
22	0xbda986c5	-0.082776584
23	0xbd2d8cf3	-0.042370748
24	0xbe908801	-0.28228763
25	0xbe840b19	-0.25789717
26	0xbe6385bc	-0.22218984
27	0xbe5c03a8	-0.2148577
28	0xbe91cbd6	-0.28475827
29	0xbe91b074	-0.28454936
30	0xbebb935c	-0.36635864
31	0xbe56a5e3	-0.20961718
32	0x3e53063d	0.20607848
33	0x3e366f3f	0.17815875
34	0x3d27644a	0.040867127
35	0xbdc43c32	-0.09581794
36	0x3e41b459	0.18916453
37	0x3d51dc6d	0.051235605
38	0xbd4c6f98	-0.04991111
39	0xbd570537	-0.052495208
40	0x3d5fd1df	0.054643508
41	0xbdb7f949	-0.08983094
42	0xb9f582ab	-0.00046827397
43	0xbce2c976	-0.027683955
44	0xbd6d46da	-0.057928897
45	0xbd1e84c5	-0.038700838
46	0x3db0a13e	0.086245045
47	0xbd08eaf4	-0.033427194
48	0x3e1f5725	0.15560587
49	0x3d57f405	0.05272295
50	0xbde5fa69	-0.112294026
51	0xbe394257	-0.18091713
52	0x3e488533	0.19582061
53	0xbc625b7e	-0.013815759
54	0xb9a980a4	-0.00032330037
55	0xbde48cf3	-0.111596964
56	0x3dba4470	0.09095085
57	0xbdb4c2b2	-0.08826198
58	0xbd9eee84	-0.07760337
59	0xbcdd5cef	-0.027021853
60	0x3c989905	0.018627653
61	0x3e989186	0.29798526
62	0x3e74a5f3	0.2389143
63	0x3df480c9	0.11938626
64	0xbd9b3755	-0.07578913
65	0xbe4678b5	-0.19381984
66	0xbd5dceb5	-0.05415221
67	0xbd85ed3f	-0.06539392
68	0x3d552b38	0.05204317
69	0xbe0b5890	-0.13608003
70	0xbd3ff781	-0.046866897
71	0xbdf8890a	-0.12135513
72	0x3e855a0f	0.26045272
73	0x3dd912a1	0.10599256
74	0x3e02ec3a	0.12785426
75	0x3d91cfa9	0.07119686
76	0x3e73f94c	0.23825568
77	0x3e033a6b	0.12815253
78	0x3dfef189	0.12448413
79	0x3d3f1025	0.046646256
80	0xbde70988	-0.11281115
81	0xbe78bbf4	-0.24290448
82	0xbeacef9e	-0.33776563
83	0xbe718d4d	-0.23589058
84	0xbe3b2a16	-0.18277773
85	0xbe8cb264	-0.2747985
86	0xbe21d6c6	-0.15804586
87	0xbd4876e9	-0.048941527
88	0xb9e5365d	-0.00043718787
89	0xbce0e4c3	-0.027452832
90	0xbda28b29	-0.07936699
91	0x3d7c5daa	0.061612763
92	0x3dde54fc	0.10856053
93	0xbd9c57fe	-0.07633971
94	0x3bd147de	0.006386741
95	0x3e19c108	0.15015042
96	0x3ba0fa5e	0.0049126586
97	0x3ce9da96	0.028546613
98	0xbda5604f	-0.0807501
99	0xbe276404	-0.16346747
100	0x3e01aae3	0.12662844
101	0xbd57645b	-0.05258594
102	0xbe0889f6	-0.13333878
103	0xbe7fcc4b	-0.24980275
104	0x3e31a665	0.1734863
105	0xbd586f04	-0.052840248
106	0xbe223fda	-0.1584467
107	0xbe6c472e	-0.23074028
108	0xbd9cbfe4	-0.07653788
109	0xbe13f027	-0.1444708
110	0xbdb5e6fe	-0.08881949
111	0xbe645ee0	-0.22301817
112	0x3d42cf34	0.047560886
113	0x3e87a4c3	0.2649289
114	0x3e90a755	0.28252664
115	0x3db14872	0.08656396
116	0x3dd67891	0.10472215
117	0x3eab1251	0.33412412
118	0x3e844db1	0.25840524
119	0x3b0c59f8	0.002141593
120	0xbcf75aad	-0.030194605
121	0x3ea38ac0	0.31941795
122	0x3d00797e	0.031365864
123	0x3d1c5a5d	0.038172115
124	0xbce9904e	-0.028511193
125	0x3d943523	0.072366975
126	0xbcbcc167	-0.02304144
127	0xbcb7289c	-0.022358231
128	0x3b41d977	0.0029579082
129	0x3e12898a	0.1431028
130	0x3de31304	0.11087611
131	0x3e06075a	0.13088742
132	0xbd447abb	-0.047968607
133	0x3d9a1dc7	0.07525211
134	0x3c030c09	0.007998475
135	0x3c61128c	0.013737332
136	0xbe0c996a	-0.13730398
137	0xbe5de745	-0.21670254
138	0xbdbdae27	-0.092617325
139	0x3bc4c17b	0.00600451
140	0xbd6b9f8f	-0.057525214
141	0xbcf3615e	-0.029709514
142	0xbbad537f	-0.0052894945
143	0x3e05b96d	0.13059016
144	0xbe14ab92	-0.14518574
145	0x3bcd8879	0.0062723723
146	0x3df533d6	0.119727775
147	0x3d8161bd	0.0631747
148	0xbe67bf6a	-0.22631612
149	0x3d0e00da	0.03466878
150	0x3d6ef55e	0.05833947
151	0xbd8eab1b	-0.069662295
152	0xbd8f1b3a	-0.06987615
153	0x3e1da055	0.15393193
154	0x3e11c2c1	0.14234449
155	0xbd67eeae	-0.056624107
156	0xbe50df69	-0.20397724
157	0x3d0df69f	0.034659024
158	0x3c35fdef	0.011107906
159	0xbe5592b6	-0.20856747
160	0xbd03901e	-0.032119863
161	0x3d0f5ecd	0.03500252
162	0xbcc7a001	-0.024368288
163	0xbd92b42b	-0.071632706
164	0xbd4921e2	-0.04910458
165	0x3d6c4aa6	0.057688378
166	0x3ceb03b2	0.028688285
167	0xbd4ebe54	-0.05047448
168	0xbca4bd72	-0.020109866
169	0xbbbde897	-0.005795549
170	0x3e260140	0.16211414
171	0x3e2582ed	0.16163225
172	0x3dcb36c3	0.09922554
173	0x3d977953	0.07396188
174	0x3e80c2f7	0.25148746
175	0x3e491506	0.19636926
176	0x3ceb709b	0.028740218
177	0x3d0b07d3	0.03394301
178	0x3e463a82	0.19358256
179	0x3d442e24	0.047895566
180	0x3e219bdc	0.15782112
181	0x3e06e5b4	0.13173562
182	0x3e389510	0.18025613
183	0x3c555215	0.013020058
184	0x3e07f005	0.13275154
185	0x3e48f3ae	0.19624206
186	0x3e44b6b9	0.19210328
187	0x3e04b75c	0.12960571
188	0xbc9cde18	-0.019148871
189	0x3e01874f	0.12649272
190	0x3e8225fe	0.2541961
191	0x3e28440e	0.16432211
192	0xbe675815	-0.22592194
193	0xbd6fe4a6	-0.058567666
194	0x3e2f836a	0.17139974
195	0x3e8274cc	0.25479734
196	0xbd8a6cee	-0.06759058
197	0x3e749643	0.23885445
198	0x3e8b8614	0.2725073
199	0x3e41be3d	0.18920226
200	0x3cb25385	0.02176834
201	0x3ea63d0f	0.3246846
202	0x3eaa5aba	0.33272344
203	0x3e8c82f7	0.27443668
204	0x3da38a0a	0.07985313
205	0x3e422cd1	0.18962409
206	0x3e742d03	0.23845296
207	0x3df5d521	0.12003542
208	0xbe06ffa5	-0.13183458
209	0xbd88ded6	-0.066831276
210	0xbcde8ce3	-0.02716679
211	0xbc6685bc	-0.014069971
212	0xbe71b3aa	-0.23603693
213	0xbe11f698	-0.14254224
214	0xbdf6e0c2	-0.12054588
215	0xbdbf1d94	-0.093318135
216	0xbe194694	-0.1496833
217	0xbd0a87fe	-0.0338211
218	0xbe1aed7f	-0.1512966
219	0xbd1eefaf	-0.0388028
220	0xbce8ffc3	-0.02844227
221	0xbda3d93d	-0.08000419
222	0xbdaf00eb	-0.08545097
223	0xbcf325c2	-0.02968109
224	0x3e68c044	0.22729594
225	0x3ea6c4e4	0.3257209
226	0x3e4f361d	0.20235486
227	0xbdca7626	-0.09885816
228	0x3dcfdbef	0.10149371
229	0x3e80f1b7	0.25184414
230	0x3dd34d48	0.103174746
231	0xbdcff996	-0.101550266
232	0xbd84e5a3	-0.06489112
233	0x3e08b389	0.13349737
234	0x3e3f9185	0.18707855
235	0x3e1d8b33	0.15385132
236	0x3ca14f05	0.019691
237	0x3e0356d7	0.12826096
238	0x3ea2dcda	0.3180912
239	0x3e88fd06	0.26755542
240	0xbeb2f455	-0.34952036
241	0xbe3d85fe	-0.18508145
242	0xbd88b141	-0.066744335
243	0xbd9e4890	-0.07728684
244	0xbd9a82b0	-0.07544458
245	0x3d9a187e	0.07524203
246	0xbc500407	-0.012696273
247	0xbd41332b	-0.04716794
248	0xbd94f8fe	-0.07274054
249	0xbd57a2b5	-0.052645404
250	0x3cef9024	0.029243536
251	0x3dbe28d4	0.09285131
252	0xbcdecacd	-0.027196312
253	0xbdb1a7af	-0.08674561
254	0xbda7eba5	-0.081992425
255	0x3d23fd7d	0.040036667

6.bias f4 [64]
0	0xbedc3e58	-0.43016315
1	0x3ef10cf6	0.470802
2	0x3c9b99d1	0.018994244
3	0xbbc03c64	-0.005866574
4	0x3e37f91d	0.17966123
5	0xbe47835c	-0.19483703
6	0x3f5503d0	0.8320894
7	0xbf5a3a57	-0.8524527
8	0xbdcb51f8	-0.09927744
9	0x3dde8b74	0.10866442
10	0x3fa9439c	1.3223758
11	0xbfa6fd4b	-1.3046049
12	0x3d9445af	0.072398536
13	0xbd9a1716	-0.075239345
14	0x3f8cf280	1.1011505
15	0xbf8d1868	-1.1023073
16	0x3e1cdeb4	0.1531933
17	0xbe3c21ce	-0.1837227
18	0xbf173090	-0.59058475
19	0x3f139a26	0.57657087
20	0xbe420a5f	-0.18949269
21	0x3e1e09df	0.15433453
22	0xbef93b55	-0.4867808
23	0x3eeee2df	0.46657464
24	0x3ea008d0	0.31256723
25	0xbea84228	-0.32862973
26	0xbf126801	-0.5718995
27	0x3f10a8a7	0.56507343
28	0x3df5a756	0.119948074
29	0xbe1284f6	-0.14308533
30	0xbf5d7c3a	-0.8651768
31	0x3f5d049f	0.86335176
32	0x3f2e83de	0.68169963
33	0xbf34abe2	-0.7057477
34	0xbe10694f	-0.14102672
35	0x3e306caf	0.1722896
36	0x3dca3034	0.09872475
37	0xbde3270c	-0.11091432
38	0xbea8ad10	-0.32944536
39	0x3eabf390	0.3358426
40	0xbe891ecd	-0.26781312
41	0x3e865446	0.2623617
42	0x3f23b99f	0.6395511
43	0xbf187b2b	-0.5956294
44	0xbea45a7d	-0.32100287
45	0x3e9eb1fc	0.30995166
46	0x3c980902	0.018558983
47	0xbcc4ce78	-0.024024233
48	0x3d43e822	0.0478288
49	0xbd49d294	-0.04927309
50	0x3ef6ad4b	0.48179087
51	0xbef820c4	-0.48462498
52	0xbe09fa65	-0.13474424
53	0x3e12dd20	0.14342165
54	0x3e55518d	0.2083189
55	0xbe50a492	-0.20375279
56	0xbe967de2	-0.29392916
57	0x3e9e8dcc	0.30967557
58	0xbf05cf10	-0.5226908
59	0x3f03fc48	0.51556826
60	0xbee177b1	-0.4403663
61	0x3eeadc74	0.45871317
62	0xbf2d0506	-0.6758579
63	0x3f2569db	0.6461465

7.odefunc.norm1.weight f4 [64]
0	0x3fda90a7	1.7075394
1	0x3fd1e295	1.6397272
2	0x3fc1617b	1.5107874
3	0x3ff72fc7	1.9311455
4	0x4001c5c0	2.0276947
5	0x40101156	2.251058
6	0x3ff4fd6d	1.913984
7	0x3fe6b25a	1.8023179
8	0x3ff24da8	1.8929949
9	0x3fd63884	1.6735997
10	0x3fe6d97a	1.8035119
11	0x3fe94215	1.8223292
12	0x40068777	2.102018
13	0x3fe7b055	1.8100687
14	0x3ff7798c	1.9333968
15	0x400f0a40	2.2350006
16	0x3fcee76b	1.6164373
17	0x3fefa03f	1.8720778
18	0x3ff12ece	1.8842409
19	0x3ff32a6b	1.899732
20	0x4013edf9	2.3113997
21	0x3fb8c2fa	1.4434502
22	0x401a00ed	2.4063065
23	0x3fd1cb8e	1.6390245
24	0x3fc800e7	1.5625275
25	0x400c210c	2.189517
26	0x3fbb494e	1.4631746
27	0x4012fe38	2.2967663
28	0x3fb4039a	1.4063599
29	0x40219072	2.5244412
30	0x3fd2df72	1.647444
31	0x3fe41a6b	1.7820562
32	0x4003172d	2.0482895
33	0x40037c32	2.0544553
34	0x400f47c6	2.2387557
35	0x3fe255f8	1.7682486
36	0x402119fb	2.5172107
37	0x400a279e	2.158668
38	0x400a5887	2.1616533
39	0x3ff40679	1.9064475
40	0x3fec7f36	1.8476322
41	0x4001bfaf	2.0273244
42	0x4003ecb3	2.061322
43	0x3fb70e94	1.4301324
44	0x3ff46dd9	1.9096023
45	0x3ff2abc8	1.8958673
46	0x3ff5666b	1.917188
47	0x4000de18	2.0135555
48	0x4010abe2	2.260491
49	0x3ff35bf7	1.901244
50	0x400fd4df	2.2473676
51	0x3fde16e4	1.7350736
52	0x3fe353e2	1.7759974
53	0x40048af5	2.0709813
54	0x40029bb3	2.0407531
55	0x3fb4a424	1.4112592
56	0x3fcc80ae	1.597677
57	0x3fedd756	1.858134
58	0x400a6950	2.1626778
59	0x3fdad96d	1.7097603
60	0x400790f3	2.118222
61	0x4004eb70	2.07687
62	0x4009fbac	2.1559858
63	0x3fe87000	1.815918

7.odefunc.norm1.bias f4 [64]
0	0xbf98a405	-1.1925055
1	0xbf8fe484	-1.1241612
2	0xbf6f91d5	-0.935819
3	0xbf082a90	-0.53189945
4	0x3f215811	0.63025004
5	0xbfc920a8	-1.5713091
6	0xbfc1fe25	-1.5155684
7	0x3c991c67	0.018690301
8	0xbf8ed3ad	-1.1158348
9	0x3ed6e32e	0.419702
10	0xbf90ada1	-1.1302987
11	0xbf374aea	-0.71598685
12	0x3d9687be	0.073501095
13	0xbf372778	-0.715446
14	0xbfa12026	-1.2587936
15	0xbe6931ee	-0.22772953
16	0xbf11b9fb	-0.5692441
17	0xbfbeff23	-1.4921612
18	0x3dd23c9e	0.10265468
19	0xbf7ac75e	-0.9796046
20	0xbfff07f8	-1.9924307
21	0x3ec7a01d	0.38989344
22	0xbdf38d9a	-0.11892243
23	0xbf2b35f5	-0.66879207
24	0xbf0f474f	-0.55968183
25	0xbfd6bf4b	-1.6777128
26	0xbf16d48e	-0.5891808
27	0xbfd8d16b	-1.6938909
28	0xbf3a245a	-0.7271172
29	0xbdfa17f0	-0.12211597
30	0xbf182369	-0.5942903
31	0xbec3d13b	-0.38245568
32	0xbff23823	-1.8923382
33	0x3da89f7d	0.08233545
34	0xbf4202a4	-0.7578528
35	0xbf93d0e9	-1.1548129
36	0x3ecf2cfa	0.40464002
37	0xbf7d8995	-0.9903806
38	0xbfe24b0e	-1.7679155
39	0x3eb5e12d	0.35523358
40	0xbf69e0b0	-0.9135847
41	0xbfe9f12d	-1.8276726
42	0xbf8c2d5f	-1.0951346
43	0xbf0a1924	-0.5394461
44	0xbf959568	-1.168622
45	0xbfc27bbe	-1.5194013
46	0xbbe58add	-0.007005079
47	0xbf6289fd	-0.88491803
48	0xbfd6bc1e	-1.6776159
49	0xbeef5f8b	-0.4675258
50	0xbf152abf	-0.5826835
51	0xbf265fc7	-0.64989895
52	0xbf98e406	-1.1944587
53	0xbe669b50	-0.22520185
54	0xbf38b3e2	-0.7214948
55	0xbe2fed21	-0.17180301
56	0xbca31916	-0.019909423
57	0xbfa30b09	-1.2737743
58	0xbeefbd67	-0.4682419
59	0xbfbcde0b	-1.4755262
60	0xbff136ad	-1.8844811
61	0xbeef5699	-0.46745756
62	0xbf68e57a	-0.90975153
63	0xbeeff45a	-0.46866113

7.odefunc.conv1._layer.weight f4 [64, 65, 3, 3]
0	0x3dcb5ba1	0.09929586
1	0x3da7fcf9	0.082025476
2	0x3da5d9e8	0.08098203
3	0x3d6b98e8	0.05751887
4	0x3daa0c0a	0.083030775
5	0x3d2c0f80	0.04200697
6	0x3e1a4db6	0.15068707
7	0x3e05b5b7	0.130576
8	0x3e3605a0	0.17775583
9	0x3daa1591	0.08304895
10	0x3dcd0948	0.10011536
11	0xbe6522b0	-0.22376513
12	0x3f0ce182	0.550316
13	0x3b0079a2	0.0019603749
14	0xbee8fd10	-0.4550557
15	0x3f0ffcd7	0.5624518
16	0x3e3c559e	0.18392035
17	0x3d3b426f	0.045717653
18	0xbeac2758	-0.33623767
19	0xbea2d97c	-0.31806552
20	0x3e08de49	0.13366045
21	0xbdf84b55	-0.121237434
22	0xbe1bed34	-0.15227205
23	0xbdf1b7c5	-0.118026294
24	0x3e74f090	0.23919892
25	0xbbc525c8	-0.0060164668
26	0x3dd73e76	0.1050996
27	0xbe3a6489	-0.18202414
28	0x3dcc9610	0.0998956
29	0x3db59c11	0.08867658
30	0xbd8296bf	-0.06376409
31	0x3d7c1ef1	0.061552946
32	0x3d88efb3	0.06686344
33	0xbdd6d57d	-0.104899384
34	0x3e019aee	0.12656757
35	0x3e623e65	0.22094114
36	0x3f448397	0.7676329
37	0x3e6318ab	0.22177379
38	0xbe87a4e5	-0.26492992
39	0x3e8cd888	0.2750895
40	0xbdcb8d79	-0.09939093
41	0xbe121809	-0.14266981
42	0x3e228f6a	0.1587502
43	0x3e1b98aa	0.15194955
44	0x3e82cfec	0.25549257
45	0x3c40201c	0.0117264055
46	0x3e116c0f	0.14201377
47	0xbd28406e	-0.04107707
48	0x3d77b7a8	0.060477883
49	0x3e8afe9a	0.2714737
50	0xbe146780	-0.14492607
51	0xbef6dbde	-0.4821462
52	0xbe00a61d	-0.12563367
53	0xbc9532df	-0.018212734
54	0xbe54cd31	-0.207814
55	0x3eb7f3ec	0.35928285
56	0x3de20f32	0.110380545
57	0xbe29a1a0	-0.16565561
58	0x3ee856ae	0.4537863
59	0x3f14b07b	0.5808179
60	0xbe01e46f	-0.12684797
61	0xbddda79c	-0.108229846
62	0x3f063733	0.5242798
63	0x3d82c065	0.063843526
64	0x3e12025a	0.1425871
65	0xbdd42333	-0.10358276
66	0xbdd14e3c	-0.1022
67	0xbe360b00	-0.17777634
68	0xbd50f3de	-0.05101382
69	0x3e2a6ea9	0.16643776
70	0x3e6032db	0.218944
71	0x3b790473	0.0037997037
72	0xbe824447	-0.25442716
73	0xbda48d01	-0.08034707
74	0xbdf21310	-0.11820042
75	0xbe48c401	-0.1960602
76	0xbe024960	-0.12723303
77	0xbe9cd1fa	-0.3062895
78	0x3dc0739c	0.09397051
79	0xbde60325	-0.112310685
80	0xbd2f6858	-0.04282412
81	0x3e0d65e8	0.13808405
82	0xbe3099ef	-0.17246221
83	0xbeebf6ff	-0.4608688
84	0xbd09ff6c	-0.033690855
85	0xbef34c2e	-0.47519058
86	0xbed2f1a8	-0.41199994
87	0x3de80a5d	0.11330102
88	0xbe2742f5	-0.16334136
89	0xbde7126f	-0.11282813
90	0x3c8243f7	0.015901549
91	0xbe210f66	-0.1572853
92	0x3e1fad41	0.15593435
93	0x3b43d0af	0.0029879024
94	0xbd3d3c89	-0.04620031
95	0x3e337c4e	0.17527887
96	0xbca6150b	-0.020273706
97	0xbe36009d	-0.17773671
98	0xbe486eff	-0.19573592
99	0xbedee79d	-0.43536082
100	0xbece1933	-0.402536
101	0xbdd8e389	-0.10590274
102	0x3e5dc1ee	0.2165601
103	0x3c9bb5f6	0.019007664
104	0x3dd5e4d7	0.10444038
105	0x3d99297d	0.074786164
106	0x3dde77f9	0.10862727
107	0x3c4e3824	0.012586627
108	0x3ea04e4b	0.31309733
109	0x3e41ada2	0.18913892
110	0xbe6e31bf	-0.23261164
111	0x3ea150cd	0.3150696
112	0x3de2e756	0.1107928
113	0xbe7d5784	-0.24740416
114	0x3d89f41d	0.06736014
115	0x3eadf57c	0.33976352
116	0xbca688b4	-0.020328857
117	0xbe7a41b3	-0.24439125
118	0xbe38428a	-0.17994133
119	0x3d92b655	0.07163683
120	0x3d5293e2	0.051410563
121	0xbea5cd4e	-0.32383198
122	0x3d397894	0.045281008
123	0x3f06e4b1	0.52692705
124	0x3de2e6b0	0.110791564
125	0x3e074dec	0.13213319
126	0x3e4cbae1	0.19993164
127	0xbe1f3703	-0.15548329
128	0xbda905a3	-0.08253028
129	0xbd0b3ce7	-0.033993628
130	0x3db5f8e5	0.088853635
131	0x3e4f0e1b	0.20220225
132	0xbd4e56d5	-0.05037578
133	0x3d947c8d	0.07250319
134	0x3ecfde11	0.4059911
135	0xbe0887dd	-0.13333078
136	0xbd589da5	-0.052884717
137	0x3e5c154e	0.21492502
138	0xbe59f78b	-0.21285836
139	0x3de61fe6	0.11236553
140	0xbd19a89e	-0.03751432
141	0xbdb9a728	-0.09065086
142	0x3e80b817	0.2514045
143	0xbe8c7d0c	-0.27439153
144	0xbe35355c	-0.17696136
145	0xbd35be69	-0.044371042
146	0xbd3d0ea0	-0.046156526
147	0xbedfbb94	-0.43697798
148	0xbe66b77a	-0.22530928
149	0xbb3f7d09	-0.0029218814
150	0x3bd8b9ac	0.0066139307
151	0xbdc9e5ad	-0.0985826
152	0x3dc76111	0.09735311
153	0x3f0eb972	0.5575172
154	0xbded7506	-0.11594586
155	0xbef79967	-0.48359224
156	0x3f1ceb8b	0.6129691
157	0xbe48b636	-0.19600758
158	0xbe560d4c	-0.2090351
159	0x3ef2b544	0.4740392
160	0x3ec6c7f4	0.38824427
161	0x3d43aab8	0.047770232
162	0xbe303c5b	-0.17210524
163	0xbdfd7a1b	-0.123768054
164	0xbe5c59c4	-0.21518618
165	0xbea1a531	-0.31571344
166	0xbe5d1517	-0.21590076
167	0xbddd1b98	-0.10796279
168	0x3cee5ccd	0.029096985
169	0xbe91db7c	-0.28487766
170	0xbc7f36a2	-0.01557699
171	0x3cca9be0	0.02473253
172	0xbe4b7c09	-0.19871534
173	0xbe4ca603	-0.19985203
174	0x3dc869f0	0.09785831
175	0xbdb55152	-0.08853401
176	0x3ccdd313	0.025125062
177	0x3e9f0677	0.3105962
178	0x3e126b83	0.14298825
179	0xbdb69b90	-0.0891639
180	0xbc8e93f6	-0.017404538
181	0xbd88e91a	-0.066850856
182	0x3e019460	0.12654257
183	0x3e092aff	0.13395308
184	0xbcc10c24	-0.02356536
185	0xbe82a7ea	-0.25518733
186	0x3e4f9766	0.20272598
187	0x3e2c16cf	0.16805576
188	0xbec413d4	-0.38296378
189	0xbe894b2f	-0.26815173
190	0x3d7f0dbc	0.062268957
191	0x3df951a6	0.12173776
192	0xbe71d978	-0.23618114
193	0xbde3e321	-0.11127306
194	0xbdfb6e40	-0.12276888
195	0x3dca7ba6	0.09886865
196	0xbc735c32	-0.014853524
197	0xbd178a72	-0.036997266
198	0xbe945979	-0.28974512
199	0xbc7474c4	-0.014920417
200	0xbe422ec0	-0.18963146
201	0xbde0126a	-0.10941012
202	0x3eb482e2	0.35256106
203	0x3e8fc190	0.28077364
204	0x3e2fdbcd	0.17173691
205	0x3dcab3c9	0.098975725
206	0xbd13205b	-0.03591953
207	0xbe584dbf	-0.21123408
208	0xbe870fb8	-0.2637918
209	0xbdad75e5	-0.08469752
210	0xbe0846f0	-0.1330831
211	0xbddc92ea	-0.10770209
212	0xbdb80b40	-0.08986521
213	0xbe3d497c	-0.18485063
214	0xbe8fe7e5	-0.2810661
215	0xbe6c4608	-0.2307359
216	0xbca78cdf	-0.020452915
217	0xbeaf2cd4	-0.3421389
218	0xbeadeeee	-0.3397135
219	0x3e543b73	0.20725803
220	0xbed807fb	-0.4219359
221	0xbdd7dc35	-0.10540048
222	0x3edb6721	0.4285212
223	0x3d2aa61e	0.041662328
224	0x3be610dd	0.007021053
225	0xbda9cd90	-0.08291161
226	0xbec44583	-0.38334283
227	0xbc9a6300	-0.018846035
228	0xbd4cae8e	-0.049971156
229	0xbef19f1a	-0.47191697
230	0xbd0a9806	-0.033836387
231	0x3ede96d0	0.43474436
232	0xbd83d580	-0.06437206
233	0xbd369ff3	-0.044586133
234	0xbcaf7807	-0.021419538
235	0x3e2bd3a4	0.16779953
236	0xbd0593fb	-0.03261183
237	0xbea107f7	-0.3145139
238	0x3d73221d	0.059358705
239	0xbe311b31	-0.17295529
240	0xbeddd5da	-0.43327218
241	0xbe99d87c	-0.30047977
242	0x3d865f9d	0.065612055
243	0x3bf892d6	0.0075858636
244	0x3d4a6c94	0.049419954
245	0x3e3bec4b	0.18351857
246	0xbc474f95	-0.01216497
247	0xbdbf3bc7	-0.093375735
248	0x3b30b479	0.0026963039
249	0xbe1e243b	-0.15443508
250	0x3e3b64c3	0.18300156
251	0x3e157661	0.14595939
252	0xbdd3be68	-0.103390515
253	0x3c79f373	0.015255797
254	0x3e98f304	0.29872906
255	0xbe01bf30	-0.12670588

7.odefunc.conv1._layer.bias f4 [64]
0	0xbd664c06	-0.056224845
1	0x3d563543	0.052296888
2	0x3ecbb445	0.39785972
3	0xbed0b470	-0.40762663
4	0x3e15d85c	0.14633316
5	0xbe53bc67	-0.20677339
6	0x3e6b7597	0.22994076
7	0xbe845ae1	-0.25850585
8	0x3e3b1faa	0.18273798
9	0xbe3cadcf	-0.18425678
10	0x3e7af1ef	0.24506353
11	0xbe642b9c	-0.2228226
12	0xbe973596	-0.2953307
13	0x3e9d3ee4	0.30712044
14	0x3e029408	0.12751782
15	0xbe38714e	-0.18011972
16	0xbe056725	-0.13027628
17	0x3e06bbba	0.1315755
18	0xbd49a293	-0.04922731
19	0x3c5fe46e	0.013665302
20	0xbdab579f	-0.08366322
21	0x3dacdc18	0.08440417
22	0x3ea558bb	0.32294258
23	0xbea47b1c	-0.32125175
24	0xbd733e23	-0.05938543
25	0x3c7ef05d	0.015560237
26	0xbd9af6b9	-0.0756659
27	0x3daa9e5b	0.08330985
28	0x3e83c139	0.25733355
29	0xbe94984e	-0.2902245
30	0xbda98546	-0.08277373
31	0x3dbf767f	0.09348773
32	0x3e5f981f	0.21835373
33	0xbe73d92e	-0.23813316
34	0xbd2439c9	-0.04009417
35	0x3d92f452	0.07175507
36	0xbebcd82b	-0.36883673
37	0x3ea4fb91	0.3222318
38	0x3d4525cf	0.04813176
39	0x3c92c60d	0.017916704
40	0xbe54485a	-0.20730725
41	0x3e551b2d	0.20811148
42	0x3e600470	0.21876693
43	0xbe3cc0d2	-0.1843293
44	0x3d9b4a26	0.07582502
45	0xbd7b4653	-0.061346363
46	0x3e9e7875	0.30951276
47	0xbe9fda7a	-0.31221372
48	0xbcdf953b	-0.027292838
49	0x3cebe614	0.028796233
50	0x3d1dcd26	0.038525723
51	0xbd92258f	-0.0713607
52	0xbdf53ea8	-0.11974841
53	0x3dece5db	0.11567279
54	0xbea7add2	-0.32749802
55	0x3eaef437	0.34170696
56	0x3e4d5cdb	0.20054953
57	0xbe2bba89	-0.16770376
58	0xbdd1295a	-0.10212965
59	0x3ddf2cd0	0.10897219
60	0x3ca7c02a	0.020477373
61	0x3cb7ff64	0.022460647
62	0xbe8a12cd	-0.2696747
63	0x3e9b265c	0.30302703

7.odefunc.norm2.weight f4 [64]
0	0x4003e524	2.0608606
1	0x400d1735	2.2045414
2	0x4024704a	2.5693536
3	0x4016f546	2.3587203
4	0x40072d4f	2.1121404
5	0x3fdce3bd	1.7257
6	0x4002581d	2.036628
7	0x40012738	2.0180187
8	0x401de811	2.4672892
9	0x3fd722b2	1.6807463
10	0x3ffa8b42	1.9573748
11	0x402e08ef	2.7192953
12	0x4006d26a	2.1065927
13	0x400ba80b	2.1821315
14	0x400ae926	2.1704803
15	0x40119eb8	2.2753124
16	0x3ff446f2	1.9084151
17	0x400d2372	2.2052884
18	0x40132160	2.298912
19	0x40021686	2.0326247
20	0x3ff5232a	1.9151356
21	0x3fd729a0	1.6809578
22	0x400ef656	2.2337852
23	0x3fe71365	1.8052794
24	0x3ff047a8	1.8771868
25	0x3fe83cb4	1.8143525
26	0x3fe6d5dc	1.8034015
27	0x401198ba	2.2749467
28	0x3fd7ca7c	1.6858668
29	0x3fe43979	1.7830039
30	0x40089fe4	2.134759
31	0x3ffabf2b	1.958959
32	0x4010e4e2	2.26397
33	0x4004cad4	2.0748796
34	0x40030b13	2.047551
35	0x3fcae859	1.5852157
36	0x3fedeafa	1.8587334
37	0x401578b9	2.3354933
38	0x3fdc8ba5	1.7230116
39	0x400922b0	2.1427422
40	0x3fc961e4	1.5732999
41	0x3fe7f23d	1.81208
42	0x3fcb3a3e	1.5877149
43	0x3fff7ec7	1.9960564
44	0x3fbef7f4	1.4919419
45	0x3fe8b934	1.818152
46	0x3ff9d167	1.951703
47	0x400d3693	2.206456
48	0x3fe5fd95	1.7968012
49	0x4003adf1	2.0574915
50	0x4009cb8c	2.1530485
51	0x3ff38a3f	1.9026564
52	0x405a0c4b	3.4070003
53	0x4015825f	2.3360822
54	0x40030c05	2.0476086
55	0x3ffa0e76	1.9535663
56	0x3fe3d594	1.7799554
57	0x40148bb3	2.3210266
58	0x401c3de5	2.4412777
59	0x4010907b	2.2588184
60	0x3ff87137	1.940955
61	0x400e1fcb	2.2206905
62	0x400684c3	2.1018531
63	0x3ff5ad05	1.9193426

7.odefunc.norm2.bias f4 [64]
0	0xbef974c2	-0.48721892
1	0xc02cc703	-2.6996467
2	0xc05a2ceb	-3.4089916
3	0xbf59942c	-0.8499172
4	0xc0173457	-2.3625696
5	0xbfe809ba	-1.8127968
6	0xc0323dcb	-2.7850215
7	0xbf8552f9	-1.0415946
8	0xc03c9f65	-2.9472287
9	0xbf99c6d6	-1.2013805
10	0xc0283cfd	-2.6287224
11	0xbf3e9c0d	-0.74456865
12	0xbf63f253	-0.8904163
13	0xc0265154	-2.5987139
14	0xc01193ca	-2.2746453
15	0xbf07a6d9	-0.52988964
16	0xbf10f15a	-0.56618273
17	0xc0185ff8	-2.3808575
18	0xc000c7c7	-2.0121934
19	0xbf8313da	-1.0240433
20	0xc00804c1	-2.1252902
21	0xbfad14bb	-1.3521951
22	0xc02aa169	-2.6661017
23	0xbfc916b0	-1.5710049
24	0xbfbd5cee	-1.4793985
25	0xbfe2143c	-1.7662425
26	0xbfb77355	-1.4332072
27	0xc0246340	-2.5685577
28	0xc0051d3d	-2.0799096
29	0xbfabc400	-1.341919
30	0xbed5b9c8	-0.41743302
31	0xbfdfba50	-1.7478733
32	0xc03b2e3b	-2.9246967
33	0xbf3453af	-0.7044019
34	0xbfafc748	-1.3732691
35	0xc0078e31	-2.1180537
36	0x3d3f1d3b	0.046658736
37	0xc010a0b3	-2.2598083
38	0xbf8a70ea	-1.0815709
39	0xc00b4e3b	-2.1766498
40	0xbfd75ef4	-1.6825852
41	0xbfd4fc49	-1.6639491
42	0xbfa55517	-1.2916592
43	0xc00f0adf	-2.2350385
44	0xbfdd316c	-1.7280707
45	0xbf99f4b7	-1.2027806
46	0xbff63f87	-1.9238137
47	0xbfab513a	-1.3384163
48	0xc00dff7d	-2.2187188
49	0xbfa05c42	-1.2528155
50	0xbf5472e0	-0.82987785
51	0xc004ce7b	-2.0751026
52	0x3e207c5a	0.15672436
53	0xc03601be	-2.8438563
54	0xbfcaa3c6	-1.583123
55	0xc006796c	-2.101161
56	0xc0021cf2	-2.0330167
57	0xbfcaffbe	-1.5859296
58	0xbee1f41a	-0.44131547
59	0xc03493c5	-2.8215191
60	0xbfe65821	-1.7995645
61	0xc010433f	-2.2541044
62	0xbf46710a	-0.77516234
63	0xc024c4fe	-2.5745234
