experiment_anode_mnist_v1/model.pth (torch, 849769 bytes, 24 tensors)

0.weight f4 [64, 1, 3, 3]
0	0x3e6ca6d3	0.23110513
1	0x3e961636	0.2931382
2	0xbe7959ff	-0.24350737
3	0x3ef93916	0.48676366
4	0xbeb1e48a	-0.34744674
5	0xbec21500	-0.37906647
6	0xbd363666	-0.044485472
7	0xbf03ab62	-0.51433384
8	0xbcd8479d	-0.026401335
9	0x3d45afd3	0.048263382
10	0x3e43f461	0.19136192
11	0x3e772fdc	0.2413935
12	0x3e6d5395	0.23176415
13	0xbe88eb82	-0.26742178
14	0x3ee85878	0.45379996
15	0x3e99de36	0.30052346
16	0x3ea453ce	0.32095188
17	0xbe08a4a3	-0.13344054
18	0x3f2e0771	0.67980105
19	0x3d6a5d1d	0.057217706
20	0x3c8eacb8	0.017416343
21	0xbe1ee8cd	-0.15518494
22	0xbf95c058	-1.1699324
23	0xbe23fe2a	-0.16014925
24	0xbe8ea4cd	-0.27860108
25	0x3e885b64	0.26632226
26	0x3f320215	0.69534427
27	0xbdb8c6e5	-0.09022311
28	0x3f06056a	0.5235201
29	0x3f04510d	0.51686174
30	0xbf0660a6	-0.52491224
31	0xbe625610	-0.22103143
32	0xbeb0ca42	-0.3452931
33	0xbe83b136	-0.2572114
34	0xbe741afa	-0.23838416
35	0xbe165b30	-0.14683223
36	0x3cf36170	0.029709548
37	0x3ea22417	0.3166816
38	0x3ef0dd26	0.47043723
39	0xbc972e95	-0.01845483
40	0xbea9afe3	-0.33142003
41	0x3eaf80d0	0.34277964
42	0xbe8f4b19	-0.27986982
43	0xbf07467d	-0.5284193
44	0x3ea29161	0.3175154
45	0xbe00b3df	-0.12568615
46	0xbeb923a7	-0.36160013
47	0xbc5b08ba	-0.01336878
48	0xbe5a01a5	-0.2128969
49	0x3ccdc704	0.025119312
50	0x3e9b8126	0.3037197
51	0xbe9c98fd	-0.3058547
52	0xbeb34c98	-0.35019374
53	0x3e18eb63	0.14933543
54	0xbee5e6be	-0.44902605
55	0x3e9bf12a	0.3045743
56	0xbea122d0	-0.31471872
57	0x3eaba0eb	0.33521208
58	0x3ea46fe0	0.32116604
59	0x3eb4b827	0.35296747
60	0xbdb3d52f	-0.08780896
61	0xbf2b81d1	-0.6699496
62	0xbee76cfa	-0.4520033
63	0x3eea6dbb	0.45786843
64	0x3e8aa80c	0.27081335
65	0xbd7799b4	-0.060449317
66	0xbecada40	-0.39619637
67	0xbeaa080c	-0.33209264
68	0xbe642fa1	-0.22283794
69	0xbe94406c	-0.289554
70	0xbd1d095d	-0.038339008
71	0xbe829f05	-0.25511947
72	0x3e0a7e4c	0.13524741
73	0xbee346d1	-0.44389966
74	0xbc7028c8	-0.0146581605
75	0x3e0f744c	0.14009207
76	0xbe503888	-0.20334065
77	0xbefc8011	-0.49316457
78	0x3e9c5379	0.30532435
79	0x3d634999	0.05549011
80	0xbee31943	-0.4435521
81	0xbdaa4c27	-0.08315306
82	0xbd4213bf	-0.047382113
83	0xbe0a324e	-0.13495752
84	0x3c9d7daf	0.01922497
85	0x3d779dae	0.06045311
86	0xbe8a820d	-0.27052346
87	0xbeb6632d	-0.3562254
88	0xbeb8738d	-0.36025658
89	0x3e43777a	0.19088545
90	0x3e29380f	0.16525291
91	0x3ea7f8d2	0.32807022
92	0xbee5eb42	-0.4490605
93	0xbdb2e61f	-0.08735298
94	0x3e8eea47	0.27913114
95	0xbf000f3d	-0.5002325
96	0xbe022506	-0.12709436
97	0x3da3b906	0.07994275
98	0xbf154725	-0.5831168
99	0xbdc4fcf9	-0.09618563
100	0x3d951c12	0.072807446
101	0xbe9772ac	-0.29579675
102	0xbd1ffcb6	-0.039059363
103	0xbe838ca0	-0.25693226
104	0xbe86d254	-0.26332343
105	0xbe35a30b	-0.17737977
106	0xbea03ee9	-0.31297997
107	0x3e4ee082	0.2020283
108	0xbd33d3e2	-0.04390324
109	0x3c216fd9	0.009853327
110	0x3f1db17c	0.61598945
111	0xbdf2cf83	-0.11855986
112	0xbf033504	-0.5125277
113	0x3dac1b61	0.084036596
114	0xbd61d122	-0.055131085
115	0x3d3b303b	0.045700293
116	0xbf0533ce	-0.5203217
117	0xbf1cd6b0	-0.6126509
118	0xbead5935	-0.33857122
119	0x3ec3513f	0.38147923
120	0x3e9d9f3d	0.30785552
121	0xbd903b85	-0.070426024
122	0x3f048a37	0.517734
123	0x3ead14e6	0.33805007
124	0xbe8a72c2	-0.27040678
125	0x3dc5c773	0.096571825
126	0xbca85a5d	-0.020550901
127	0xbe194e30	-0.14971232
128	0xbf13a1aa	-0.57668555
129	0xbed975da	-0.42472726
130	0xbef55031	-0.47912744
131	0xbe3a7749	-0.18209566
132	0x3d73c88c	0.05951743
133	0x3e998544	0.29984486
134	0x3eefaf38	0.4681337
135	0x3ea057b3	0.3131691
136	0x3db1a505	0.08674053
137	0x3ca1da91	0.01975754
138	0x3daf7df3	0.08568945
139	0x3e0539a3	0.13010268
140	0xbeab8339	-0.33498552
141	0x3ed6e1f1	0.41969255
142	0xbe8bdfc7	-0.27319166
143	0x3f070066	0.5273498
144	0xbe830cab	-0.25595602
145	0xbe942b23	-0.2893916
146	0xbdd6409d	-0.10461543
147	0x3ec76f73	0.38952217
148	0xbe328c15	-0.1743625
149	0xbe3c34d0	-0.18379521
150	0x3d3de9c6	0.04636552
151	0x3b644983	0.0034833855
152	0xbea281ad	-0.3173956
153	0x3ede845f	0.43460366
154	0x3f007e0c	0.5019233
155	0x3dd56ad5	0.10420767
156	0xbe62ac03	-0.2213593
157	0x3b07f8a0	0.0020747557
158	0x3f05064a	0.5196272
159	0xbe427520	-0.18989992
160	0xbed0f0c1	-0.4080868
161	0xbe8cce7a	-0.2750128
162	0xbd406dcb	-0.046979707
163	0xbe9acc95	-0.3023421
164	0xbdb55de9	-0.088558026
165	0xbebcf70f	-0.3690724
166	0xbd2d4026	-0.042297505
167	0x3eca6ab3	0.3953453
168	0xbeda0525	-0.4258205
169	0xbeb72fb6	-0.35778588
170	0x3eba55e8	0.36393666
171	0x3ebb7473	0.3661228
172	0xbe519667	-0.2046753
173	0x3ecf160a	0.40446502
174	0x3e8ffdc6	0.281233
175	0xbeb03d45	-0.34421745
176	0xbd4199a5	-0.047265667
177	0x3e89a1fa	0.2688139
178	0x3ea35f2c	0.31908548
179	0x3e91d879	0.28485468
180	0xbeedf436	-0.4647538
181	0xbf0fc55a	-0.5616051
182	0xbebae2d3	-0.36501178
183	0x3ed7e826	0.42169303
184	0xbdf5c33e	-0.1200013
185	0xbe82b589	-0.25529125
186	0x3e8f4ddd	0.27989092
187	0x3ed8f3e8	0.42373586
188	0xbe93f469	-0.28897408
189	0xbeaa98c1	-0.33319667
190	0x3ec0af5e	0.37633795
191	0xbe2bb404	-0.1676789
192	0x3e2f51a2	0.17120984
193	0x3e521f1e	0.20519683
194	0x3dcbd707	0.099531226
195	0x3e70cbab	0.23515193
196	0x3e201898	0.15634382
197	0x3e12e02b	0.14343326
198	0x3eb6089e	0.3555345
199	0xbd20b1ce	-0.039232068
200	0xbe851e0f	-0.25999495
201	0x3b9aaebf	0.0047205384
202	0xbe92c461	-0.2866545
203	0xbdd8f7fa	-0.10594173
204	0xbebc8b6f	-0.3682513
205	0xbe07ea84	-0.13273054
206	0xbe187939	-0.14889993
207	0xbe9a4633	-0.30131683
208	0xbe3d394a	-0.18478885
209	0x3dbda828	0.09260589
210	0xbe2a1a90	-0.16611695
211	0xbe755998	-0.23959959
212	0xbe9756d7	-0.2955844
213	0xbe8b66ab	-0.27226767
214	0xbe86ad59	-0.2630413
215	0xbe7cafbd	-0.24676414
216	0x3e93f432	0.28897244
217	0xbe9ef640	-0.3104725
218	0x3d94d8ba	0.072679
219	0xbf1ae8fd	-0.6051176
220	0xbd027e7d	-0.03185891
221	0x3f04b5f9	0.5184017
222	0xbe94b635	-0.29045263
223	0xbe3ce489	-0.18446554
224	0x3f142e94	0.5788357
225	0x3e597ea6	0.21239719
226	0xbca7bf4f	-0.020476965
227	0xbe7bd7b0	-0.24593997
228	0xbdad0d27	-0.08449774
229	0xbead74d3	-0.33878192
230	0xbe40d3e0	-0.18830824
231	0xbe6fafc4	-0.23406893
232	0xbe2d8fb5	-0.16949351
233	0x3eca6c20	0.39535618
234	0x3e9dab86	0.30794924
235	0x3ede01d3	0.43360767
236	0x3dcb75dd	0.0993459
237	0x3ef03e4c	0.4692253
238	0x3e05aedf	0.1305499
239	0xbf002099	-0.5004974
240	0x3ea2e0af	0.31812045
241	0xbf2213fd	-0.6331175
242	0xbf13d04e	-0.5773972
243	0xbdff144c	-0.12455043
244	0xbe603c40	-0.21897984
245	0x3e82b667	0.25529787
246	0xbeef33ff	-0.46719357
247	0xbebc5a80	-0.36787796
248	0x3ef9f715	0.4882132
249	0xbee6e2b0	-0.45094824
250	0xbdf4a01e	-0.119446024
251	0x3e2e69d5	0.17032559
252	0x3dbbe8b5	0.09175245
253	0x3e918e75	0.28429
254	0xbebf18c9	-0.37323597
255	0x3e23e9a5	0.16007097

0.bias f4 [64]
0	0x3e68d90e	0.2273905
1	0xbe1e0763	-0.15432505
2	0xbdec79c6	-0.11546664
3	0x3de1fe30	0.110348105
4	0xbe17f8a8	-0.14840949
5	0x3e5ddfd6	0.21667418
6	0xbe88eb8f	-0.26742217
7	0xbe57583e	-0.21029755
8	0x3d7de380	0.06198454
9	0xbe9f7adb	-0.3114842
10	0x3d6cc6eb	0.05780689
11	0xbe497fdb	-0.19677679
12	0x3dae3120	0.085054636
13	0x3c444f48	0.011981793
14	0x3e8d4e77	0.27598926
15	0x3e8943c7	0.26809523
16	0x3e5ea9f3	0.21744518
17	0x3e098493	0.1342948
18	0x3e7c6238	0.24646842
19	0x3d1a345e	0.037647597
20	0xbe4909e0	-0.19632673
21	0xbe877d57	-0.26462814
22	0x3e8d0bc0	0.27548027
23	0xbe3267c3	-0.17422394
24	0x3dac485b	0.08412238
25	0x3d68830b	0.056765597
26	0x3d97db5b	0.074148856
27	0xbd9e3710	-0.07725346
28	0x3bace835	0.0052767047
29	0xbe8723ff	-0.2639465
30	0x3e38ea83	0.18058209
31	0xbe201968	-0.15634692
32	0x3e566ad0	0.20939183
33	0x3da5f170	0.08102691
34	0xbe2e37fb	-0.17013542
35	0xbe5dea93	-0.21671514
36	0xbd700397	-0.058597174
37	0x3dfb4140	0.12268305
38	0x3da23316	0.079199
39	0x3e3521be	0.17688653
40	0xbd44d9e0	-0.048059344
41	0xbe300003	-0.17187504
42	0x3e933183	0.28748712
43	0x3e7c0838	0.2461251
44	0xbe1548ce	-0.14578554
45	0xbe07a290	-0.13245606
46	0xbd970766	-0.07374458
47	0x3da3e680	0.08002949
48	0xbdbb5f50	-0.09149039
49	0xbdb4262b	-0.087963425
50	0x3e94af8f	0.2904019
51	0xbe666013	-0.22497587
52	0xbea2ba13	-0.31782588
53	0x3ea530ea	0.3226388
54	0xbc292857	-0.010324559
55	0x3e6f7ea3	0.23388152
56	0x3de8aac0	0.11360693
57	0xbe42a036	-0.19006428
58	0x3e67bbc3	0.22630219
59	0xbe23d6c0	-0.1599989
60	0xbe1a6988	-0.1507932
61	0xbe7e5d1e	-0.24840209
62	0xbd757136	-0.05992242
63	0x3e189cd6	0.14903578

1.weight f4 [64]
0	0x3f77e3d0	0.9683199
1	0x3f421ae1	0.75822264
2	0x3f930fb5	1.1489168
3	0x3f9b36b5	1.212607
4	0x3f39ca06	0.7257389
5	0x3f8f4395	1.1192499
6	0x3f7e8c8c	0.9943321
7	0x3f926364	1.1436582
8	0x3f8e15df	1.1100425
9	0x3f820779	1.015853
10	0x3f8c0f87	1.0942239
11	0x3f888484	1.066544
12	0x3f95d5ec	1.1705909
13	0x3f28654a	0.65779555
14	0x3f8b9ecc	1.0907836
15	0x3f2eac39	0.6823154
16	0x3f89865e	1.0744131
17	0x3f34aabb	0.70573014
18	0x3f96a8e9	1.1770297
19	0x3f2fa063	0.68604106
20	0x3f977656	1.1832988
21	0x3f253729	0.6453729
22	0x3f8ccbd4	1.0999703
23	0x3f875f01	1.0575868
24	0x3f57387b	0.8407056
25	0x3f914f62	1.1352351
26	0x3f8ba924	1.0910993
27	0x3f83b9bd	1.0291058
28	0x3fb4296e	1.4075143
29	0x3f84f2f2	1.0386641
30	0x3f486fa5	0.78295356
31	0x3f9343a3	1.1505016
32	0x3f68b630	0.90902996
33	0x3f29b69b	0.6629426
34	0x3f534673	0.8252937
35	0x3f7d3b3b	0.98918504
36	0x3f474f77	0.7785563
37	0x3fb93c13	1.4471458
38	0x3f232cc5	0.6374019
39	0x3f8caad2	1.098963
40	0x3f829c73	1.0203995
41	0x3f6ff1b9	0.93728215
42	0x3f8d9358	1.1060591
43	0x3f5116e0	0.8167553
44	0x3f78965e	0.9710444
45	0x3f87cd5e	1.0609548
46	0x3f514f24	0.81761384
47	0x3f9068c4	1.1281972
48	0x3f8a717b	1.0815881
49	0x3f9bd5ed	1.217466
50	0x3f8815de	1.0631673
51	0x3f4073a5	0.7517646
52	0x3f41a2fd	0.75639325
53	0x3f8f86fe	1.1213071
54	0x3f54715d	0.8298548
55	0x3f8b831e	1.0899389
56	0x3f4c7e46	0.7988018
57	0x3f95d9ca	1.1707089
58	0x3f92670a	1.1437695
59	0x3f9c5f64	1.2216611
60	0x3f8d1db9	1.1024696
61	0x3f934e01	1.150818
62	0x3f8c3b2e	1.095556
63	0x3f886613	1.065615

1.bias f4 [64]
0	0xbe94dcdb	-0.2907475
1	0xbeee7a8b	-0.46577868
2	0xbec549cf	-0.38532874
3	0xbd8bd6a4	-0.06828049
4	0xbe031a17	-0.12802921
5	0xbd116e4e	-0.035505585
6	0xbdb9ad86	-0.090663
7	0x3d738148	0.059449464
8	0x3d8eaf42	0.069670215
9	0x3cfc2c12	0.030782733
10	0x3cc9cff8	0.0246353
11	0x3df572b5	0.11984769
12	0xbde7e11e	-0.113222346
13	0xbd124d9f	-0.035718556
14	0x3e214008	0.15747082
15	0xbeb6f8e5	-0.35736766
16	0x3d66de43	0.05636431
17	0xbe9bd5ff	-0.30436704
18	0x3cc8c27a	0.024506796
19	0xbe903b9e	-0.28170484
20	0x3df793cc	0.12088737
21	0xbe84e2dc	-0.2595433
22	0x3dc91132	0.09817733
23	0xbc5b6e2e	-0.013392968
24	0xbebe6c42	-0.3719197
25	0x3d961b64	0.07329443
26	0xbe4b2f79	-0.19842328
27	0x3c35bb17	0.011091969
28	0x3e6a322b	0.228707
29	0x3d3367e4	0.04380025
30	0xbe8e4700	-0.27788544
31	0xbe7ff474	-0.24995595
32	0xbe6860cf	-0.2269318
33	0xbebfd371	-0.37466004
34	0xbed78307	-0.42092153
35	0xbcfe60fa	-0.031052101
36	0x3c3bb6a8	0.011457123
37	0x3e48e1ad	0.19617338
38	0x3d3ff235	0.046861846
39	0xbd6d9b89	-0.058009658
40	0xbcc5cae1	-0.024144592
41	0xbe8e9936	-0.27851266
42	0xbcec6475	-0.028856495
43	0xbd92512c	-0.071443886
44	0xbe656260	-0.22400808
45	0xbb1791c5	-0.0023127657
46	0xbe5a382e	-0.21310493
47	0x3dac868f	0.084241025
48	0xbd60173c	-0.054709658
49	0x3ddd282a	0.10798676
50	0x3d2b0531	0.041752998
51	0xbec8c7ae	-0.39214844
52	0xbbb81f1c	-0.005618943
53	0xbea7e231	-0.32789758
54	0xbdac5be4	-0.08415964
55	0xbe82079a	-0.25396425
56	0xbe89956d	-0.26871815
57	0x3e06ea84	0.13175398
58	0x3dd1ddcf	0.10247385
59	0xbce9475b	-0.028476408
60	0x3d70109d	0.058609594
61	0xbebef021	-0.3729258
62	0x3d5b9322	0.053607114
63	0x3cf34894	0.029697694

3.weight f4 [64, 64, 4, 4]
0	0xbd9653f6	-0.07340233
1	0xbd4dc11a	-0.050232984
2	0xbd1b0f9d	-0.037856687
3	0xbba19c50	-0.004931964
4	0xbd6bce1a	-0.0575696
5	0xbd350424	-0.044193402
6	0x3d15d3c8	0.036578923
7	0x3cdecbba	0.027196754
8	0xbc63c94b	-0.013902972
9	0x3becb452	0.0072236443
10	0x3d67649a	0.056492426
11	0x3da59c06	0.080864
12	0x3b89770c	0.0041950997
13	0xbd806ee9	-0.062711544
14	0x3c2b4848	0.010454245
15	0xbd5e43f5	-0.054264028
16	0xbd5f421b	-0.054506402
17	0xbc84116e	-0.016121592
18	0x3c13681d	0.0089969905
19	0x3d2aa5d7	0.041662063
20	0xbca4abb8	-0.020101413
21	0xbcc9477c	-0.02457022
22	0x3ce881bc	0.028382175
23	0x3cb90567	0.022585584
24	0xbcac6591	-0.021044524
25	0x3d1485ed	0.036260534
26	0xbcb23ae8	-0.021756604
27	0x3b3db77c	0.0028948477
28	0xbd49deaa	-0.049284615
29	0xbc52bf27	-0.012862957
30	0xbd48c6fa	-0.049017884
31	0xbc8bd233	-0.017068004
32	0x3d78ac95	0.060711462
33	0x3bcf7bb6	0.006331886
34	0x3cc6879e	0.02423459
35	0x3cfd38ba	0.030910838
36	0x3c9e8023	0.01934821
37	0xbcbeb8c9	-0.023281472
38	0xbcaa882d	-0.020816887
39	0x3b106652	0.0022033644
40	0x3cb6642c	0.022264563
41	0x3d9c47b7	0.07630866
42	0x3d820887	0.06349283
43	0x3cedbbc1	0.029020192
44	0x3d52beb9	0.05145142
45	0x3ba82f7d	0.005132614
46	0xbced2264	-0.028947063
47	0xbd0a6322	-0.033785947
48	0xbb67c003	-0.003536225
49	0xbd864fbc	-0.06558177
50	0xbdceb386	-0.10092835
51	0xbd2aa694	-0.041662768
52	0xbbc145d7	-0.005898218
53	0xbd3e4b83	-0.046458732
54	0xbcbaf65a	-0.022822548
55	0xbc6df3bb	-0.014523442
56	0xbcb2f1f0	-0.02184388
57	0x3b81cc5c	0.003961129
58	0x3c7d4d41	0.015460313
59	0x3bff7bc1	0.007796735
60	0xbd82a718	-0.06379527
61	0xbdba6327	-0.09100943
62	0xbd718da9	-0.05897299
63	0xbdaeac75	-0.08528987
64	0xbd33afd6	-0.043868862
65	0xbda4e06d	-0.08050618
66	0xbd8dc472	-0.069222346
67	0xbd913093	-0.07089343
68	0x3c4e034c	0.012574028
69	0xbd87b049	-0.066254206
70	0xbc2186a9	-0.009858766
71	0xbd2e85b4	-0.042607978
72	0xbc76beb7	-0.015060118
73	0xbd0137ab	-0.03154723
74	0xbcd53c72	-0.0260298
75	0xbd762bdc	-0.06010042
76	0xbd7d3b2c	-0.06182401
77	0xbda37db4	-0.0798296
78	0xbdf80452	-0.12110199
79	0xbdae62d0	-0.08514941
80	0xbd175769	-0.036948595
81	0x3cf6259b	0.030047229
82	0x3ca895c3	0.020579224
83	0x3cb29e1c	0.021803908
84	0xbcbd2fc4	-0.023094065
85	0x3d49c083	0.04925586
86	0x3c2ef7e5	0.01067922
87	0xbd219667	-0.039450075
88	0xbd1f4922	-0.038888104
89	0xbc841524	-0.016123362
90	0xbd533c5e	-0.051571243
91	0xbd30a366	-0.04312458
92	0xbcb4d322	-0.022073332
93	0xbcd748d8	-0.026279852
94	0xbcc85147	-0.024452819
95	0x3c62421a	0.013809705
96	0xbc8e1576	-0.017344218
97	0xbba611e0	-0.005068049
98	0xbc208316	-0.009796878
99	0xbd05d7b6	-0.03267642
100	0x3d32d3c2	0.04365898
101	0x3d805eac	0.06268057
102	0x3d909a7d	0.07060716
103	0x3ce23a26	0.027615618
104	0xbd74e03a	-0.05978415
105	0xbc0c4f1b	-0.008563782
106	0xbd04eeab	-0.032454174
107	0x3c76f488	0.015072949
108	0xbda5b259	-0.08090658
109	0xbc993e89	-0.018706577
110	0xba87a3de	-0.0010348519
111	0xbcff21cb	-0.031144043
112	0x3c62fb16	0.013853809
113	0xbd67f09f	-0.05662596
114	0x3ac34a5f	0.0014899484
115	0xbcbcf987	-0.023068203
116	0xbb2cbe73	-0.0026358634
117	0xbd50188b	-0.050804656
118	0xbca7e39e	-0.020494279
119	0x3d52d1e0	0.051469684
120	0xbc261475	-0.010136713
121	0xbb0ff09a	-0.0021963478
122	0x3d1e86a0	0.038702607
123	0x3d0ebc89	0.03484777
124	0xbca8c676	-0.020602446
125	0xbd2a230c	-0.04153733
126	0xbd00fcb6	-0.031491004
127	0xbd585a91	-0.052820746
128	0xbc2a27a0	-0.010385424
129	0xbca93be8	-0.020658448
130	0xbc7d1249	-0.015446254
131	0xbd8df4e6	-0.06931476
132	0xbcede812	-0.029041324
133	0xbd747aeb	-0.059687536
134	0xbd14c39c	-0.03631936
135	0xbcf2292a	-0.029560644
136	0xbc99b229	-0.018761711
137	0xbcf0d6b9	-0.029399263
138	0xbcb1f3fb	-0.021722784
139	0x3ccdbc51	0.02511421
140	0xbb25b975	-0.0025287543
141	0x3c2dc0f6	0.0106050875
142	0xbd184cdc	-0.037182674
143	0x3ca97b30	0.020688623
144	0x3cb86392	0.022508416
145	0x3d1089c7	0.035287645
146	0xbbe913a3	-0.0071129366
147	0xbc53606d	-0.012901408
148	0x3ca3b222	0.019982401
149	0x3cbb0ba2	0.022832695
150	0x3c8ef225	0.017449448
151	0xbd2a2ff8	-0.041549653
152	0x3c80d46e	0.015726294
153	0xbcd21f7c	-0.025649779
154	0xbd089ba4	-0.033351555
155	0x3ca983e0	0.020692766
156	0x3c884716	0.016635459
157	0xbb6fede1	-0.0036610293
158	0xbcf1e198	-0.029526517
159	0xbcc1958e	-0.023630884
160	0xbce0f51f	-0.027460633
161	0xbca31c92	-0.019911084
162	0xbcccda3b	-0.025006404
163	0xbd4a14b8	-0.049336165
164	0xbd020759	-0.03174529
165	0xbd641998	-0.05568847
166	0x3c5beaf6	0.013422718
167	0xbc27eb1c	-0.010248926
168	0xbd0bc43c	-0.03412269
169	0xbba9cf69	-0.005182196
170	0x3c9ac907	0.018894685
171	0x3d4c43ea	0.049869455
172	0xbcee38e9	-0.029079871
173	0xbc9f78bd	-0.019466752
174	0x3caf1036	0.021370035
175	0x3be276d8	0.00691114
176	0xbc300419	-0.010743164
177	0x3bea0ca5	0.0071426206
178	0x3ca207e4	0.019779153
179	0x3bacc926	0.005273002
180	0x3c959dd2	0.018263731
181	0x3c0484ef	0.008088334
182	0xbd19cc5a	-0.0375484
183	0xbd403f14	-0.046935156
184	0xbd0f08a1	-0.03492034
185	0xbd113d0e	-0.035458617
186	0x3be0ec72	0.006864124
187	0x3b9eb6d1	0.0048435708
188	0x3ce7d2de	0.028298791
189	0xba8ef890	-0.0010907818
190	0xbca785f4	-0.020449616
191	0x3ca73317	0.020410104
192	0xbcb41c46	-0.021986138
193	0xbcdbf318	-0.026849315
194	0xbd4f3915	-0.050591547
195	0xbc201d25	-0.009772574
196	0xbd11ed6c	-0.035626814
197	0xbcf30c81	-0.029669048
198	0xba989cc5	-0.0011643401
199	0x3c324b9e	0.010882286
200	0x3d2b2a7b	0.04178856
201	0x3ca95c1c	0.020673804
202	0xbc735c54	-0.014853556
203	0x3c6e553e	0.0145466905
204	0xbd39f4a0	-0.04539931
205	0xbd69169c	-0.056906328
206	0xbd6b3d84	-0.057431713
207	0xbd38c440	-0.045109034
208	0xbd41fdd4	-0.04736121
209	0xbd5e4f9a	-0.054275133
210	0x3d2ace5f	0.041700717
211	0x3dff5f77	0.1246938
212	0x3d7ce2a4	0.06173958
213	0x3d1f073c	0.03882526
214	0x3d478e73	0.048719835
215	0x3ded66c2	0.11591865
216	0x3bb46049	0.005504642
217	0x3d181fd1	0.037139717
218	0x3d10477f	0.035224434
219	0x3cc29a73	0.023755288
220	0xbb1b2cf5	-0.002367792
221	0x3cc4f1b5	0.024041036
222	0xbc8857f8	-0.01664351
223	0xbd8b6d1a	-0.06807919
224	0x3d59c7f2	0.0531692
225	0x3d9009e2	0.07033135
226	0x3dad8e4e	0.08474408
227	0xbb83354c	-0.004004156
228	0xbc225ff3	-0.009910571
229	0x3d8b088a	0.06788738
230	0xbb7f9991	-0.0039001445
231	0xbd2d0621	-0.042242173
232	0x3d965502	0.07340433
233	0x3d450a5d	0.048105586
234	0xbbf2fe71	-0.0074155857
235	0xbd3610f1	-0.04444975
236	0xbbd909ce	-0.0066234833
237	0xbcc940ae	-0.024566974
238	0xbc809828	-0.015697554
239	0xbd67e968	-0.056619078
240	0xbdad131b	-0.0845091
241	0xbd3e3393	-0.046435904
242	0xbd16513a	-0.036698557
243	0xbd6cd437	-0.05781957
244	0xbda1411c	-0.07873747
245	0xbd8a4bfa	-0.06752773
246	0xbd836cb8	-0.06417221
247	0xbd238cfb	-0.03992937
248	0xbd1b6ad9	-0.037943695
249	0xbb100e0e	-0.0021981033
250	0xbd1dc1df	-0.038514968
251	0xba9a6587	-0.0011779525
252	0x3be98cef	0.0071273963
253	0xbd6e31c0	-0.058152914
254	0xbd15a474	-0.036533788
255	0xbd06f5b1	-0.032949153

3.bias f4 [64]
0	0x3c36dd58	0.011161171
1	0x3c3c7c48	0.01150424
2	0x3cf06fce	0.029350188
3	0xbc973db8	-0.018462047
4	0xbc6ce2cc	-0.014458369
5	0xbb31ad05	-0.0027111184
6	0x3ccf2c06	0.025289547
7	0x3c982c1a	0.018575717
8	0x3b37f09e	0.0028067003
9	0x3c8e2f08	0.01735641
10	0x3c364bc4	0.011126462
11	0x3cebbc44	0.028776295
12	0x3c8704ee	0.016481843
13	0xbc4f1b78	-0.012640826
14	0x3c1ab3d8	0.009442292
15	0x3b9767a6	0.00462051
16	0xbc11db50	-0.008902386
17	0xbcc5b402	-0.024133686
18	0xbc0b8530	-0.008515641
19	0x39abd862	0.0003277688
20	0x3a35c1ae	0.00069334626
21	0xbce6d534	-0.028177835
22	0xbb8adcf8	-0.0042377673
23	0x3be7a2a8	0.0070689507
24	0xbcb2c194	-0.02182082
25	0x3cca00bc	0.024658553
26	0x3cc65f8a	0.024215478
27	0xbc86e378	-0.016465887
28	0x3cba6424	0.022752829
29	0xbccd5084	-0.025062807
30	0xbc82cc5e	-0.01596659
31	0x3bde2370	0.006779127
32	0xbc657a74	-0.014006246
33	0x3cfe02f0	0.03100726
34	0x3c3d43f4	0.011551846
35	0xbc8cdf42	-0.017196301
36	0xbcfc7050	-0.030815274
37	0xbc8b8d28	-0.017035082
38	0xbcebf7da	-0.028804708
39	0x3b515803	0.0031943328
40	0x3c413450	0.011792257
41	0xbbdb7448	-0.0066972114
42	0x3b633178	0.0034666937
43	0x3c9e857a	0.019350756
44	0x3c7d6eb8	0.015468292
45	0x3c85468e	0.016268995
46	0x3cf3530a	0.029702682
47	0xbc789bc8	-0.01517386
48	0xbc8f0416	-0.017458003
49	0xbcd32984	-0.025776632
50	0x3c2e243c	0.010628756
51	0x3ca7a172	0.020462725
52	0xbcf68572	-0.030092929
53	0x3ca51e56	0.020156067
54	0xbc12be5c	-0.008956518
55	0x3b4c5d04	0.0031183371
56	0x3ccb57f2	0.024822209
57	0x3cde60d2	0.027145777
58	0x3bd89130	0.0066091046
59	0x3c89a9b4	0.016804554
60	0x3c4655c8	0.012105413
61	0xbaf517fd	-0.0018699166
62	0x3b251529	0.0025189614
63	0x3cb4ce52	0.022071037

4.weight f4 [64]
0	0x3f1e75ad	0.6189831
1	0x3f2b25c0	0.66854477
2	0x3f2e2750	0.68028736
3	0x3f18fdf1	0.59762484
4	0x3f286eed	0.6579426
5	0x3f418a7a	0.75601923
6	0x3f01e708	0.5074315
7	0x3f0b8d77	0.54512733
8	0x3f16b8da	0.5887581
9	0x3ee42ec3	0.44566926
10	0x3f1f073f	0.6212043
11	0x3f2a929c	0.6662996
12	0x3f16b635	0.58871776
13	0x3f04b6aa	0.51841223
14	0x3f27e6b6	0.6558641
15	0x3ef6a1ed	0.48170415
16	0x3f41b67a	0.7566906
17	0x3f241f8b	0.6411063
18	0x3f2a0194	0.6640866
19	0x3f157343	0.58379
20	0x3f30b87a	0.6903149
21	0x3f15fe8d	0.5859154
22	0x3f140ce6	0.5783218
23	0x3ed41c41	0.41427806
24	0x3f3562da	0.7085396
25	0x3efed35f	0.49770638
26	0x3f37b59b	0.7176148
27	0x3f37cf17	0.7180037
28	0x3f26a419	0.65094143
29	0x3f0ff0a3	0.5622656
30	0x3f074043	0.5283243
31	0x3f2c88ec	0.67396426
32	0x3f1f1cb6	0.62153184
33	0x3f270fe6	0.65258634
34	0x3ee34ac3	0.44392976
35	0x3f1e250d	0.61775285
36	0x3ec27454	0.37979376
37	0x3f07d5be	0.5306052
38	0x3f1a83c4	0.6035731
39	0x3f0f81cf	0.5605745
40	0x3f229ee9	0.6352373
41	0x3ec4f2c1	0.38466457
42	0x3f020a53	0.50797004
43	0x3f27d34d	0.65556794
44	0x3ec87bf4	0.3915707
45	0x3efdb8d1	0.49555066
46	0x3ed8c2c9	0.4233611
47	0x3f117a00	0.5682678
48	0x3ebadc67	0.3649628
49	0x3f2f206e	0.6840886
50	0x3f23cde3	0.63986033
51	0x3f2d9ea2	0.6782018
52	0x3f0fd835	0.5618928
53	0x3f0cc87b	0.5499341
54	0x3f242703	0.6412203
55	0x3f29a77f	0.66271204
56	0x3eec11dc	0.46107376
57	0x3f1b9826	0.60779035
58	0x3f123f62	0.57127964
59	0x3ec283cc	0.37991178
60	0x3f1e663c	0.6187475
61	0x3f313623	0.6922323
62	0x3f071051	0.5275927
63	0x3f13a7d5	0.57677966

4.bias f4 [64]
0	0xbeba6908	-0.36408257
1	0xbea18656	-0.31547803
2	0xbe4af026	-0.19818172
3	0xbe767ea6	-0.2407175
4	0xbecb99e0	-0.39765835
5	0xbe874ab5	-0.26424184
6	0xbed758ad	-0.42059842
7	0xbe9d649a	-0.30740815
8	0xbd8afff2	-0.06787099
9	0xbe83d1ae	-0.2574591
10	0xbd923ed7	-0.07140892
11	0xbeb3821f	-0.35060212
12	0xbebb23f1	-0.3655086
13	0xbe5ba9a7	-0.21451436
14	0xbe358d96	-0.17729792
15	0xbf8b67a0	-1.0890999
16	0xbd322958	-0.04349646
17	0xbd8835e7	-0.06650906
18	0xbe83b3e3	-0.2572318
19	0xbe88a4be	-0.26688188
20	0xbea006e6	-0.31255263
21	0xbd7cdbbf	-0.061733004
22	0xbeb4eb98	-0.35335994
23	0xbefcea8b	-0.49397692
24	0xbe49f9df	-0.19724225
25	0xbebc5ef1	-0.36791185
26	0xbeb97e52	-0.36229187
27	0xbeb41dcd	-0.35178986
28	0xbe61cbec	-0.22050446
29	0xbd63a1d8	-0.055574268
30	0xb8b18efe	-8.466652e-05
31	0xbec5a693	-0.3860365
32	0xbf81c4f5	-1.0138232
33	0xbe9605d2	-0.29301316
34	0xbf17c2ac	-0.5928142
35	0xbe8cbd20	-0.2748804
36	0xbf48a073	-0.78369826
37	0xbe341fb1	-0.17590214
38	0xbe5594a4	-0.20857483
39	0xbe7c57c3	-0.24642853
40	0xbe8a7637	-0.27043316
41	0xbe774fdf	-0.24151562
42	0xbeb85ff3	-0.36010703
43	0xbe7e1a08	-0.24814618
44	0xbf8214ad	-1.016256
45	0xbf3143a1	-0.6924382
46	0xbe1c138b	-0.1524183
47	0xbee132e1	-0.4398413
48	0xbf00e773	-0.50353163
49	0xbe97875c	-0.29595459
50	0xbe904c0a	-0.28183013
51	0xbe9a3270	-0.30116606
52	0xbe71a310	-0.2359736
53	0xbee44116	-0.44580907
54	0xbf01c30b	-0.50688237
55	0xbe915cbf	-0.28391072
56	0xbec6520e	-0.38734478
57	0xbee79fcd	-0.45239106
58	0xbe35181f	-0.17684983
59	0xbf41cef6	-0.7570642
60	0xbead2336	-0.33815926
61	0xbe95815e	-0.29200262
62	0xbec9dc64	-0.39425957
63	0xbe4ef51a	-0.20210686

6.weight f4 [64, 64, 4, 4]
0	0xbd22794f	-0.03966647
1	0xbd2a7568	-0.041615874
2	0xbd34fb46	-0.044184946
3	0xbd6dd401	-0.05806351
4	0xbbb9a962	-0.005665944
5	0xbd6d1a86	-0.057886623
6	0xbd22bb10	-0.039729178
7	0xbcf660a2	-0.030075375
8	0xbc868001	-0.016418459
9	0x3d12c039	0.03582785
10	0xbb72bdb4	-0.0037039341
11	0xbbf46d89	-0.0074593467
12	0x3d006f6a	0.031356253
13	0xbc0369fc	-0.008020874
14	0x3ce6f1b2	0.028191421
15	0x3d0845b8	0.033269614
16	0xbc826a92	-0.015919957
17	0x3d9501d7	0.072757415
18	0x3cd52c59	0.026022123
19	0x3d791e23	0.060819756
20	0xbb8cdc8e	-0.004298753
21	0x3d50498a	0.050851382
22	0x3d3d1327	0.046160843
23	0xbc8947de	-0.016757902
24	0x3d076700	0.033057213
25	0x3cb5bcc0	0.02218473
26	0x3d04cc88	0.03242162
27	0x3d079d82	0.033109196
28	0x3ce1aed4	0.027549185
29	0x3cdd93e1	0.027048053
30	0xbbe31e8c	-0.0069311317
31	0x3cd1c338	0.025605783
32	0xbd206aef	-0.03916448
33	0xbdaf0143	-0.085451625
34	0x3d63c3b5	0.055606563
35	0x3d3ef1df	0.046617385
36	0xbd57c07c	-0.0526738
37	0xbe41882e	-0.18899605
38	0x3c35aa24	0.011087928
39	0x3d255ccd	0.040371705
40	0xbcfce26a	-0.030869681
41	0xbe216a59	-0.15763225
42	0x3c6c7b9f	0.01443377
43	0x3d1afc24	0.037838116
44	0xbcd303af	-0.025758592
45	0xbe0ce4b4	-0.13759118
46	0xbd8c2dde	-0.06844686
47	0xbca39c84	-0.019972093
48	0x3d9dba12	0.07701506
49	0x3da2c5a6	0.07947855
50	0x3d7a324f	0.061083134
51	0x3ce13839	0.02749263
52	0x3d569350	0.052386582
53	0x3c98b624	0.018641539
54	0x3d526e37	0.05137464
55	0x3a82db8a	0.0009983641
56	0x3c0dc6eb	0.008653383
57	0x3c422b59	0.011851155
58	0x3bc4ac0a	0.006001954
59	0x3b171e78	0.0023058932
60	0x3c0aca83	0.008471134
61	0x3d4d622b	0.05014245
62	0x3ca00171	0.019531937
63	0x3d5e4b53	0.054271054
64	0xbdc7a4f5	-0.0974826
65	0xbda8a050	-0.08233702
66	0xbdb75773	-0.089522265
67	0xbd7a7bc0	-0.061153173
68	0xbdb5c359	-0.0887515
69	0xbc429b31	-0.011877821
70	0x3cb052a6	0.021523785
71	0x3d8cd76a	0.068770245
72	0xbde96158	-0.1139552
73	0x3d0e96f3	0.034811925
74	0x3e41a890	0.18911958
75	0x3e129cb5	0.14317591
76	0xbcca30ab	-0.02468141
77	0x3dc861e9	0.097843
78	0x3e1fcccf	0.15605472
79	0x3d9ea5fa	0.07746501
80	0xba28ab04	-0.0006434175
81	0x3cfa59d4	0.030560412
82	0x3d9cf377	0.07663625
83	0x3dde6ed2	0.10860981
84	0xbd3496d0	-0.04408914
85	0x3cd171f4	0.025567032
86	0x3cad8450	0.021181256
87	0x3da9c8c8	0.08290249
88	0xbd19e8e3	-0.037575614
89	0xbdec58d3	-0.115403794
90	0x3cfa6fda	0.030570913
91	0xbba8d101	-0.0051518683
92	0xbcfdd327	-0.030984474
93	0xbe0a4a81	-0.13504983
94	0x3cf103d2	0.029420767
95	0xbdd1548f	-0.102212064
96	0xbc1139e0	-0.008863896
97	0xbd903899	-0.07042045
98	0xbc513640	-0.012769282
99	0xbd92d623	-0.071697496
100	0x3d0fd42c	0.035114452
101	0xbd6258d4	-0.055260494
102	0xbc535374	-0.012898315
103	0xbdaca719	-0.08430309
104	0xbbe11664	-0.0068691242
105	0xbd0ddc7c	-0.0346341
106	0xbd5fe763	-0.054664027
107	0xbc09ddbf	-0.008414685
108	0x3d23a754	0.0399545
109	0xbdb365e7	-0.08759671
110	0xbd3efc2c	-0.04662721
111	0x3d061a6f	0.032740053
112	0xbc34469f	-0.0110031655
113	0xbdb66a34	-0.089069754
114	0xbde74def	-0.112941615
115	0x3bb468b7	0.005505647
116	0x3dbddf7c	0.09271142
117	0x3d2444b0	0.040104568
118	0x3dd5e6d9	0.10444421
119	0x3e143db2	0.1447666
120	0x3cb2bcb7	0.021818502
121	0x3d8a1506	0.06742291
122	0x3e06412c	0.13110799
123	0x3e2923a5	0.16517504
124	0x3d101e08	0.03518489
125	0x3c945f5c	0.018111877
126	0x3e02c2aa	0.12769571
127	0x3d9d3ec7	0.076779895
128	0x3ce85d47	0.02836479
129	0x3c8d9e6d	0.017287457
130	0x3c4ef575	0.012631764
131	0xbd23409a	-0.03985653
132	0xbd30805a	-0.043091156
133	0xbd0e0c4f	-0.034679707
134	0x3d284ecf	0.041090783
135	0x3dbfc0f2	0.09362973
136	0xbe00237b	-0.12513535
137	0xbdcc0f81	-0.09963895
138	0xbd82a30d	-0.06378756
139	0xbd4daef2	-0.05021567
140	0xbcda2c61	-0.02663249
141	0xbd80522d	-0.06265674
142	0xbe012b5a	-0.12614194
143	0xbdceccb3	-0.10097637
144	0x3adafc48	0.0016707266
145	0x3d0dd6c1	0.034628633
146	0xbb738b89	-0.0037162027
147	0xbc98f293	-0.018670356
148	0xbce4d755	-0.02793471
149	0xbd807dc8	-0.06273991
150	0x3c141bf3	0.009039867
151	0xbd85213a	-0.06500478
152	0xbd6a0366	-0.057132147
153	0x3d3096a8	0.043112427
154	0x3d862cd5	0.0655152
155	0xbccfa724	-0.025348254
156	0x3c2189fd	0.009859559
157	0x3ddc298c	0.10750112
158	0x3e2b8b5d	0.16752382
159	0x3e2fdef6	0.17174897
160	0x3d87cd6a	0.066309765
161	0xbd74dac4	-0.059778944
162	0xbd418183	-0.047242653
163	0xbc1c01e3	-0.009521934
164	0x3e330d5b	0.17485563
165	0x3cb63be5	0.022245357
166	0xbca4622f	-0.020066349
167	0xbe19c064	-0.15014797
168	0x3d9ccd6f	0.07656371
169	0x3cf802ee	0.030274834
170	0x3c4ee6db	0.012628282
171	0xbd498750	-0.04920131
172	0x3d93a8f0	0.07209957
173	0x3d54d4d1	0.05196077
174	0x3d947028	0.072479546
175	0x3c6b9575	0.014378895
176	0x3cb3747f	0.021906136
177	0x3c9bff3d	0.019042606
178	0x3d0084e8	0.03137675
179	0xbc4f0992	-0.012636559
180	0x3c110f6d	0.008853775
181	0x3d44b1e6	0.04802122
182	0x3cf7c4ac	0.030245148
183	0x3d9d3b4b	0.07677325
184	0x3ce1e5dc	0.027575426
185	0x3da333b9	0.0796885
186	0x3d9b00c3	0.07568505
187	0x3c9ed5b6	0.019389015
188	0x3d9e1b65	0.07720069
189	0x3cf0622b	0.029343685
190	0xbd1c480d	-0.03815465
191	0xbbc06697	-0.0058716047
192	0xbd5aafb3	-0.053390216
193	0xbd3a61b0	-0.04550332
194	0xbd99785d	-0.074936606
195	0xbb946502	-0.0045286426
196	0xbd822840	-0.06355333
197	0xbdbfe3f8	-0.093696535
198	0x3c3900ef	0.0112917265
199	0x3d5a8517	0.05334958
200	0xbd8e59b2	-0.06950702
201	0xbc54e6fd	-0.012994525
202	0x3ccebad7	0.025235577
203	0x3a4ed3ff	0.0007889866
204	0x3d5bc603	0.053655636
205	0x3d89de1a	0.06731816
206	0x3d70bd22	0.05877412
207	0xbd1ff922	-0.03905595
208	0xbd169b3e	-0.036769144
209	0xbd547532	-0.05186958
210	0x3d61b046	0.055099748
211	0xbc5e2239	-0.013557964
212	0xbdf82bac	-0.12117705
213	0xbd948a56	-0.07252948
214	0x3c762846	0.01502425
215	0x3dd46891	0.10371507
216	0xbddab2f3	-0.10678663
217	0xbd21f584	-0.039540783
218	0x3d5ad376	0.05342432
219	0x3d3b8bcb	0.045787614
220	0xbccb15db	-0.024790695
221	0x3dcf0567	0.10108452
222	0x3e085a37	0.13315664
223	0xbcdf020d	-0.027222658
224	0x3c802fb0	0.01564774
225	0x3d4c39b1	0.049859706
226	0x3cc363ea	0.023851354
227	0x3d55fdeb	0.05224411
228	0xbba3969b	-0.004992319
229	0xbcaf3af9	-0.021390425
230	0x3afcf231	0.0019298253
231	0x3d9618d8	0.07328957
232	0xbd4b4e87	-0.049635436
233	0xbd8c3055	-0.06845156
234	0xbd6297b1	-0.055320445
235	0x3c86a311	0.016435178
236	0xbda2175c	-0.07914612
237	0xbdd0e076	-0.101990625
238	0x3c2de778	0.0106142685
239	0xbe20d999	-0.15708007
240	0x3cbbf1ca	0.022942442
241	0x3d6f9933	0.05849571
242	0x3d163cd1	0.036679093
243	0x3cdad38a	0.026712198
244	0xbb98c6f3	-0.0046623885
245	0x3aa11478	0.0012289425
246	0x3d2fc03a	0.04290793
247	0x3d1d5438	0.038410395
248	0xbd9504a7	-0.07276278
249	0xbcf06d8d	-0.029349113
250	0x3cd27c74	0.02569411
251	0x3c2fc9ff	0.010729312
252	0xbd13acc5	-0.036053438
253	0x3d616b84	0.055034176
254	0x3d3ef8a8	0.046623856
255	0xbc8ac30d	-0.01693871

6.bias f4 [64]
0	0xbbdd6ac0	-0.0067571104
1	0xbcbb8d5b	-0.022894552
2	0x3c7bc425	0.015366589
3	0x3c1a76c2	0.009427728
4	0xbc9d3933	-0.019192314
5	0x3c46a6f5	0.012124767
6	0x3ca6314d	0.02028718
7	0xbcea7910	-0.02862218
8	0x3cb167bd	0.021655912
9	0x3c56b60e	0.013104929
10	0x3cfb3854	0.030666508
11	0xbcfb819b	-0.03070145
12	0xbccbb672	-0.02486727
13	0xbbb2ff29	-0.0054625464
14	0xbc3cb95b	-0.011518802
15	0xbcd2ba51	-0.025723608
16	0xbc0317b8	-0.00800126
17	0xbc619766	-0.013769006
18	0x3cfa1688	0.030528322
19	0x3ba6019b	0.0050661094
20	0x39a57a18	0.0003156222
21	0x3cc9333c	0.024560563
22	0x3ba857a3	0.0051374002
23	0xbc8be985	-0.017079124
24	0xbcc15581	-0.023600342
25	0x3b874f5a	0.0041293325
26	0xbcb14af6	-0.02164219
27	0x3b421bdb	0.0029618654
28	0xbca4d7e1	-0.02012247
29	0x3cedf5e5	0.029047916
30	0x3c8fcc23	0.017553395
31	0x3cf065ed	0.029345477
32	0x3c413840	0.011793196
33	0xbcd00eec	-0.02539774
34	0x3cb7f68e	0.022456434
35	0xbc8bf331	-0.017083736
36	0xbc2e59c4	-0.010641519
37	0xba0560ae	-0.0005087954
38	0x3adbaac2	0.0016759264
39	0x3c727511	0.014798419
40	0x3b99a2f3	0.0046886145
41	0xbca5e66e	-0.020251479
42	0x3cbc1718	0.02296023
43	0xbc49156d	-0.012273175
44	0xbbbc9c0e	-0.005755908
45	0x3be639bb	0.007025925
46	0x3cedc1dd	0.029023105
47	0x3bce7d12	0.0063015306
48	0x3cbf1f5e	0.023330387
49	0x3b4aacd3	0.0030925765
50	0xba382a06	-0.0007025305
51	0x3c9ff7cd	0.01952734
52	0xbc9409b7	-0.018071039
53	0x3bc95c73	0.006145054
54	0xbc975538	-0.018473253
55	0x3cbe8ffb	0.023262015
56	0xbccf37fa	-0.025295246
57	0xbc5b39fa	-0.013380522
58	0xbcf6dff1	-0.03013608
59	0x3b7e7d08	0.0038831849
60	0x3c8bcdb1	0.017065855
61	0xbab7a193	-0.0014009945
62	0x3c730156	0.0148318615
63	0xbc8d0ba0	-0.017217457

7.odefunc.norm1.weight f4 [65]
0	0x3f8ef80c	1.1169448
1	0x3f8b7d53	1.0897621
2	0x3f5e7513	0.8689739
3	0x3f98037f	1.1876067
4	0x3f42e053	0.7612354
5	0x3f97849e	1.1837347
6	0x3f9bab61	1.2161676
7	0x3f8ad271	1.0845472
8	0x3f8c2516	1.0948818
9	0x3f891bc4	1.0711598
10	0x3f7b49b8	0.9815936
11	0x3f82dfae	1.0224512
12	0x3fa8162b	1.3131765
13	0x3f893d38	1.0721807
14	0x3f393f75	0.7236245
15	0x3f9bf23a	1.2183297
16	0x3f41183a	0.7542759
17	0x3fab44ff	1.3380431
18	0x3fa27ac8	1.269372
19	0x3f388933	0.7208435
20	0x3f4d4c58	0.80194616
21	0x3f9faa8e	1.2473924
22	0x3f89cef9	1.0766288
23	0x3f79836b	0.9746615
24	0x3f45131b	0.7698228
25	0x3f3bee2c	0.73410296
26	0x3f97aca1	1.1849557
27	0x3f55ca93	0.8351223
28	0x3f83cc2c	1.0296683
29	0x3f35b2bd	0.7097586
30	0x3f7b5bd0	0.9818697
31	0x3f89ab75	1.075545
32	0x3f98260d	1.1886612
33	0x3f2a43e0	0.6650982
34	0x3f9baf3f	1.2162856
35	0x3f96912d	1.1763054
36	0x3f87b387	1.0601662
37	0x3f90360c	1.1266494
38	0x3f7f59d9	0.9974647
39	0x3f9241b5	1.1426302
40	0x3f0dd8aa	0.5540873
41	0x3f87a2d8	1.0596571
42	0x3f91ef81	1.1401216
43	0x3f9cbd72	1.2245314
44	0x3f8eec71	1.1165906
45	0x3f973f33	1.1816162
46	0x3f87d33f	1.0611342
47	0x3f98b37f	1.1929778
48	0x3f7a92c3	0.9788019
49	0x3f7cb193	0.98708457
50	0x3f89b884	1.0759435
51	0x3f6b4607	0.9190373
52	0x3f619b30	0.8812742
53	0x3f751691	0.9573756
54	0x3faa30fb	1.3296198
55	0x3f8f6a44	1.1204305
56	0x3f966568	1.1749697
57	0x3f468a4c	0.77554774
58	0x3f77db5a	0.9681908
59	0x3f545fb9	0.8295856
60	0x3f848cde	1.0355489
61	0x3faaa54f	1.3331698
62	0x3f44e568	0.76912546
63	0x3f9a814f	1.2070712
64	0x3f87bfaa	1.0605366

7.odefunc.norm1.bias f4 [65]
0	0xbebcce80	-0.36876297
1	0xbdf8aa0d	-0.121418096
2	0xbf2cf02d	-0.6755398
3	0xbec973b8	-0.393461
4	0xbf053dd2	-0.52047455
5	0xbe10423c	-0.14087766
6	0xbe1901b5	-0.14942057
7	0xbe589664	-0.2115112
8	0xbf2a2a8b	-0.66471165
9	0xbee531f7	-0.44764683
10	0xbeb3a05a	-0.35083276
11	0xbee6b73c	-0.45061672
12	0xbea0c5ab	-0.3140081
13	0xbee17b2a	-0.4403928
14	0xbf294d0d	-0.66133195
15	0xbec82dec	-0.39097536
16	0xbee6b938	-0.45063186
17	0xbe24bee3	-0.16088443
18	0xbe0b6d1e	-0.13615844
19	0xbf0ef19b	-0.5583741
20	0xbece465f	-0.40288064
21	0xbe3a7142	-0.18207267
22	0xbdaa7bb8	-0.08324379
23	0xbf134bd8	-0.57537603
24	0xbedb12f2	-0.42787892
25	0xbec313de	-0.38101095
26	0xbf3d3181	-0.7390366
27	0xbedc050f	-0.4297261
28	0xbf2e2ebe	-0.6804007
29	0xbed7dbf9	-0.42160013
30	0xbeaddaac	-0.33955896
31	0xbea06ef1	-0.31334642
32	0xbee5fd24	-0.44919693
33	0xbec7082e	-0.38873428
34	0xbe4e4c08	-0.20146191
35	0xbe26d2a1	-0.16291286
36	0xbeefd983	-0.46845636
37	0xbe8c7ac1	-0.27437404
38	0xbf3627cf	-0.71154493
39	0xbf44b4a7	-0.76838154
40	0xbefe7ddd	-0.497054
41	0xbdb5ab11	-0.08870519
42	0xbe953092	-0.2913862
43	0xbe2045b1	-0.15651585
44	0xbdc3b596	-0.09556119
45	0xbde9321a	-0.11386509
46	0xbe21fce4	-0.15819126
47	0xbe0bc31d	-0.13648649
48	0xbf4f5aff	-0.80998224
49	0xbf17a936	-0.5924257
50	0xbe79c4db	-0.243915
51	0xbefad9a1	-0.48994163
52	0xbed759d0	-0.4206071
53	0xbef0b95d	-0.4701642
54	0xbe125fc1	-0.1429434
55	0xbe3f00df	-0.18652676
56	0xbe13c51c	-0.1443066
57	0xbee734fa	-0.45157605
58	0xbf0f2557	-0.5591635
59	0xbef3ba76	-0.47603196
60	0xbf27da84	-0.65567803
61	0xbe68a7e0	-0.22720289
62	0xbf158a88	-0.58414507
63	0xbd911578	-0.07084173
64	0xbee040a1	-0.43799308

7.odefunc.conv1._layer.weight f4 [65, 66, 3, 3]
0	0xbba0da4f	-0.004908837
1	0x3ac452e8	0.0014978321
2	0x3cb5200b	0.022110006
3	0x3c07b0cb	0.008281897
4	0x3cfea28b	0.031083366
5	0x3c02f20e	0.007992281
6	0xbd80f68e	-0.062970266
7	0xbd3b8e15	-0.045789797
8	0x3c0dd86c	0.008657556
9	0x3d1264b3	0.035740566
10	0xbd7b32e5	-0.061327834
11	0x3ce03e86	0.027373563
12	0x3cd815a7	0.026377512
13	0x3dcbb9db	0.099475585
14	0x3dcaa028	0.09893829
15	0xbd355632	-0.044271655
16	0xbc64d29a	-0.013966227
17	0xbd5981cc	-0.0531023
18	0x3d38bdfb	0.045103054
19	0x3c0f5b0f	0.008749737
20	0xbdca74f5	-0.09885589
21	0xbd53de74	-0.05172582
22	0xbcf7178b	-0.030162593
23	0xbd4472e6	-0.04796114
24	0x3d138495	0.036015112
25	0x3aac22d9	0.0013132944
26	0xbd126966	-0.035745047
27	0xbc91756b	-0.017756185
28	0xbe918c69	-0.28427437
29	0xbdda26bf	-0.106519215
30	0xbd0d5a87	-0.03451016
31	0x3df918cf	0.12162935
32	0xbe2e3cdb	-0.17015402
33	0x3e4b3c0f	0.1984713
34	0x3d971f30	0.073789954
35	0x3d28ec3a	0.04124091
36	0x3e571ba4	0.21006638
37	0x3bbf040a	0.005829339
38	0xbcd721b0	-0.02626118
39	0xbde2f526	-0.110819146
40	0xbe5d9a2c	-0.21640843
41	0xbdb4994a	-0.088183
42	0xbdf83d84	-0.12121108
43	0xbd3738d0	-0.044731915
44	0xbd9169aa	-0.07100232
45	0x3daa8acb	0.08327254
46	0x3db1b68a	0.08677395
47	0xbd818991	-0.06325067
48	0xbdcbc528	-0.09949714
49	0xbe708984	-0.23489958
50	0xbe3b0148	-0.18262208
51	0xbc88d500	-0.016703129
52	0xbd282706	-0.04105284
53	0xbd06d9e0	-0.032922626
54	0xbda35a34	-0.07976189
55	0xbe968fce	-0.2940659
56	0xbe288e00	-0.16460419
57	0xbdd3073a	-0.10304113
58	0xbd5c00bc	-0.053711638
59	0x3e079bf7	0.1324309
60	0x3d17452a	0.036931194
61	0x3e31d553	0.17366533
62	0x3b0d31ec	0.0021544648
63	0xbc89cfef	-0.016822783
64	0x3b4e952d	0.003152202
65	0x3e166c10	0.1468966
66	0xbd50e9ea	-0.051004328
67	0x3dd04b9a	0.1017067
68	0xbd76c203	-0.060243618
69	0xbd8091c8	-0.062778056
70	0x3b272754	0.002550562
71	0x3d779f10	0.06045443
72	0x3bc6028c	0.006042784
73	0x3d016372	0.03158898
74	0x3dab9e61	0.08379818
75	0x3ac0ceb8	0.0014710044
76	0x389e5c9d	7.551278e-05
77	0xbe2380eb	-0.15967147
78	0x3d324540	0.043523073
79	0xbe04aecc	-0.12957305
80	0xbe86b01d	-0.2630624
81	0xbe082564	-0.13295513
82	0xbe71c2d8	-0.23609483
83	0xbdfd3498	-0.12363547
84	0xbe7a962a	-0.24471346
85	0xbe34562e	-0.17611
86	0xbda1e194	-0.07904354
87	0x3d8affcc	0.06787071
88	0x3dd9468c	0.10609159
89	0x3d72ffca	0.05932597
90	0x3d1e39ee	0.038629465
91	0xbd00578f	-0.031333502
92	0xbcd46d0c	-0.025930904
93	0xbd9efcba	-0.077630475
94	0x3d8ee17d	0.06976602
95	0xbdc18885	-0.09449867
96	0x3c904e58	0.017615482
97	0x3c3b12c7	0.011418051
98	0xbdd5f83e	-0.10447739
99	0xbcb7b65b	-0.022425821
100	0xbd7720c8	-0.060333997
101	0xbc8cfa73	-0.017209267
102	0x3de4fc9a	0.111809924
103	0xbdc21cbf	-0.09478139
104	0x3d32234d	0.043490697
105	0x3e08d61b	0.13362925
106	0xbccce2c3	-0.025010472
107	0xbc184fae	-0.009296341
108	0xbce7a251	-0.02827564
109	0xbd3f9fd6	-0.04678329
110	0xbdcbf06b	-0.099579655
111	0x3c88279a	0.016620446
112	0xbd1e4e92	-0.03864915
113	0xbc59a3a8	-0.013283648
114	0x3d96461c	0.07337591
115	0xbd909ea6	-0.0706151
116	0x3d919dc7	0.07110172
117	0xbe1d813e	-0.15381333
118	0xbccbb481	-0.024866344
119	0x3dc524ad	0.09626136
120	0xbd4fecb2	-0.05076284
121	0x3e1bfd83	0.15233426
122	0x3e4c2436	0.19935688
123	0xbc2075c8	-0.009793706
124	0xbbbd313a	-0.0057736905
125	0xbdcf153c	-0.10111472
126	0x3d4b78f0	0.04967588
127	0x3e2b77d0	0.16744924
128	0x3d347382	0.04405547
129	0xbe015a82	-0.12632182
130	0x3e943e65	0.28953853
131	0x3d8b2fe3	0.06796243
132	0x3dc10c89	0.09426219
133	0xbc569f68	-0.013099529
134	0xbd8ca8da	-0.068681434
135	0xbde410fb	-0.11136051
136	0xbc6d6309	-0.014488944
137	0x3dda63ff	0.10663604
138	0x3db166e9	0.08662207
139	0xbdaf1645	-0.085491695
140	0xbe67dc2c	-0.22642583
141	0x3e29a9b0	0.16568637
142	0x3d03593a	0.032067515
143	0xbdd59384	-0.10428527
144	0xbe73ddba	-0.2381505
145	0xbe74e8a6	-0.23916873
146	0xbe776785	-0.24160583
147	0xbe59be3a	-0.21263972
148	0xbe2dee42	-0.1698542
149	0x3d9701aa	0.07373364
150	0xbe40bf6b	-0.1882302
151	0xbd965238	-0.07339901
152	0x3e639744	0.22225672
153	0x3bdd7cd5	0.006759266
154	0x3c5bc805	0.013414388
155	0x3b96d448	0.0046029426
156	0xbc8f293c	-0.017475717
157	0xbe0529c8	-0.1300422
158	0x3d3ac595	0.045598585
159	0x3c2d523a	0.010578686
160	0xbb32c3a4	-0.0027277255
161	0xbd1853ff	-0.03718948
162	0x3db4c297	0.088261776
163	0x3e011835	0.1260689
164	0xbd037b2f	-0.0320999
165	0x3e318ee3	0.17339663
166	0xbd56f1aa	-0.052476563
167	0xbe455f3a	-0.19274607
168	0x3dc44cb3	0.09584942
169	0x3d535da1	0.051602963
170	0x3ddf3d97	0.10900419
171	0xbdd6bc22	-0.10485102
172	0xbdfcbdab	-0.12340864
173	0xbe1628b2	-0.14663962
174	0x3cc56f19	0.024100827
175	0x3d052723	0.032508027
176	0x3e1f3a82	0.15549663
177	0x3c8dd3b7	0.017312868
178	0x3dcec259	0.100956626
179	0xbca2959a	-0.019846726
180	0xbde76ceb	-0.11300071
181	0xbdc85410	-0.09781659
182	0x3bec1ab8	0.0072053336
183	0xbe5de97f	-0.21671103
184	0xbda0a5a7	-0.07844096
185	0x3c6cdbeb	0.014456729
186	0x3dcd6698	0.10029334
187	0x3c35646f	0.0110713085
188	0xbd8d67d0	-0.06904566
189	0x3d1cf933	0.038323592
190	0xbda35180	-0.07974529
191	0xbe165cbe	-0.14683816
192	0xbe46eedb	-0.19427054
193	0xbe25acc2	-0.16179183
194	0xbdbdd9be	-0.09270047
195	0xbdd0e3d6	-0.10199706
196	0x3d5b4238	0.053529948
197	0x3d973eca	0.07385023
198	0xbd58c5ea	-0.05292312
199	0xbc9528f6	-0.018208008
200	0xbde0dd84	-0.10979751
201	0xbb00d22e	-0.0019656527
202	0x3d749675	0.0597138
203	0x3cf1c1c0	0.029511333
204	0x3dfe8130	0.12426984
205	0x3e221cb3	0.1583126
206	0x3d01d427	0.031696465
207	0xbdce22ff	-0.10065269
208	0x3de8abe7	0.11360913
209	0x3e218610	0.15773797
210	0x3dedf9bf	0.11619901
211	0x3ddcf81a	0.10789509
212	0x3cc76150	0.024338394
213	0x3d452b09	0.048136745
214	0x3dafe70c	0.085889906
215	0xbd317307	-0.04332259
216	0xbd8958bb	-0.06706377
217	0xbe148920	-0.14505434
218	0xbdcac673	-0.099011324
219	0x3e1c68e0	0.15274382
220	0xbca02735	-0.019549945
221	0x3dacdd40	0.084406376
222	0xbdeb4ae3	-0.11488893
223	0x3d164ea2	0.036696084
224	0xbcd85be2	-0.026411
225	0x3d92fb46	0.07176833
226	0xbdfecf71	-0.1244191
227	0xbdc7e144	-0.09759763
228	0xbddbdb57	-0.10735195
229	0xbe226ddb	-0.15862219
230	0xbd8cf2dc	-0.06882259
231	0xbe25436b	-0.16138999
232	0xbd647de3	-0.055784117
233	0xbde7ba0e	-0.11314784
234	0xbd92436f	-0.07141768
235	0xbc269595	-0.010167499
236	0xbd2e8315	-0.04260548
237	0x3e0933b5	0.13398631
238	0x3d0bdf7c	0.03414868
239	0x3c494d66	0.01228652
240	0x3d3f9f51	0.046782795
241	0xbe9bc40b	-0.30423006
242	0xbe227a6f	-0.15867017
243	0xbda1c82a	-0.078995064
244	0xbe1f3bb0	-0.15550113
245	0xbd93bbea	-0.07213576
246	0x3e325994	0.17416984
247	0x3e827e64	0.25487053
248	0x3dc12432	0.09430732
249	0x3bd10776	0.0063790632
250	0x3e008b52	0.12553146
251	0x3d0c4004	0.034240738
252	0x3d508a89	0.050913367
253	0xbe159db8	-0.14610946
254	0x3dd6ce79	0.104886
255	0xbd251516	-0.040303312

7.odefunc.conv1._layer.bias f4 [65]
0	0x3cb187aa	0.021671135
1	0x3c9b98e1	0.018993797
2	0x3d07af2d	0.033126045
3	0x3c24ab3f	0.010050594
4	0xbc963c9d	-0.01833945
5	0x3cd53d09	0.02603008
6	0xbc755282	-0.014973285
7	0x3cb60ef3	0.022223925
8	0xbc124883	-0.008928421
9	0x3d21a2b6	0.039461814
10	0x3c74f3da	0.014950717
11	0xbcf689cc	-0.030095004
12	0x3cf65272	0.03006861
13	0x3d1c2f0b	0.0381308
14	0x3d1ca920	0.038247228
15	0x3c61d11e	0.013782768
16	0xbcc35f43	-0.023849135
17	0xbcb73e89	-0.022368686
18	0xbb8d337f	-0.0043091173
19	0xbd239a32	-0.039941974
20	0xbbda5e00	-0.0066640377
21	0x3cd92f12	0.026511703
22	0x3c4a5d25	0.012351309
23	0xbd1d6958	-0.03843054
24	0xbc75cb2e	-0.015002055
25	0xbc8d0535	-0.017214397
26	0x3d10d2e5	0.035357375
27	0x3bd6ae2d	0.006551525
28	0xbd0db8e3	-0.03460015
29	0x3a3f86ed	0.0007306177
30	0xbbbbc8b9	-0.005730715
31	0x3bc6a417	0.0060620415
32	0x3bc89388	0.0061211027
33	0xbc63ebc4	-0.013911191
34	0xbc06711e	-0.00820568
35	0xbd19cf9a	-0.0375515
36	0x3cd58515	0.026064435
37	0x3c1070e3	0.008815977
38	0xbc96be96	-0.018401425
39	0x3bb848a9	0.005623896
40	0xbca111b8	-0.01966177
41	0x3cdafc7b	0.02673172
42	0xb9bed586	-0.0003639871
43	0xbcea0f7b	-0.028571835
44	0xbcce1cc4	-0.0251602
45	0x3cd82702	0.026385788
46	0xbd1a1efa	-0.037627198
47	0xba190213	-0.0005836796
48	0xbc49bb1e	-0.012312679
49	0x3ba8f461	0.0051560854
50	0x3cb58e5a	0.022162605
51	0x3c9a368c	0.018824838
52	0xbc3a0665	-0.011354064
53	0x3cae68f5	0.021290282
54	0xbcb08f96	-0.021552842
55	0xbd06ab27	-0.032878067
56	0x3d162f75	0.036666352
57	0x3b421e60	0.0029620156
58	0xbbfe0ad0	-0.007752754
59	0x3ce502d1	0.027955445
60	0xbb91315d	-0.0044309334
61	0x3c3a008c	0.011352669
62	0x3cfc2984	0.030781515
63	0x3c85be20	0.01632601
64	0x3c2f2630	0.010690257

7.odefunc.norm2.weight f4 [65]
0	0x3f905315	1.1275355
1	0x3f7e12a6	0.99247205
2	0x3f862af4	1.0481858
3	0x3f896fe7	1.0737275
4	0x3f69e221	0.9136067
5	0x3f5183b5	0.81841594
6	0x3f5f2a1c	0.8717363
7	0x3f6cf3d5	0.9255956
8	0x3f5188c9	0.8184934
9	0x3f69167b	0.9104993
10	0x3f5bdbc0	0.85882187
11	0x3f8c6b2b	1.0970205
12	0x3f335ab9	0.70060307
13	0x3f66f8e4	0.90223527
14	0x3f90e23e	1.1319044
15	0x3f81c6cd	1.0138794
16	0x3f6a86cb	0.9161193
17	0x3f68a01e	0.9086932
18	0x3f6f84c1	0.9356194
19	0x3f6b8241	0.91995627
20	0x3f537553	0.826009
21	0x3f683077	0.9069895
22	0x3f8da583	1.1066135
23	0x3f722f71	0.9460364
24	0x3f562c43	0.8366129
25	0x3f6db628	0.92856073
26	0x3f6fe626	0.93710554
27	0x3f5adcf3	0.8549339
28	0x3f836204	1.0264287
29	0x3f80a420	1.0050087
30	0x3f522370	0.82085323
31	0x3f51ae20	0.8190632
32	0x3f8ac422	1.0841105
33	0x3f816c37	1.011115
34	0x3f798076	0.9746164
35	0x3f61e05e	0.8823298
36	0x3f66bfeb	0.90136594
37	0x3f3f3f76	0.7470621
38	0x3f84527c	1.0337672
39	0x3f63ab45	0.8893321
40	0x3f6803f9	0.9063106
41	0x3f86ca13	1.0530418
42	0x3f4eac5c	0.8073175
43	0x3f763b9e	0.9618472
44	0x3f756583	0.9585802
45	0x3f6391e5	0.8889449
46	0x3f94b59d	1.1617924
47	0x3f45313e	0.7702826
48	0x3f588521	0.8457814
49	0x3f5aec11	0.8551646
50	0x3f501ec2	0.8129693
51	0x3f4ed317	0.8079085
52	0x3f71c6a3	0.9444372
53	0x3f851ce5	1.0399443
54	0x3f713c27	0.9423241
55	0x3f6f60e9	0.9350725
56	0x3f8b8a21	1.0901529
57	0x3f4d23f3	0.8013298
58	0x3f566c75	0.8375924
59	0x3f85e8f3	1.0461715
60	0x3f5d83c7	0.865292
61	0x3f65c8cf	0.89759535
62	0x3f864f40	1.0492935
63	0x3f6226b0	0.8834028
64	0x3f478e0f	0.7795114

7.odefunc.norm2.bias f4 [65]
0	0xbf1adf5e	-0.6049708
1	0xbeb6e725	-0.35723224
2	0xbf257550	-0.6463213
3	0xbee89110	-0.45423174
4	0xbf523e62	-0.8212644
5	0xbf1d6228	-0.614779
6	0xbef4c0cc	-0.47803342
7	0xbf443ae3	-0.76652354
8	0xbf1ae8f2	-0.60511696
9	0xbf3c1353	-0.73466986
10	0xbf22ab3f	-0.6354255
11	0xbf1e1338	-0.61748075
12	0xbf2089ca	-0.6271025
13	0xbf6359b6	-0.88808763
14	0xbf178750	-0.59190845
15	0xbf117207	-0.56814617
16	0xbf163807	-0.5867924
17	0xbf0c1121	-0.54713637
18	0xbf1f8582	-0.6231309
19	0xbf115c21	-0.567812
20	0xbf1cdadd	-0.6127146
21	0xbf3b00d5	-0.73048145
22	0xbf42ab9c	-0.76043105
23	0xbf1d3f38	-0.6142459
24	0xbf1bc3c8	-0.60845613
25	0xbf34f5f9	-0.70687824
26	0xbedcc653	-0.4312006
27	0xbf0d9770	-0.553092
28	0xbf17b980	-0.59267426
29	0xbf4aa5de	-0.79159343
30	0xbf45fdef	-0.77340597
31	0xbf31bc4a	-0.6942793
32	0xbef569e5	-0.47932354
33	0xbed1dcb6	-0.40988702
34	0xbf1bf3d9	-0.60918957
35	0xbf2cdd10	-0.67524815
36	0xbf38d0e8	-0.72193766
37	0xbf0641ed	-0.52444345
38	0xbf062df6	-0.5241388
39	0xbf01ac72	-0.50653756
40	0xbef8d528	-0.48600125
41	0xbf00cb20	-0.50309944
42	0xbf06a53b	-0.5259587
43	0xbf268a7e	-0.6505507
44	0xbf1d6e52	-0.6149646
45	0xbf3e92d8	-0.74442816
46	0xbf271953	-0.65273017
47	0xbf01569f	-0.505228
48	0xbf2d2495	-0.67633945
49	0xbf0f4f7c	-0.5598066
50	0xbf30c361	-0.69048125
51	0xbf05fcfe	-0.5233916
52	0xbf0be292	-0.54642594
53	0xbf0764fb	-0.5288846
54	0xbf2f7a22	-0.68545735
55	0xbf245c8a	-0.64203703
56	0xbef92575	-0.4866139
57	0xbf5c4120	-0.8603687
58	0xbf03b4a4	-0.5144751
59	0xbf348a5d	-0.70523626
60	0xbefda8a9	-0.4954274
61	0xbf249c9e	-0.6430148
62	0xbee93290	-0.4554639
63	0xbf441562	-0.7659513
64	0xbf3ced33	-0.7379944
