experiment_anode10_cifar_v3/model.pth (torch_old, 942623 bytes, 24 tensors)

0.weight f4 [64, 3, 3, 3]
00000000: 6119 f93c 57ba 1abe df17 32bd 09e1 8d3e
00000010: d780 9c3e 02c4 9e3d 5b7e 0f3f c04e 0c3f
00000020: 8c4f e33e 5770 87be a6ec 04bf 8392 16bf
00000030: 23c9 87be 1e1d 86be 36ff 57be 7155 413e
00000040: 7b34 a13e 0489 893d 29ca d3bd 3f60 ec3d
00000050: 8a33 0cbd b0de 8a3e 4140 053e dd07 6fbd
00000060: 52f3 ce3e 4db5 4e3e 638a 853e 957f 9d3d
00000070: 97e3 aa3e eda9 b23d f7f6 f73e 92e5 183f
00000080: c6f8 b1bc 97db 393f f94c c53e e5b7 4d3e
00000090: cd7d 26bf 3f33 c5be 5f5f 1abf 749e 65be
000000a0: 2a03 65be 66bb 04bf d98a dbbd 8adb 78bd
000000b0: 757a debd 5545 763c 000b a73e 6d42 e63d
000000c0: 6693 253f d14d 1c3f 7a1e 5a3e 9ba2 433f
000000d0: 9fa3 363f 4858 ab3e b0a0 b93e 0ee0 4dbe
000000e0: 51cb 553f 45bd 213f 4e3c 06bf 076d 8abe
000000f0: cf86 523f b2d8 bbbe 79f1 4abf 39b7 afbe
00000100: edc0 9bbf adc9 f4be 430f 463f 3bac 89bf
00000110: dc17 38bf 1d63 833f f5b3 dbbe d724 90bf
00000120: ce25 17bf 8da9 58bf 7ff4 db3d f1bf f83e
00000130: dd26 37bf c2ee 71be 2393 dc3e d3dd e5be
00000140: a9b7 dfbe 85b5 abbd 7de6 f0be 5473 9c3e
00000150: d8e2 b8bf a448 80be 3a85 b13f aa12 49bf
00000160: d519 913d c5b6 a23f c14d 34bf 33fb 02bf
00000170: 243d d83e 0d08 adbf 8878 bebe 5ac5 c23f
00000180: ae0c 3cbf e7eb 623d ac5e ac3f 251a 60bf
00000190: 5153 16bf b5c4 5e3e c2c8 a8bf 2277 22be
000001a0: 6ae1 cc3f 5dc4 fbbe 0f3b e83e 5533 e73f
000001b0: 2300 143f 7ee2 c53e bf27 073f d735 083f
000001c0: 63d4 093e ed45 e43d 0145 b43e 3463 e23d
000001d0: caf5 163d d02d 0c3e c591 9b3d 44ff 963d
000001e0: 8f86 d73e 952f 3a3e 6f77 723e ab58 053e
000001f0: ba1c 203e db8d f1bc 8117 163d fba4 963c
00000200: db4d f33d 534c d93e e84e 9d3d 77ce 393e
00000210: 9dec bf3e 5d24 0f3e 072f 7f3e bf54 33be
00000220: 9c27 0dbf 9e25 bdbe fe00 803e 2759 863e
00000230: 4861 03be a34d 173f 2f62 853f 25c1 4f3f
00000240: c538 0eba 560a e2bd 5040 4bbe 4471 003d
00000250: 64ec 603d 82a6 70bd 52b4 013e 4fd6 e13e
00000260: 0c97 a53e 538a 203f 7638 d43e cd37 873e
00000270: 8615 4c3e 336f b9bd ced7 28be 323b 90bd
00000280: 1204 dd3d 627e 41be 69a7 f7bf 57a6 5fbf
00000290: 5983 86bf 34f3 dcbf 974a 23bf c83f 6ebf
000002a0: 8258 04c0 dfbc 9fbf 3ff0 c7bf 6689 87bf
000002b0: d865 1b3f dc39 703e 1de0 14bf 58b5 993f
000002c0: 6789 383f 4b81 6fbf b2b4 4fbc ec61 f3be
000002d0: 6524 163f 7fc0 db3f 1099 e73f 47bc 8b3f
000002e0: 1fd2 1f40 74b2 f03f 9f32 053f be4b 9d3f
000002f0: 7ec8 2d3f 5a47 913e 8612 cf3e 709f 023f
00000300: 36df 2b3f ea12 183f 63b7 0e3f d132 1c3f
00000310: 3536 cd3e ed4c b23e 0417 84be bc5d c1be
00000320: c490 d2be f040 dcbd 3364 1cbe 9780 23be
00000330: 94e9 24be 1830 dfbe 736d 7bbe 48b0 563c
00000340: 3dd1 ffbc 1511 05be 2af3 e23c 89cf 25be
00000350: f9b3 00bd 1373 6b3e 3488 d9bd d6ef 70be
00000360: 057a 0f3f c18f d13e eb88 e4bc 313e 003f
00000370: 4227 253f 4e5d 9f3e 9f46 c83e 21b1 173f
00000380: 6d98 103e c3a7 38bf bf8d 81bf 49a6 37bf
00000390: a692 1cbf 8db8 03bf f3a7 22bf a35b acbe
000003a0: e6cb dabe 8265 97be a82f d03e bc4e bd3d
000003b0: 31d7 953e 3932 213f b330 1c3f 65a9 113f
000003c0: 0e3e c03e 4595 293f 6731 373f 222e ec3e
000003d0: 6a52 393f f322 3b3f bb4f 273f 249b 613f
000003e0: 3723 923f 7174 093f 544a 2e3f 2560 293f
000003f0: ae73 2cbe 4737 3f3d 3ac2 943e bdeb 15be
0.03040761 -0.15110146 -0.043479796 0.2771075 0.30567047 0.07752229 0.5605218 0.5480766
0.44396627 -0.26452896 -0.51923597 -0.5881731 -0.26520643 -0.2619409 -0.21093449 0.1888025
0.31485352 0.06715587 -0.10341293 0.11541795 -0.03422884 0.27123022 0.13012792 -0.05835711
0.40420014 0.20186348 0.26082143 0.0769035 0.33376762 0.08723817 0.48430607 0.59725296
-0.02172507 0.7260069 0.38535288 0.20089681 -0.65035707 -0.3851566 -0.60301775 -0.22423726
-0.22364488 -0.5184845 -0.107198425 -0.060756244 -0.108632006 0.0150311785 0.3262558 0.112431385
0.6467804 0.6105624 0.21300688 0.7641999 0.71343416 0.3346579 0.36255407 -0.20105001
0.8351336 0.6317943 -0.5243577 -0.27036306 0.8223695 -0.36688763 -0.7927471 -0.34319475
-1.2168251 -0.47810116 0.7736704 -1.0755686 -0.71911407 1.0264622 -0.42910734 -1.1261243
-0.5904206 -0.84633714 0.10739993 0.4858394 -0.71543676 -0.23626235 0.43081006 -0.448958
-0.4369481 -0.083842315 -0.4705085 0.30556738 -1.4444227 -0.2505542 1.3868783 -0.78544104
0.07085005 1.2712027 -0.70431143 -0.5116455 0.42234147 -1.3518082 -0.37201333 1.5216477
-0.7345685 0.055400755 1.3466392 -0.87539893 -0.5872088 0.21754725 -1.3186266 -0.15865758
1.6006291 -0.4917325 0.45357558 1.806254 0.5781271 0.38649362 0.5279502 0.53207153
0.13459925 0.1114615 0.35208896 0.11054078 0.036855496 0.13689351 0.07596163 0.07372907
0.42094848 0.18182214 0.23678373 0.13022105 0.15635958 -0.029486587 0.03664351 0.018389216
0.11880084 0.42441043 0.07681066 0.18145166 0.3748521 0.13978715 0.24920283 -0.17512797
-0.55138564 -0.36942762 0.25000757 0.26239893 -0.12830079 0.5910284 1.0420588 0.8115409
-0.00054253294 -0.11037128 -0.19848752 0.03135802 0.05491294 -0.058752544 0.12666443 0.44108817
0.32341802 0.62711066 0.41449326 0.2640976 0.19930086 -0.09054413 -0.16488573 -0.070425406
0.10791792 -0.18895867 -1.9347965 -0.8736319 -1.0508834 -1.726172 -0.6378569 -0.9306607
-2.067902 -1.2479514 -1.5620192 -1.0588806 0.60702276 0.23459572 -0.5815447 1.2008467
0.7208466 -0.9355666 -0.012677358 -0.47535646 0.58649284 1.716812 1.8093586 1.0916833
2.4971998 1.880446 0.52030367 1.228874 0.6788405 0.2837475 0.4044382 0.5102453
0.6713747 0.5940386 0.55748576 0.6101504 0.4008042 0.34824315 -0.2579881 -0.37766826
-0.41126072 -0.10754573 -0.15272598 -0.15967022 -0.16104728 -0.4359138 -0.2455347 0.013103552
-0.031227702 -0.12994798 0.02770384 -0.1619245 -0.031421635 0.22993116 -0.10621682 -0.2352899
0.5604556 0.40929988 -0.027897319 0.50094897 0.6451303 0.31125873 0.3911638 0.5925465
0.14120646 -0.72130984 -1.0121382 -0.71738106 -0.6116127 -0.5145348 -0.6353752 -0.33663663
-0.42733687 -0.29569632 0.4066136 0.09243533 0.2926574 0.6296726 0.6101181 0.568991
0.37547344 0.6624339 0.71559757 0.46128947 0.7239138 0.73100203 0.65356034 0.8812735
1.1416997 0.536933 0.68082166 0.6616233 -0.16841003 0.046683576 0.29054433 -0.14640708

0.bias f4 [64]
00000000: 4df7 23be ddfa f8bc 448f e7bc da10 753d
00000010: cf3a 173e a0ac 34bc 240e 10be 02a9 e9bd
00000020: 4e27 2fbe bfe2 0ebd 5f26 a93d 2141 c83c
00000030: 29d3 053c 82ee 32be ae28 f43d 6639 58bd
00000040: b72d 5bbd 12ca 393c 811c 35be 9adb d0bd
00000050: edd9 3e3e 26e7 40be 714a 4c3d d286 593d
00000060: 237f 38be a712 1abe afc3 613d 022c 0bbe
00000070: 2bc9 31bd 7238 f7bd 8ae1 083d 1634 383e
00000080: c422 c5bd ce0d 223e da3c 3fbe 2be1 fe3d
00000090: c15e d93d e3d0 d7bd 8a15 3ebd 0ef9 493c
000000a0: 661a ce3c 3e79 f9bd 4c5a 583d 57de 84bd
000000b0: 8f67 1d3e c6f9 09bd 3c99 803d 31b6 ec3c
000000c0: ad71 ed3c 2fee b93d 477f f2bd a0c7 123c
000000d0: 5123 2d3e 3a27 aa3d cda6 443e b467 e8bd
000000e0: 74ec e73d a960 febd 750b 433e 69f2 f0bd
000000f0: 3ba7 293e a0c0 e43d d52b 663d 7243 8d3a
-0.16012307 -0.030393058 -0.028266557 0.059830524 0.14768527 -0.011027485 -0.14067894 -0.11409189
-0.17104837 -0.03488421 0.08259272 0.024445118 0.00816802 -0.17473796 0.119218215 -0.052789114
-0.053510394 0.011339681 -0.17686655 -0.10198136 0.1863782 -0.18838176 0.04987568 0.05310709
-0.18017249 -0.15046178 0.05511826 -0.13591006 -0.04340474 -0.12071313 0.033418216 0.17988619
-0.09625772 0.15825579 -0.18675557 0.12445291 0.10613776 -0.10537889 -0.04640726 0.012327446
0.025159072 -0.12181328 0.05282049 -0.064877205 0.15371536 -0.033685468 0.06279227 0.02889547
0.028984869 0.09078633 -0.118406825 0.008958727 0.16908003 0.08308263 0.19204254 -0.11347905
0.11324397 -0.1242078 0.1904734 -0.11764986 0.165677 0.11169553 0.056194145 0.0010777547

1.weight f4 [64]
00000000: 9242 833f 8035 b13f 3fe0 4c40 d478 1b40
00000010: 569d 573f 6970 b63f bc24 c93f 302c a13f
00000020: 98a6 293d 7adc f23d d21b c83f 172d f43e
00000030: 2c65 e43f 8f6f 0340 f99d 3340 8937 4a3f
00000040: b2eb 5b3f 9662 bb3f be65 bc3f d557 d53f
00000050: 2156 1140 9621 103f 3f98 5040 70c2 d53f
00000060: 4a01 1940 9f80 c93f ef2b 5d3f ea95 173f
00000070: 1252 c43f c02f 2f40 4b18 823f 57c0 c33f
00000080: 5e91 f53f d00d 1d40 0cc8 0c40 fd3c 233f
00000090: 3354 173f 0ba2 e13f 6e38 863f babb 0640
000000a0: 7426 0840 44cb 2c40 1690 2740 a46b f43f
000000b0: 776d 0440 ef6d 4f3f 763e 613f 5199 8b3f
000000c0: fdb2 ae3f f0d2 553f 5775 d13f 628a 3140
000000d0: 14bf 3f40 1d4c 7540 8525 603f 7d45 9c40
000000e0: c890 063f f263 e73f bdfd cf3f 1e94 e93f
000000f0: 4277 983f a5dc da3e 62a7 e63e a1f4 c13f
1.0254691 1.3844452 3.201187 2.4292498 0.8422445 1.4253055 1.5714335 1.259161
0.04141864 0.11858459 1.563349 0.4769065 1.7843375 2.053684 2.806517 0.7899099
0.8590652 1.4639461 1.4718549 1.6667429 2.270882 0.5630125 3.2592924 1.6699963
2.3907037 1.5742377 0.8639516 0.59213126 1.5337546 2.7372894 1.0163664 1.5293072
1.9184988 2.453968 2.19971 0.63764936 0.5911285 1.7627577 1.0485971 2.105208
2.127347 2.6999063 2.6181693 1.9095349 2.0691812 0.8102712 0.8798593 1.0906163
1.3648373 0.8352499 1.6363934 2.7740712 2.9960375 3.8327706 0.8755725 4.8834825
0.5256467 1.8077376 1.624931 1.8248327 1.1911395 0.42746463 0.45049578 1.515278

1.bias f4 [64]
00000000: f57a 8dbe 630c 74bf a59c 50bf 0fcc 6abd
00000010: 3205 26bf 51d1 06bf 6d2d c43f 586b 6e3e
00000020: 3bfe 3fbf 540d 04bf 096e 093f 8492 c6be
00000030: a877 ac3c dd06 ffbb 06a4 aebb e1fe b53d
00000040: 4bba 88bf 8cc0 c6be 186e b9bd bce1 27bf
00000050: 0359 ccbe e800 6ebf 5cf5 4940 6692 ea3e
00000060: 7dcd 47bf 7b80 79bc 599c ca3e 79e5 56bf
00000070: d99a 0dbf 8dad 15bf d957 4abf f54d bb3d
00000080: 83b0 21c0 6d19 153e 13fd 8abe b385 2bbf
00000090: b923 4dbf 357c 0b40 4ab1 54be 5a32 53bf
000000a0: 7885 f5be 3c5d 2940 ff30 2b40 8fc4 923f
000000b0: 65b9 9a3f 4b05 3fbf 5ac9 a6bf 2b99 0140
000000c0: 0e81 853e 8b30 a2bf 2efe f4bf 3c13 cbbe
000000d0: 3585 5dbf 758b 71be 3652 87bf 73c3 c5be
000000e0: 52ba 76bf 02ac c2bf 155f 373f bd4f b43e
000000f0: 73a0 0640 125d 76bf 9239 07be eb96 c83e
-0.2763287 -0.953314 -0.8148902 -0.05732351 -0.6485168 -0.5266314 1.5326363 0.23283136
-0.749973 -0.5158284 0.53683525 -0.38783658 0.02105315 -0.0077828006 -0.0053296117 0.08886505
-1.0681852 -0.38818777 -0.09054202 -0.6557882 -0.3991166 -0.9297013 3.1556005 0.45814818
-0.78047925 -0.015228386 0.3957241 -0.839439 -0.55314404 -0.5846794 -0.79040295 0.091457285
-2.5263984 0.1456048 -0.27146205 -0.67000884 -0.80132633 2.179456 -0.20770755 -0.82498705
-0.4795339 2.6463156 2.6748655 1.1466235 1.2087828 -0.7461745 -1.3030198 2.0249736
0.26075023 -1.2671064 -1.914007 -0.39663112 -0.8653138 -0.23588355 -1.0571964 -0.38625678
-0.9637805 -1.5208743 0.7162946 0.35217085 2.103543 -0.96235764 -0.13205555 0.3917764

3.weight f4 [64, 64, 4, 4]
00000000: 51c9 53bd f450 7f3b f463 70bd dbaf 87bd
00000010: c4a2 ebbd fddf 67bd 956f 8ebd a43e 9dbd
00000020: 42b6 64bd 7608 78bd a167 1fbd 5ff2 a3bd
00000030: 3b9f a7bd b34f ae3b 22c7 1b3d d0b0 1e3d
00000040: 833c 44bd 41df 59bd 4454 c8bd 093e 88bd
00000050: dcec 19be e514 01be 3d59 67bd 7dda 7abd
00000060: eff9 6dbe ab1f 3fbe 0bef acbd eac5 0abe
00000070: 68a4 d3bd 06a5 ffbd f742 3fbd 5068 a9bd
00000080: 4b67 b43d 4a23 0e3e d216 b63d dd11 273e
00000090: 25ba 4d3d b07e 0dbd b808 84bc 85e4 043d
000000a0: a8ee a63d 416e dabc cdb0 4bbd b0c7 ab3c
000000b0: 7fdb 4bbc 9784 a7bd 2eb5 f8bd 7d37 f8bd
000000c0: 9ea1 1bbe 1173 f4bc 1929 48bd 74f1 83bd
000000d0: d8c4 3cbd 16bb 753d cccf 52bd 2d05 9bbd
000000e0: 9cb4 953c 9cd4 413e 2bb0 903d cd81 dcbc
000000f0: 2eff 663d 2b07 773e 96ac 143e 50fb 823d
00000100: a663 8dbd 2462 3e3c 086f 323b 2daa cabc
00000110: 90b8 c5bd 5d51 4ebc 8cca 83bc 97fc 0abc
00000120: 9ca8 f8bd 4aa8 aabd 8ca9 70bd 96bf 10bd
00000130: 4c36 f4bd 5811 96bd 5559 26bd 821b 11bc
00000140: 7a7a 55bd 92f8 353c 0196 b23c 8862 223c
00000150: 5b1c 28be 2925 67bd b5c3 bbbc 7125 aebd
00000160: 65de 0ebe 7671 8ebd 2cbb 3bbc 7423 58bd
00000170: d53e aabd b5b0 8dbc 7a36 843d abd7 aa3d
00000180: 88a9 60bd 6c6b 90bd 144b 71bd 6cc2 b3bd
00000190: 0b90 1cbd b573 97bd 98d2 26bd a894 e3bd
000001a0: 3207 bcbd 230b efbd a676 22be 0aeb 59be
000001b0: b3c0 96bd 2a8e 0ebd d2cd 6abd 2227 98bc
000001c0: 24ec 15bd 2f7c bbbb e4d7 1abd cb73 6dbd
000001d0: 1d06 74bd c601 f4bc 9b30 c6bb 1844 bfbd
000001e0: 5b55 b2bd 77e9 8cbd d044 58bd 3e33 bfbd
000001f0: 07aa c9bd 2dbe 55bd 55f6 a1bd 22fe e7bd
00000200: 9b9e dcbd 26a6 9fbd a463 c8bd 4d8e f5bd
00000210: 7a4a 72be 8701 09be edff ebbd fdf0 dfbd
00000220: 34ed 83be 4a86 21be a713 24be 3f44 c0bd
00000230: d0b2 78be b959 3dbe 6c72 dabd 8626 1bbd
00000240: b7f4 97bd 6bbe 583d b603 f93d 9588 9d3d
00000250: 85b2 16be 7bc0 903d 54ed 9f3d cb40 fe3c
00000260: 7eb3 46bd 0c6e 0c3e c50e 1b3e b031 db3d
00000270: 4934 11bd ffc1 cb3d ff1b df3d 88ab 493d
00000280: 5417 ca3c cc59 bd3d aa49 ce3d 95d8 fc3c
00000290: 6a7a 833c 99f9 2f3c d57d 8ebc 0777 8c3c
000002a0: 1a53 383d 089d 923d 26bc 673c 08f6 b33b
000002b0: ece0 bdbc 2d09 183d 94be 12bd 52d7 04be
000002c0: e48d 9fbd c4ac e3bb 8aac d53c e799 a3bb
000002d0: 19b8 06be 1e22 6cbb 7653 693c 5a05 bcbd
000002e0: 26a3 b8bd fb1b 49bd 0b17 1bbb 30c0 38bd
000002f0: 9877 9abd ffc5 28bc 0e63 6e3d 9c2e ae3d
00000300: d9df 07be c53b 363d fd6e e33c 7e7e 523d
00000310: f2fc 71be a69d b1bd b14d c4bc 5a49 b3bd
00000320: 810d 8ebe f4fb d1bd c16c 52bd 1238 46bd
00000330: c0a7 54be ad9f 77bd 6c8c 72bb 8554 823d
00000340: 6163 debd ca1b 01be 44b4 96bd b03b a4bd
00000350: 5792 71bd a962 e6bd 620e 89bd 7632 6dbd
00000360: b35d 523d 5af5 283d 7507 ae3d 121c eb3c
00000370: 0dac 23be a7f1 22be a8da 2dbe 13e4 46be
00000380: a439 debd 4343 8a3d 2560 5c3d 3746 60bb
00000390: 7b46 88bd 98c0 b83d c628 433d 2e71 003d
000003a0: f7bd 25be 920e fd3b 1baa 07bd 636e 20bd
000003b0: 8443 f3bd dcdc 7b3d 56e6 a53d 3d7e 1d3e
000003c0: 7422 a8bd ab3f 53bd e8c7 8cbd 5201 d6bd
000003d0: ca42 ccbd 1b5c 18bd 8663 3abd 2853 b4bd
000003e0: 1a48 e5bc ceff 2fbc 1cd8 88bc 458b 27bd
000003f0: 4984 d8bd 4a37 0dbd 9ff9 a8bd 82d0 f0bd
-0.051705662 0.0038958164 -0.058689073 -0.06625339 -0.115056545 -0.056610096 -0.06954876 -0.076779634
-0.055837877 -0.060554944 -0.038917188 -0.08005213 -0.08184668 0.0053195595 0.038031705 0.03874284
-0.04790927 -0.053191427 -0.097816974 -0.06652457 -0.15031761 -0.12605627 -0.05648159 -0.061243523
-0.23239873 -0.18664424 -0.08444031 -0.1355206 -0.103340924 -0.124826476 -0.046694722 -0.08271849
0.08808764 0.13880649 0.088910714 0.16315408 0.05022635 -0.034544647 -0.016117439 0.032444496
0.08150989 -0.026663901 -0.049729157 0.020969242 -0.012442469 -0.081795864 -0.12143932 -0.121199585
-0.15198371 -0.029840024 -0.04886732 -0.06442538 -0.046086162 0.059992872 -0.0514677 -0.075693466
0.018274598 0.1892876 0.070648514 -0.026917363 0.056395702 0.24123828 0.14518961 0.0639559
-0.06903772 0.011620078 0.0027226824 -0.02473935 -0.09654343 -0.012592641 -0.016087793 -0.008483074
-0.12141535 -0.0833288 -0.058755443 -0.03533896 -0.11924419 -0.07327527 -0.040612537 -0.008856656
-0.052118756 0.011106627 0.021800043 0.009911187 -0.16417067 -0.056431923 -0.022920469 -0.08503235
-0.13952024 -0.06955235 -0.0114581995 -0.052768186 -0.083127655 -0.017296175 0.06455703 0.08341917
-0.054849178 -0.07051739 -0.05890949 -0.087773174 -0.038223308 -0.07395116 -0.04072818 -0.11112338
-0.0918106 -0.11672046 -0.15865573 -0.21281067 -0.07360973 -0.034803547 -0.05732519 -0.018573347
-0.036602154 -0.005721591 -0.037803546 -0.057971757 -0.059576143 -0.029786002 -0.0060482747 -0.0933916
-0.087076865 -0.068804674 -0.0528 -0.093359455 -0.09846883 -0.05218332 -0.07908312 -0.11327769
-0.10772439 -0.07795362 -0.0978463 -0.11990032 -0.23661223 -0.13379489 -0.11523423 -0.10934637
-0.2576691 -0.15773883 -0.16023122 -0.09388017 -0.24286962 -0.18491258 -0.106663555 -0.037878536
-0.074197225 0.05291597 0.12158911 0.076920666 -0.14716537 0.07067963 0.078089386 0.031036755
-0.04851102 0.13713855 0.15142353 0.107028365 -0.035450254 0.09949111 0.10894012 0.04923585
0.024669327 0.09245643 0.10072644 0.030864993 0.016049583 0.010740661 -0.017393986 0.0171466
0.045001127 0.071588576 0.014143979 0.0054919757 -0.02317854 0.037118126 -0.03582628 -0.12972763
-0.07790735 -0.0069480855 0.02608325 -0.004992712 -0.13156165 -0.0036031078 0.01424109 -0.09180708
-0.09015493 -0.04909895 -0.0023664858 -0.04510516 -0.07542342 -0.010301112 0.058199935 0.08504984
-0.13268985 0.044490594 0.027762884 0.051390164 -0.23631647 -0.08672647 -0.023962827 -0.08754225
-0.27744678 -0.10253134 -0.051373247 -0.048393317 -0.20767117 -0.060455013 -0.0037009967 0.06363777
-0.10858799 -0.12608257 -0.07358602 -0.08019197 -0.05897745 -0.11249287 -0.066921964 -0.05790945
0.05135889 0.04124961 0.08497516 0.028699908 -0.15983601 -0.15912496 -0.16977942 -0.19422941
-0.10850838 0.067511104 0.053802628 -0.0034221539 -0.06654068 0.09021109 0.047646306 0.031357937
-0.16185747 0.007722684 -0.03312121 -0.039167773 -0.11878112 0.061489925 0.08100574 0.15380187
-0.082096964 -0.05157439 -0.068740666 -0.104494706 -0.099736765 -0.037197214 -0.04550507 -0.08804923
-0.027988482 -0.010742141 -0.016704611 -0.040904302 -0.105721064 -0.034476556 -0.082507364 -0.1175852

3.bias f4 [64]
00000000: 6ccb eebc f43b ff3c 0e4c 023a 40d4 e53c
00000010: f937 0cbc 61d9 e93c fb97 853c 394c a13c
00000020: ce5a d53c 1d93 aebc cb40 b53b d794 b8bc
00000030: 3589 e5bc e4e4 87ba 7d3e 48bc bb77 313b
00000040: 5b56 133c e160 d9bc 6be6 763b 6acc b23c
00000050: 8c02 cebc 123c ecbc dd0a 82bc 2cd9 a33c
00000060: 0c98 7c3b 4571 16bc bdd5 9d3c 3776 6fbb
00000070: b617 db3c 0ede d9bc 366b 393b 2971 e1bc
00000080: ecc2 28bb 134e beb9 1369 74bc f971 e43c
00000090: 24b5 5abb 991b dc3a a06f f03c 0724 9838
000000a0: 250a cc3c 066c f03c 6567 2dbc cdf6 f1bb
000000b0: fc66 eb3c 879f e83b 66e8 963c ac67 94bc
000000c0: 9ed4 173b 4493 e33c 2d07 58bb 50c1 f43b
000000d0: 5f82 bb3c 1d17 993c 28f3 cc3c 68c8 dfbb
000000e0: 1211 3a3c e639 bdbc 5b92 7f3b 31f5 7a3c
000000f0: 3bd0 c83c 0f8e ae3c 1180 b2bc 3cad 5ebc
-0.029149733 0.031156518 0.00049704395 0.02805531 -0.008558267 0.028546037 0.016307821 0.019689666
0.026044276 -0.021310383 0.0055314056 -0.02253191 -0.028019527 -0.0010367897 -0.01222193 0.0027079422
0.008992757 -0.026535453 0.003767396 0.021825988 -0.025147699 -0.028837238 -0.01587432 0.020001017
0.0038542775 -0.009182279 0.019266957 -0.0036538967 0.026744705 -0.026595142 0.0028292662 -0.02751978
-0.0025750948 -0.00036297794 -0.01491763 0.027886378 -0.0033372128 0.0016792893 0.029350102 7.2546354e-05
0.024907181 0.029348385 -0.010583733 -0.0073841573 0.02873563 0.0070990953 0.018421363 -0.01811584
0.0023167501 0.027780183 -0.0032963261 0.0074693337 0.022889314 0.01868778 0.02501829 -0.00682931
0.011356609 -0.023098897 0.0038997147 0.015317247 0.024513355 0.021307973 -0.021789582 -0.013591107

4.weight f4 [64]
00000000: e26e 77bd ffc8 aa3d cd3e 1abe 39f2 a43d
00000010: 4454 ecbd 4ad4 28bd 292a 57bd 04ce 613f
00000020: bbab ffbb f4c8 08be ebf1 fc3c 41c9 3dbd
00000030: aa3d 293e 37ad 68be 27d4 2e3f a206 68bf
00000040: 1c63 003e 427e 843f 79f1 1e3e 1886 3e3f
00000050: df86 e63a 7dc5 b4bd a038 76be 4932 27bd
00000060: 4ab6 d2bd dc73 10be 6ffc 113e bf9e 953c
00000070: 9c81 cd3d 0fb7 da3d 0a17 2c3f ce6b 81bd
00000080: 5c94 ee3b 2bce 853d 5b34 4d3d 995f 15bc
00000090: a1af bf3e 87c4 e73d b544 1abd de97 b8bd
000000a0: aa95 103e 0cdf 38bd dba8 e03e 7d57 d9bd
000000b0: 4266 4cbf a672 553e 3d1d 143d e152 fbbd
000000c0: 8947 173e c01e 633c e0fb 5abe 719e 183f
000000d0: 81c0 223e 8cff d5bd b8ac 2a3f eb04 753d
000000e0: 6e09 273e 20cd 773c 8c43 fa3d 9a22 e2bd
000000f0: 3e59 d0be d754 6abd 573d 56bd 84e5 65ba
-0.06040848 0.08339118 -0.15063019 0.08054013 -0.1153951 -0.04121808 -0.05253044 0.8820498
-0.0078024543 -0.13357908 0.030877074 -0.04633451 0.16527429 -0.22722326 0.6829247 -0.9063512
0.12537807 1.0351031 0.15521802 0.7442336 0.0017587802 -0.088267304 -0.24045038 -0.04081944
-0.10288675 -0.14106697 0.14256452 0.018264173 0.10034487 0.10679447 0.67222655 -0.0631939
0.0072808694 0.06533464 0.05009876 -0.009117031 0.37438682 0.113167815 -0.03766318 -0.09013341
0.14119592 -0.04513459 0.43878826 -0.1061239 -0.79843533 0.20844516 0.036160696 -0.12271667
0.14773382 0.013862312 -0.21385145 0.5961676 0.15893747 -0.10449132 0.666698 0.059819143
0.16312191 0.015124589 0.12219915 -0.11041756 -0.40693086 -0.057209816 -0.052304592 -0.0008769857

4.bias f4 [64]
00000000: 615b 83bf 46ed c7bf 7f2d 9fbf 9528 00bf
00000010: 0e07 a9bf 1066 9cbf 052a dbbf c289 083e
00000020: aceb 2fbf 0fd4 9ebf 356e 4abf f5bb 9fbe
00000030: 5f00 41bf 1dde f0bf 82c1 513f f502 8c3f
00000040: 5ba4 57bf d01d 3ac0 0d38 8bbf 1b71 f63e
00000050: 2f66 24bf da83 dabe b740 e3bf 3c14 45bf
00000060: 8e92 40bf 54e5 81bf 1315 b3bf d21b 3dbf
00000070: 15a4 c7bf 4838 43bf 151f 883e 00e0 1dc0
00000080: bdd1 e8bf 8ae0 a2bf fdcf 49bf 0d2c 15bf
00000090: 5eb3 25c0 5e7e 8dbf 893b e4be 412e b5bf
000000a0: 6bc2 2fbf b628 bcbf a670 fbbf 8880 60bf
000000b0: d4d2 9dbd 5b30 e0bf 8b5d 88be 571d 61bf
000000c0: 8496 4cbf 6612 33bf 8a87 d2bf d348 e9be
000000d0: cd23 57bf 5b90 66bf d801 6a3f 714c 05bf
000000e0: ddf5 92bf 6eb1 62bf b413 29c0 2153 06bf
000000f0: 6906 28c0 7685 11bf 3854 7bbf 8061 4bbf
-1.0262262 -1.5619285 -1.2435759 -0.50061923 -1.3205278 -1.2218647 -1.7122198 0.133338
-0.6871898 -1.2408465 -0.7907441 -0.31198087 -0.7539119 -1.8817784 0.81935894 1.0938402
-0.8423516 -2.9080696 -1.087648 0.48133168 -0.6421842 -0.4267872 -1.7754124 -0.76984
-0.75223625 -1.014811 -1.3990806 -0.73870575 -1.5596949 -0.76257753 0.26586214 -2.4667969
-1.8189007 -1.2724774 -0.7883299 -0.5827034 -2.5890727 -1.1054189 -0.44576672 -1.415474
-0.68656033 -1.4699924 -1.9643753 -0.87696123 -0.07706228 -1.7514757 -0.26633868 -0.87935394
-0.7991717 -0.6994995 -1.6447613 -0.45563373 -0.84039 -0.9006402 0.91409063 -0.52069765
-1.1481282 -0.88551986 -2.6418276 -0.52470595 -2.6253912 -0.5684427 -0.9817538 -0.7944565

6.weight f4 [64, 64, 4, 4]
00000000: 34f7 10bd 37a1 07bd b0cf 70bd 153f 49be
00000010: 33a4 3a3d d1d9 f83c 1f15 a83c 954a 1dbe
00000020: f426 5a3d 7274 0b3d 07ad 9dbd 4e48 8e3d
00000030: d68f c83d 356f 99ba b597 103d 4d29 c33e
00000040: efee cbbe c3fc 7dbe 84b4 aabe a1f8 3cbe
00000050: 6ef6 81be 77e7 84bd b537 31be dc59 a23c
00000060: d9e1 2bbe a368 7ebd 0be1 22bd 83b7 a13d
00000070: 5833 83be cfdc 11be 0525 133e 840f fe3d
00000080: 37dd 1e3d a62c 233e 8ff7 fd3c 21e8 0ebc
00000090: a4f8 63bd e1cc 083e 64d5 1a3b 30a7 e4bd
000000a0: 3d7e 4abe 0a02 1abe 2eb9 6dbe 43d8 70be
000000b0: 8583 17be 381f 20be 7ab6 a6be 07fe 6abe
000000c0: c8c3 c0bd 32b7 acbd 0f51 61bd 64ac d0bc
000000d0: 9e14 133d 445a 863d 1542 023c 860a a63b
000000e0: 72b2 9a3d dd49 16bd 2e47 e4bc fc3d 193c
000000f0: 5f3c 99bc 239f cbbd 857b 0cbe 304d 09be
00000100: 1175 87bc 6885 38bd 7546 b9bd 5272 d1bd
00000110: 7b28 113e 5cf4 5fbd 31c3 f4bd fbfb 36bc
00000120: 9943 dc3d 4a84 08be a82f 82be 7f3f b5bd
00000130: 277e 493e 9687 be3d 1d65 1ebc 5b2a 863d
00000140: 54e6 b8bb 4cd9 5dbc 25c8 01bd e44a 27bc
00000150: bae1 4c3d 7af1 a83d a0d0 9f3d c11f e23c
00000160: c2bc 03bd 517a 2a3c 04b1 7c3c 44bb 8ebd
00000170: 1f12 ccbd 9a25 90bd 3b4c 93bd 02eb f7bd
00000180: d020 92bd e9e0 f73c c7dd ae3d 7e2b 493d
00000190: 56de ba3c e547 263d 48a9 59bd f4a9 72bd
000001a0: d9ed b7bd 3a8c 5dbd 2dcd 173e fabc 2a3e
000001b0: aab8 14be 438b 53bd ca55 11bd 3c59 a5bd
000001c0: 3dbc cebe b2b1 66bf 7bac b0bf 02e7 4ebf
000001d0: 350d 76bf bbf0 87bf 39ae 35bf c5db a5be
000001e0: 3360 23be bb71 533e dd16 c83e a90e b83e
000001f0: 5a6b 6b3d 6c22 953e a067 a43e 6095 403e
00000200: 4d4e 3b3e ca99 62bb b738 743e 826d f53e
00000210: cd78 823d e032 aabe aa09 5fbd d11c 30bd
00000220: 0e7d 48bc f6a5 2bbe e6eb 643c 2b57 b2bd
00000230: a0bc d63d c591 84be 203e 57be 68a3 13bd
00000240: e9ad 07bd 54c4 2e3e 4ae8 933e bd1c 41be
00000250: 449a c8be 05ee 723e 276a 8b3e 6842 b23e
00000260: cbfb 6dbd 9dea a13e aa9b 443f e245 0a3e
00000270: f1fd 7abd 10b4 6a3e 3aff be3d 9039 49be
00000280: de17 34be e3d3 26be d64e 3dbe 412b e5ba
00000290: ec5b 77be 5ca8 83be c26c a2be 9c7b 62bd
000002a0: a631 373a 6adc d9bd 5eea f03c 9b02 953e
000002b0: cdb2 0bbe 0381 eebc 92e5 8f3e 5ff9 8f3e
000002c0: 89b5 613d db28 f83c f5d7 abbc 1f08 213d
000002d0: c283 9f3c 1ab5 d1bc fc10 99bc 1afd 59bd
000002e0: 0172 7cbd 97d6 49bd 62e5 7bbd c2ba e3bd
000002f0: 65d6 35bd 087f 193c f595 6f3d bb37 00bd
00000300: 0acd b53c 8e6f ca3d d96a 9d3d 77e8 313d
00000310: 3a80 5dbd b44d a2bc fdb9 633b a060 473c
00000320: 7091 80bd 6965 763d ee56 a43c b229 9c3b
00000330: f9f6 92bd 25d1 763c c94e dcbb 638d 0a3c
00000340: e093 563d b7d4 ab3d 2efe 9c3d cb7c 92bd
00000350: 8436 fa3c 70d5 5d3c 71ca 103e 3133 9fbd
00000360: cdee 543d 9f49 ee3d 6841 57bc e51b c4bb
00000370: 6a69 253d e294 9e3d 33e3 1e3e 271b 51bd
00000380: 55d0 55be 52e2 93be f194 c3bd a83d 4f3d
00000390: 94d3 62be 09f4 c4be b1d7 dabc ced4 64be
000003a0: 1fc8 b33c 0ba4 823e bc6b 693e 7a94 3cbd
000003b0: 0167 8a3e e1c3 363f b460 0d3f 775b fdbd
000003c0: 7ba4 2f3d a217 a0bd 76d5 6bbe b2a8 f03b
000003d0: 8e0e 98bd 4b67 a53e cca7 9b3e 15e0 7c3e
000003e0: dd8a 87be b357 9ebd 8559 933e bd65 573d
000003f0: e6a9 fd3d 8f55 413e e8a2 d13e 5972 803d
-0.035392 -0.03311273 -0.058791816 -0.1965297 0.04556675 0.0303773 0.020517884 -0.15360482
0.053259805 0.034046598 -0.07699018 0.06947385 0.097930595 -0.0011706116 0.03530093 0.38117447
-0.3983073 -0.24803452 -0.33340847 -0.1845422 -0.25383323 -0.06489461 -0.17306407 0.019818239
-0.16785373 -0.062111508 -0.0397654 0.0789633 -0.2562511 -0.14244388 0.1436959 0.12405303
0.038785186 0.15935001 0.031001834 -0.008722336 -0.055657044 0.13359405 0.0023625726 -0.11164701
-0.19774719 -0.1503984 -0.23215172 -0.23519997 -0.14796264 -0.15636909 -0.32561094 -0.22948466
-0.09412342 -0.08433379 -0.055008944 -0.025472827 0.035908334 0.065601856 0.0079503255 0.0050671725
0.07553567 -0.036691535 -0.027865972 0.009353157 -0.018705545 -0.09942462 -0.13718994 -0.13408351
-0.016535314 -0.0450491 -0.09046642 -0.10226883 0.14175598 -0.0546764 -0.11951292 -0.011168475
0.10755081 -0.13331714 -0.25426984 -0.088500015 0.1967703 0.09303205 -0.009667662 0.065510474
-0.0056426916 -0.013540577 -0.031685013 -0.010210726 0.050019957 0.08249183 0.07803464 0.027603032
-0.032162435 0.010405139 0.015423063 -0.06969312 -0.09964394 -0.07038422 -0.07192274 -0.12105371
-0.07135165 0.030258613 0.085383944 0.049113743 0.022811096 0.040595908 -0.053139955 -0.05924411
-0.08980913 -0.05408881 0.14824362 0.16673651 -0.14523569 -0.051646482 -0.035482205 -0.08073661
-0.4037799 -0.9011489 -1.3802637 -0.8082124 -0.961139 -1.062034 -0.7096897 -0.32394233
-0.15954666 0.20648853 0.39079943 0.35948685 0.057475425 0.29127824 0.3211031 0.18806982
0.18291588 -0.0034576529 0.2384976 0.4793511 0.06370697 -0.3324194 -0.054452576 -0.04299623
-0.012236847 -0.16762528 0.013972258 -0.08708032 0.10485196 -0.25892463 -0.21019793 -0.03604451
-0.033124838 0.1706708 0.2888816 -0.18858619 -0.39180195 0.2372361 0.27229425 0.3481629
-0.058101457 0.31624308 0.76800025 0.1350322 -0.061277334 0.22920251 0.09326024 -0.19650865
-0.1758723 -0.16291766 -0.18487105 -0.0017484204 -0.24156159 -0.25714386 -0.317236 -0.055293664
0.0006988294 -0.10637744 0.02940863 0.2910355 -0.13642426 -0.029114252 0.28104836 0.28119943
0.055104766 0.030292919 -0.020977 0.039314386 0.019472007 -0.025599051 -0.018684857 -0.053219892
-0.06163216 -0.049276914 -0.061498053 -0.111196056 -0.044393916 0.0093686655 0.05849262 -0.03130315
0.022192497 0.098845586 0.07686395 0.043434586 -0.054077365 -0.019812442 0.0034748309 0.012169033
-0.0627774 0.060155306 0.020060983 0.0047657127 -0.071760125 0.015064512 -0.006723259 0.008456561
0.05238712 0.083901815 0.076656684 -0.071527086 0.030543573 0.013539657 0.14139725 -0.07773436
0.05198555 0.11635136 -0.013138153 -0.0059847706 0.040383734 0.07743241 0.15516357 -0.051051285
-0.20880254 -0.28883606 -0.09549893 0.05059591 -0.22151023 -0.38467434 -0.026714178 -0.22346804
0.021946011 0.2551578 0.22795004 -0.046040036 0.2703171 0.7139264 0.5522568 -0.12370961
0.04288147 -0.078170076 -0.23030648 0.007344329 -0.07424651 0.3230537 0.30401456 0.24694856
-0.26473132 -0.07731571 0.28779235 0.05258726 0.12385921 0.18880294 0.409446 0.0627181

6.bias f4 [64]
00000000: e469 4d3c 24df e73c 747e e0bc 5c71 9cbc
00000010: dbaa 15bc 9fd3 c03c 1831 833c 575a 623a
00000020: 3211 8cbc 0ea1 cf3b 34fa 93bc 5e17 cb3c
00000030: 86c1 aa3c 4c0c c1bc 0c93 e3bc 6640 d6bc
00000040: 1a67 d0ba 27f6 ecbb 13da 6d3c 45d1 05bc
00000050: f310 c0bb e0ce b6bc 0e35 d43b 035c 67bc
00000060: c787 73bc 6856 01bc 6031 6eba 9624 c53a
00000070: 0450 013c 8558 abbc ff32 88bb 6105 973c
00000080: 446f 08bc 5b77 fa3c f4a1 883c 8f0e 293c
00000090: 263f 9a3c 1125 6bbc 4f9a 55bc 11eb d93c
000000a0: fbac 88bc b88c 61bc 8201 263d a026 7f3c
000000b0: 0b31 6fbc 5f82 8fbb 5bfb cdbc 5008 d1bb
000000c0: f171 d23c 3871 c3bc cbe4 673c 1fec 023d
000000d0: 43ca 7abb 7dcf 4c3b 2819 8a3c 25d8 433c
000000e0: 9708 57bc 7927 32bc ad43 23bb ce01 283a
000000f0: 4b61 97bc 3e74 6dbc a203 033c 96ef aebc
0.012537453 0.028304644 -0.027404048 -0.019097023 -0.009134973 0.023538409 0.01601462 0.00086346775
-0.017098043 0.006336338 -0.018063642 0.024791416 0.020844232 -0.023565434 -0.027780078 -0.026153754
-0.0015899867 -0.007231492 0.014517325 -0.0081675695 -0.0058613955 -0.022315443 0.006476051 -0.014121058
-0.014863915 -0.007894136 -0.0009086337 0.0015040811 0.007892612 -0.020916233 -0.00415647 0.018435182
-0.008327309 0.030574491 0.016678788 0.010318412 0.01882894 -0.014352099 -0.013037278 0.026601346
-0.016684046 -0.01376646 0.04052878 0.015573174 -0.014599095 -0.004379555 -0.02514427 -0.0063791648
0.025689097 -0.023857698 0.01415367 0.031963464 -0.003826753 0.0031251602 0.016857699 0.011953388
-0.013124607 -0.010873669 -0.0024912164 0.00064089603 -0.01847901 -0.014493046 0.007996472 -0.021354478

7.odefunc.norm1.weight f4 [74]
00000000: a1d1 fa3f 6985 ff3f 301f 2740 7c30 1840
00000010: 03e5 1a40 0c0d fe3f 273c b73e 5c0b 1f40
00000020: 215c 3b40 756f 0140 4a43 1740 ced0 303f
00000030: 3bc9 0440 e1b9 d73f 4ef2 0d40 e10e 0c40
00000040: 822e 2340 0c93 f63f 0f62 2240 ac3e cb3d
00000050: fd5b ef3f d588 2140 5647 fc3f 99af 1440
00000060: 2d59 0c40 b8a3 ed3f dd47 0b40 82fd 0340
00000070: ce56 1140 16eb 0e40 dbd6 3b40 3e89 1740
00000080: 00e8 f23f eb1d ee3f f413 0e40 966c c03f
00000090: 680f 1840 83cc cb3f 7f48 fc3f 2b4a 1440
000000a0: 66c7 f23f a0e2 2d40 c911 f23f 7614 2740
000000b0: 4626 c83f e33e 1d40 be1c bb3f 4bb1 1940
000000c0: 5aea 1840 4c3f 2040 c401 3540 f007 fb3f
000000d0: cc29 ee3f bac8 1b40 833c 2240 9f93 2940
000000e0: 1b6f 1c40 e281 1c40 5b5c fe3f 5ec8 1e40
000000f0: 9624 0e40 3bec 1f40 ec4d 0540 9c97 2140
00000100: 3e00 3a40 c49f 1940 89eb bd3f 3edf 2c40
00000110: 0480 3940 165a 2b40 70db 39be e04e 0840
00000120: 3bed 3740 e128 6240
1.9595224 1.9962589 2.6112785 2.3779593 2.4202278 1.9847732 0.3578808 2.4850683
2.927498 2.0224278 2.363482 0.6906861 2.0747821 1.6853601 2.217914 2.1884081
2.5497136 1.9263625 2.537235 0.09924063 1.8699948 2.5239766 1.970927 2.3232176
2.1929429 1.8565588 2.1762612 2.062348 2.2709231 2.2330985 2.9349887 2.3677516
1.8977051 1.860288 2.2199678 1.5033138 2.3759403 1.5921787 1.9709624 2.3170269
1.8967102 2.716957 1.8911678 2.6106238 1.563668 2.4569633 1.4618146 2.401446
2.3893037 2.5038633 2.8282328 1.9611797 1.8606505 2.4341264 2.5349433 2.649635
2.4442813 2.4454274 1.9871935 2.4809794 2.220983 2.4987934 2.082881 2.5248785
2.9062648 2.4003763 1.4837505 2.7011256 2.8984385 2.6773734 -0.18150115 2.1298141
2.8738544 3.533745

7.odefunc.norm1.bias f4 [74]
00000000: 5a5c 683e af33 1bbe 6c54 33bf 7697 75be
00000010: cfff 15be 22e1 40bd 06a9 12c0 3462 b3be
00000020: 901a a1bf 728c 19bc 4721 7bbf 2238 a3bf
00000030: ced9 9b3e 2aa7 5f3f a462 07bf ad8e 133e
00000040: 6f88 0dbf 8755 b23e 9b79 b0bf 2720 bfbf
00000050: 4fd0 573f f949 d7be 1132 a93e 8d86 aebe
00000060: 65ff 1ebf 6a94 cd3e 3f9a 0abf 3f07 d43e
00000070: 833a 90bc cc93 b3bf b1b9 bcbf d0ae 07bf
00000080: 43a5 52be 4f59 a83d d4e8 bfbe e2d0 33bf
00000090: ee66 1dba e6d7 923f 5d50 b63e 9ff7 173d
000000a0: ed69 563f 6714 7dbf 5bae 593f 05ea 633f
000000b0: 5d5e 153f 3b41 7ebf 959b a4bd ea7d 89bf
000000c0: 578b 8e3e 367b b8bf 1807 acbf b704 8d3e
000000d0: 9ffe 033f 84fc 87be 446b 37bf dd1f 3cbe
000000e0: 479b 96bf 9dfe 9c3b 80f5 65be 1326 f0bd
000000f0: fdc1 4cbf 302f a93e 6b12 82bf 811c 9b3e
00000100: 1992 ec3e 5517 023f c2de 6bbf 0556 0b3f
00000110: e9b1 4d3e feda 96c0 ae16 6ec0 820c 1ec0
00000120: a0f7 9cbf 2fdb 47c0
0.2269148 -0.15156434 -0.7005069 -0.23983559 -0.14648364 -0.047089703 -2.2915664 -0.3503586
-1.2586231 -0.009371864 -0.9809765 -1.2751505 0.3043961 0.8736445 -0.5288489 0.14409895
-0.55286306 0.34830877 -1.3787111 -1.4931687 0.8430223 -0.42048624 0.3304601 -0.3408703
-0.6210845 0.40152293 -0.5414161 0.41411778 -0.017606026 -1.4029479 -1.4744169 -0.5300112
-0.20570855 0.08220159 -0.3748232 -0.70240605 -0.00060044124 1.1472137 0.35608187 0.037101384
0.8375538 -0.98859257 0.8503167 0.8902896 0.5834711 -0.99318284 -0.080374874 -1.0741551
0.27840683 -1.4412601 -1.3439665 0.2754266 0.51560396 -0.26559842 -0.7164805 -0.1837153
-1.1766137 0.0047910945 -0.22456932 -0.11726012 -0.799835 0.33043814 -1.0161871 0.30295184
0.46205214 0.5081685 -0.92136776 0.5442813 0.20087399 -4.7142324 -3.7201343 -2.4695134
-1.2263069 -3.122753

7.odefunc.conv1._layer.weight f4 [74, 75, 3, 3]
00000000: e237 b03d 5d22 ed3b 4b6b a63d f9b9 99bc
00000010: 540f 183c 620f ea3c c4aa 2cbc 8e1d 8dbd
00000020: b82d 3dbc 37d5 81be 02c1 07bf 6238 8abe
00000030: 0e3d b4bd 334f fabd d9fc d4be d1a1 b23e
00000040: 3252 3b3e 0673 41be 6001 eabd c43e f9bd
00000050: e844 643e 37dc 22be 590b ec3e 607e 05bf
00000060: b846 b5be c8f6 c83b ba85 d9bd 72a7 b5be
00000070: 5005 13bf 42ae 4ebe 2258 083e d8d8 183d
00000080: ffb4 76be 3687 593e bdef 7abe 64fe 8ebe
00000090: 31cb a13c dfc8 f2bb 4869 953d 9c86 d33d
000000a0: 0637 313e 0cff 173e 8de8 733e ece9 693e
000000b0: 282d cbbb 5d96 84ba 5e6a 5dbc 9363 d0bc
000000c0: f107 ff3c 0a43 293e 4e9a 84bd c194 103e
000000d0: 0af0 03be 2da8 ae3e 5339 7ebd 48fc 52be
000000e0: 1239 26be a061 fd3e 7831 c23e 16e2 3abe
000000f0: b2f8 86bd 80ea f53d a752 6f3d 920a 64be
00000100: 9a70 85bd eaa0 23be 8d7d 5bbe 8444 b9bc
00000110: 732c 3abd 4701 9bbe a611 263e dbfa 09be
00000120: 3ab8 8c3e dc4e 98bc 06ac 1ebe 7eaf 2c3e
00000130: e4d4 edbb 6b75 d73d 0ed3 e3be 16d0 e5bd
00000140: e38c ca3b 4d22 f23c bfb3 e13d 0ccb b33b
00000150: 1758 743d 248f b93d a238 47bd 9ba9 31be
00000160: dde5 f53d 9e16 dabd e955 d53d 7ece 0b3d
00000170: cea4 9a3d b492 123e d953 c3bd 573a 073d
00000180: d247 c8be 1ba5 64be 86a1 e63d 9e5c 65be
00000190: 3fe1 a6be d172 4a3d 3b61 a43e 4eab cb3e
000001a0: a9ef 72bd 86d6 053e 4d5a 8a3e b3cd a8be
000001b0: 7253 2dbe 2288 36bd ad8c 293d dfa5 ff3d
000001c0: 53cf 6cbc bedf ac3d 6e22 8c3e 49cf cabd
000001d0: ce53 253e d93a bbbe c833 b8be 4bb4 debb
000001e0: 441d a93e 4db6 173d 0988 07bc fe2f 6fbe
000001f0: 9ddb 213e c34a a13d cfd1 3dbd 5bb9 a8be
00000200: 49f5 0cbe bc24 afbe 4c81 d8be f552 f6bd
00000210: 7bba 9a3e 07bd b93c 0abf cebe b52e 9fbe
00000220: 1514 45be 8b28 edbd a499 d53d 8a66 c3bd
00000230: 8039 083d 0148 20bc b7ef 89be 1b89 433e
00000240: fc38 293c 2d53 2f3e d66a 273e 9b3b 063d
00000250: be2b f2bd f299 5f3e 6915 4b3d e5d3 aebe
00000260: 956f 1c3d 1749 dcbd 039b 9cbe 8791 323e
00000270: d42c fdbd e1ce e4be 9b0d a13d 6fc0 6fbd
00000280: 59a3 07bf 9c2f 83be 913e bcbd 076b 803e
00000290: 554a cc3e 7863 d9bd 688f 673e b775 48bf
000002a0: f2e8 afbd 8af2 353e f149 0abf d194 85be
000002b0: c415 90be 0869 afbb 67aa 96bd 9309 50be
000002c0: cee8 e83d 16ab b33d 390a 413d ae42 a9be
000002d0: ab7e bfbd 1ae3 1fbe 7e37 263d f01e 743d
000002e0: 0e89 31be f3cc 8e3e 0e71 b83d cd11 d53c
000002f0: a9e6 76be d210 5abe 448b acbe aacc 0abe
00000300: b981 19bc bf20 64be 2d60 1f3e 5413 c6be
00000310: ddf2 4d3d a911 a8be 2f39 8dbe 770c 99be
00000320: cd65 50bd 2b38 023e 3b81 02be 567c 603e
00000330: afb9 5f3e 538f 18bf 352c b0bd 40d4 de3c
00000340: 56ff fa3d aa9b 0b3e f6e2 2e3d e780 35bf
00000350: 6852 97be 65ef 38bf 3a0f f6bd b4d7 ba3d
00000360: b807 703e 7256 3a3e 565c e23d aeed bfbe
00000370: dd41 5dbe 8a11 223d 813f a8bc 3b9f 85be
00000380: de06 9bbe 3b26 c6bc 998a a6be 4e36 49bb
00000390: 7190 4bbd f024 513e 97a3 9ebe 071c 04be
000003a0: 1570 5dbe 04b0 3c3e 0de8 72be 67e6 9fbe
000003b0: feb3 7cbe 3e24 e7be 254d 07bf c008 7dbe
000003c0: 60a7 72be a4f8 523c 0b6f c3bd 16da 5dbe
000003d0: 80b0 28be d949 063d a86f 7abe 0cf0 18bf
000003e0: 2520 283f aad1 71bd b06b 2f3e fea9 77be
000003f0: e4ba 10be 650c 20be 183a 023e 1872 393d
0.08604409 0.0072367624 0.08125933 -0.018765436 0.009280998 0.028571788 -0.010538761 -0.06890403
-0.011546545 -0.25357983 -0.5302888 -0.26996142 -0.08800708 -0.12222137 -0.41599157 0.3488908
0.18293074 -0.18891534 -0.114260435 -0.12170175 0.2229191 -0.15904318 0.46102408 -0.5214596
-0.35405517 0.0061329342 -0.106212094 -0.35479313 -0.5742998 -0.20183662 0.1331487 0.037316173
-0.24092482 0.21242985 -0.24505515 -0.2792846 0.01975021 -0.0074091996 0.072954714 0.10328409
0.17306146 0.14843386 0.2381918 0.2284314 -0.0062004514 -0.0010115613 -0.013514129 -0.025438106
0.031131716 0.1652948 -0.06474744 0.14119245 -0.12884536 0.34112683 -0.062066387 -0.2060405
-0.16232708 0.49488544 0.37928367 -0.18250307 -0.065904036 0.12007618 0.058428433 -0.22269657
-0.06515618 -0.15979353 -0.21434613 -0.022615679 -0.045452546 -0.30274412 0.1621767 -0.134746
0.27484304 -0.01859229 -0.15495309 0.1686382 -0.0072580446 0.105204426 -0.4449696 -0.1122133
0.006181346 0.029557372 0.11020612 0.0054868516 0.05965432 0.09060505 -0.048637994 -0.17349856
0.120067336 -0.10648845 0.10416777 0.034132473 0.07550965 0.14313775 -0.09537477 0.03301462
-0.39117295 -0.22328608 0.11261277 -0.22398612 -0.32593724 0.049425904 0.3210543 0.39779133
-0.05931059 0.13070115 0.2702202 -0.32969436 -0.16926363 -0.04456342 0.041393925 0.12482809
-0.014453727 0.08441113 0.27370018 -0.09902818 0.1614525 -0.36568335 -0.35977006 -0.006796395
0.3303014 0.03703909 -0.008272179 -0.23358151 0.15806432 0.07875588 -0.046342667 -0.32953915
-0.13765444 -0.34207714 -0.42286146 -0.120275415 0.30220398 0.022673143 -0.40380126 -0.31090322
-0.19245942 -0.115799986 0.10429695 -0.09541042 0.03325796 -0.009782792 -0.269407 0.1909527
0.010328528 0.17121573 0.16349348 0.032771688 -0.118247494 0.21836069 0.049580965 -0.34146038
0.03819235 -0.10756128 -0.30587015 0.17438327 -0.12362066 -0.44689086 0.07863923 -0.05853313
-0.52983624 -0.2562226 -0.09191621 0.25081655 0.3990046 -0.10614675 0.22613299 -0.7830462
-0.08589353 0.17768303 -0.54019076 -0.260901 -0.28141606 -0.005353097 -0.073567204 -0.20316152
0.11372529 0.087728664 0.04712889 -0.33058685 -0.09350332 -0.15613976 0.040580265 0.059599817
-0.17337438 0.2789074 0.090059385 0.026009465 -0.24111427 -0.21295479 -0.337 -0.13554636
-0.009369307 -0.22278117 0.15564032 -0.3868662 0.05028044 -0.32825974 -0.2758269 -0.29892322
-0.050878335 0.12716739 -0.1274461 0.2192243 0.21848176 -0.59593695 -0.08602182 0.027200818
0.12255733 0.136336 0.042696916 -0.70899814 -0.29555058 -0.7224029 -0.12014623 0.09123173
0.23440444 0.18197039 0.11052768 -0.37486023 -0.21607156 0.039567508 -0.020538094 -0.26098046
-0.30278677 -0.024188152 -0.32527617 -0.0030702534 -0.049698297 0.20424247 -0.30984184 -0.12901317
-0.21624787 0.1842652 -0.23721333 -0.3123047 -0.24678037 -0.45144838 -0.5285209 -0.24710369
-0.23696661 0.012876663 -0.09542664 -0.21665224 -0.1647358 0.03278527 -0.24456656 -0.5974128
0.6567405 -0.05903784 0.17130923 -0.2418594 -0.14133793 -0.15629728 0.12717474 0.045274824

7.odefunc.conv1._layer.bias f4 [74]
00000000: 4d08 d13c 3297 d2ba 0c0d e7bc b6bd ae3c
00000010: 2275 91bb 2893 89bc 43af 643a f0d4 073d
00000020: b3c6 863c 7995 18bd 12ba d23c e78b e23a
00000030: c107 713c d57e d53c dd20 f43b 32cd 90bc
00000040: 7641 873c ce07 87bc aa82 89bc 402c 03bb
00000050: cc72 e53a bf37 95bc b321 a53c 8a75 fcbc
00000060: c57b c2bc 1e77 f5bc 0f04 f4bb 7688 02bd
00000070: 1d4b 81bc 2ee7 7e3c f4da 033d 4545 193b
00000080: 8110 ac3c a73a 4abc ec29 0dbd 92d5 033d
00000090: 9c99 603c 20e7 1c3d 1451 a8bc 8cb8 c73c
000000a0: f52e a2bc 101c fa3c 2ccd 013d 5e59 153d
000000b0: a2bf 59bc dd5b febc 37d0 1a3d 7c48 dd3c
000000c0: 4903 9d3b 0f66 18bd 2eac 76bc d27a 8cbc
000000d0: 76dc f73b 71fa c53c 7d66 04bc e934 b43c
000000e0: 4d0a b339 e447 de3c 58a3 95bc 9aa1 3b3c
000000f0: fe7a ce3b d1af 73bc aad1 afbb e54a 64bc
00000100: ce55 95bb 0954 703c e851 d73c 1e8c 17bd
00000110: fff0 ecbc e9cc 95bc a50f c13c ebbe b2bb
00000120: 2a3b 083c 3d12 6f3c
0.025516653 -0.0016066788 -0.028204463 0.021330696 -0.004439012 -0.016793802 0.0008723626 0.033162057
0.016452169 -0.037251923 0.02572349 0.0017284126 0.014711321 0.026061455 0.0074502067 -0.01767597
0.016510706 -0.016483214 -0.016785938 -0.0020015389 0.0017505526 -0.018215058 0.02015767 -0.030817766
-0.023740659 -0.029964026 -0.007446773 -0.03186842 -0.015782887 0.015558047 0.03219123 0.0023387235
0.021003963 -0.012343085 -0.034463808 0.0321861 0.013708498 0.038306355 -0.020546474 0.024379991
-0.019797781 0.03053096 0.031689808 0.03646218 -0.013290318 -0.031049663 0.037796225 0.027012102
0.0047916514 -0.037206706 -0.015055699 -0.017148409 0.007564123 0.024167271 -0.008081076 0.021997886
0.00034149215 0.02713389 -0.018266365 0.011452103 0.006301283 -0.014873461 -0.00536557 -0.013933872
-0.004557348 0.014668473 0.026284173 -0.03699886 -0.02892351 -0.018286185 0.02356703 -0.005454888
0.008314887 0.014591751

7.odefunc.norm2.weight f4 [74]
00000000: 511d 0e40 a02f ea3f d72e 1c40 e7ad ef3f
00000010: 8ca3 d73f 8e14 0e40 2ea5 ed3f 539b 1040
00000020: 3d04 1240 f3fc 8b3f 0954 b93e a877 1040
00000030: c570 ae3f 8068 0040 48d4 1d40 843b 0b40
00000040: b5ae 1940 a841 dd3f 6e62 c63f 1b28 0040
00000050: 7ab4 f33f 93be 3c40 f928 0340 2a8c 1940
00000060: da96 fb3f 1953 0240 d268 0940 7b62 da3f
00000070: 7ce6 be3f 0382 0740 4fb9 0540 abdc db3d
00000080: 9fc6 d33f da9f 923f d0d6 ef3f c42c 0040
00000090: 3a2d 0240 b628 e23f f410 1740 6f7b 1240
000000a0: 7b64 e33f 6527 1f40 2720 0340 fec1 b83f
000000b0: 8dad e03f e9d6 7a3f 0069 e13f ca3b ed3f
000000c0: c193 f83f 44cb be3f 32fd 1440 3bad fe3f
000000d0: f909 1840 531f 1740 9e01 e23f 5508 9d3e
000000e0: 2bb1 f93f ba9d 0e40 8aa4 cc3f 8b63 1f40
000000f0: a7c6 cf3f a52e 0440 3cc9 733e db32 3040
00000100: e44b 0a40 b676 1e40 59a7 e93f b2d0 3140
00000110: 08ed 2a40 27f6 0340 bbce 963f e484 fa3f
00000120: efaf 1240 5114 0c40
2.2205393 1.8295784 2.4403589 1.8724946 1.6846786 2.2200046 1.8566034 2.2594802
2.2815087 1.0936569 0.36196926 2.2573032 1.3628165 2.0063782 2.4660816 2.1755075
2.4012883 1.7285662 1.5498788 2.0024478 1.9039452 2.9491317 2.0493758 2.39918
1.9655411 2.0363219 2.1470227 1.7061304 1.4914088 2.1173103 2.0894353 0.107354484
1.6544989 1.1455033 1.873743 2.0027323 2.0340104 1.7668674 2.3604097 2.2887838
1.7765039 2.4867795 2.0488374 1.4434202 1.7552963 0.97984177 1.7610168 1.8533871
1.9420091 1.4905782 2.3279538 1.9896616 2.3756087 2.3612869 1.7656744 0.3067042
1.9507192 2.2283769 1.5987713 2.4904506 1.6232499 2.065347 0.23807234 2.753104
2.160882 2.4759955 1.8254195 2.7783628 2.6707172 2.061899 1.1781839 1.9571805
2.2919881 2.18874

7.odefunc.norm2.bias f4 [74]
00000000: 70a6 3cbf 29c3 06c0 ef35 2cbf 6525 0dbf
00000010: a90d f03d fc12 c2bf 56f8 2cbf ed95 b8bf
00000020: 3a74 9fbe ce8c acbf d26f 17c0 8909 63bf
00000030: d93c 09c0 d5ed 05bf b3ef d5bf 1b1a 82bf
00000040: 1387 a8bf 3efb 623d 686c 62bf 498e 35bf
00000050: f9dc caba 9b3b 4cc0 cd95 49bf ec6a 24c0
00000060: ca6b edbe db0a 3ebf 14cc 7bbf d01c a1be
00000070: fb7a 1a3f 6bcb 83bf 4af4 96bf de97 98bf
00000080: 37b3 d8be ef04 00c0 8096 46bf f27a 88be
00000090: d86f 38bf 712a 0fc0 5fbb bbbf 7add 76bf
000000a0: 0777 593e 7740 afbf a4ba 08bf 89aa ac3d
000000b0: 9540 a7be 32b9 96bf 01df 92be 6803 a1be
000000c0: 45f1 53bf 0bf8 093f 6cd2 96bf 1e26 6ebf
000000d0: 16a8 dcbf 6cef c1bf d1b2 16bf c349 05c0
000000e0: e074 13bf 53b2 02bf ae0c b73e 8cf7 0bc0
000000f0: b2d8 6bbf dac0 a8bf 9abd d6bf 8830 efbf
00000100: 41d0 a1be 8d29 6bbf 945f 35c0 9b64 01c0
00000110: 019d e7bf d5e9 cfbe 7e73 d8bf 6afe 6ebe
00000120: 1441 e3bf 6827 d6be
-0.73691463 -2.1056616 -0.67269796 -0.55135185 0.117213555 -1.5162044 -0.6756643 -1.4420754
-0.3114336 -1.348047 -2.3662 -0.88686424 -2.1443388 -0.5231603 -1.6713775 -1.0164217
-1.3166221 0.055415384 -0.88446665 -0.70920235 -0.0015477232 -3.191138 -0.787442 -2.569026
-0.463713 -0.74235314 -0.98358274 -0.31467295 0.60343903 -1.0296453 -1.1793301 -1.1921346
-0.4232423 -2.0003011 -0.77573395 -0.266563 -0.7204566 -2.2369654 -1.4666556 -0.96431696
0.21236812 -1.3691548 -0.5340979 0.084309645 -0.3266646 -1.1775267 -0.28685763 -0.3144791
-0.82790023 0.5389411 -1.1782966 -0.9302691 -1.7238796 -1.5151191 -0.588666 -2.082627
-0.5760021 -0.5105335 0.3575186 -2.186984 -0.92127526 -1.3183854 -1.6776612 -1.8686686
-0.31604198 -0.91860276 -2.8339586 -2.0217655 -1.8094789 -0.40608087 -1.6910245 -0.23339239
-1.7754235 -0.4182694
