experiment_node_mnist_v1/model.pth (torch, 839593 bytes, 24 tensors)

0.weight f4 [64, 1, 3, 3]
0	0xbe45f878	-0.19333065
1	0x3d98f0ef	0.074678294
2	0xbe92f7fd	-0.28704825
3	0xbea971a7	-0.33094522
4	0xbda083f4	-0.07837668
5	0xbe967c73	-0.29391822
6	0xbea9aac4	-0.33138096
7	0xbd07bca5	-0.03313889
8	0xbe8f06d0	-0.27934885
9	0xbe539f36	-0.20666203
10	0x3e007ea1	0.12548305
11	0x3eb9aeb8	0.36266112
12	0xbec314f4	-0.38101923
13	0x3de79458	0.11307591
14	0x3decf8f1	0.11570919
15	0xbeb08439	-0.34475878
16	0xbedf0cc5	-0.4356443
17	0xbd05a11a	-0.03262434
18	0x3e40dcd8	0.18834245
19	0x3e24f6b5	0.16109736
20	0xbd6160bf	-0.055023905
21	0x3b80864e	0.0039222604
22	0x3ed8741d	0.42276087
23	0x3eaac46f	0.33352992
24	0xbe464246	-0.19361219
25	0x3d564492	0.052311487
26	0xbee379ff	-0.44429013
27	0x3e8633d9	0.26211432
28	0xbde518eb	-0.11186393
29	0xbe3966d6	-0.18105635
30	0xbea3e7e4	-0.32012856
31	0xbeb65bca	-0.35616904
32	0x3e2f1944	0.17099482
33	0xbd8f04c0	-0.06983328
34	0xbe993d16	-0.29929417
35	0x3d95f532	0.07322158
36	0xbe5e8756	-0.21731314
37	0xbf5b7962	-0.8573209
38	0x3d736c16	0.05942925
39	0xbf0a5ccd	-0.5404785
40	0xbd060b9c	-0.032725915
41	0x3f46c719	0.7764755
42	0x3dce68e3	0.10078599
43	0x3ef57e74	0.4794804
44	0x3edae917	0.42755958
45	0x3d0ba3d8	0.0340918
46	0xbe312eb5	-0.17302974
47	0xbd534aac	-0.051584885
48	0xbeaaaaf3	-0.3333355
49	0x3e8945db	0.26811108
50	0x3e30a249	0.17249407
51	0x3dd47ae3	0.10375001
52	0x3dca975c	0.09892151
53	0xbe9eeca2	-0.31039912
54	0xbe2a54b3	-0.16633873
55	0xbe7326b8	-0.23745239
56	0x3cd70f56	0.02625243
57	0xbea9a95e	-0.3313703
58	0x3e31d319	0.17365684
59	0x3cc258a1	0.023723902
60	0x3ecc5033	0.39904937
61	0xbe0ada3d	-0.13559814
62	0x3ec620c8	0.38696885
63	0x3dac07fd	0.08399961
64	0x3e46ac4d	0.19401665
65	0x3ece3572	0.4027515
66	0xbe96aaf1	-0.29427293
67	0xbe9bff2a	-0.30468112
68	0xbe0b63b3	-0.13612251
69	0xbe645e29	-0.22301544
70	0xbe84a112	-0.25904137
71	0x3eb7081b	0.3574837
72	0x3e92f441	0.28701976
73	0x3e8ac957	0.27106735
74	0xbeecfc07	-0.46286032
75	0x3e885bfc	0.26632679
76	0xbe3449e1	-0.17606308
77	0x3e54a2eb	0.20765273
78	0x3ea3713f	0.31922337
79	0x3eba387c	0.3637122
80	0x3e82a9a5	0.25520054
81	0x3e8424b4	0.25809252
82	0x3e7ed11c	0.24884456
83	0x3eded593	0.4352232
84	0xbeb1be07	-0.34715292
85	0xbcbeb635	-0.023280242
86	0x3d59243f	0.053013083
87	0xbea5d4eb	-0.32389006
88	0xbf02130b	-0.5081031
89	0xbeab172d	-0.3341612
90	0x3ed75bbf	0.42062184
91	0x3e8274b0	0.2547965
92	0xbdbc6d7c	-0.0920057
93	0x3f0a979a	0.54137576
94	0xbd871dd8	-0.06597489
95	0xbec0b059	-0.37634543
96	0x3e1d7180	0.15375328
97	0xbef5b5d8	-0.47990298
98	0xbecb69c2	-0.39729124
99	0xbf084db3	-0.5324356
100	0xbdc9d113	-0.09854331
101	0x3dcb3b24	0.099233896
102	0xbdf4d016	-0.11953752
103	0x3ee4a2c2	0.44655424
104	0xbd28a861	-0.041176204
105	0x3ec505eb	0.38481078
106	0x3ea02c72	0.3128391
107	0xbdbaf386	-0.0912848
108	0x3e352f71	0.17693879
109	0xbdd65894	-0.10466114
110	0x3dbaba76	0.09117596
111	0x3eb07108	0.34461236
112	0x3e5e433e	0.21705338
113	0x3e680e1e	0.22661635
114	0xbf1ffca7	-0.6249489
115	0xbea0bb4c	-0.31392896
116	0x3cb62aed	0.022237265
117	0x3e522470	0.20521712
118	0xbf0293a9	-0.5100656
119	0xbf224d57	-0.6339926
120	0x3e7e7024	0.24847466
121	0x3e1a738b	0.15083139
122	0x3e90d84d	0.28290024
123	0x3eeaa52c	0.4582914
124	0x3ee80150	0.453135
125	0xbd31178d	-0.04323535
126	0x3c05b95a	0.008161867
127	0x3e991b1c	0.29903495
128	0xbc5e5ea7	-0.013572372
129	0x3e6a1b9c	0.22862095
130	0x3ec0bcf8	0.37644172
131	0x3eaa52fe	0.33266443
132	0xbe9a849b	-0.30179295
133	0xbe479e84	-0.19494063
134	0xbe82c795	-0.25542894
135	0xbeb570ae	-0.3543753
136	0xbf4509f5	-0.7696832
137	0xbdca9a92	-0.09892763
138	0xbe166176	-0.14685616
139	0x3e9275e9	0.28605583
140	0x3ecf9c0c	0.40548742
141	0x3f0769ca	0.52895796
142	0x3e47bbd9	0.19505252
143	0x3e87329d	0.26405802
144	0xbe40cb84	-0.18827635
145	0xbd939a34	-0.07207146
146	0xbebfe34b	-0.37478098
147	0xbe993bb1	-0.29928353
148	0x3e2b2992	0.16715077
149	0xbbd6ceb9	-0.006555405
150	0xbea0d456	-0.31412
151	0xbdc0f37a	-0.094214395
152	0xbea00df0	-0.31260633
153	0x3e7b6e26	0.24553737
154	0x3badb848	0.005301509
155	0xbce6bbd5	-0.028165737
156	0xbe6314f8	-0.22175968
157	0xbe251c93	-0.16124181
158	0xbeb16f94	-0.3465544
159	0xbe2c44d3	-0.1682313
160	0x3e6cfcda	0.2314333
161	0xbe68d9ef	-0.22739385
162	0x3e365bf2	0.17808512
163	0xbd1eec6e	-0.038799696
164	0xbd035430	-0.03206271
165	0x3cef78de	0.029232439
166	0x3dbb0977	0.09132665
167	0x3e7fef9a	0.24993744
168	0xbcc05b6f	-0.023481099
169	0xbe7c2b20	-0.24625826
170	0xbd9a8ef1	-0.07546795
171	0x3d644952	0.055733986
172	0x3cfb24e7	0.030657245
173	0x3eb01bb5	0.3439614
174	0xbdf0a7de	-0.11750768
175	0x3ee2ee56	0.4432246
176	0xbd96df4d	-0.0736681
177	0x3e9788da	0.29596597
178	0xbedc8d49	-0.43076542
179	0xbf0bd233	-0.54617614
180	0x3eb40ca6	0.351659
181	0xbed2269f	-0.4104509
182	0xbe4f3d07	-0.20238124
183	0x3e9273db	0.28604016
184	0xbdcd14a6	-0.10013704
185	0xbf03eba9	-0.51531464
186	0x3eb640d4	0.35596335
187	0xbe9dfffd	-0.30859366
188	0xbec5f77d	-0.3866538
189	0xbeb32122	-0.34986216
190	0xbf483efb	-0.782211
191	0xbf0bc5da	-0.5459877
192	0x3e1f67cd	0.1556694
193	0xbd8676e4	-0.06565645
194	0x3e49ebdc	0.1971888
195	0x3f013bfe	0.50482166
196	0x3ed488c0	0.41510582
197	0x3df476a4	0.119366914
198	0x3b74d93f	0.0037360934
199	0xbd7670ac	-0.060166046
200	0x3ee24007	0.44189474
201	0x3d8f4a3a	0.069965795
202	0xbe703e72	-0.23461321
203	0x3f0e7a65	0.5565551
204	0xbe4cd36d	-0.20002528
205	0xbf112194	-0.5669186
206	0x3d51eca8	0.051251084
207	0x3ee13549	0.43985966
208	0xbe2027ce	-0.15640184
209	0xbf7a42fd	-0.97758466
210	0x3ef8aafc	0.4856795
211	0x3f08cd60	0.5343838
212	0xbf85438a	-1.0411236
213	0x3eb97d2d	0.36228314
214	0x3f4e8ac1	0.8068047
215	0x3bdbe951	0.006711163
216	0xbcac7d57	-0.02105586
217	0x3edc554c	0.43033826
218	0xbe8c7581	-0.27433398
219	0xbe1869b3	-0.14884071
220	0x3e4a7bee	0.19773838
221	0x3de23be0	0.110465765
222	0xbd405d79	-0.046964142
223	0x3df68e52	0.12038864
224	0x3e840a30	0.25789022
225	0x3eb38390	0.35061312
226	0x3e8133ed	0.2523493
227	0x3d9019b5	0.07036153
228	0xbe74b98d	-0.23898907
229	0x3ea45ede	0.32103628
230	0xbeadfd5c	-0.3398236
231	0x3eb0e898	0.34552455
232	0xbd8dc224	-0.06921795
233	0x3ea55e96	0.32298726
234	0xbedf938b	-0.43667254
235	0xbe814260	-0.25245953
236	0xbed66520	-0.41874027
237	0xbe8555f6	-0.26042145
238	0x3df03a8f	0.11729919
239	0xbdf618c3	-0.12016442
240	0x3ecee9cf	0.40412757
241	0x3df272aa	0.11838277
242	0x3de12240	0.10992861
243	0x3e644e97	0.22295605
244	0x3e4103a0	0.18849039
245	0x3e4c8359	0.1997198
246	0x3d821089	0.0635081
247	0x3e0cbe15	0.13744386
248	0xbf00f8d9	-0.5037971
249	0xbf0a9e61	-0.5414792
250	0xbea31a96	-0.3185622
251	0xbe895586	-0.26823062
252	0x3e59efb2	0.21282843
253	0x3f028394	0.5098202
254	0x3e930564	0.2871505
255	0xbd93b14f	-0.07211553

0.bias f4 [64]
0	0x3e50417f	0.20337485
1	0x3d8b6c7e	0.068078026
2	0x3e549a22	0.20761922
3	0x3dad30e1	0.084565885
4	0xbd2a2df3	-0.041547727
5	0xbe011d64	-0.12608868
6	0x3e49849d	0.19679494
7	0xbe0de12e	-0.1385543
8	0x3e21095b	0.15726225
9	0x3e03ea4e	0.12882349
10	0x3e3f8cb1	0.18706013
11	0x3e37d173	0.17950992
12	0x3bed00e3	0.0072327717
13	0x3e143345	0.14472683
14	0xbc877a37	-0.016537769
15	0x3e24995f	0.16074131
16	0x3e2d9a5a	0.16953412
17	0xbde0f7e5	-0.10984782
18	0xbe249496	-0.16072306
19	0x3de7d4ea	0.11319907
20	0xbe0bd12e	-0.13654014
21	0xbdd84ae9	-0.10561163
22	0xbea16b71	-0.31527284
23	0xbe79e716	-0.24404559
24	0xbe711f5f	-0.23547123
25	0x3e5bc51e	0.21461913
26	0x3dc486f6	0.09596054
27	0xbc202cc8	-0.009776302
28	0x3dc0db66	0.09416847
29	0xbe84927e	-0.25893015
30	0x3e762b42	0.24039939
31	0x3c6fb080	0.014629483
32	0x3ec8feb6	0.3925683
33	0x3d94040b	0.07227334
34	0x3dee65dd	0.11640523
35	0x3de8b8c6	0.11363368
36	0x3e744360	0.23853827
37	0x3e300d50	0.17192578
38	0xbdf38c37	-0.11891978
39	0xbd7f6eda	-0.062361576
40	0xbe0308e9	-0.12796368
41	0x3d344d05	0.044018764
42	0xbc3e79bd	-0.011625704
43	0x3e6d804a	0.2319347
44	0x3daf6406	0.08564
45	0x3bdf498e	0.0068141883
46	0xbe8322ea	-0.25612575
47	0xbe379e81	-0.17931558
48	0xbdccbbed	-0.099967815
49	0xbe063cc4	-0.13109118
50	0xbe28391d	-0.16428037
51	0xbeb6fd8f	-0.35740325
52	0x3d98055d	0.07422898
53	0x3e890b61	0.26766494
54	0x3dadafaa	0.08480771
55	0x3d4a6d74	0.04942079
56	0xbe9f7d6b	-0.31150374
57	0xbe9f9c86	-0.31174105
58	0xbecc6c02	-0.39926153
59	0xbd4195a0	-0.047261834
60	0x3db4793c	0.08812186
61	0xbd55cdbb	-0.052198153
62	0x3de637a0	0.112410784
63	0x3da06a18	0.07832736

1.weight f4 [64]
0	0x3f891196	1.0708492
1	0x3f9e5c89	1.237199
2	0x3f3aae57	0.7292227
3	0x3f8141a1	1.0098153
4	0x3f6dbb72	0.92864144
5	0x3f86673a	1.0500252
6	0x3f371be5	0.7152694
7	0x3f82bfff	1.0214843
8	0x3f26426d	0.6494511
9	0x3f9f5bb3	1.2449859
10	0x3f77e75e	0.96837413
11	0x3f62abdb	0.8854348
12	0x3f87b4ab	1.060201
13	0x3f3fd17d	0.7492903
14	0x3f616a7e	0.8805312
15	0x3f3f28b2	0.7467147
16	0x3f342aa9	0.70377594
17	0x3f877373	1.0582107
18	0x3f80f7b4	1.0075593
19	0x3f43ecee	0.765334
20	0x3f9826ee	1.188688
21	0x3f983ebf	1.1894149
22	0x3f99421d	1.1973301
23	0x3fa198ba	1.2624733
24	0x3f847abd	1.0349957
25	0x3f1f2165	0.6216033
26	0x3f6d3bd5	0.9266942
27	0x3f9e351a	1.2359955
28	0x3f8fec46	1.124398
29	0x3f917d3c	1.1366343
30	0x3f274d27	0.653521
31	0x3f811e10	1.0087299
32	0x3f2c68db	0.67347497
33	0x3f800e61	1.0004388
34	0x3f8c2a78	1.095046
35	0x3faae238	1.3350286
36	0x3f88b46d	1.0680062
37	0x3f8a95b4	1.0826936
38	0x3f832a8c	1.0247359
39	0x3fac0eed	1.3442055
40	0x3f8ac60d	1.084169
41	0x3f94c51a	1.1622651
42	0x3fb1833d	1.3868176
43	0x3f838ec7	1.0277947
44	0x3f373853	0.7157032
45	0x3f884e00	1.0648804
46	0x3faa8520	1.3321877
47	0x3f7805b9	0.9688373
48	0x3f586d48	0.8454175
49	0x3f51646d	0.8179386
50	0x3f83a133	1.0283569
51	0x3f930467	1.1485718
52	0x3f916efa	1.1361992
53	0x3f86bce6	1.0526397
54	0x3f8f8d4b	1.1214994
55	0x3f77d048	0.96802187
56	0x3f82a1fb	1.0205683
57	0x3fa14cb7	1.2601537
58	0x3f7ad98e	0.9798821
59	0x3f801cc6	1.0008781
60	0x3f6bd528	0.92122126
61	0x3f8b07ce	1.0861757
62	0x3f335f48	0.7006726
63	0x3f761206	0.9612125

1.bias f4 [64]
0	0xbe13bb07	-0.14426814
1	0xbd1a8e80	-0.037733555
2	0xbe866bd2	-0.26254135
3	0x3c9334ae	0.017969456
4	0xbe99f046	-0.30066127
5	0x3d0f2c8e	0.0349546
6	0xbea85cb6	-0.32883233
7	0xb89a38f5	-7.353901e-05
8	0xbe9e3679	-0.30900934
9	0x3d021dd3	0.031766724
10	0xbde0f6aa	-0.109845474
11	0xbca6f669	-0.02038117
12	0x3c447c7a	0.011992568
13	0xbd9aa349	-0.075506754
14	0x3d14d7fc	0.03633879
15	0xbdc76191	-0.09735406
16	0xbea75d6d	-0.32688466
17	0x3df56bf2	0.119834796
18	0x3b7ec19b	0.0038872722
19	0xbe895d22	-0.26828867
20	0xbd87e8b3	-0.06636181
21	0x3d1c883f	0.038215872
22	0xbb02bdb5	-0.00199495
23	0xbe8364a1	-0.2566271
24	0xbd4d0333	-0.05005188
25	0xbed2783b	-0.41107354
26	0xbe2be09a	-0.16784897
27	0x3e001b53	0.12510423
28	0xbe976399	-0.29568174
29	0xbdd6c1d3	-0.10486188
30	0xbea94861	-0.33063033
31	0x3cec864d	0.028872633
32	0xbe70cbc2	-0.23515227
33	0xbb2ec9af	-0.0026670506
34	0xbe921779	-0.28533533
35	0xbe11415f	-0.14185093
36	0xbd9f4db4	-0.077784926
37	0xbd1ce2eb	-0.038302343
38	0xbd4a56e8	-0.049399287
39	0xbb2b1b85	-0.0026108932
40	0xbdfc0701	-0.123060234
41	0xbebbbea6	-0.3666889
42	0x3dd80847	0.10548454
43	0xbe8c3c1d	-0.27389613
44	0xbe720f98	-0.23638761
45	0xbd478e44	-0.04871966
46	0xbde98309	-0.11401946
47	0xbdd6f561	-0.10496021
48	0xbe229d25	-0.15880258
49	0xbe89c015	-0.2690436
50	0xbe30e633	-0.17275314
51	0x3d94f4d7	0.07273262
52	0x3cb3ede3	0.02196402
53	0xbe2e0ab1	-0.16996266
54	0xbdcb7de2	-0.099361196
55	0xbca57889	-0.020199077
56	0xbea061d8	-0.3132465
57	0x3c0c5ff6	0.008567801
58	0xbe84232c	-0.25808084
59	0xbe82babb	-0.2553309
60	0xbe801f33	-0.25023803
61	0x3d52b53b	0.051442366
62	0xbe1cb417	-0.15303074
63	0x3dc4fee1	0.09618927

3.weight f4 [64, 64, 4, 4]
0	0xbb7b392b	-0.0038333635
1	0x3d3e2ba8	0.046428353
2	0x3b030085	0.0019989323
3	0xbb4e9491	-0.0031521658
4	0x3d0b791c	0.034051046
5	0x3cc293b3	0.02375207
6	0x3d716e42	0.05894304
7	0xbaaa494b	-0.0012991814
8	0x3bd20c43	0.006410153
9	0x3b9d5529	0.0048014116
10	0x3ce09f95	0.027419845
11	0x3b45f69a	0.00302068
12	0xbc2c174c	-0.010503601
13	0x3c9143f2	0.017732594
14	0xbbf978d7	-0.007613282
15	0xbc4b79bd	-0.012419161
16	0x3d0dc43b	0.034610968
17	0x3da30ab8	0.07961029
18	0x3d902bd0	0.070396066
19	0x3d36b9c1	0.044610742
20	0x3d5e9469	0.054340754
21	0x3d77fcfc	0.060544
22	0x3c9d2ca8	0.019186333
23	0x3cf97ef6	0.030456048
24	0x3d1bf53d	0.038075674
25	0x3d2cc6d5	0.04218181
26	0x3cd7b3cf	0.026330857
27	0x3d1147bb	0.035468798
28	0x3d9d91b8	0.07693809
29	0x3d22d4d9	0.03975377
30	0x3a0819ba	0.0005191822
31	0xbd4870d9	-0.048935745
32	0xbcae1385	-0.021249542
33	0xbc1c9ee9	-0.0095593715
34	0x3d6f0e2d	0.05836313
35	0x3d81a8c9	0.06331021
36	0xbd4a04aa	-0.049320854
37	0xbc5dfea6	-0.013549482
38	0x3bdfc355	0.0068287053
39	0x3cdd52ee	0.027017083
40	0xbd471b9c	-0.048610315
41	0xbda01184	-0.07815841
42	0xbd982f32	-0.07430877
43	0xbc5b692c	-0.013391774
44	0x3d1a6bc4	0.03770043
45	0xbab18852	-0.0013544655
46	0xbc8e9bf2	-0.017408345
47	0xbd36d646	-0.04463794
48	0xbd031bdf	-0.032009
49	0x3d01f1a8	0.031724602
50	0x3c421a18	0.011847042
51	0x3d0ed95f	0.03487527
52	0x3c5b7076	0.013393512
53	0x3c5962b6	0.013268163
54	0x3c2061cc	0.009788942
55	0x3cd44099	0.025909709
56	0xbc567791	-0.01309003
57	0xbcb2c775	-0.021823624
58	0x3b4b6602	0.0031036143
59	0xbc8a50e0	-0.016884267
60	0xbcde831f	-0.027162133
61	0xbc25f57a	-0.010129327
62	0x3b39b0f6	0.0028334237
63	0x3bd078b2	0.0063620443
64	0x3d213fa0	0.03936732
65	0x3d3bfb78	0.045894116
66	0x3d38d8d3	0.045128655
67	0x3d19d892	0.037560053
68	0xba9f7356	-0.001216511
69	0xbd252698	-0.04032001
70	0xbd7a8295	-0.06115969
71	0xbd3d359c	-0.046193704
72	0x3c1549b7	0.009111813
73	0xbcb26970	-0.021778792
74	0xbd7e8af2	-0.062144227
75	0x3cea22b1	0.028580995
76	0xbe05aef6	-0.13055024
77	0xbd91b5d2	-0.071147576
78	0x3d83beb4	0.06432858
79	0x3db6d8e2	0.08928086
80	0xbca9901d	-0.020698601
81	0x3c8b3228	0.01699169
82	0xbcdbe48f	-0.026842384
83	0x3c9a4181	0.018830063
84	0x3cc69b05	0.024243841
85	0xbcefe00f	-0.029281644
86	0x3cdd30bd	0.02700078
87	0xbad5ef55	-0.0016321937
88	0xbd009fc6	-0.03140237
89	0x3ad200df	0.0016021988
90	0xbca61f69	-0.02027865
91	0xbc4488c7	-0.011995501
92	0xbc440209	-0.011963376
93	0xbcb18cc2	-0.021673564
94	0xbc4d5a9d	-0.012533811
95	0x3ce7c266	0.028290939
96	0x3c035979	0.008016937
97	0xbc05658b	-0.0081418855
98	0x3bc35d36	0.0059620393
99	0x3d0eec62	0.0348934
100	0xbbdd37d5	-0.0067510405
101	0x3bc60679	0.006043252
102	0x3c0308d4	0.00799771
103	0xbd4c4968	-0.049874693
104	0x3c80b8a6	0.015713047
105	0x3c24444d	0.01002605
106	0x3c5e5eeb	0.013572435
107	0xbce25046	-0.027626168
108	0xbcef7d68	-0.029234603
109	0xbc9a1e04	-0.01881314
110	0x3d15c1d9	0.03656182
111	0x3d104878	0.03522536
112	0x3ca4d4af	0.020120947
113	0xbb807200	-0.00391984
114	0x3be600cd	0.0070191384
115	0x3c364264	0.011124227
116	0xbcdd3234	-0.027001478
117	0x3cb434c8	0.021997824
118	0xbbc79688	-0.006090943
119	0xbc8ad3b3	-0.01694665
120	0x3d00b0f8	0.03141877
121	0xbc5c2176	-0.013435712
122	0x3ca38820	0.01996237
123	0xbc54a261	-0.012978167
124	0x3c6c2ed1	0.014415459
125	0x3cd08032	0.025451753
126	0xbc47f2a4	-0.012203846
127	0xbd1e3814	-0.0386277
128	0xbd85ed03	-0.06539347
129	0xbccd8cc1	-0.02509153
130	0x3d2cd647	0.04219654
131	0x3d94bf96	0.072631046
132	0xbd444bff	-0.047924038
133	0xbd779233	-0.06044216
134	0xbb647ef6	-0.0034865714
135	0xbbaa522d	-0.0051977844
136	0x3d12b101	0.035813335
137	0x3cf3917c	0.029732458
138	0x3bc416aa	0.005984147
139	0xbc4b1b0c	-0.012396585
140	0x3db26ca9	0.087121315
141	0x3dbb2865	0.09138564
142	0x3d89071c	0.06690809
143	0x3d1cf4ff	0.038319584
144	0xbc9f8d82	-0.019476656
145	0xbc79c409	-0.015244492
146	0x3ca62005	0.02027894
147	0x3c27cf38	0.010242276
148	0x3a084fdf	0.000519989
149	0xba386924	-0.000703471
150	0x3bfbcf8f	0.007684655
151	0x3c5f6b48	0.013636418
152	0x3c27947e	0.010228274
153	0xbac04aff	-0.0014670788
154	0xbd7a189d	-0.06105863
155	0xbd3966cd	-0.045264054
156	0xbbb12ce5	-0.005406963
157	0x3c92f318	0.017938182
158	0xbd112443	-0.035434972
159	0x3ba1f007	0.0049419436
160	0xbd14947e	-0.036274426
161	0xbc6795d1	-0.01413484
162	0x3c4ce069	0.012504675
163	0x3c11622b	0.008873503
164	0xbd5a5d7f	-0.05331182
165	0x3b2d1d6e	0.0026415247
166	0x3b1852ce	0.0023242715
167	0x3d67b18e	0.056565814
168	0xbd60be1f	-0.054868814
169	0xbd5cbc6b	-0.053890627
170	0xbc8024ab	-0.015642485
171	0x3b8f9eef	0.00438296
172	0xbd813086	-0.06308083
173	0xbdedbc11	-0.116081364
174	0xbdbdb4aa	-0.092629746
175	0xbd286537	-0.04111215
176	0xbba86ef3	-0.0051401793
177	0x3d0a72d7	0.033800926
178	0x3d188352	0.03723461
179	0xbc5cb803	-0.013471606
180	0x3cdf7dc9	0.027281659
181	0xbc0c4b4a	-0.008562872
182	0xbc8d613b	-0.017258277
183	0xbd92eeae	-0.07174431
184	0x3d02cb05	0.031931896
185	0x3d5a0e81	0.05323649
186	0xbc906f5e	-0.017631229
187	0xbadd61d0	-0.0016890112
188	0xbd7882ac	-0.060671493
189	0xbc8c9d0c	-0.01716473
190	0x3d4205b0	0.047368705
191	0x3dbda72b	0.092604004
192	0xbc04e5ac	-0.008111399
193	0xbc687de1	-0.014190168
194	0xbcaf9118	-0.02143149
195	0xbc1e2058	-0.009651266
196	0x3bb8ca68	0.005639363
197	0xbcb0682b	-0.021534046
198	0x3ac970c3	0.0015368689
199	0x3d065b4c	0.03280191
200	0xbd49f6bd	-0.049307574
201	0xbd92915d	-0.07156632
202	0xbd1dba12	-0.03850753
203	0xbd19e993	-0.03757627
204	0x3d3f202e	0.04666155
205	0xbbe33985	-0.006934347
206	0xbcf19328	-0.029489115
207	0xbc4adb94	-0.012381453
208	0x3c89da1c	0.016827635
209	0xbc76865e	-0.015046684
210	0x3d7291b2	0.059220977
211	0x3d8e8405	0.069587745
212	0xbd1d36ae	-0.038382225
213	0xbda218a0	-0.07914853
214	0xbda1a5dc	-0.07892963
215	0xbddbf59c	-0.10740206
216	0x3d6ca290	0.05777222
217	0x3c3f0b9a	0.011660481
218	0xbdbce245	-0.09222845
219	0xbdb8c999	-0.09022827
220	0x3d12f8ea	0.035881914
221	0x3df3f74a	0.11912401
222	0x3d96804a	0.07348688
223	0x3d52e1e9	0.051484976
224	0xbc6057c2	-0.013692798
225	0x3d0c0007	0.034179714
226	0x3ce88264	0.028382488
227	0x3cf63e5f	0.030059038
228	0x3ca6ea04	0.02037526
229	0x3d934a04	0.07191852
230	0x3d00af86	0.031417392
231	0x3d43d833	0.047813606
232	0xbd2de66b	-0.04245607
233	0xbd9fe4d1	-0.07807315
234	0xbd7e353a	-0.06206248
235	0xbd5f23d3	-0.054477524
236	0x3d7536d0	0.059866726
237	0xbc4b0710	-0.012391821
238	0xbceb5273	-0.028725838
239	0xbc9b2fdd	-0.018943721
240	0x3bc1b916	0.0059119565
241	0xbbec8449	-0.007217918
242	0xbca7e5a4	-0.020495243
243	0xbcc88f72	-0.024482463
244	0xbcc72fbb	-0.024314752
245	0xbd5b3bad	-0.053523708
246	0xbd98ea7c	-0.07466599
247	0xbda07393	-0.07834544
248	0x3c73974e	0.014867617
249	0x3c85bc5b	0.016325166
250	0xbda42651	-0.08015121
251	0xbd6fa973	-0.05851121
252	0xbd320ef0	-0.043471277
253	0x3b373082	0.0027952497
254	0x3dacc196	0.08435361
255	0x3dc96fc6	0.09835772

3.bias f4 [64]
0	0x3cf7108a	0.030159254
1	0xbcbc5cc6	-0.022993457
2	0xbd10f531	-0.035390083
3	0x3d276a54	0.040872887
4	0xbd5cfb85	-0.053950805
5	0x3d22a36f	0.039706644
6	0xbd14047d	-0.036137093
7	0x3d31adaa	0.04337851
8	0xbd2f2ec6	-0.042769216
9	0x3d78da52	0.06075508
10	0xbbc8e970	-0.0061313435
11	0x3d0d9c30	0.03457278
12	0x3b8e423b	0.0043413914
13	0xbc342d56	-0.010997137
14	0xbd83331a	-0.06406231
15	0x3d79bf57	0.06097349
16	0x3d10ebce	0.03538113
17	0xbae5d783	-0.0017535541
18	0xbdb906b8	-0.090344846
19	0x3da66602	0.08124925
20	0xbc780e0a	-0.015140066
21	0xbc7f115f	-0.015568106
22	0xbc142108	-0.009041078
23	0xbb99fe12	-0.004699477
24	0x3d20262b	0.0390989
25	0x3c75b3e7	0.014996505
26	0x3e003c40	0.12522984
27	0xbdb17367	-0.086645894
28	0x3c802bbd	0.015645856
29	0x3cf76829	0.030201035
30	0x3d0fd8d5	0.035118897
31	0xbd9026f3	-0.07038679
32	0xbd97a2ee	-0.07404123
33	0x3d76da43	0.060266744
34	0x3d9ae897	0.07563894
35	0xbda79ce5	-0.08184222
36	0xbd3e9c82	-0.046535976
37	0x3d34f885	0.04418232
38	0x3d74f485	0.059803504
39	0xbcdeb791	-0.02718714
40	0x3daa7a9a	0.08324166
41	0xbd2c8556	-0.042119347
42	0xbc7776ce	-0.015104009
43	0x3ae8b0f1	0.0017752928
44	0x3cfde4cd	0.03099289
45	0xbca0f220	-0.019646704
46	0x3c392636	0.011300614
47	0x3d212539	0.03934214
48	0xbbd3dd5a	-0.006465596
49	0xbc50745d	-0.012723056
50	0x3b9c8ab8	0.0047772788
51	0x3c91f81a	0.0178185
52	0xbd60508d	-0.05476432
53	0x3d0548dc	0.032540187
54	0x3d0daddd	0.034589637
55	0xbd85cbea	-0.06533034
56	0xbd02203e	-0.03176903
57	0x3d238a59	0.03992686
58	0x3c0dc011	0.008651749
59	0xbc927c21	-0.017881455
60	0xbcf68e0d	-0.030097032
61	0x3c794957	0.0152152395
62	0x3cfa40b7	0.030548437
63	0xbc1790cc	-0.009250831

4.weight f4 [64]
0	0x3f2a2f18	0.6647811
1	0x3f729539	0.94758946
2	0x3f812a33	1.0091003
3	0x3f2e071e	0.6797961
4	0x3f0624e7	0.5240006
5	0x3f49ce7d	0.788307
6	0x3f19605c	0.5991266
7	0x3f9a17eb	1.2038549
8	0x3f573e72	0.8407966
9	0x3d88a939	0.06672902
10	0x3f5a305f	0.8523006
11	0x3f61809d	0.88086873
12	0x3f6cd488	0.92511797
13	0x3f46348b	0.77423924
14	0x3f35a5fe	0.7095641
15	0x3ee8d14d	0.45472184
16	0x3ec78984	0.38972104
17	0x3f2f73bf	0.6853599
18	0x3f9056ad	1.1276451
19	0x3f66e43a	0.90191996
20	0x3f0f8fae	0.5607861
21	0x3f4b7cb0	0.79487133
22	0x3f2a92b6	0.66630113
23	0x3f9765dd	1.1827961
24	0x3f5697f5	0.8382562
25	0x3f50f737	0.8162722
26	0x3f334946	0.7003368
27	0x3f89daf1	1.0769941
28	0x3f58c332	0.84672844
29	0x3f5196b8	0.81870604
30	0x3f96f236	1.1792667
31	0x3f290706	0.6602634
32	0x3f66864c	0.9004867
33	0x3e822957	0.25422165
34	0x3f817fd4	1.0117135
35	0x3f631aee	0.88712966
36	0x3f612083	0.87940234
37	0x3eb109c1	0.34577754
38	0x3ed400d1	0.41406873
39	0x3f67aabb	0.9049489
40	0x3f5e3ea0	0.8681431
41	0x3f43dcc0	0.7650871
42	0x3f59ea5e	0.8512324
43	0x3f438b77	0.7638468
44	0x3f00c287	0.50296825
45	0x3f34c2fd	0.7061003
46	0x3f2658d6	0.649793
47	0x3f4fa991	0.8111811
48	0x3f972d43	1.1810688
49	0x3f53202f	0.82470983
50	0x3f190994	0.5978024
51	0x3ed7ce90	0.42149782
52	0x3f633e4a	0.8876692
53	0x3f09238f	0.53569883
54	0x3ed13a49	0.4086478
55	0x3f62527a	0.884071
56	0x3f5734c0	0.84064865
57	0x3f6a05e6	0.9141525
58	0x3ee4cab5	0.44685903
59	0x3f6936ca	0.91099226
60	0x3f793b8c	0.97356486
61	0x3ecc4777	0.39898273
62	0x3f151d49	0.5824781
63	0x3f24a5bf	0.6431541

4.bias f4 [64]
0	0xbf704677	-0.9385752
1	0xbdbd5bd9	-0.09246034
2	0xbed04fb6	-0.40685815
3	0xbf570327	-0.83989185
4	0xbbea23c9	-0.007145379
5	0xbef6813a	-0.48145467
6	0xbf030148	-0.5117383
7	0xbe9f2481	-0.31082538
8	0xbe8c52d4	-0.27406943
9	0xbed84dbe	-0.42246813
10	0xbedbd940	-0.42939186
11	0xbf5c6d02	-0.8610383
12	0xbf78e322	-0.9722158
13	0xbeee3a79	-0.46528986
14	0x3cbb195d	0.022839243
15	0xbedb0c56	-0.4278285
16	0xbf59ae14	-0.8503125
17	0xbf085ad3	-0.53263587
18	0x3e08b1f7	0.13349138
19	0xbf4be6fd	-0.79649335
20	0xbdbeb37c	-0.09311578
21	0xbecbb6f7	-0.3978803
22	0xbf2ffbda	-0.6874367
23	0xbea5849a	-0.3232773
24	0xbe8f6ca9	-0.2801259
25	0xbf8806db	-1.0627092
26	0xbf1a4003	-0.60253924
27	0xbe37c4d9	-0.17946185
28	0xbef799d6	-0.48359555
29	0xbec02c3d	-0.3753375
30	0xbf49acb9	-0.7877918
31	0xbe8760be	-0.26440996
32	0xbe71801b	-0.23584025
33	0xbe2660e2	-0.16247895
34	0xbf6bfd0e	-0.92183006
35	0xbe2c0912	-0.16800335
36	0xbe805420	-0.25064182
37	0xbe99f0fe	-0.30066675
38	0xbe805a75	-0.25069013
39	0xbebd017e	-0.369152
40	0xbf16cc98	-0.58905935
41	0xbe6fa565	-0.23402937
42	0xbe93bb7a	-0.2885397
43	0xbef26157	-0.4733989
44	0xbf8459e0	-1.0339928
45	0xbecb6c24	-0.39730942
46	0xbecbfc16	-0.39840764
47	0xbf02cd40	-0.51094437
48	0xbf2b8cd3	-0.67011756
49	0xbf049536	-0.5179018
50	0xbe93956a	-0.2882493
51	0xbe8e8ed1	-0.27843335
52	0xbec0f896	-0.37689656
53	0xbe3f68c2	-0.18692306
54	0xbef0f88f	-0.47064635
55	0xbe327195	-0.1742614
56	0xbeabd7da	-0.3356312
57	0xbf078f43	-0.52952975
58	0xbebb2def	-0.36558482
59	0xbea3a03e	-0.31958193
60	0xbe39ab41	-0.18131734
61	0xbf14d6c5	-0.5814021
62	0xbd822494	-0.06354633
63	0xbf3bfda1	-0.7343388

6.weight f4 [64, 64, 4, 4]
0	0x3d43439b	0.047671895
1	0x3bef12e8	0.007295955
2	0x3d177223	0.036974084
3	0x3c3e3649	0.011609622
4	0xbd076b4b	-0.033061307
5	0x3c6a8530	0.014313981
6	0xbcac895f	-0.021061597
7	0x3d0b5e6b	0.03402559
8	0xbb90d0be	-0.0044194153
9	0xbc3f826e	-0.011688812
10	0xbd272ac0	-0.040812254
11	0x3be99a24	0.0071289707
12	0x3c129530	0.008946702
13	0x3d15bfe6	0.03655996
14	0x3c3f1db8	0.0116648
15	0x3d076ed7	0.03306469
16	0x3cdf8149	0.027283328
17	0x3d17c08e	0.03704887
18	0x3ce3146b	0.027719697
19	0x39b85a34	0.0003516242
20	0x3d088c97	0.033337202
21	0x3d2eb4a0	0.042652726
22	0x3cb7dc2f	0.022443859
23	0x3d4e8e26	0.050428532
24	0xbc4686a7	-0.012117065
25	0x3c2f6490	0.010705128
26	0x3b485b9a	0.0030572177
27	0x3d3245f6	0.04352375
28	0x3ba80949	0.00512806
29	0x3b53cd8b	0.0032318558
30	0x3c080348	0.008301564
31	0x3b90793a	0.0044089826
32	0xbd911e76	-0.07085888
33	0x3c578d46	0.013156241
34	0x3cad2976	0.021137934
35	0x3d81f02c	0.06344637
36	0xbc612f01	-0.013744117
37	0xbc67c21c	-0.0141454
38	0x3d128c4b	0.035778325
39	0x3d2fda5a	0.042932846
40	0x3d24d588	0.0402427
41	0x3c2a7945	0.0104048895
42	0xbd092e78	-0.03349158
43	0x3c90f555	0.017695108
44	0x37fdf8d9	3.0275829e-05
45	0xbd733663	-0.05937804
46	0xbd9b5abd	-0.07585666
47	0xbdc93762	-0.098250166
48	0xbc69761f	-0.014249354
49	0xbcaca0fb	-0.021072855
50	0xbd8f0a15	-0.06984345
51	0xbd99c068	-0.07507402
52	0xbcf7e85b	-0.030262163
53	0x3ca50050	0.02014175
54	0xbc70b363	-0.014691207
55	0xbcad8add	-0.02118438
56	0xbd77daad	-0.06051128
57	0x3b05bb32	0.0020405767
58	0xbd84dc3f	-0.06487321
59	0x3cc72925	0.024311611
60	0x3ca70d38	0.020392045
61	0xbc5a6929	-0.013330736
62	0x3c067c2a	0.008208314
63	0x3b7f37ff	0.0038943288
64	0xbbf633fa	-0.0075135203
65	0xbcfa4cd9	-0.030554222
66	0x3cca114e	0.024666455
67	0x3cd8d4c0	0.026468635
68	0xbcc68f04	-0.024238117
69	0xbd40ece4	-0.047100917
70	0xbd68ba5a	-0.056818344
71	0xbd0ddd79	-0.03463504
72	0xbc238c0a	-0.009982118
73	0xbd8f7a6d	-0.07005773
74	0xbd0b0462	-0.033939727
75	0xbe2d54fb	-0.16926949
76	0x3cf77782	0.030208353
77	0x3b8105b8	0.0039374493
78	0xbd6af267	-0.05736008
79	0xbd9393fa	-0.07205959
80	0xbd31a11c	-0.043366536
81	0xbba9eda4	-0.0051857997
82	0xbda5e1bb	-0.08099695
83	0xbdca792a	-0.098863915
84	0xbc8d0207	-0.01721288
85	0x3d888235	0.0666546
86	0x3dc912b8	0.098180234
87	0x3ceb4feb	0.028724631
88	0x3d667616	0.05626496
89	0x3d1c3770	0.038138807
90	0x3da4036b	0.080084644
91	0x3dd0c7af	0.101943366
92	0x3ce2b7c3	0.027675515
93	0xbd5c7c12	-0.05382926
94	0x3d69c468	0.057072073
95	0xbd2a06ff	-0.04151058
96	0x3b74de28	0.003736386
97	0xbc6252c0	-0.013813674
98	0x3d0c1003	0.034194957
99	0x3d583ec5	0.052794237
100	0xb907b2c3	-0.00012941197
101	0xbd250db3	-0.040296268
102	0xbc6c1f94	-0.014411826
103	0xbcd40334	-0.025880434
104	0xbc112980	-0.008859992
105	0xbc8a9089	-0.016914623
106	0xbd82953e	-0.06376122
107	0x3c80624a	0.015671868
108	0xbd1c4c40	-0.038158655
109	0xbb5592a9	-0.0032588637
110	0xbc97f98f	-0.018551616
111	0xbb17545c	-0.0023091054
112	0x3d121698	0.03566608
113	0x3d0ccdb1	0.03437585
114	0x3d9abb27	0.07555228
115	0xbcca06dd	-0.024661476
116	0x3c83a352	0.016069088
117	0x3d7cce6e	0.061720304
118	0xbc516fd5	-0.0127830105
119	0xbd64a9cf	-0.055826005
120	0x3d70b048	0.058761865
121	0x3d156a19	0.036478136
122	0x3d9c9cd2	0.076470986
123	0xbbffa0c7	-0.0078011486
124	0x3d012869	0.03153268
125	0x3d4a437c	0.049380764
126	0xbb7cf519	-0.0038598238
127	0xbc9604de	-0.018312868
128	0xbc607034	-0.013698626
129	0xbc9301e2	-0.017945234
130	0x3c46248e	0.012093676
131	0xbaa34d4c	-0.0012458949
132	0x3c66fcb4	0.014098335
133	0xbc202aa7	-0.009775794
134	0xbc26464c	-0.010148596
135	0xbd070601	-0.03296471
136	0x3b01766f	0.001975443
137	0xbd29f018	-0.041488737
138	0xbb7fac2b	-0.0039012532
139	0xbc99a157	-0.01875369
140	0x3c503669	0.012708285
141	0x3ceaf7ea	0.028682668
142	0xbcb495d2	-0.022044096
143	0xbc7edc60	-0.015555471
144	0xbd21eef6	-0.03953453
145	0xbd5d7d5a	-0.054074623
146	0xbce312b7	-0.027718885
147	0xbd205e56	-0.039152466
148	0xbb75e049	-0.0037517718
149	0xbc16593c	-0.009176549
150	0xbca433d3	-0.020044243
151	0xbcf780f0	-0.03021285
152	0xbbf80020	-0.0075683743
153	0x3d365bec	0.044521257
154	0x3ce518e9	0.02796598
155	0xbc85197c	-0.016247503
156	0x3d968c21	0.07350946
157	0x3d69b45c	0.05705677
158	0x3c7ce865	0.015436267
159	0x3d03861c	0.03211032
160	0x3c85bdd3	0.016325867
161	0xbc48729f	-0.012234359
162	0x3d114d88	0.03547433
163	0x3ce3fec9	0.027831452
164	0x3d6d512b	0.057938736
165	0x3d3bf65b	0.04588924
166	0x3d20960e	0.039205603
167	0x3d92fb9c	0.07176897
168	0x3ce09e41	0.027419211
169	0x3d388177	0.045045342
170	0x3d6bd62c	0.057577297
171	0x3d3526f8	0.044226617
172	0x3d4edd78	0.050504178
173	0x3a83f103	0.0010066334
174	0x3cc7886e	0.024357047
175	0x3d62344c	0.055225655
176	0xbd14b7ba	-0.036308028
177	0xbd001125	-0.03126635
178	0xba558303	-0.00081448274
179	0x3c4e82a5	0.01260439
180	0x3d0473f8	0.03233716
181	0x3ba794ff	0.0051141973
182	0xbcf2e132	-0.029648397
183	0x3d11986e	0.03554576
184	0xbcb7f7a9	-0.02245696
185	0x3cb07e47	0.021544589
186	0x3b34cedd	0.002758912
187	0x3d2b19d7	0.04177269
188	0x3caa3462	0.020776931
189	0x3cc22848	0.023700848
190	0x3dad4e6c	0.084622234
191	0x3dc8548a	0.097817495
192	0x3c403162	0.011730524
193	0xbc40dab6	-0.011770895
194	0xbcad4198	-0.021149442
195	0x3c972290	0.018449098
196	0x3c395a77	0.011313072
197	0x3db4e076	0.08831875
198	0x3c443106	0.011974579
199	0x3cf3ab84	0.029744871
200	0x3ae92013	0.0017786048
201	0x3d9def03	0.077116035
202	0xbc576a78	-0.013147943
203	0x3cd3e6b0	0.025866836
204	0xbd238106	-0.03991797
205	0x3cc87d0b	0.024473688
206	0x3d025a22	0.03182424
207	0xbcbf3920	-0.023342669
208	0xbc6abf5b	-0.014327849
209	0x3cd84d6d	0.026404107
210	0xbd1ff7eb	-0.039054792
211	0xbd3796d4	-0.044821575
212	0xbca4ea9a	-0.020131398
213	0xbd6dc930	-0.058053195
214	0xbd00fc05	-0.031490345
215	0xbd2f73c8	-0.042835027
216	0x3c43f414	0.011960048
217	0x3cd21c05	0.025648126
218	0x3d529993	0.05141599
219	0x3ce60d86	0.02808262
220	0x3dab24c4	0.08356622
221	0x3cb7336f	0.022363393
222	0xbc9140ba	-0.01773106
223	0xbcaa9b75	-0.02082608
224	0xbcae6185	-0.021286735
225	0x3b60dfce	0.0034313085
226	0x3d4117ba	0.047141768
227	0x3d492aea	0.04911319
228	0xbc174a56	-0.009234032
229	0x3c06c3de	0.008225409
230	0x3bfdef65	0.0077494853
231	0xbcb0f877	-0.021602852
232	0xbd7a230f	-0.06106859
233	0xbd22e09d	-0.03976499
234	0xbd727e8f	-0.059202727
235	0xbd9a5e19	-0.07537479
236	0xbc71a9d8	-0.014749967
237	0xbd6153ae	-0.055011444
238	0xbd5cbd1c	-0.053891286
239	0xbd44b42e	-0.048023395
240	0xbd60adaa	-0.05485312
241	0xbdff0afe	-0.124532685
242	0xbdc7094a	-0.097185686
243	0xbdc899f6	-0.09794991
244	0xbbe4672a	-0.006970306
245	0xbdc2d93d	-0.09514091
246	0xbdf39b33	-0.11894836
247	0xbdab7371	-0.08371628
248	0x3dd15bcf	0.10222589
249	0x3d061f35	0.032744605
250	0xbd4c4472	-0.049869962
251	0xbceca3b1	-0.028886648
252	0x3c902373	0.017595029
253	0x3d28e5bc	0.041234717
254	0xbc9191cb	-0.017769715
255	0x3d755df5	0.059904058

6.bias f4 [64]
0	0x3c52f3c5	0.012875502
1	0xbca97d41	-0.020689609
2	0x3cbdfddd	0.02319234
3	0x3c47f41a	0.012204194
4	0xbe12b1d6	-0.14325652
5	0x3e0f4726	0.13991985
6	0x3cbe2c95	0.023214618
7	0xbcf697c6	-0.030101668
8	0xbe977cbb	-0.2958735
9	0x3e8db1dc	0.27674758
10	0x3e26e58d	0.16298504
11	0xbe08d738	-0.1336335
12	0xbd8d21aa	-0.068911865
13	0x3d6d5a80	0.057947636
14	0xbe314292	-0.17310551
15	0x3e3f3ce0	0.18675566
16	0xbc5dc567	-0.013535834
17	0x3d017ffc	0.031616196
18	0xbeb44383	-0.35207757
19	0x3eade030	0.33960104
20	0xbda1a4d7	-0.07892769
21	0x3d29c186	0.041444324
22	0xbe8bbfef	-0.2729487
23	0x3e5cac72	0.21550158
24	0xbe6695f2	-0.22518137
25	0x3e6a9dce	0.2291176
26	0xbe616ed2	-0.22014931
27	0x3e2dec75	0.16984732
28	0xbe75acde	-0.23991725
29	0x3e7845b5	0.24245341
30	0x3d87ddbd	0.0663409
31	0xbd5f97e3	-0.05458821
32	0x3d05e19c	0.03268586
33	0x3ca8528d	0.020547176
34	0xbd72a102	-0.05923558
35	0x3d9c6b19	0.07637615
36	0x3d7cd4b4	0.061726287
37	0xbd45406e	-0.048157148
38	0xbe44b828	-0.19210875
39	0x3e3e4106	0.18579492
40	0x3d0ee350	0.03488475
41	0xbd280885	-0.04102375
42	0x3e979bab	0.29610953
43	0xbe8dad41	-0.27671245
44	0xbe33d0d4	-0.1756013
45	0x3e3429c9	0.17594065
46	0x3c1a3ca5	0.009413873
47	0x3d386ecf	0.04502755
48	0xbdec5da0	-0.11541295
49	0x3dc1ab39	0.09456486
50	0xbd267213	-0.040636133
51	0x3d037dc1	0.03210235
52	0xbd34060c	-0.04395108
53	0x3d0cb4cd	0.034352113
54	0x3e1addb2	0.15123633
55	0xbdfb08b4	-0.12257519
56	0x3bb90e40	0.0056474507
57	0xbd1961f5	-0.037446935
58	0x3e5c9c6f	0.2154405
59	0xbe67ade8	-0.22624934
60	0x3da690e0	0.081331015
61	0xbdaec416	-0.08533494
62	0xbd031200	-0.031999588
63	0x3d04f7b9	0.03246281

7.odefunc.norm1.weight f4 [64]
0	0x3f5289b3	0.8224136
1	0x3fa85f53	1.3154091
2	0x3f83d393	1.0298942
3	0x3f314436	0.69244707
4	0x3f951f42	1.1650164
5	0x3f7fd36c	0.9993198
6	0x3f86ec9a	1.0540955
7	0x3f78f4ff	0.97248834
8	0x3fa23f96	1.2675655
9	0x3fb511f6	1.4146106
10	0x3f8b26da	1.0871232
11	0x3fb855b0	1.440115
12	0x3ef8dba0	0.4860506
13	0x3f8389d1	1.0276433
14	0x3f9bb174	1.2163529
15	0x3f6dac4f	0.9284105
16	0x3fc259b8	1.518363
17	0x3f37caeb	0.71794003
18	0x3f9c3601	1.2203981
19	0x3f8b40df	1.0879172
20	0x3f924005	1.1425787
21	0x3f512622	0.8169881
22	0x3f8eab8d	1.1146103
23	0x3f4003ac	0.750056
24	0x3f8b600f	1.088869
25	0x3f85746f	1.0426158
26	0x3f965e0c	1.1747451
27	0x3f6db0e2	0.92848027
28	0x3fac312d	1.3452507
29	0x3f722b32	0.9459716
30	0x3f67a160	0.90480614
31	0x3f85a30b	1.0440382
32	0x3f8484ee	1.0353067
33	0x3f98cd0b	1.1937574
34	0x3f1a453b	0.6026189
35	0x3f849dd4	1.0360665
36	0x3f862d0d	1.0482498
37	0x3f7d42e5	0.989302
38	0x3f850ab7	1.0393895
39	0x3f213844	0.6297648
40	0x3f928384	1.1446385
41	0x3f8e9ab5	1.1140963
42	0x3f9cc6a8	1.2248125
43	0x3f9d36e3	1.2282375
44	0x3f940436	1.1563785
45	0x3f89e25f	1.0772208
46	0x3fa7d52e	1.3111932
47	0x3f9ebce7	1.2401398
48	0x3f875f73	1.0576004
49	0x3f805996	1.002734
50	0x3f6f9e4f	0.93600935
51	0x3f9c23f2	1.219847
52	0x3f57f2fc	0.8435514
53	0x3fabfa0b	1.3435682
54	0x3f20d32a	0.6282221
55	0x3f98d50e	1.1940019
56	0x3f8fd7d1	1.1237737
57	0x3f9cb2c9	1.2242061
58	0x3f97129a	1.1802552
59	0x3f890aa2	1.070637
60	0x3f84518b	1.0337385
61	0x3f3c9905	0.7367099
62	0x3f85a473	1.0440811
63	0x3f7e7bd9	0.99407727

7.odefunc.norm1.bias f4 [64]
0	0xbecaae93	-0.39586315
1	0xbe859eba	-0.2609766
2	0x3d407809	0.046989474
3	0xbece60d9	-0.40308264
4	0xbea0eeb4	-0.31432116
5	0xbee2adc8	-0.4427321
6	0xbef40074	-0.47656596
7	0xbf0b6150	-0.5444536
8	0xbe2b12ec	-0.16706437
9	0xbf35803a	-0.70898783
10	0xbeead453	-0.45865116
11	0xbee5e23a	-0.4489916
12	0xbf035aa3	-0.51310176
13	0x3cb0e14f	0.02159181
14	0xbed1d10e	-0.4097981
15	0xbeca6256	-0.3952815
16	0xbd57e417	-0.052707758
17	0xbefd2498	-0.4944198
18	0x3c51d2a0	0.012806565
19	0xbf50f40c	-0.81622386
20	0xbe80c4da	-0.25150186
21	0xbf148225	-0.58011085
22	0xbeaf3de9	-0.3422692
23	0xbf14610c	-0.5796058
24	0xbe58a670	-0.21157241
25	0xbf08566e	-0.5325688
26	0xbe85adbd	-0.26109114
27	0xbedf5fa2	-0.4362765
28	0xbe3d3865	-0.18478544
29	0xbeea591f	-0.4577112
30	0xbf131ae1	-0.5746289
31	0xbeb6dd41	-0.35715678
32	0xbf326e43	-0.69699496
33	0xbf0e3a7e	-0.55558
34	0xbf2b9bef	-0.6703481
35	0x3ca9ea85	0.02074171
36	0xbec8722c	-0.39149606
37	0xbf134fdb	-0.57543725
38	0xbd8eb9e7	-0.06969052
39	0xbf1f2d78	-0.62178755
40	0xbe98a2cc	-0.29811704
41	0xbf115f76	-0.56786287
42	0xbf13ec46	-0.577824
43	0xbec6c632	-0.38823086
44	0xbe9be475	-0.30447736
45	0xbedc4d96	-0.43027943
46	0xbf0c81ec	-0.54885745
47	0xbf1116e2	-0.5667554
48	0xbeb24dfd	-0.34825125
49	0xbec1998d	-0.37812462
50	0xbf135f70	-0.575675
51	0xbdb14822	-0.08656336
52	0xbf524dfe	-0.82150257
53	0x3ad998b3	0.0016601294
54	0xbf276885	-0.6539386
55	0xbc93e48e	-0.01805332
56	0xbed074e2	-0.40714175
57	0xbee0c6e6	-0.43901747
58	0xbf54aa29	-0.83072144
59	0xbdce0791	-0.10060037
60	0x3d2ce7f1	0.042213384
61	0xbefd6f2c	-0.4949888
62	0xbf02bc28	-0.51068354
63	0xbf171579	-0.5901714

7.odefunc.conv1._layer.weight f4 [64, 65, 3, 3]
0	0xbd9de845	-0.077103175
1	0xbd5167cb	-0.051124375
2	0xbd0a12cd	-0.033709336
3	0xbc4b7c51	-0.012419776
4	0xbc9c6dc4	-0.01909531
5	0xbd1ab1b1	-0.037767116
6	0xbd24e2d8	-0.040255398
7	0xbc86d3e8	-0.016458467
8	0xbdb04a14	-0.08607879
9	0xbdc40182	-0.095706
10	0x3d82d839	0.063888974
11	0x3d55949a	0.05214367
12	0xbe30b023	-0.17254691
13	0x3c957543	0.018244391
14	0x3e9c1e55	0.30491892
15	0x3c8631ef	0.016381232
16	0x3d93243e	0.07184647
17	0x3e11d8b1	0.14242817
18	0x3db247fd	0.08705137
19	0x3d99353e	0.07480858
20	0x3dbf1420	0.093300104
21	0x3cc144fe	0.023592468
22	0x3e209bc1	0.15684415
23	0x3ddb8e32	0.10720481
24	0x3cb28e63	0.02179641
25	0xbd1dc2cd	-0.038515855
26	0xbd05751a	-0.03258238
27	0xbd3f78ff	-0.04674625
28	0xbb40b3be	-0.002940401
29	0xbc8c375c	-0.017116241
30	0xbc024899	-0.007951879
31	0x3d2e2ed9	0.042525146
32	0xbc59209a	-0.013252402
33	0x3d439ce2	0.047757037
34	0x3d41d9fc	0.047327027
35	0x3cc13a4a	0.023587365
36	0xbd8470be	-0.06466816
37	0xbeb0f375	-0.34560743
38	0xbe76ee40	-0.24114323
39	0x3c7a2895	0.015268465
40	0x3d7b5c33	0.061367225
41	0x3db5f824	0.0888522
42	0xbe203fc1	-0.1564932
43	0x3e58cd9d	0.21172185
44	0x3cabcf06	0.02097274
45	0xbe0d13ff	-0.13777159
46	0xbe15f756	-0.14645132
47	0xbe0c7c15	-0.13719209
48	0xbd96d57b	-0.07364937
49	0xbe51ad8e	-0.20476362
50	0xbe311de0	-0.17296553
51	0xbc2fbb67	-0.010725833
52	0xbca6ff2e	-0.020385351
53	0x3d8cee85	0.068814315
54	0x3ea66acf	0.32503363
55	0x3c1687e5	0.009187673
56	0xbe0ae8f1	-0.13565423
57	0x3e20d0e8	0.15704691
58	0x38d12887	9.9734454e-05
59	0xbd6b286c	-0.057411596
60	0x3c54efe7	0.01299665
61	0xbdaa0cb5	-0.08303205
62	0xbd54785c	-0.051872596
63	0x3b4371d9	0.0029822497
64	0xbd235611	-0.039877
65	0xbcd7f789	-0.026363151
66	0x3d934a58	0.07191914
67	0x3e487fbb	0.19579975
68	0xba15f5fa	-0.0005720552
69	0x3e511e3a	0.20421687
70	0x3e62d20b	0.22150438
71	0xbb496d68	-0.0030735377
72	0xbdf1a834	-0.1179966
73	0x3dab1bd1	0.08354915
74	0xbc6595a5	-0.014012729
75	0x3e01da49	0.12680925
76	0xbd52baff	-0.051447865
77	0xbe337465	-0.1752487
78	0x3d586094	0.05282648
79	0xbd4a8e01	-0.04945183
80	0x3db7088f	0.08937179
81	0x3de7a3d0	0.11310542
82	0xbd6e582d	-0.05818956
83	0xbe1404f0	-0.14455009
84	0x3d9f4ef8	0.07778734
85	0x3de7bdb8	0.11315483
86	0xbd8c0ebf	-0.0683875
87	0xbdc25b34	-0.09490052
88	0xbddd2f8e	-0.10800086
89	0xbd90db43	-0.07073071
90	0x3d877167	0.06613427
91	0xbe2f7cd4	-0.17137462
92	0xbe6ee817	-0.23330723
93	0x3e89dd97	0.26926872
94	0xbd8cb98a	-0.06871326
95	0xbe38ee45	-0.18059643
96	0xbe2e04b9	-0.16993989
97	0x3e0151e2	0.12628892
98	0x3d17cabf	0.037058588
99	0xbd844222	-0.06457926
100	0x3d0a4019	0.033752535
101	0x3d85d843	0.06535389
102	0xbead7e92	-0.33885628
103	0xbe0d0640	-0.13771915
104	0x3e8b9acc	0.27266538
105	0xbe6dafdd	-0.23211618
106	0xbdbb36e4	-0.09141329
107	0xb91fb3c6	-0.00015230392
108	0xbdfb2524	-0.122629434
109	0xbd99947a	-0.07499023
110	0xbdedcc80	-0.11611271
111	0x3ea0c7d4	0.31402457
112	0x3e648482	0.22316173
113	0xbd1d2e49	-0.03837422
114	0x3b5954c1	0.003316209
115	0xbd50a666	-0.05093994
116	0xbdd84e2f	-0.10561787
117	0x3dbf07cb	0.09327658
118	0xbdc225f1	-0.09479893
119	0xbe74a464	-0.23890835
120	0x3db1658c	0.08661947
121	0x3e12ec86	0.14348039
122	0x3cbbc4da	0.022921015
123	0x3b5ba408	0.0033514518
124	0x3da783be	0.08179425
125	0xbca2ed81	-0.019888641
126	0x3ca5ee6d	0.020255292
127	0x3cacca91	0.021092685
128	0x3ce3f31d	0.027825886
129	0x3cf85334	0.030313112
130	0xbd80deea	-0.062925175
131	0xbc3dd337	-0.011586002
132	0xbcec4d49	-0.028845446
133	0xbd035418	-0.03206262
134	0xbc21c1b0	-0.009872839
135	0xbd0e91c0	-0.034806967
136	0x3e0d68a7	0.13809453
137	0x3e52d53c	0.20589155
138	0xbbd0a29b	-0.0063670403
139	0x3e091f77	0.13390909
140	0x3e149e1b	0.14513437
141	0xbde83648	-0.11338478
142	0xbe042835	-0.12905963
143	0xbd03a2f7	-0.032137837
144	0xbdfbf0c0	-0.12301779
145	0x3dc74b31	0.097311385
146	0xbd1d22ca	-0.038363256
147	0x3d89c557	0.06727093
148	0x3e9e3942	0.3090306
149	0x3d988b16	0.074484035
150	0xbeb89efd	-0.36058798
151	0xbe0cea67	-0.13761292
152	0xbd44a0db	-0.048004966
153	0xbc77a8de	-0.015115945
154	0xbdb16a95	-0.08662907
155	0x3d263631	0.040579025
156	0xbe5e1aa9	-0.21689858
157	0xbe861dca	-0.26194602
158	0x3d01d432	0.031696506
159	0xbc2185b9	-0.009858542
160	0xbde5c030	-0.112182975
161	0xbdc8bc63	-0.09801557
162	0x3dbb16c0	0.091351986
163	0x3e7c5dc7	0.24645148
164	0xbd2c8e6c	-0.04212801
165	0x3c63612f	0.013878151
166	0x3ed58d42	0.41709334
167	0x3e389dc8	0.18028939
168	0xbd505168	-0.050858885
169	0x3dabb1ad	0.08383498
170	0xbddd2ca7	-0.107995324
171	0xbd45490a	-0.04816536
172	0xbcb97efd	-0.02264356
173	0xbc1d1cae	-0.009589357
174	0xbd69ec63	-0.0571102
175	0x3d67ee40	0.056623697
176	0x3c4ceb97	0.012507341
177	0xbc347898	-0.01101508
178	0xbc8defdb	-0.017326286
179	0xbd8445af	-0.064586036
180	0x3d9d7802	0.07688905
181	0xbe10995b	-0.14121
182	0xbdbd1c57	-0.09233921
183	0x3d6a56c0	0.057211637
184	0xbd99df44	-0.07513288
185	0xbd0e1536	-0.034688197
186	0xbdfa96bf	-0.12235784
187	0x3bb38e60	0.005479619
188	0xbd7fe9bb	-0.062478762
189	0x3cee9708	0.029124752
190	0x3bf31919	0.0074187634
191	0x3baead6c	0.005330732
192	0x3cd01dcd	0.025404835
193	0xbdb204e0	-0.08692336
194	0xbcd33d9f	-0.02578622
195	0x3d4aa17d	0.049470413
196	0x3a989519	0.0011641114
197	0xbd900535	-0.07032243
198	0xbe69041a	-0.22755471
199	0xbd3a005e	-0.045410506
200	0x3ca2c502	0.019869331
201	0xbdff5bba	-0.12468667
202	0x3dd6c337	0.10486453
203	0x3e29a9b1	0.16568638
204	0xbc9367cb	-0.017993828
205	0xbd57257d	-0.052525986
206	0xbce61b55	-0.028089205
207	0xbe275e99	-0.1634468
208	0xbc967038	-0.018364057
209	0x3ca298d3	0.019848263
210	0x3ccfac61	0.025350751
211	0x3d892719	0.066969104
212	0x3d7a5f3c	0.06112598
213	0x3e19a87f	0.15005682
214	0x3db3d5bb	0.08781
215	0x3d42c3d4	0.047550038
216	0xbd780580	-0.06055212
217	0xbd4cc0c4	-0.049988523
218	0xbe5285a0	-0.20558786
219	0xbe06e738	-0.1317414
220	0xbe56063a	-0.20900813
221	0xbd7ad98c	-0.061242625
222	0xbde78380	-0.113043785
223	0xbd85f21b	-0.065403186
224	0x3c2f88b4	0.010713745
225	0xbdbc92a1	-0.09207655
226	0xbd308603	-0.043096554
227	0x3d97f7cc	0.074203104
228	0xbc05a042	-0.008155884
229	0x3de60f01	0.112333305
230	0x3e07c28a	0.13257805
231	0x3b43f26d	0.0029899136
232	0xbde9a0a0	-0.1140759
233	0xbd2824a5	-0.041050572
234	0xbdde2898	-0.108475864
235	0xbcf997eb	-0.030467948
236	0xbc19646a	-0.0093623195
237	0xbd690115	-0.056885798
238	0x3d53a3bc	0.05166982
239	0xbce73a90	-0.028226167
240	0xbdccd831	-0.10002173
241	0xbe2b8a53	-0.16751985
242	0xbe6a75ee	-0.22896549
243	0xbdcab5d1	-0.0989796
244	0x3c1e15f7	0.0096487915
245	0xbd19a27e	-0.03750848
246	0xbe21a0fd	-0.15784068
247	0xbdf4e0bd	-0.11956928
248	0xbd868987	-0.065692
249	0x3c13b1e9	0.009014585
250	0xbd1af9d4	-0.03783591
251	0xbd81f4fa	-0.06345554
252	0x3d90f036	0.070770666
253	0x3d401586	0.046895526
254	0x3cd25235	0.025673965
255	0xbdd5ad25	-0.10433415

7.odefunc.conv1._layer.bias f4 [64]
0	0x3cf98521	0.030458989
1	0x3b912bf2	0.0044302875
2	0xbdbd1481	-0.092324264
3	0x3dd026e6	0.10163669
4	0x3b98c7de	0.004662498
5	0x39d04c3a	0.00039729645
6	0x3c60af02	0.0137136
7	0xbcc27322	-0.02373654
8	0xbd8a5683	-0.06754782
9	0x3d00b919	0.031426523
10	0x3d4dffbb	0.05029271
11	0xbd8f34cc	-0.06992492
12	0xbe0141c3	-0.12622742
13	0x3deffbb2	0.11717929
14	0xbcc58c79	-0.024114834
15	0x3cb1fde7	0.021727515
16	0xbd3eb499	-0.04655895
17	0xbb812a64	-0.003941821
18	0xbc734051	-0.014846877
19	0x3c492271	0.012276278
20	0x3ca13731	0.019679638
21	0xbc8f430b	-0.017488023
22	0x3dbd28f6	0.09236328
23	0xbd2e7eab	-0.04260127
24	0x3d24bb4b	0.04021768
25	0xbd86cd80	-0.06582165
26	0xbb8fdb66	-0.004390168
27	0xbbbf1527	-0.005831379
28	0x3daf281d	0.08552573
29	0xbdd29cd3	-0.10283818
30	0xbcdefbad	-0.027219618
31	0xbccfc908	-0.025364414
32	0xbda2f594	-0.079569966
33	0x3c0c53d3	0.008564907
34	0xbcfdea30	-0.030995458
35	0x3d51063e	0.051031344
36	0xbb1bcf31	-0.0023774619
37	0x3bbfceb3	0.005853498
38	0xbc9ac2b3	-0.018891668
39	0xbaada940	-0.0013249293
40	0xbd598355	-0.053103764
41	0x3d022e7c	0.031782612
42	0x3beddfc0	0.007259339
43	0xbd3ec456	-0.04657396
44	0x3cede67a	0.029040564
45	0xbdad2a64	-0.08455351
46	0x3b4b0229	0.003097663
47	0xbccbd494	-0.024881639
48	0xbc42b37e	-0.011883615
49	0xbd069f3e	-0.03286671
50	0x3d51ceba	0.05122254
51	0xbd9cec5d	-0.0766227
52	0xbd3856a9	-0.04500452
53	0x3d4afe86	0.04955914
54	0xbc560e38	-0.013064913
55	0x3ce019ba	0.027356017
56	0xbdf6c5b5	-0.120494284
57	0x3ddcae5d	0.10775445
58	0xbd877307	-0.066137366
59	0x3d0734cc	0.033009335
60	0xbd020724	-0.03174509
61	0x3d810c8e	0.06301223
62	0xbe0019ff	-0.12509917
63	0x3d46eec7	0.04856756

7.odefunc.norm2.weight f4 [64]
0	0x3f9b1d10	1.2118244
1	0x3f8c4541	1.0958635
2	0x3f733d0d	0.9501503
3	0x3f55da86	0.83536565
4	0x3f8bc227	1.0918626
5	0x3f7384c1	0.9512444
6	0x3fa0352d	1.2516228
7	0x3f8ec65d	1.1154286
8	0x3f6871b8	0.9079852
9	0x3f738a39	0.95132786
10	0x3f9bbd6f	1.2167186
11	0x3fb11dc9	1.3837215
12	0x3f825fdb	1.0185503
13	0x3fca8a24	1.5823407
14	0x3f74d0de	0.95631206
15	0x3f7dc6ef	0.99131674
16	0x3f56cf3e	0.83909976
17	0x3f8c6a74	1.0969987
18	0x3f720601	0.9454041
19	0x3f94a381	1.1612397
20	0x3f738c50	0.95135975
21	0x3f8cffb2	1.1015532
22	0x3f7c42e0	0.98539543
23	0x3f87d86b	1.061292
24	0x3f8b1003	1.0864261
25	0x3f80b6e7	1.0055817
26	0x3f8cb6fa	1.099334
27	0x3f82d941	1.0222551
28	0x3f6fbc89	0.93647057
29	0x3faa6c8c	1.3314376
30	0x3f8a07e0	1.0783653
31	0x3f797518	0.97444296
32	0x3f50898b	0.81459874
33	0x3fa656d8	1.2995253
34	0x3f7ddac8	0.9916196
35	0x3fbad2f2	1.4595625
36	0x3fa363ea	1.2764866
37	0x3f66f6fb	0.9022061
38	0x3f60b4b1	0.87775713
39	0x3f87dcc7	1.0614251
40	0x3f959ffd	1.168945
41	0x3f90721f	1.1284827
42	0x3f91e716	1.1398647
43	0x3f84da96	1.0379207
44	0x3f827843	1.0192951
45	0x3f5137fb	0.81726044
46	0x3f477466	0.77911985
47	0x3f8162dd	1.0108296
48	0x3f12740b	0.5720832
49	0x3f7de3d1	0.99175745
50	0x3f87272c	1.0558829
51	0x3f893e3b	1.0722116
52	0x3f7fa88f	0.99866575
53	0x3f5f33b8	0.8718829
54	0x3f435134	0.7629578
55	0x3f72621f	0.9468097
56	0x3f630f77	0.8869547
57	0x3fb54a61	1.4163324
58	0x3f59fa18	0.8514724
59	0x3f8cc5de	1.0997884
60	0x3f71c8d8	0.9444709
61	0x3f909cb9	1.1297828
62	0x3f5392aa	0.82645667
63	0x3f958354	1.1680703

7.odefunc.norm2.bias f4 [64]
0	0xbf4414ef	-0.7659444
1	0xbf3ce3df	-0.73785204
2	0xbf0c3df6	-0.54782045
3	0xbf240739	-0.6407352
4	0xbe55038e	-0.20802137
5	0xbf6ed246	-0.932896
6	0xbf8097f4	-1.0046372
7	0xbec4eeb6	-0.38463372
8	0xbef3b40d	-0.47598305
9	0xbf4990a0	-0.78736305
10	0xbf318cde	-0.6935557
11	0xbf66e03e	-0.90185916
12	0xbe52481d	-0.20535322
13	0xbf7f4806	-0.99719274
14	0xbef94fe1	-0.48693755
15	0xbf33c12d	-0.7021664
16	0xbf2d12d8	-0.6760688
17	0xbedb4c59	-0.42831686
18	0xbf49dc98	-0.78852224
19	0xbed142e6	-0.40871352
20	0xbf3d0671	-0.73837954
21	0xbf0567f9	-0.52111775
22	0xbf68f860	-0.9100399
23	0xbeff711d	-0.49890986
24	0xbf32f261	-0.6990109
25	0xbf04a01f	-0.51806825
26	0xbf0c5b1d	-0.5482653
27	0xbf305eff	-0.6889495
28	0xbf645106	-0.8918613
29	0xbf15ed95	-0.58565646
30	0xbf2cf53c	-0.675617
31	0xbf0e09f8	-0.5548396
32	0xbf71e630	-0.94491863
33	0xbf6bd036	-0.9211458
34	0xbf048974	-0.51772237
35	0xbf51415f	-0.81740373
36	0xbe478441	-0.19484045
37	0xbf656f44	-0.896229
38	0xbf6b7abd	-0.9198416
39	0xbe7fe37e	-0.24989125
40	0xbf091c60	-0.5355892
41	0xbf609c3e	-0.87738407
42	0xbf4261cb	-0.7593047
43	0xbf17be75	-0.5927499
44	0xbea8b2ac	-0.32948816
45	0xbf832ef1	-1.02487
46	0xbf3393db	-0.70147485
47	0xbe6b491b	-0.22977106
48	0xbf187b96	-0.5956358
49	0xbd080602	-0.033208854
50	0xbeb0465c	-0.3442868
51	0xbf8ae429	-1.0850879
52	0xbe61a5d4	-0.22035915
53	0xbf2160a0	-0.63038063
54	0xbf4fefa3	-0.8122503
55	0xbe8d2130	-0.27564383
56	0xbef42723	-0.4768611
57	0xbf9626e5	-1.173062
58	0xbf24a2a5	-0.64310676
59	0xbf16eab9	-0.5895191
60	0xbf0fc7d0	-0.56164265
61	0xbf816adb	-1.0110735
62	0xbf82958e	-1.020189
63	0xbebcdd5b	-0.3688763
