experiment_node_cifar_v2/model.pth (torch, 844201 bytes, 24 tensors)

0.weight f4 [64, 3, 3, 3]
00000000: ea5a 16be 2b85 c3be 4b44 d5bc 6e35 85bf
00000010: 2a13 87bf b621 15bf dbc5 18bf 8677 2cbf
00000020: 9e01 f3be f02a 2f3f a0cd 203f 4d7e 563f
00000030: 581f 703e 6c3a 633e 8389 bf3e c69e 8f3e
00000040: ce2e cb3e 3711 643e 0ce0 be3e 5bee 0e3f
00000050: 53b7 883e 74cb 0b3e b9d9 eb3e 57cd bc3e
00000060: 6c6f 003f c46b bd3e b1ce ea3e 9af3 223e
00000070: 8f4d d03e 8280 353f cb89 aa3e 0ae7 c93e
00000080: a55c dd3e 11af 36bd 794b c8be ef7d 95be
00000090: 418d 433e 5cda 823d d6fa 213e 731e 513d
000000a0: 330e 4ebb 421b 303e 138f 033e 5f8a e1be
000000b0: 98cb d8be e90f 19bf 3e5e 23bf c97a 8cbe
000000c0: d0df 20bf ead5 27bf a748 21bf 676d 85be
000000d0: 4b08 18bf 97ef 2dbf 7067 483f c130 743f
000000e0: 5acd 7c3f 31f4 053f 1ef6 453f 6314 0c3f
000000f0: 42ae 813e 11a2 d63e 684e cd3d 283c 593e
00000100: e786 d0be 7e9e 7cbe 7542 f3be 5d1a 6cbf
00000110: 4413 87bf 46c5 40bf 5b95 8abf 9e09 4cbf
00000120: d82f bd3e ad91 783d 5339 3abd ffe8 13be
00000130: 0542 27bf 0258 0fbf 99ca d43d 176a 0dbf
00000140: 12f7 8fbe aa35 8ebd cbb1 d5be 5b18 8ebe
00000150: 7334 273e 41bd 0a3e 5d9a f43d 1cd9 153e
00000160: 4e3c 003f eb5c 853e 5142 47be 19bc c3be
00000170: f44d 06bf a86b 523e 9f84 f93e 100b 01bd
00000180: efef 013e 8a18 3a3f 5f37 833e fd02 cb3d
00000190: 40a3 0fbf 3bc8 8dbe a428 07bd e821 80bc
000001a0: f618 62be 1ac1 bd3c 08a6 bb3e 1001 7fbe
000001b0: daea 8f3c f32c c23e 8a77 b7bc e876 a9be
000001c0: a670 f2be 66c5 64bf b8aa fabe 0f47 81bf
000001d0: 0a1b 2abf 1a7d 343f 7424 623f 8db6 003f
000001e0: 23df 403f c081 0c3f e42b f3bb ca01 393e
000001f0: 1991 80bd 9394 32be 3854 24bd b878 643e
00000200: edb9 863e a570 ca3d f3cf 043e 482b eebe
00000210: b020 3b3c 6347 0cbf e68f d7be a346 ef3e
00000220: 2db0 95bc 7a16 b1be e5a3 8e3f 5c9b 9e3f
00000230: ad9c 293f ffba 8c3f eefd bb3f d46c 7a3f
00000240: 4d7d 80bd 7f4d 02bf ad64 40bf 3b0d 173f
00000250: c140 c93d c847 24bf 08c0 043f 7d38 d23e
00000260: 2f4c 243c 16ff 5b3e be84 dabd 1cac 6cbf
00000270: 1ba8 ff3e 62d9 c3bd 6a5a 5ebf a144 b73e
00000280: a36a 81bd 391c 33bf 96c3 e23d e64a 0dbe
00000290: c421 0cbe d3ca 7abe 55e2 b6bd 3621 d1bd
000002a0: 31ed 803c 38c3 7a3e 373c 0a3d 3bd6 573e
000002b0: 6fe4 52bd 437b 64bb c10b 43be 1ec5 6b3d
000002c0: 28d1 a5bd f1d6 133b dada 03bd a62d 003e
000002d0: c0f4 093f 69c1 003f 72aa cf3e 7e0a 793e
000002e0: d735 cc3d 7518 46bc 022d d03d e64d 623e
000002f0: 18a5 1a3e 6e76 39be 0f1d a0bd 2858 edbd
00000300: 8351 e63d 8789 42bd d29f c7bd b6e9 dabd
00000310: 53c4 60be 62bc f73c 7c41 b83d b1c1 8f3d
00000320: 1bb8 24bb b014 2bba dc36 2cbd 1500 f53d
00000330: 4c0b 3cbe dee7 ea3c 533f 7ebe e280 b3be
00000340: 41b7 c5be 649b b5be 5b30 4abe 6cf6 cdbd
00000350: 0ebb b7be 2aab 74be bef1 7fbe c7dd babd
00000360: 8a65 0cbe 190e a0be 8106 33be f4a9 413e
00000370: 21c2 9cbd ece1 4b3e 4884 d63e 7a3e 283f
00000380: 171e b23e 5c8b cfbe 8fc6 84be 2b84 c0bd
00000390: 3143 c7bd 7cd3 6abe 634f 073e 43e7 023e
000003a0: 0255 843e 40bb 013e 1ee9 77bd 3464 b9bd
000003b0: e60d fa3d 3174 a33e ff9f b03e a1b1 423e
000003c0: b4ab ff3e 176d d83e 0153 4539 fd3f 783d
000003d0: 362d ccbd 7eb2 c3bc daf5 a6be 07a8 94be
000003e0: 124d b1be cb81 debe 36e9 06be 1ffc 0cbf
000003f0: 390c d03c e498 8a3d 13bd e3bb f1b4 2bbe
-0.14683118 -0.38187537 -0.026033541 -1.040693 -1.0552723 -0.58254564 -0.59676903 -0.6736988
-0.4746217 0.6842489 0.6281376 0.8378647 0.23449457 0.22190255 0.374096 0.28050822
0.39684147 0.22272192 0.3728031 0.5583245 0.26702365 0.1365183 0.46064547 0.36875412
0.50170016 0.3699628 0.45860818 0.15913239 0.40684173 0.7089921 0.33308253 0.3943408
0.43234745 -0.04460055 -0.3912008 -0.29197642 0.19096853 0.06389305 0.15818343 0.05105443
-0.003144157 0.17197898 0.12847547 -0.4405088 -0.4234283 -0.597899 -0.6381568 -0.27437428
-0.6284151 -0.6556078 -0.63001484 -0.2606003 -0.59387654 -0.6794371 0.78282833 0.9538689
0.9875084 0.5232573 0.7732867 0.5471861 0.2532826 0.41920522 0.100247204 0.21214354
-0.40727922 -0.24669835 -0.4751164 -0.9222773 -1.0552754 -0.75301015 -1.082683 -0.79702175
0.36950564 0.060685802 -0.045464825 -0.1444435 -0.6533511 -0.55993664 0.10390205 -0.55240005
-0.28118187 -0.06943829 -0.41737208 -0.27752957 0.16328602 0.13548757 0.11943505 0.14633602
0.5009202 0.26047453 -0.19458891 -0.38229445 -0.524627 0.2054888 0.48733994 -0.03150469
0.12689184 0.72693694 0.25628182 0.09912679 -0.56108475 -0.27691826 -0.032997742 -0.015641168
-0.22079834 0.023163367 0.3665011 -0.24902749 0.01756804 0.3792492 -0.022395868 -0.3309853
-0.4735157 -0.89363706 -0.48958373 -1.009981 -0.6644751 0.7050339 0.88336873 0.5027855
0.7534048 0.5488548 -0.0074210037 0.18067089 -0.06277675 -0.17439489 -0.04011938 0.22311676
0.26313725 0.098847665 0.12969951 -0.46517396 0.0114213675 -0.5479643 -0.42101973 0.4673358
-0.018272484 -0.3458746 1.1143767 1.2391162 0.66254693 1.0994567 1.4686868 0.9782231
-0.06273899 -0.508995 -0.7515362 0.59004563 0.09826804 -0.6417203 0.51855516 0.41058722
0.010027929 0.21484026 -0.1066985 -0.9245012 0.49932942 -0.09562947 -0.8685671 0.35794547
-0.063191675 -0.6996494 0.11072461 -0.13798103 -0.13684756 -0.24491434 -0.08929888 -0.102114126
0.015738102 0.24488533 0.03374883 0.21077816 -0.051487383 -0.0034863509 -0.19047453 0.057561032
-0.08096534 0.0022558535 -0.032191135 0.12517413 0.53889084 0.5029512 0.40559727 0.24320409
0.09971207 -0.012090792 0.101648346 0.22100028 0.15102041 -0.18111584 -0.078180425 -0.1158908
0.11246016 -0.047494438 -0.0974728 -0.10689108 -0.21949892 0.030241195 0.08996865 0.070193656
-0.002513415 -0.0006526215 -0.042044505 0.11962906 -0.18363684 0.028675016 -0.24828844 -0.35059267
-0.38616374 -0.35470116 -0.19745009 -0.10056767 -0.358849 -0.23893419 -0.24994561 -0.09124332
-0.13710609 -0.31260756 -0.1748295 0.18912488 -0.07654215 0.19910401 0.41897798 0.6572033
0.34788582 -0.4053601 -0.25932738 -0.09400209 -0.097296126 -0.22932237 0.13213877 0.12783532
0.25846106 0.12669086 -0.060525052 -0.09052315 0.12209682 0.31924585 0.34497067 0.19013073
0.49935687 0.4227073 0.00018818305 0.0606079 -0.09969561 -0.023888823 -0.32609445 -0.29034445
-0.34629112 -0.434584 -0.131749 -0.55072206 0.025396453 0.06767443 -0.0069500296 -0.16768242

0.bias f4 [64]
00000000: f52b 0bbe 3205 823e 239c 11bf 0edf 133f
00000010: 99c8 0640 3b5b 0bc0 4c87 efbd c7f4 263e
00000020: 0626 f6be c75f c93e e545 873d 3909 e5bd
00000030: e8e0 94be 248b 103f a538 583d 527b 993d
00000040: a51c 303e d28b 20bd 2eb7 94be 2435 ff3c
00000050: d1e2 22be f86c 523e 906f 61be 559b 3b3d
00000060: 602e 133f c37c 24bf ea68 673d acea 83bd
00000070: 5211 323f 9a75 2cbf 72ce b83e 2dd8 31be
00000080: a589 6abe 94fc d43c 36a3 b13e 803b c5bd
00000090: f883 783e 1fe9 863c 25ee 623e 517b 81be
000000a0: 406f b03f 308b 92bf 44ff 1dbf 4fd8 f33e
000000b0: b304 3340 9798 36c0 5bbe 1cbf 0525 5c3f
000000c0: 702c 93bd 0f9f aebd f6d3 893f b357 5abf
000000d0: eaee ccbe 5216 9b3e 5c55 8c3f cb43 87bf
000000e0: 7944 83be c437 883e 4de6 af3e 89cb f8be
000000f0: 3187 00bf fb5f 163f 0f2c 31be cfe4 7b3e
-0.13590987 0.2539459 -0.5687887 0.5776223 2.1059935 -2.1774433 -0.11695728 0.16304313
-0.48075885 0.39330885 0.06605128 -0.111834 -0.2907784 0.5646231 0.052788395 0.074942246
0.17198427 -0.039195843 -0.29046005 0.03115327 -0.15906836 0.20549381 -0.22015214 0.045802433
0.5749264 -0.6425287 0.05649654 -0.064412445 0.6955768 -0.67366946 0.36095005 -0.17367621
-0.2290407 0.025999345 0.34694833 -0.09630489 0.24269092 0.016468583 0.22161157 -0.25289395
1.3783951 -1.1448727 -0.6171763 0.47625968 2.7971618 -2.8530633 -0.6122796 0.8599399
-0.0718621 -0.08526432 1.076781 -0.8529007 -0.40026027 0.30290467 1.096355 -1.0567564
-0.25638178 0.26605046 0.34355393 -0.48592785 -0.50206286 0.58740205 -0.17301963 0.24599002

1.weight f4 [64]
00000000: 9d20 893f f946 cd3f ee4f 2540 3060 883f
00000010: 756e aa3f 55c8 0b40 7b9b 293f c745 a53f
00000020: 67fc 543f a115 0040 dd0d 1c40 e2a7 9c3f
00000030: 3424 9a3f 355b de3f 5a12 cd3f c7ee 1340
00000040: d308 f23f 0714 0740 6790 a83f 07cb 033f
00000050: 5de5 d73f 959f ca3f e902 d83f 0106 b53f
00000060: 270c ef3f 2c3c b53f 621f d83f 3ff5 ba3f
00000070: 6a08 553f 7288 963f 82ec 2140 c540 3540
00000080: 6016 4b3f cc39 a53f 7688 ca3f 345c c03f
00000090: d6e5 e53f a401 a63f 4116 c13f df38 ff3f
000000a0: e0fe c83f 2e4e a93f 156f 0c40 26a1 eb3f
000000b0: 1eeb a43f 639e d13f 6db6 4140 2fdc 0c40
000000c0: 41be df3f 93ce b03f ea0c f63f a76c ea3f
000000d0: 9e20 1c3f e8b6 2540 886f c63f c4c1 c13f
000000e0: 1d78 c53f 02f4 f43f 0401 913f 2bd5 8b3f
000000f0: 177e 9e3f 9c2f ca3f ee4f 4c3f 6bf6 9b3f
1.0713078 1.6037284 2.5830035 1.0654354 1.3314959 2.1841023 0.6625287 1.2911919
0.83197635 2.0013201 2.4383461 1.2238734 1.2042298 1.7371584 1.6021225 2.3114488
1.8908943 2.1105974 1.3169068 0.5148167 1.6866871 1.582995 1.6875888 1.4142457
1.8675584 1.4158988 1.6884577 1.4606093 0.83215964 1.176039 2.5300603 2.8320782
0.79331017 1.2908263 1.5822895 1.5028138 1.7960765 1.2969251 1.5084916 1.9939231
1.5702782 1.3226984 2.19428 1.8408554 1.2884252 1.6376461 3.0267594 2.200939
1.7479936 1.3813041 1.9222691 1.8314408 0.6098727 2.5892887 1.5502787 1.5137258
1.5427281 1.9136965 1.1328435 1.0924429 1.238223 1.5795779 0.79809463 1.2184576

1.bias f4 [64]
00000000: 947e 0dbe 3662 e53e 6f31 3b3f 4d6f c0be
00000010: af9d e1be 7562 b8be 526c a7be fa5a b9bd
00000020: add0 28be 1df8 2dbe 4eab dd3c 99ed 0ebf
00000030: f36b da3e 553c c9be 0dca 543e a250 3abf
00000040: 0472 7ebf ba65 423e 0199 81bd 8282 5dbd
00000050: eb0e f3be 71cc c23e fa73 5bbd a2bc 57bf
00000060: 0815 cb3d 2726 f3be e3c8 41bf 4bca 273f
00000070: b45b 713e 1c5b a03e 76d7 9bbe 385f 2ebf
00000080: 1b3a cebe c908 c8be e0ee 4abe cdb0 b6be
00000090: c9f1 aa3e a478 2b3f 2346 3bbf e6b0 a53f
000000a0: 0910 4fbf 429c c7be d5a9 4c3f 294e 4dbf
000000b0: ed8a fdbe 131a 08be 5a9c efbc baee 37bf
000000c0: 8885 ddbe ef3c e63e 6941 e1be 0e2b cc3f
000000d0: de68 0bbe 04e5 9c3e 988e 73bf d983 953e
000000e0: abcc 9d3f 1ce4 023f b306 12bf 03d2 ed3e
000000f0: ac12 54be 44da cd3e e2c6 b2bd 0cfe 013d
-0.13817817 0.44801491 0.73122305 -0.37584916 -0.44065616 -0.36012617 -0.3269983 -0.090505555
-0.16485853 -0.16989179 0.027059224 -0.55831295 0.42660484 -0.39303842 0.20780201 -0.72779286
-0.99392724 0.18984118 -0.06328011 -0.05407954 -0.4747232 0.380466 -0.0535774 -0.84272206
0.09916121 -0.47490045 -0.75697154 0.6554305 0.23570138 0.3131951 -0.3043782 -0.6811404
-0.40278706 -0.39069203 -0.19817686 -0.35681763 0.33387592 0.6698096 -0.73153895 1.294461
-0.8088384 -0.38986403 0.79946643 -0.8019739 -0.49520054 -0.13291197 -0.029249359 -0.7184864
-0.4326594 0.44968364 -0.43995216 1.5950639 -0.13614222 0.30643475 -0.95139456 0.29202154
1.2328085 0.5112932 -0.5704147 0.4644929 -0.20710248 0.40205586 -0.0872934 0.03173642

3.weight f4 [64, 64, 4, 4]
00000000: 22a2 73bd b2a6 16be 0a3b 34be ccf6 5cbe
00000010: 5664 1bbe 764a 4abe fbc8 83be e1e4 93be
00000020: f5cd 9ebd 4cb7 0abe f862 02be 78ea f2bd
00000030: 5854 1cbc fd00 08bd bd5c 1e3b 4bbc d33b
00000040: 5661 113d cc0c 0f3d b1f3 dcbd 3dd7 33be
00000050: 29f9 2abd cecc 41bd aa9b ebbd 1d36 d8bd
00000060: 6522 e2bd 30cf 953b b1d1 2fbd 971d 2f3c
00000070: 6e00 7bbd 0d7d 3f3d 4194 ce3c 81e3 b03d
00000080: bedf 7ebd ff4e debd 56e9 94bd fffa bfbd
00000090: 35ba b5bd e824 6fbd 36f7 36bd fbbe 783c
000000a0: 6284 2bbd 6bc0 193b d13a 833d 0f62 fd3d
000000b0: 41cc 0bbd 851b 733d 7fe1 123e 3b55 143e
000000c0: a6e3 c9bd e9cc adbd 929f 53bc b226 b3bc
000000d0: 6eea 293d 9f73 ca3d 4412 183e 6b91 d93d
000000e0: 14e8 fb3d 7a67 0b3e 651d 043e de92 b23d
000000f0: 1220 b23d 720e 203e 2b95 0e3e 5809 393d
00000100: fd4a acbb 1c78 cbbc bf87 4bbd 6366 cabd
00000110: 97ba 1dbe 66df 35be e543 74be c635 80be
00000120: 4286 3dbe 864b 24be db24 13be 128a 5dbe
00000130: ea52 e4bd 0be5 82bd f5d4 c8bd 7c5d d3bd
00000140: 5ffe 1cbe 5a58 29be cfea d8bd 256f dcbd
00000150: 8356 5ebe f096 bcbd bc06 ff3c 269e d53d
00000160: dd3f 5abe 9f85 b2bd 2dda 6a3c d616 ad3d
00000170: a8d3 71bd 9c2b bf3d 125b 523e 716d 733e
00000180: 4340 8dbc 19cc f5bc 5fad 5abd c010 c9bd
00000190: 2799 a5bd ae6e abbd 4233 e2bd b358 edbd
000001a0: bfe7 86bd 2f64 3bbd a355 92bd cc4e c0bd
000001b0: 093d 94bb e40e f8bb 0ba9 8bbc dc71 2bbd
000001c0: 3c85 4c3c 4bff 2c3d 62c3 e63c d9c7 2fbd
000001d0: 482e 50bc c30a 193d 381b c23c 2e2c 85bd
000001e0: e7cb 08bb 6149 043c 1357 d0bc 1f51 98bc
000001f0: bb11 f63b 239e dc3c 86aa db3c e98e 96bb
00000200: 44d2 04be 261b 06be 041d d2bd a162 bbbd
00000210: cdfe 7c3b 8b69 ee3c 0782 503d ce95 913d
00000220: b416 8b3d 8d34 be3d 8bb3 d43d bc62 883d
00000230: ec0a 9a3d f6ca 9a3d 9630 b63d 2e7e c93c
00000240: ebb3 8abd 98a8 e53c 29f2 2bbc 921e d2bd
00000250: f92a 9abd 124b 873c 6c65 12bd 732d 08be
00000260: e3e2 07be 47f1 8fbb 5cad 9abd a669 0bbe
00000270: b8ed bdbd e8c0 e3bb f12c 513c a6c3 0dbd
00000280: c025 4cbd 8207 df3d a979 9f3d a81b 70bc
00000290: 5e97 2cbe 568d 3fbd 0ea8 88bd 1e22 a7bd
000002a0: 7fc4 5fbe 5638 9dbd dd9c bcbd e144 96bd
000002b0: 7715 81be 8db9 bebd 0206 82bd 103f 053d
000002c0: 3f67 1d3d 127f 103c e320 b2bc 613d 41bd
000002d0: c3e1 3fbd 6e0a fbbd 5632 2bbe dac6 edbd
000002e0: c9fc 14be c455 36be 4033 39be cc20 00be
000002f0: f789 0bbe 9429 28be ab27 09be becb 09be
00000300: 3fb3 373e 852f 473e 9e39 643e 8c4d 493e
00000310: 426f 2c3d e06f 093d 801d bb3c 7453 513d
00000320: 8664 3cbd 7f65 4bbd cb81 e6bc 5e1b 4d3c
00000330: 9172 cbbd f0da 9fbd f852 4cbd c689 cdbd
00000340: 239b 6dbe ca56 86be c17a dabd e32d b6bc
00000350: 3767 48be 0a7a 56be 34e2 65bc 6d53 b33d
00000360: 9e0e c4bd 51d0 31bd ecf3 db3d 5cd5 243e
00000370: dd4d 07bd b4fe d5bc e917 0e3c 7dc0 083d
00000380: 1384 f53d 7a51 603e 4a88 5f3e a8d4 b63d
00000390: 2161 d23d c570 143e 4a04 023e 7973 1bbd
000003a0: fef7 ac3b 2e66 623d ac73 88bd b3a3 41be
000003b0: aee1 16be 8928 cebc 8047 bebd 0faa eabd
000003c0: fed1 52be d356 69be f7d4 8fbe ae3c 83be
000003d0: 055d 8ebe a6d1 38be 0961 86be 6186 acbe
000003e0: 4d3c d7bd 3038 86bd c327 3abe fa50 19be
000003f0: b023 903a d618 d2bd b722 d0bd a248 703d
-0.059480794 -0.14712027 -0.17600647 -0.2157852 -0.15174994 -0.19754967 -0.25739273 -0.28885558
-0.07754127 -0.13546485 -0.12733066 -0.118611276 -0.0095415935 -0.033204067 0.0024164163 0.0064616553
0.035493217 0.034924313 -0.10788668 -0.17562576 -0.041741524 -0.047314458 -0.115043 -0.10557196
-0.110417165 0.004571818 -0.042924587 0.010688207 -0.061279707 0.046750117 0.025217177 0.08637143
-0.062225096 -0.10854911 -0.07271068 -0.093740456 -0.08873407 -0.058384806 -0.044669352 0.015182252
-0.041874297 0.0023460637 0.06407703 0.12372219 -0.03413034 0.059352417 0.14343832 0.14485638
-0.098578736 -0.08486349 -0.0129164625 -0.021869037 0.041483335 0.09885334 0.14850718 0.106234394
0.12300125 0.13613692 0.12901838 0.08719419 0.08697523 0.1563051 0.1392409 0.045174927
-0.0052579627 -0.024837546 -0.049690004 -0.0988281 -0.1540321 -0.17761001 -0.23854025 -0.25041026
-0.18508247 -0.16044435 -0.14369528 -0.21634701 -0.11148627 -0.06391343 -0.09806243 -0.10320565
-0.1533141 -0.1653761 -0.10591661 -0.10763387 -0.21712689 -0.092084765 0.03113114 0.10430555
-0.21313424 -0.087168925 0.014334244 0.08451621 -0.05903974 0.0933449 0.20542553 0.23772217
-0.017242556 -0.030004548 -0.053387996 -0.09817648 -0.08085852 -0.0837072 -0.11044933 -0.11589184
-0.06587171 -0.04574984 -0.0714524 -0.09390029 -0.0045238775 -0.0075701345 -0.01704838 -0.04185663
0.012482937 0.042235654 0.028169338 -0.0429152 -0.012706347 0.03736378 0.02369462 -0.06502567
-0.0020873488 0.0080741355 -0.025432145 -0.018593369 0.007509438 0.026930874 0.02681471 -0.004594673
-0.12970835 -0.13096294 -0.102594405 -0.09149671 0.0038604022 0.029103061 0.050905254 0.07108651
0.0679144 0.09287367 0.103858076 0.06659457 0.075216144 0.07558243 0.08895986 0.0245963
-0.06772598 0.028034493 -0.010494747 -0.10259737 -0.07527728 0.016515289 -0.035741255 -0.13298588
-0.13270144 -0.004392776 -0.07552597 -0.1361452 -0.09273857 -0.0069504865 0.0127670625 -0.034610413
-0.04984069 0.10890104 0.07786877 -0.014655031 -0.16854617 -0.046765648 -0.06672679 -0.08160804
-0.21852301 -0.07676761 -0.09209607 -0.07337356 -0.2521169 -0.09312735 -0.06348802 0.032530844
0.03842854 0.008819358 -0.021744197 -0.047177676 -0.046846163 -0.12257849 -0.1671842 -0.116101936
-0.14549555 -0.17806154 -0.18085957 -0.12512511 -0.13626848 -0.16422111 -0.13394038 -0.13456628
0.1793947 0.19451721 0.22287604 0.19658488 0.04209829 0.033553958 0.022841215 0.051104978
-0.045994304 -0.04965734 -0.028138062 0.012518732 -0.09933961 -0.07805431 -0.049883813 -0.10036044
-0.23203711 -0.2623809 -0.10667945 -0.022238677 -0.19570623 -0.20944992 -0.014030982 0.087561466
-0.095731005 -0.043411557 0.10739884 0.16097015 -0.03303324 -0.026122428 0.008672693 0.033386696
0.11988082 0.21906081 0.21829334 0.0892728 0.10272432 0.14496143 0.12696949 -0.03795192
0.0052785864 0.055273227 -0.06662688 -0.18910103 -0.14734527 -0.025165813 -0.09290981 -0.11458217
-0.20587918 -0.22787027 -0.28092167 -0.25632232 -0.27805343 -0.18048725 -0.26245907 -0.33696273
-0.10509548 -0.06553686 -0.1817923 -0.14972296 0.0010996964 -0.10258643 -0.10162871 0.058663018

3.bias f4 [64]
00000000: 02e9 11be abb9 2a3e 588c b63e 9897 bcbe
00000010: 4675 68be 3d97 593e db80 303e 2e73 5abe
00000020: fbaf 97bd 6f95 2c3d 169d fb3d caee f1bd
00000030: 42c3 c4bd 40c9 4e3d 3327 28be 9fa7 0b3e
00000040: b24d 40bd 950c 453d b80f 17be 9767 223e
00000050: 866d 3ebe 9b1c 4c3e bae9 2abe 05c5 1d3e
00000060: afd9 953d b400 74bd e78f 39be 1d9b 0e3e
00000070: e672 8f3d da94 95bd 4d80 2f3e 4e6d 35be
00000080: e15a c63d 8621 a1bd d5cb b43e 43c4 c5be
00000090: e41f 1fbc 333a c23b 4733 afbd 0e18 d73d
000000a0: 8b48 49be 7ec2 5e3e d959 1a3d 9da6 92bd
000000b0: 2818 0f3e a8c3 eabd a2f2 493e a2de 45be
000000c0: e431 323d 5fe6 8dbc 53ff 8dbe e8b7 953e
000000d0: 4e2e 503d d2da 54bd 7065 0ebf 99bc 0f3f
000000e0: a78b bd3e ad0e ccbe 6dea b13d 624b abbd
000000f0: 7889 63bf 4d44 613f 6efd 4cbe a8e8 333e
-0.14249042 0.16672389 0.3565395 -0.36834407 -0.22700986 0.21249099 0.17236654 -0.21333
-0.074066125 0.0421347 0.12285821 -0.118131235 -0.09607555 0.050484896 -0.16421203 0.13638161
-0.046949096 0.048107702 -0.1475209 0.15859829 -0.18596467 0.19932787 -0.16690722 0.15407188
0.073169105 -0.059570983 -0.181213 0.13926359 0.07004337 -0.07303782 0.17138787 -0.17717478
0.096853025 -0.07867722 0.35311761 -0.38626298 -0.009712193 0.005927348 -0.08554702 0.10502635
-0.19656579 0.2175388 0.03768334 -0.07160685 0.13974059 -0.114631 0.19721463 -0.19323209
0.04350461 -0.017321764 -0.2773386 0.29241872 0.05082541 -0.051966496 -0.5562353 0.5614715
0.3702061 -0.39854947 0.08687291 -0.083639875 -0.88881636 0.87994844 -0.20018551 0.1756922

4.weight f4 [64]
00000000: d396 923f a1bd a93f fab7 1c40 9f7c fb3f
00000010: 7cd2 c93f ea06 1340 37ca ba3f d13a a33f
00000020: cd95 873f 4eb8 d63f c2e8 e03f 69d8 563f
00000030: e843 b53e e315 b93f b5a2 9f3f 64b7 533f
00000040: c9d2 fb3f fac1 cf3f 5dcd b33f 4055 723f
00000050: d875 723f 4f67 d13f e145 a43f ce4b e53f
00000060: f77d 9b3f 0d85 e63f 63da 9c3f cc6c 903f
00000070: b614 f93f 5a28 b93f a2ea f93f 9c2b c33f
00000080: eb14 b13f 2a15 353f 086c ff3f 1d14 ad3f
00000090: 3a55 a13f d6f2 9e3f 927e b43f f98b b23f
000000a0: 92aa 963f 6cc9 953f 8654 973f e256 1440
000000b0: 6b22 b63f e779 b33f 1eec f13f 7ed7 bd3f
000000c0: 2ca1 c83f bca4 803f e94e 9a3f 53b3 893f
000000d0: 752d 893f f3ba ad3f 1d24 af3f ce5b b23f
000000e0: ecdd d33f 382f a53f 0505 ec3f 4aa9 b93f
000000f0: 0b0c b43f 4870 c53f 97b6 973f ca57 ae3f
1.1452278 1.3260995 2.448729 1.9647406 1.576736 2.297297 1.4592961 1.2752324
1.059259 1.6774995 1.7571032 0.83923966 0.3540337 1.4459804 1.2471529 0.82701707
1.9673702 1.6231072 1.4047047 0.9466133 0.94711065 1.6359652 1.2833825 1.7913759
1.2147816 1.8009354 1.2254146 1.1283202 1.9459445 1.4465439 1.9524729 1.5247684
1.3834509 0.7073542 1.9954844 1.3521763 1.2604134 1.2417858 1.4101126 1.3948966
1.1770804 1.1702094 1.182267 2.317803 1.4229254 1.4021577 1.8900182 1.4831388
1.5674186 1.0050273 1.2055331 1.075785 1.0716997 1.3572677 1.3682896 1.3934267
1.65521 1.2905035 1.8439032 1.4504788 1.4066175 1.542489 1.1852597 1.3620541

4.bias f4 [64]
00000000: e75b 31bf 465f 9dbf 4b37 1cc0 b90c 423f
00000010: 146f 783e 6469 18c0 97ee afbf f516 76bf
00000020: 2a3a 16bf dacb 16c0 5947 d9bf 368e 95bf
00000030: c052 18be 4863 94bf a595 d9be 6916 6fbf
00000040: bcc7 273f bc00 febf 6fc7 49bf cab4 74bf
00000050: cd27 353e 8d10 01c0 1d78 dbbe 0f24 13c0
00000060: 4af8 9fbf 9d4e adbf a80f 58bf b722 a3bf
00000070: 25da f2bf d1a5 a1be 2776 fdbf 3db0 34be
00000080: 1950 8dbf b84c e0be 8140 eebf 1a46 133f
00000090: 4036 5cbf e8be a9bf 80ee a23d a322 03c0
000000a0: e033 0dbf 9c08 87bf b4d9 a9bf b69c 993d
000000b0: ab4f d5bf 8a8b 70be 21d4 eebf 268c de3e
000000c0: 2ff5 1fc0 6e7a 303d ac8a 73bf 1efb 0fbf
000000d0: fda6 80bf 547a 6abf 5191 eb3e 1a96 c3bf
000000e0: f67d debf 8391 023f 87e1 06c0 59a9 a83e
000000f0: 40cb 003f d70e bebf 4bcd 40bf 04fe b9bf
-0.69280857 -1.22947 -2.4408748 0.75800663 0.24261123 -2.3814325 -1.3744687 -0.9612878
-0.586825 -2.356192 -1.6974899 -1.1684024 -0.14875317 -1.1592798 -0.42496982 -0.9339357
0.65539145 -1.9843974 -0.78819937 -0.9558836 0.17690964 -2.0166352 -0.42865077 -2.2990758
-1.2497647 -1.3539616 -0.8439889 -1.2744969 -1.8972822 -0.3157182 -1.9801682 -0.17645355
-1.1040069 -0.43808532 -1.8613435 0.5752884 -0.8602028 -1.3261385 0.079556465 -2.048989
-0.5515728 -1.0549502 -1.3269563 0.07500593 -1.6664938 -0.2349073 -1.8658487 0.434663
-2.4993398 0.043085508 -0.9513347 -0.5624255 -1.0050961 -0.9159291 0.46009305 -1.5280182
-1.738219 0.51003283 -2.107515 0.32941702 0.50310135 -1.4848279 -0.7531325 -1.4530644

6.weight f4 [64, 64, 4, 4]
00000000: a101 acbd 1e0c 52be 943c 4bbd 1085 443b
00000010: 434e ef3c 9600 8bbc f471 cb3d 3d45 c93d
00000020: 655e cc3d faf6 c13d 08b8 073e f6a4 d33d
00000030: c166 363e b0f8 543e d13b 063e c95a a43d
00000040: 4f70 a93d f7bc 05be b655 86bd e243 59bc
00000050: 2d38 973d 5c6b 90bd b215 d5bd 2af0 05be
00000060: 178c a83d c5db 1fbe 8061 efbd b5d5 50be
00000070: 8f10 a73d 1ef9 c6bc edf6 2abe 4250 1cbe
00000080: 4861 bbbc 2b62 103c 74c7 183e e3b5 0b3e
00000090: 5392 adbe 3bc5 8abe fff5 babc 0c16 e83c
000000a0: f577 3fbc b024 0fbe 096d 07be b46a 5fbd
000000b0: c0d5 233c 84d2 69bd a0f4 873d 23bb 263a
000000c0: 5d1b 2cbe 1805 e93a b4e4 f23c e5b7 ec3d
000000d0: 8d71 42be 1ed4 53bd 615e 73be e2ca 4abe
000000e0: 3193 b4bc f83a 013e d8fa 60bb 97b2 84bd
000000f0: 5684 c73c e13d 753d 35ca 063e 641c de3d
00000100: d4fc d93c bc5c c6bd f877 92be 57e0 70bd
00000110: 841e 823d 2f73 52bd 36f8 7bbd b6a8 2d3e
00000120: dfd1 a43d c2e8 b4bd f599 2bbe 6130 4d3d
00000130: 5dc4 bfbd 0480 24be 0ff3 bfbe 71e8 a7bd
00000140: 3cce 1b3d df85 d13d e2e3 1a3e 6a01 e33d
00000150: e61e a3bd c093 ccbd 77aa 2cbe 8dcd 803c
00000160: 655e 11be d59e a2bd a055 a7bd c327 2dbe
00000170: a3ca 70bd 624a e33c 63ac c6bd 1ec0 3fbd
00000180: c3dc f3bd 86e5 87bd 88ab 39bd 85b3 3fbe
00000190: 57f2 b2bd e020 37be b7eb cfbb fb04 90bc
000001a0: 2a04 a7bd 2e36 59be f6be 8fbd d470 243c
000001b0: 263f 99bd e227 74be 445b 21be b2b1 f7bd
000001c0: d635 eb3d c73a 9b3d 69ac 373e a5b9 993d
000001d0: cd8f 193d b415 debc aac1 74ba ac3c b7bd
000001e0: 5ce1 89bd d1ad d9bd 2a1a 34bc 25df 8cbd
000001f0: 6dd1 bdbc 1aff 36bd b26d 3a3e acd7 463c
00000200: 08a5 e3bd c41d 4bbd 84eb 7f3d d445 cf3c
00000210: dd7f ec3c 9f56 36bd 2d52 7f3d 31eb 163d
00000220: 9af1 d6bd 9ad0 8ebd 3813 85bd ad51 e2bd
00000230: 7d8f f03c a961 843d b3c1 113e 096a bd3b
00000240: 9aee f0bb daa5 4a3e fa52 973d 5e59 4fbc
00000250: f223 c1bd c84d 463e 3b97 303e 2838 603d
00000260: c14f cebd f69a dc3d 9f1e a03b 288c 5c3d
00000270: 0f45 c0bb a292 0b3d 9913 a43b 1ed3 35bd
00000280: d6b0 bebc 1e41 9e3d 23c5 2b3d 6c42 7dbb
00000290: 12ee 3cbe e2b0 0dbe 75ca 6fbe 2947 30be
000002a0: 65db b1bd bb5f 0ebe ab77 7bbe 8d09 71be
000002b0: 9384 003d c028 46bd 2403 5ebe 556b bcbe
000002c0: 9a0f 05bd 5259 22be d40b 78bd e32d c8bd
000002d0: da01 153d 7ce5 a9bd d239 cbbd 864b 7cbd
000002e0: a666 b03d 8d5e 3cbc 7f87 91bd 04e0 68bd
000002f0: cdca a63d bd38 93bc a48e b1bd b59c 83bd
00000300: 402e 3ebe df5d 39be 078d 0fbe f6de 01be
00000310: 141b 23bd 46de d6bd 11db a4bd d65c 88bd
00000320: 28b5 d5bc 4db2 3ebe 621b 36be ccd9 e9bd
00000330: fc32 153d cc3f 4fbd 7d6e 8dbd 6593 19be
00000340: 54d7 533d 0bf9 a13d 02c6 af3d 1928 34bd
00000350: 675d 45be 134f 4bbd 3ff3 bebd 49de 72be
00000360: 41cd df3d d27d f43d 7c80 ee3d 4615 bbbc
00000370: 591c 253e e980 023e f71c ed3c 27aa 52bd
00000380: ae9e 863e 7610 423e ed0b a53e c6b3 9b3e
00000390: 238f 263e 03b5 9d3d 3ef0 9d3d 8bcc 263e
000003a0: 2916 afbc d4d6 55be 8193 32be bb00 91bd
000003b0: 48df a8bd f612 90be 6a07 74be 5b40 2ebe
000003c0: 86c3 303d 6f38 1d3e 8f68 423e db98 023e
000003d0: cf55 453b ddd3 1b3e 6802 9e3d bef6 1b3d
000003e0: 782e ccbd 7346 983c 307d b7bd 5122 87bd
000003f0: c64e 90be b478 30be 5148 73be fecd 64be
-0.08398748 -0.20512435 -0.04961832 0.0029986538 0.029212123 -0.016968053 0.09933844 0.09827659
0.09978942 0.09470935 0.13253796 0.10334198 0.17812635 0.20797992 0.13108756 0.080251284
0.08273374 -0.13060366 -0.06559317 -0.013260813 0.073837616 -0.07051727 -0.10404529 -0.13079897
0.08229845 -0.15611179 -0.116885185 -0.20394023 0.08157455 -0.02428871 -0.16695757 -0.15264991
-0.022873536 0.008812468 0.14919835 0.13643603 -0.339007 -0.271036 -0.022822378 0.028330825
-0.011686315 -0.13978839 -0.13225187 -0.05454512 0.009999692 -0.05708553 0.066384554 0.0006360283
-0.16807313 0.0017778007 0.02965007 0.115585126 -0.18988629 -0.051715963 -0.23766471 -0.19803956
-0.022042843 0.12620151 -0.0034329202 -0.06479376 0.024355095 0.059873465 0.13163073 0.10845259
0.026609816 -0.096856564 -0.28607154 -0.058807697 0.06353477 -0.05137938 -0.06151601 0.1695889
0.08047842 -0.088334575 -0.16757949 0.050094966 -0.09363625 -0.16064459 -0.37490126 -0.081986316
0.038038477 0.10230612 0.15125993 0.11084254 -0.07964878 -0.099891186 -0.16861902 0.015723014
-0.14196165 -0.07940451 -0.081706285 -0.16909699 -0.058787 0.02774543 -0.09700849 -0.046814077
-0.11907341 -0.06635575 -0.0453296 -0.18720825 -0.08737629 -0.17883635 -0.006345238 -0.0175805
-0.08155091 -0.21212074 -0.07018845 0.010036666 -0.07482748 -0.23843339 -0.15757471 -0.120944396
0.11484878 0.0757957 0.17936863 0.07506112 0.037490655 -0.027109958 -0.00093367195 -0.08947119
-0.06732437 -0.10628856 -0.010992566 -0.06878499 -0.023171151 -0.044676878 0.18205908 0.012136381
-0.111154616 -0.049588934 0.062480465 0.025301851 0.028869564 -0.044516202 0.06233423 0.03684539
-0.104953006 -0.06973381 -0.06497806 -0.11050735 0.029365296 0.0646394 0.14234047 0.0057804626
-0.0073526623 0.1978983 0.073888734 -0.012655584 -0.09430684 0.19365609 0.1724519 0.054741055
-0.100738056 0.10771744 0.004886463 0.0538446 -0.0058676074 0.034075387 0.005007219 -0.04439079
-0.023277681 0.07727264 0.04193605 -0.0038644327 -0.18450192 -0.13837007 -0.23417075 -0.17214645
-0.08684424 -0.13903706 -0.24557368 -0.235388 0.031376433 -0.048378706 -0.21680886 -0.36800638
-0.032485582 -0.15854385 -0.060558155 -0.09774377 0.03637872 -0.08295724 -0.09923138 -0.061595462
0.08613329 -0.011497152 -0.07105922 -0.056854263 0.0814415 -0.01797139 -0.08669785 -0.06426374
-0.1857233 -0.18102215 -0.14018641 -0.12682709 -0.039820746 -0.10491614 -0.08049596 -0.06658332
-0.026087359 -0.18622704 -0.17783883 -0.114184946 0.036425576 -0.05059795 -0.069058396 -0.14997633
0.051719025 0.07908829 0.08582689 -0.043983553 -0.19273911 -0.049635958 -0.09323739 -0.23717608
0.10927821 0.11938061 0.116456 -0.022837292 0.16124095 0.12744488 0.028944476 -0.0514318
0.26292938 0.18951592 0.3223566 0.30410594 0.1626554 0.07700541 0.07711838 0.16288964
-0.021372871 -0.20882732 -0.17439081 -0.070802175 -0.082457125 -0.28139466 -0.23830953 -0.17016737
0.043155216 0.15353559 0.18985198 0.12753622 0.003011096 0.15217538 0.07715303 0.03807711
-0.09969801 0.01858828 -0.089594245 -0.06598342 -0.281851 -0.17233545 -0.23758055 -0.22344205

6.bias f4 [64]
00000000: 7d68 903e a7c2 8dbe 30cf a5be 0b49 b73e
00000010: a254 a0bc 535c 753d f308 693f e54f 76bf
00000020: 8ef2 63be b2bf 5e3e a7be cabe 5812 b73e
00000030: d45c 6abd 068c b53d 585d e13d 077b f7bd
00000040: b63f 4bbd 9bfd 893d dc2b 2f3e 0c43 23be
00000050: ac3d 653e 6100 59be a9a9 993e b445 9fbe
00000060: 5c56 e4be 454f e83e 8611 b23d 56ba a7bd
00000070: 6539 84bf 3568 853f 46ad a4bf 6651 a43f
00000080: 69e8 bfbe 1260 bf3e c88a 883e d65b 96be
00000090: 9f6d 91bb d411 2abc 2fa2 d8be 22e2 e53e
000000a0: 8c6e d2bd c452 e53d 06cc 06bf 4469 083f
000000b0: d937 b93e 7658 a1be 1d2b f0be 96b8 f73e
000000c0: 3b1d 0cbf 636e 103f 9e43 3ebf 13d6 3d3f
000000d0: c0fb 163f 27d3 1dbf 3a57 833e f753 99be
000000e0: 8f7f 0dbf fd0b 1a3f ba2f 393e a682 2abe
000000f0: 4a5d 81bf 915f 833f 0873 dd3e de92 debe
0.28204718 -0.2768757 -0.32384634 0.35797915 -0.019571606 0.0599025 0.9102928 -0.9621566
-0.22260496 0.21752813 -0.3959858 0.35756183 -0.057217434 0.08864598 0.11004132 -0.120840125
-0.049621306 0.067378245 0.17106575 -0.15943545 0.22386807 -0.21191551 0.30012253 -0.31107867
-0.44597137 0.45372978 0.086947486 -0.08189838 -1.0330015 1.0422426 -1.2865379 1.2837341
-0.37482002 0.37377983 0.26668382 -0.2936694 -0.0044381167 -0.010380227 -0.42311236 0.44899088
-0.102749914 0.11197427 -0.52655065 0.5328562 0.3617542 -0.31512803 -0.46907893 0.48383015
-0.547321 0.56418437 -0.74321926 0.74154776 0.5897789 -0.6165032 0.25652486 -0.29946873
-0.55272764 0.6017454 0.18084612 -0.16651401 -1.0106595 1.026354 0.43251824 -0.43471426

7.odefunc.norm1.weight f4 [64]
00000000: 4e6b a73f 3bd1 fe3f 2e1f 823f 9676 1c40
00000010: d8d5 d33f 946f db3f 1f68 e03f 803d d63f
00000020: 1881 bb3f 1c75 cf3f 8264 2040 8ccc d23f
00000030: b275 af3f abe8 0640 46a1 eb3f 0a1e df3f
00000040: 4fe6 ee3f 04cc 2f40 e9c2 dd3f 9553 c23f
00000050: b461 cf3f bc9c f53f 83b4 fe3f 8553 0f40
00000060: 1105 0040 e618 bd3f 4879 9e3f 6e2d d73f
00000070: f94e 0440 f81b e23f ba3f 1240 71d3 f43f
00000080: 8977 9b3f dcfa de3f a43d a03f 9b86 dc3f
00000090: 0060 aa3f 276d 0040 0326 0040 13f5 ae3f
000000a0: 868f 0540 43df af3f 2fac e93f c1d5 0240
000000b0: 5ac8 c83f fa70 f43f 1b36 fe3f d464 0340
000000c0: 3bd1 dc3f 275d 0240 2bed eb3f 10be e73f
000000d0: 5c3d e03f 1462 d43f 485f e03f 2860 c83f
000000e0: 8383 d93f 2972 af3f d4bb f03f d2af bf3f
000000f0: 1933 f73f 06aa 0140 7514 e93f 79b5 8a3f
1.3079622 1.9907602 1.0165765 2.444738 1.6549635 1.7143426 1.7531775 1.6737518
1.4648771 1.6207614 2.5061345 1.6468673 1.3707793 2.107951 1.8408592 1.7431042
1.8664035 2.7468271 1.7325107 1.5181757 1.6201692 1.9188457 1.9898838 2.2394726
2.0003092 1.4773223 1.2380762 1.6810739 2.06732 1.7664785 2.2851396 1.9127027
1.2145854 1.7420306 1.2518811 1.7228578 1.3310547 2.0066621 2.00232 1.3668541
2.086885 1.3740009 1.8255671 2.0442965 1.5686142 1.9096978 1.9860262 2.053029
1.7251352 2.0369356 1.8431753 1.8104877 1.7518725 1.6592431 1.7529078 1.5654345
1.6993259 1.3706714 1.880732 1.4975531 1.9312469 2.0260024 1.8209368 1.0836631

7.odefunc.norm1.bias f4 [64]
00000000: 9b6c 78bf ce6c 14bf 1d86 033e 9920 7dbf
00000010: 4231 0fbd c784 e8be 1c05 88bf 2085 88bb
00000020: 3b81 1bbf 74cd 14bf b55c a9bf f885 86bf
00000030: bfc6 41bf e274 17bf 971f 10bf c1f7 8fbf
00000040: 553f 85bf 8802 63be c2ce 28be 1eb5 71bf
00000050: c1cd 04bf 8e17 b4be b8a1 88bf 08ae bebe
00000060: 6618 51be 57a9 33be 49f6 b1be 47ff b5bf
00000070: 10bd a6bd ff2b 93bf 105f 2abe bafc d6bf
00000080: 60a2 06bf e47f 02bf 0299 acbe 44bb 77bf
00000090: b414 d63d 25ba a3bf 62e8 1cbe 2b39 5abf
000000a0: 15af e1bf b420 66bd 3ff4 88bf 45fe 25bc
000000b0: fbd0 5fbf 533b 0c3e 824d 9bbf 9fc4 0fbf
000000c0: aa43 273d a0d7 e6bf cf6c 8b3e ad56 a6bf
000000d0: 322f 44bd 655c 58bf 9534 7c3e ec54 94bf
000000e0: 7fbe 50bf 9b3e 0cbe 516d 6bbf 5647 f1be
000000f0: 4cd4 36bf 5c09 2ebf 60cb acbf 7f69 84be
-0.9704072 -0.5797852 0.12844129 -0.98877865 -0.034959085 -0.454138 -1.0626559 -0.0041662604
-0.60744065 -0.58125997 -1.3231417 -1.0509634 -0.7569389 -0.59162724 -0.562982 -1.1247483
-1.0409952 -0.22168934 -0.16485122 -0.9441699 -0.51876456 -0.3517422 -1.0674353 -0.3724215
-0.20419464 -0.17545067 -0.34758213 -1.421853 -0.081415296 -1.1497802 -0.16637826 -1.6795876
-0.52591515 -0.50976396 -0.33710486 -0.9677012 0.104531676 -1.2791182 -0.15323022 -0.8524348
-1.7631556 -0.056183532 -1.0699538 -0.010131423 -0.87428254 0.13694505 -1.2133029 -0.56159395
0.040836014 -1.8034554 0.27231452 -1.2995201 -0.04789657 -0.8451598 0.24629433 -1.1588416
-0.81540674 -0.13695757 -0.9196368 -0.47124738 -0.7141769 -0.6798303 -1.3499565 -0.25861737

7.odefunc.conv1._layer.weight f4 [64, 65, 3, 3]
00000000: 827a 86bd a392 c5bd 0d7b cfbd 24a9 9bbd
00000010: e272 d8bd 2e79 c1bd e166 cc3c bc12 e0bb
00000020: 8233 7dbd c565 7abb e90b 7e3d 9320 05be
00000030: 971c cabe 242f 12be eccf c8bd 5d49 88bd
00000040: 6d15 8b3e 14bf 01be cd66 f63b f487 03bd
00000050: 9599 113d 40f4 5e3d 47b5 d93c 1381 51bc
00000060: e3a1 93be c583 963d 00ad 743e 3467 603d
00000070: d32d 403e 69c6 01be a57b 993c e23d 49bd
00000080: d046 ca3c 1664 3c3e 7697 903e cda0 51bd
00000090: 5fb7 763d 5c54 59be 9491 8cbe 309b 4bbd
000000a0: 2328 c23d 96df 51be 540e 5cbb 586f 893e
000000b0: ba85 80be f527 2fbe bc31 223e 053c e93d
000000c0: defa 26be 62fb 05bf b1d7 913d 8433 34be
000000d0: d6e9 88be 55f2 073e e7f0 99be 042d 02bf
000000e0: 515e a93d a46f 1a3e b6d4 9d3d bd3a b3bd
000000f0: 8adb e93e 858f 1e3f cfb2 3a3e 0e5f bbbd
00000100: 84bd 4bbd 90c7 18bd 5b7c b5be 94a0 4bbe
00000110: b7b5 48be cb9c 1abe fcae 703d 023f 493e
00000120: 3de5 83bd f289 2fbe a11b 93bd f921 983d
00000130: 9c5a 85be 0cee 9fbd 4cef 24ba 5ecc 28be
00000140: 011a b03d 8dba de3d d8a9 8d3e 739a 4d3e
00000150: c76b debd 6b52 f83b ccef 9d3e 4797 123e
00000160: 6919 1d3e 736c a33e 639a d3bd 4033 223e
00000170: abe5 04bf 063b 73be 13c7 743e f39e 65be
00000180: 59c6 1bbe 90fa e5bd 8b38 fd3e 9152 dabe
00000190: 6267 3a3d 121f 183f 024b a4be 74df 3dbe
000001a0: 7b17 b13e 1d0a 20bf 8773 f5bd a011 ff3e
000001b0: b497 c3bd 813b be3e 837c 4d3d a176 4cbe
000001c0: 84f8 3ebd 811f f9bd c5c9 503d c41b 3fbe
000001d0: d6ce 6cbd 3d91 803e 06ae 8abd 0371 90be
000001e0: 9152 e1bd fe4f a33d 63b5 ac3e 284a 12be
000001f0: a156 8e3e 1ffe bd3e 780c c5be 8841 31be
00000200: 3c11 323e 179b 09bf 9c5e 00bf cf66 1bbe
00000210: 5d05 11be d5be 82be c165 143e acac f1be
00000220: b280 a4be 3bd8 c13d 1577 9ebe 75b7 b0be
00000230: 54ff ac3e afeb d5bd d2eb 33be a094 3cbd
00000240: d561 0dbe daf3 4abe 2184 94be bce1 053e
00000250: 2977 8ebe a4ed dabc 6a2a ba3d 2257 75bd
00000260: 70ea 76be 8c2b f83e 5c07 963d 10b6 c5be
00000270: 50a8 7e3e dcce e03e 7ce3 1dbe e27e 9c3e
00000280: 2f4e 273e f002 09bd e528 bbbd 97ea 65be
00000290: 5e01 3a3c 98a4 4bbe 8067 a8be b99d 893e
000002a0: 1ec4 82be cf22 00bf ba8b 99be afd5 02be
000002b0: e634 12be da06 6fbd 72fb df3d 6b1d 59be
000002c0: e87b bc3d c895 3f3e 841f 21be d44f 443e
000002d0: 2836 013e 4873 103e 89cf bcbb 5700 1abe
000002e0: 8c3a 023e da21 e1bb b85e 45be 6379 f23e
000002f0: 304f c23c 3ea5 bb3d 3ea7 2b3e 7f88 4f3e
00000300: 58f2 e53e 2877 bbbd f2b2 81bd 4bf9 8a3e
00000310: 1f54 833d 3c9b 353e 2bd2 00bf a2ac b8bd
00000320: 9f9f 183e d714 0abf 5fd4 d63d 2baa ce3d
00000330: 95c1 77be e1ee e6bc a1b6 603e b271 4c3e
00000340: e0ec c6be be25 0ebd 0054 3e3e 1f60 013e
00000350: 387b abbe 80e3 21be c3ec 4dbe b735 413e
00000360: 9172 7abd d388 bcbb 0718 cbbb c829 70be
00000370: 7577 233e c45f fb3d d38a 3abe e9e1 1f3e
00000380: ef14 babd 35bb 0dbe cba4 f33d c46c 9e3e
00000390: 3705 94be 2d0b afbe 7e83 5b3e 0474 99bd
000003a0: f730 07bf 9a31 4cbe 903c 53be a835 6cbe
000003b0: e945 023d c2bd 90bd 6599 f8be f4fa 1fbd
000003c0: 7266 7abe 0e3a 9ebe 997f 4abd abc6 6b3d
000003d0: ac46 0bbe fcf9 8abe f85d af3e 8819 953e
000003e0: 6a07 dbbe 0fd6 8ebd 64f4 593e 0c93 a4be
000003f0: 0b27 44be 49e4 1cbe 2a55 b1be 980c 1ebe
-0.06566335 -0.09647109 -0.10130892 -0.076006204 -0.10568787 -0.09446941 0.0249514 -0.006838171
-0.0618167 -0.0038207632 0.062023077 -0.13000707 -0.39474937 -0.14275795 -0.09805283 -0.06654618
0.27164784 -0.12670547 0.007519579 -0.032112077 0.035546858 0.054432154 0.026575698 -0.012787121
-0.28834447 0.07349352 0.2389412 0.054785922 0.1876748 -0.12673344 0.018735716 -0.04913128
0.02469197 0.18397555 0.28240556 -0.051178742 0.06023347 -0.21223587 -0.27454817 -0.049708545
0.09480312 -0.20495448 -0.0033577876 0.2684276 -0.25102025 -0.17105086 0.15839285 0.11388401
-0.16306636 -0.52336705 0.07121218 -0.17597777 -0.26740903 0.13276036 -0.30066606 -0.5084994
0.082699426 0.1508165 0.07706587 -0.08751438 0.45675308 0.61937743 0.18232273 -0.091489896
-0.049741283 -0.037299693 -0.35446438 -0.19885474 -0.19600569 -0.15098874 0.058760628 0.19652942
-0.06440208 -0.17142466 -0.07183004 0.07428355 -0.26045692 -0.07809076 -0.00062917615 -0.1648421
0.0859871 0.108754255 0.27668643 0.20078449 -0.10860401 0.0075781844 0.30847013 0.1431552
0.15341724 0.31918678 -0.10332181 0.15839863 -0.51912946 -0.23752984 0.23904066 -0.22423916
-0.15212382 -0.11229432 0.494572 -0.42641118 0.04550875 0.5942241 -0.32088476 -0.18542272
0.34588227 -0.6251543 -0.11984926 0.49818134 -0.095504194 0.37154773 0.05016757 -0.19967128
-0.04662372 -0.12164212 0.050973672 -0.18662935 -0.05781444 0.25110808 -0.067714736 -0.2821122
-0.110020764 0.07974242 0.33732137 -0.14286101 0.27800468 0.37107942 -0.38486075 -0.17310154
0.17389387 -0.53752273 -0.5014436 -0.15175937 -0.14162202 -0.25536218 0.14491941 -0.4720205
-0.32129437 0.09465071 -0.30950227 -0.34514967 0.3378855 -0.10445344 -0.17570427 -0.046040177
-0.13806851 -0.19819584 -0.29007056 0.13074392 -0.27825287 -0.026724644 0.09090121 -0.05989755
-0.24112868 0.48470724 0.073256224 -0.38615465 0.24868894 0.4390782 -0.1541881 0.30565554
0.16338418 -0.033450067 -0.091386594 -0.2245277 0.011352865 -0.19887006 -0.32891464 0.26878145
-0.2554025 -0.50053114 -0.29989415 -0.12776826 -0.14277992 -0.058356144 0.10936631 -0.21202628
0.09203321 0.18709481 -0.15734679 0.19171077 0.12618315 0.14106476 -0.005762045 -0.15039192
0.12717646 -0.0068704905 -0.19274414 0.47358236 0.0237194 0.09162377 0.16763017 0.20266913
0.44911456 -0.091535866 -0.06332959 0.2714332 0.06412529 0.17734998 -0.5032069 -0.09017302
0.1490464 -0.5393805 0.10489725 0.10091051 -0.2419494 -0.028190078 0.21944667 0.19965246
-0.38852596 -0.034703963 0.18586731 0.12634324 -0.33492446 -0.1580944 -0.20109849 0.18868147
-0.061144415 -0.0057536154 -0.0061979326 -0.23453438 0.15963538 0.12274125 -0.1821702 0.15613522
-0.09086024 -0.13840945 0.11896666 0.30942357 -0.2891023 -0.34188214 0.21436879 -0.07492831
-0.5280909 -0.19940796 -0.20628572 -0.23067343 0.031804953 -0.070674434 -0.4855453 -0.039057687
-0.24453142 -0.30903667 -0.049438093 0.05756251 -0.13601178 -0.27143848 0.3425138 0.2912104
-0.42779094 -0.06974422 0.21284634 -0.32143438 -0.19155519 -0.15321459 -0.34635288 -0.15434492

7.odefunc.conv1._layer.bias f4 [64]
00000000: b93d 88be 115e 973e e1d7 17bf b973 1e3f
00000010: cbd8 ba3d b887 ecbd bbbd 673e cebb 6bbe
00000020: 1f55 67bd 639c 5e3d 3842 0c3d 51aa 093d
00000030: d3a6 cabd e89c ab3d 9fab 1a3e 0369 08be
00000040: d2ba a03d d996 3bbd a968 803d 535b 23bd
00000050: 3bff 41be 0ac9 4c3e 438a d03d 7ddc cdbd
00000060: 7324 31bd 6538 393d e34c a0bd 80a2 b83d
00000070: cfe5 bc3d 5c7f 0cbe 5e1b ecbd 189b f13d
00000080: 5282 84bd a5e2 f03c c03d adbd 3830 9f3d
00000090: 70a5 a33d 88a6 3cbd 29fe 063a b940 db3c
000000a0: 911c a9bd e809 cd3d fe16 4c3d 3ac2 63bc
000000b0: 6a74 603e 9921 36be 37b3 b03d f784 c8bd
000000c0: 323c 003e 36c1 debd 227c a93e a3e1 8dbe
000000d0: fc02 0fbd d537 f23c 3ef5 723e 7f4a 41be
000000e0: 44d6 9fbd cc7a b83d 5898 77be a142 6f3e
000000f0: f236 9c3e cc40 a6be 64f2 f7bd ffab 003e
-0.2660959 0.29563954 -0.5931378 0.6189533 0.09123381 -0.11549324 0.2263097 -0.2302086
-0.056477662 0.05434836 0.03424284 0.033609692 -0.098951004 0.08379537 0.15104531 -0.13321309
0.07848133 -0.045798156 0.06269962 -0.039882015 -0.18945019 0.19998565 0.10182621 -0.100518204
-0.04324765 0.045219798 -0.07827165 0.090153694 0.0922352 -0.13720459 -0.115286574 0.1179716
-0.06470169 0.029404948 -0.084590435 0.07772869 0.07990539 -0.046057254 0.0005149567 0.02676426
-0.08257402 0.10011655 0.049826615 -0.013901288 0.21919408 -0.17786254 0.086279325 -0.09790986
0.12522963 -0.10876696 0.33102518 -0.2771121 -0.034914955 0.029567638 0.23726365 -0.18876074
-0.0780454 0.09007797 -0.24179208 0.2336526 0.3051067 -0.3247131 -0.12106779 0.12565611

7.odefunc.norm2.weight f4 [64]
00000000: 4d8e e83f 44fe f83f 106b e73f 8589 0340
00000010: 332c 0e40 dbc3 c93f 7a7f c23f 2867 eb3f
00000020: 1447 d43f 5c50 e93f 4a3b cf3f 8c0c 0840
00000030: 9f17 f03f f790 0440 bd0f dd3f 059e e13f
00000040: 512a d73f ae63 cc3f fe53 e03f 970e e33f
00000050: f305 f53f a41b fe3f 255a d83f 24b1 e63f
00000060: 6ef3 c83f 05b3 0640 26c9 f63f a99b e03f
00000070: f2d9 ad3f 17ca e33f 6f02 f83f 8398 2440
00000080: e55a eb3f 4ac1 d63f c5f2 d33f dd7c e83f
00000090: 510e be3f 0647 ef3f 4e1f 1940 424e dc3f
000000a0: c0a1 f83f d101 e63f 0620 0e40 272b f03f
000000b0: 25c8 bd3f 4dd1 ee3f 6c36 d93f f7dd d83f
000000c0: a091 0c40 7f9a d83f ed26 eb3f 6a6f 0340
000000d0: 49dc 0740 522a e53f c294 df3f db61 f53f
000000e0: 24a4 e73f 38ff e83f bf5e f83f 6cf2 1840
000000f0: 6615 f93f d1a4 f23f 9d67 0040 d835 ef3f
1.8168427 1.9452596 1.8079548 2.0552685 2.2214477 1.5762895 1.5195153 1.8390856
1.6584191 1.8227649 1.6189969 2.1257658 1.8757209 2.071348 1.7270428 1.7626349
1.6809789 1.596792 1.7525632 1.7738827 1.914244 1.9852185 1.690251 1.8022809
1.5699289 2.1046765 1.9280136 1.7547504 1.3582137 1.7796048 1.9375743 2.5718086
1.8387114 1.6777737 1.6558462 1.8163105 1.4848119 1.869355 2.3925357 1.7211382
1.9424362 1.7969304 2.2207046 1.8763169 1.4826704 1.8657624 1.6969733 1.6942738
2.1963882 1.6922148 1.8371254 2.0536752 2.1228201 1.790354 1.7467272 1.9170488
1.8096967 1.8202887 1.9403914 2.3897963 1.9459655 1.8956548 2.006324 1.8688307

7.odefunc.norm2.bias f4 [64]
00000000: 2685 e4bf d8c6 fbbf 378f c8bf 3224 15c0
00000010: b963 0ac0 d10b 34bf c4c8 dfbf ff8c 9fbf
00000020: 956d d3bf 9555 a6bf 8574 d7bf 6753 d0bf
00000030: 310a adbf 6354 2bc0 49d7 f4bf 0cc2 a0bf
00000040: 8557 dfbf 16db a8bf d58b 80bf ed87 17bf
00000050: cc18 01c0 7d77 b8bf 1dc2 eabf a323 a1bf
00000060: 2f10 95bf 790b 10c0 91d6 04c0 199e 9cbf
00000070: 9188 bcbf 3b66 f8bf 671d a5be 2822 2bc0
00000080: 30a9 8cbf 6aef 08c0 7f4c 1dbf b7f3 febf
00000090: 4f48 dfbf 5d48 6fbf 6708 25c0 17c0 86be
000000a0: 207f dcbf f1d3 e7bf 7889 3cc0 34b6 a2bf
000000b0: 412f 9abf fa34 06c0 d7b1 9abf f779 d7bf
000000c0: 203e 1fc0 65a6 8abf c098 08c0 c939 31bf
000000d0: 7ec8 16c0 bf50 ddbe eed5 09c0 6a6a a0bf
000000e0: 72b7 c5bf 9fd5 cdbf 32b6 2abf 4cba 4ac0
000000f0: 7938 c2bf 4f46 acbf 4d3c cbbf 00d4 15c0
-1.7853134 -1.9670057 -1.5668706 -2.3303342 -2.1623366 -0.7033053 -1.7483144 -1.2464904
-1.6517817 -1.2994868 -1.6832434 -1.6275452 -1.3518735 -2.6770256 -1.91282 -1.2559218
-1.7448584 -1.319186 -1.0042673 -0.5919178 -2.0171385 -1.4411465 -1.8340489 -1.2589
-1.1645564 -2.2507002 -2.075596 -1.2235748 -1.4729177 -1.9406198 -0.32248995 -2.6739597
-1.0989132 -2.1396127 -0.6144485 -1.9918126 -1.7443942 -0.9346979 -2.5786378 -0.26318428
-1.7226295 -1.8111554 -2.9458904 -1.2711854 -1.2045671 -2.0969834 -1.2085522 -1.6834096
-2.4881668 -1.083203 -2.1343231 -0.692288 -2.355987 -0.43225667 -2.1536822 -1.2532475
-1.5446608 -1.6080817 -0.6668426 -3.1676207 -1.5173484 -1.3458956 -1.5877777 -2.3410645

7.odefunc.conv2._layer.weight f4 [64, 65, 3, 3]
00000000: ebcf 4dbd f972 16be 8e1f 3cbe 5f8e 173c
00000010: f1a3 0dbd 087f b3bd 2680 a8ba f9cc b2bd
00000020: e708 e4bd 57c4 393e 5138 f4bd c0fc 993d
00000030: cf76 af3c 1605 8fbe e800 a53d 789a 96bd
00000040: 879c 7bbe baf4 183e f3ee 27bd f0b1 61bd
00000050: abdd 25be 2f34 953d 9277 09bd 703b ba3d
00000060: e4a9 ca3e dcd7 e93e b70d 443e a43b f1bc
00000070: 6a22 6b3e 2260 473e 054e 60bd e276 1ebe
00000080: 3c77 3c3e 6fed d43d 9d5f 21be 445d 83be
00000090: 73f0 1abf 3eed 62bf 7ffe f8be 953e 6d3e
000000a0: 8ce1 17be cf31 313e f5cb 953e 283b 613d
000000b0: 157d 4a3e 142d 103e a425 10be 98eb 00be
000000c0: 05e2 043e e4d5 f93d f184 22bc 4a72 e73c
000000d0: 32b3 8d3c ffe1 87bc 1b07 30be 4d5a 9bbd
000000e0: 7032 2ebd a6af 22be 114e 1a3e 73b9 683e
000000f0: fbb1 babe e061 ed3c ebaf e93c 81a2 033e
00000100: 0dd6 1e3e 52f7 0ebd 4812 643e 0e69 2dbd
00000110: 3e5b 19bf 0385 a1bd ec75 a0be 8404 3dbf
00000120: ed01 af3e 499b 7b3d 3528 d2bc 30e3 4d3e
00000130: 179f 28bc 74f6 8bbe 592a a7bd e81e 8f3d
00000140: 9c24 60bd 2aed 903e 46ea f0be 47fa 80be
00000150: 9d75 403e f56e 38be 2c68 32be d8af 2a3e
00000160: 5fba 27be 4bc2 36be cff9 3b3e 8b05 953e
00000170: de12 dcbc e7b7 fdbd 0c06 173c cf33 9abc
00000180: 95b1 e33c 6e4e 583e e93c 9a3d 4e1d ffbd
00000190: e6ed 403e 4e43 603e cc73 5cbe 8bc5 30be
000001a0: 0241 eabd 4672 f4bd 800a 30be ffa9 1dbd
000001b0: 6785 953b 0559 b53d 1197 34bc dd80 9fbe
000001c0: 4ff8 4cbc cbc6 1ebe cde5 8b3e 3a64 013f
000001d0: 7972 9a3e 0486 cfbe baa2 693e a9a8 b23e
000001e0: 4737 adbd 5571 a63e 7c43 a33e 51b8 8c3e
000001f0: 35d6 fc3d a3ed 653c 41b2 1abd 9def 013d
00000200: 95ac d63c e841 22be 2699 b1bc c1d7 963d
00000210: 06b3 c93d 7716 3a3e f763 1f3e 317f b73c
00000220: 682c 183f 7a49 3dbd b95e 99be 74b1 eabd
00000230: e5f5 a3be c09c 423e 2da9 243d 5515 17be
00000240: 28f8 663e 8d95 94bc c83b 4d3e 31ee 133e
00000250: 0420 0abd a327 f6bd 8597 8b3d 4d21 183e
00000260: f287 943e c640 e6be bd56 ca3d b0f9 dd3d
00000270: c433 bcbe c4ac c73d 1e8c fdbd 4a20 ba3d
00000280: 5f3e 4f3e 4a59 b3bd 9041 223e ecc9 f4bc
00000290: 8f17 b0be 6b38 0cbe e89b 06be b397 10be
000002a0: f6b1 88be bfce dfbe 89f4 9abe b090 cfbd
000002b0: a76c 10be 304a 463e 6ba9 bb3a 012e 2fbe
000002c0: f579 75bd 798b ac3d 6dda 9dbe a82e 85be
000002d0: 2d70 993e 2149 303e ea3d 2e3d d2fc 55bb
000002e0: e33c 50be e736 ddbe 6388 303e cc98 2fbc
000002f0: a660 debe aa4b 8d3e ba37 d2bd 402d dbbe
00000300: f00c 8dbd 69ea 9d3d 002e 20be ede6 99be
00000310: 43f3 13bd 1dc9 e0bb 2f2a 093e 0b5d ed3d
00000320: 7da9 1e3e 6ed0 8dbd b1ba cbbc b0da e53d
00000330: cc3c 6cbe 715d 9fbe 2c0e b0bd e34c 7bbd
00000340: b6dd 38bd 3c4e bf3d 3f90 3dbd 98e1 05bd
00000350: 8026 42be ece9 aebe cb9c 72bd 8645 17be
00000360: 8959 ce3d 5fbd 883e c939 e83c ae32 52bd
00000370: f834 6c3c bf2d d7bd a18c 243e 95ec 643e
00000380: 6eae 123e e94a 553d 718c f43d d95e c2bd
00000390: fae3 8bbc b1ea f13d 8791 bc3d 6774 c3bd
000003a0: cf44 713e 0412 b33e 8f18 a1be dae5 023d
000003b0: 1b59 1fbe ef87 c03d 31b4 5f3e cb46 16be
000003c0: b05c 383e 154c f53e f6bb 4d3d fe3f b03c
000003d0: d894 043e b639 b83e d082 c6bc cb57 3dbb
000003e0: 63e9 c83d acbe ff3d 3990 3c3e 2e02 98bd
000003f0: 3fe9 93be 7a0c 98be 4499 e3bd 73be ddbc
-0.050247114 -0.14692296 -0.18371412 0.0092502525 -0.034580175 -0.08764464 -0.0012855574 -0.08730502
-0.111345105 0.18141304 -0.11924804 0.07518911 0.021418957 -0.27933568 0.080568135 -0.07353681
-0.24571429 0.14937106 -0.040999364 -0.055101335 -0.16197841 0.07285344 -0.033561297 0.09093368
0.3958274 0.456725 0.19145857 -0.029447384 0.22962347 0.19470266 -0.054761905 -0.15475038
0.1840486 0.10396849 -0.1575913 -0.25657094 -0.60523146 -0.8864325 -0.48631665 0.23168404
-0.14832133 0.17304157 0.2925717 0.054988056 0.19774278 0.14079696 -0.14076859 -0.12589872
0.12976845 0.121989995 -0.009919391 0.02825274 0.017297361 -0.016587256 -0.1719021 -0.07585583
-0.04252857 -0.15887317 0.15068842 0.22726993 -0.36463913 0.028977334 0.028526267 0.12854959
0.15511341 -0.03490383 0.22272599 -0.042336516 -0.5990485 -0.07886698 -0.31339967 -0.73835015
0.34181157 0.06142739 -0.025653938 0.20106196 -0.010291836 -0.27336466 -0.08162374 0.06988317
-0.054722413 0.28305942 -0.47053736 -0.25190946 0.18794866 -0.18011077 -0.17422551 0.16668642
-0.16379689 -0.17847554 0.18357013 0.2910579 -0.026864465 -0.12388592 0.00921775 -0.018823532
0.027794639 0.21123669 0.07531149 -0.12456761 0.18840751 0.21900675 -0.21528548 -0.17262857
-0.114381805 -0.119358584 -0.17191505 -0.0384922 0.004563022 0.0885487 -0.011022345 -0.31153002
-0.012510373 -0.15505521 0.27323762 0.5054356 0.3016546 -0.40531933 0.22815982 0.34894302
-0.08457809 0.3250834 0.31887424 0.27484372 0.12345544 0.014033708 -0.037767652 0.031722654
0.02620534 -0.15845454 -0.021679472 0.073653705 0.09848599 0.18172632 0.15565477 0.022399517
0.5944276 -0.04621265 -0.2995508 -0.11459628 -0.3202354 0.19005108 0.0402004 -0.14754231
0.22555602 -0.018137718 0.20042336 0.14446332 -0.03372194 -0.12019279 0.068160094 0.14856453
0.29009968 -0.44971293 0.09879825 0.1083864 -0.36758244 0.09749749 -0.12380241 0.0908819
0.20238636 -0.08757265 0.15845323 -0.02988144 -0.34392974 -0.13693397 -0.13145411 -0.14120369
-0.26698273 -0.43712422 -0.3026469 -0.10135019 -0.14103948 0.19364238 0.0014317458 -0.17107393
-0.05993076 0.0842504 -0.30830708 -0.26012158 0.29968396 0.17215396 0.042539515 -0.0032651913
-0.20335726 -0.4320595 0.17239527 -0.010717582 -0.43433112 0.2759679 -0.10264535 -0.4280796
-0.06887233 0.07710726 -0.15642548 -0.30058995 -0.036120664 -0.006859912 0.13394998 0.11590012
0.15494342 -0.069245204 -0.024869295 0.11223352 -0.23070067 -0.31125978 -0.08596453 -0.06135262
-0.045133315 0.09341094 -0.046280142 -0.032685846 -0.18959999 -0.34162843 -0.05923156 -0.14772615
0.10075671 0.2670698 0.028347867 -0.051317863 0.014416926 -0.10506772 0.1606927 0.22355874
0.14324352 0.052073393 0.119408496 -0.09490747 -0.017076481 0.11812342 0.09207445 -0.09543686
0.23561405 0.34974682 -0.3146405 0.031957485 -0.15561335 0.09400927 0.21846081 -0.14675443
0.18004107 0.47909608 0.05022808 0.021514889 0.12947404 0.3598153 -0.024232298 -0.002889144
0.0981014 0.1248754 0.18414392 -0.07422291 -0.2888889 -0.2969702 -0.111132175 -0.027068352
