experiment_node_mnist_v3/model.pth (torch, 839593 bytes, 24 tensors)

0.weight f4 [64, 1, 3, 3]
00000000: 5b6b 8a3e cf63 6ebe 6db8 b73e 015b 393e
00000010: 2578 b8be 58ae c93d 2d26 3c3e 0ead b7be
00000020: f97a fc3e 56c2 21be ea6b e6bd cceb 76be
00000030: 8efb 9ebe 6345 36be ce57 18be a0ff 073e
00000040: 7d24 bebe 26e3 41be 2053 8b3e 5e29 f8bd
00000050: f305 b0be 8831 bd3e 4898 18be 7fdb 7bbc
00000060: d795 113e 4a51 b2be 6e63 ab3e c99f aebe
00000070: 2d0d 31bf d7e0 0c3e fc1b 54bf 6cbb cb3d
00000080: bc0d 823f 064a 613e c29e 143f 6977 9b3e
00000090: a28b aebd ef7e c13e 9570 17bf e996 a1bd
000000a0: a167 9b3e 9a18 4ebf 1a76 513e 3403 e53e
000000b0: a764 e03d cc5c 0a3f f3cc bb3e e9ac 79be
000000c0: 3103 633e 1148 0ebe 94d5 30bf f8ce 8b3b
000000d0: 08a0 08bf ca75 c1bd 4b27 a53b 6896 063f
000000e0: f02b 273f add0 0abf 30b8 4c3e d8f7 f73e
000000f0: 88d5 3fbf ee18 01bf adb2 7e3e ea9d cb3e
00000100: 445e cbbd 249f 21bf b68d 1e3f a138 e2bd
00000110: 5a5d 15bf 77c4 fc3e 2245 693e 7704 b7be
00000120: b0c1 86be 620d e23c 94db 95be 8d9f a93e
00000130: 9f5c 253f cda0 b1bd 3eb2 bb3d adc7 a33e
00000140: 4575 373e be82 5ebc 1cf2 4dbd 15bf ab3d
00000150: 6029 ad3e 9c80 35be 73c1 e73e ef58 af3e
00000160: af42 14bf b159 843e 56e3 42be c7d9 c4be
00000170: 0f39 1abe 809b 27bd 61e5 dcbd cefd 03be
00000180: ffcf b6be a72c a6bb c286 cdbe c3d1 873e
00000190: 3082 f7be 8076 35bf 4e8a 03be 54b1 023e
000001a0: 5811 0a3f 068e dc3e 7b81 353e 8d7b a23e
000001b0: fc73 de3e 6cb9 463f 0efe d53d cf08 8f3e
000001c0: c0ea f1be bb56 2abf 1de1 31bf 13c6 1dbf
000001d0: b2b8 2abe 5281 5bbe 05bd 05be 9b56 97be
000001e0: fbb2 09be 1b7d 1cbe 0a82 3bbd 5b8e 91be
000001f0: 78dc 893d c73d 85be bd28 073f ef88 babe
00000200: 2be4 00bf ad59 233f 59ac a7be 9ebc 1bbf
00000210: c99e 333f 36e6 703e aa02 a1bd d119 243e
00000220: ebea 69be 362a 82bd 3cb0 64be 4853 b03e
00000230: 8ce5 733d 51b0 2b3d 8767 bfbe 6dd2 3d3e
00000240: 0001 d3bd c5de 243e bd85 9c3d 22b2 c73d
00000250: 9417 ce3e ffff 123d be28 4bbe e979 eebd
00000260: d9cd 0c3e 9b41 c73e 7dca b9be 4c74 2e3e
00000270: ca36 45be ead2 14bf d892 45bd 2ef1 ce3e
00000280: cc7d ba3e 00ac 5c3d c852 ff3d f92f aa3e
00000290: 1f88 a5be 49dd 5fbe 62f0 b8be a253 2b3d
000002a0: c117 a93e f009 e3bd 5c03 9c3e c725 393f
000002b0: 653c 05bf b703 60bf e591 3b3f 1aa2 743c
000002c0: dd31 84be cb89 163f 16fe 683e b79d e0bd
000002d0: cc76 8dbe a748 83bd 1949 94be b06a 07be
000002e0: 37ba 18be 3272 a5bd 7849 093e 41dc d6be
000002f0: fd70 8abd 16d9 cd3e aa5b cc3e cd53 643e
00000300: f999 e23e ca57 663b 51ec 08bf 21a9 5abf
00000310: 1080 19bf b42c c4bd c0c3 883d 7b40 4dbe
00000320: bdba 8fbe a6c9 2c3d 69fd 97be 4537 babe
00000330: 8dc5 95be 1684 253e 91ae adbe 6be3 243e
00000340: c107 a1be 582c f0bd 7758 86be 3373 65be
00000350: 6028 c73e 4877 b1be d8d4 66be e870 823e
00000360: f7e5 673d e554 a83e bae8 8abd fa74 4dbe
00000370: 4e03 2e3e c2dd 90be ff9c 33bc 3f38 8d3e
00000380: ebaf 263e 9521 963e ebbc a63e 84a6 e13e
00000390: 8287 c13c 2428 63be f37d df3d 3980 c93e
000003a0: 7639 b53d bd7a f93d 16b9 e33e 61ab d93e
000003b0: a622 e6be bfed 17be 1191 543f bc63 583e
000003c0: dfe3 34bf b43e 07be b8e5 fc3e 6e35 6abe
000003d0: 6a93 193e 0cee 05bf 23c1 853e c64a 14bf
000003e0: fe10 6dbe 8a1f cdbe a046 703e 2cb9 db3e
000003f0: 0998 fcbd 4f98 6cbe 1e37 2ebd a685 90be
0.2703503 -0.23280261 0.35882893 0.18101121 -0.36029163 0.098477066 0.18373938 -0.35874218
0.4931257 -0.1579679 -0.11251052 -0.24113387 -0.31051296 -0.17799906 -0.14877245 0.13281107
-0.37137213 -0.18934307 0.27211857 -0.12117265 -0.3437954 0.36951852 -0.1490184 -0.015372156
0.14217316 -0.34827644 0.33474296 -0.3410628 -0.6916073 0.13757645 -0.828552 0.09947857
1.0160441 0.22000894 0.58054745 0.3036454 -0.085227266 0.37792155 -0.5915616 -0.07890112
0.303525 -0.8050629 0.20455208 0.44729006 0.10956698 0.54047847 0.366798 -0.24382366
0.22169186 -0.13894679 -0.69075894 0.004266616 -0.5336919 -0.094462946 0.0050400845 0.5257325
0.6530142 -0.54224664 0.19992137 0.48431277 -0.749352 -0.50428665 0.24872847 0.39768916
-0.09930089 -0.63133454 0.61934984 -0.11045957 -0.5834557 0.4936864 0.22780278 -0.35745594
-0.26319647 0.027594272 -0.29269087 0.3312954 0.64594454 -0.086732484 0.091648564 0.31988278
0.17915829 -0.013580976 -0.05027972 0.083860554 0.3382063 -0.17724842 0.45264778 0.34247538
-0.5791425 0.2584968 -0.19032034 -0.384474 -0.15060829 -0.04091978 -0.10785938 -0.12889788
-0.35705563 -0.005071241 -0.40141875 0.26527223 -0.48341513 -0.7088394 -0.12845728 0.12762958
0.53932714 0.43077105 0.17725174 0.31734887 0.43447864 0.7762668 0.10448848 0.27936408
-0.47249413 -0.6653859 -0.6948412 -0.6163036 -0.16672018 -0.2143605 -0.13060386 -0.29558262
-0.13447182 -0.15282099 -0.04577831 -0.2842892 0.06731504 -0.26023695 0.52796537 -0.36432597
-0.50348157 0.6380871 -0.32748678 -0.6083468 0.7016416 0.23525319 -0.07861836 0.16025473
-0.2284352 -0.06355707 -0.22332853 0.3443854 0.059545085 0.041916195 -0.37383673 0.18537302
-0.10302925 0.16100605 0.07642696 0.09750773 0.40252364 0.03588867 -0.1983976 -0.11644346
0.137504 0.3891724 -0.362873 0.17036551 -0.19259182 -0.5813433 -0.048235744 0.4041838
0.364241 0.05387497 0.12466961 0.33239725 -0.32330415 -0.21861757 -0.36120898 0.041827805
0.33025935 -0.1108588 0.30471313 0.7232327 -0.5204528 -0.8750567 0.7326949 0.014931226
-0.25819293 0.58804005 0.22753176 -0.10967582 -0.27629697 -0.06410342 -0.2896202 -0.13224292
-0.14914785 -0.08078422 0.13406932 -0.41964915 -0.06759832 0.40204686 0.39913684 0.22297592
0.44258097 0.0035147541 -0.5348559 -0.8541432 -0.5996103 -0.09578839 0.06677961 -0.20044129
-0.28072158 0.042184494 -0.29685524 -0.36370292 -0.29252282 0.16163668 -0.33922246 0.16102378
-0.31451228 -0.11727208 -0.26239368 -0.22407226 0.3889799 -0.34661317 -0.22542131 0.25476766
0.056615796 0.3287727 -0.0678267 -0.20064154 0.16993448 -0.28294188 -0.010962724 0.27581975
0.16278045 0.29322496 0.32566008 0.44072354 0.023624185 -0.22183281 0.10912695 0.3935564
0.088488504 0.121816136 0.44477147 0.42513564 -0.4494831 -0.14836787 0.83033854 0.21131796
-0.70660204 -0.13207513 0.49394011 -0.22871944 0.1499764 -0.52316356 0.26123914 -0.57926595
-0.23151013 -0.40063125 0.23464441 0.42914712 -0.12333686 -0.23104976 -0.042533033 -0.28226966

0.bias f4 [64]
00000000: 7a74 1bbe 8a70 663e 097f 83be 616e 83bd
00000010: c014 003e 3869 153e 9255 3d3e efc0 423e
00000020: 45ea 8abd fb58 37be 2568 d3bd 6f46 30be
00000030: 9743 c3be 9b73 2fbe f2af 02be 2537 3ebe
00000040: 2d65 d83d 5963 92be 09be dbbb e016 ed3d
00000050: e186 b83e 2d3e 903d 1fc2 6f3e f7e7 09be
00000060: 7bbe dbbd 244a 993d 2029 b0be 04c3 663e
00000070: 9e04 5a3e d761 203e 0fc3 ac3e 4dfb cbbe
00000080: 2dad d83e 0e30 e33b 0749 16bd 5d33 283e
00000090: 26c2 3f3e 7436 3cbe 3d57 a53e 56c8 74be
000000a0: 3608 38bd 680a 84be 179e 2f3e 2a04 a2be
000000b0: 3f60 3abd 8315 4fbd d58b 9b3e f763 783e
000000c0: 4aab 2fbe 177e e1bd 3fba fdbd d4a2 43be
000000d0: bcb0 b43d d449 583e 1c34 0f3e a3be 3e3e
000000e0: 8262 31bd 547c 283e 2b62 f2bd 332f 0a3e
000000f0: 8aae ba3c 20ee 4abe 5957 143e 123a 51bd
-0.15181151 0.22503868 -0.25682858 -0.064175375 0.12507915 0.14590919 0.18489674 0.19018911
-0.067829646 -0.17905037 -0.10322598 -0.17214368 -0.38137504 -0.17133944 -0.1276243 -0.18575723
0.10566173 -0.2859142 -0.0067060036 0.11576629 0.36040404 0.07043109 0.23413895 -0.13467394
-0.10729691 0.07484844 -0.34406376 0.2253533 0.21290824 0.15662323 0.33742568 -0.39840165
0.42319623 0.006933219 -0.036690738 0.16425844 0.18726406 -0.18380147 0.3229312 -0.23904547
-0.044929706 -0.2578919 0.1715015 -0.31643802 -0.045501944 -0.050557625 0.3038012 0.24256884
-0.17155185 -0.11010378 -0.12389039 -0.19105083 0.08822772 0.21121913 0.13984722 0.1862741
-0.043306835 0.16453677 -0.1183513 0.13494568 0.022788305 -0.198174 0.14486445 -0.05108077

1.weight f4 [64]
00000000: d049 793f 0b14 823f 1d6d 923f 9eda 683f
00000010: 8ae1 8e3f ed3b a23f bb1a 903f 7eea 943f
00000020: 5f1b 1e3f f079 823f 9cf2 743f 7bc6 873f
00000030: e4c8 cd3f 605c 713f dec0 853f e331 853f
00000040: 067c 133f 3874 943f 57ae 8c3f fabc 893f
00000050: a978 873f 46b4 9a3f 3cfa 533f bf2c 9a3f
00000060: 641c 823f 4903 0f3f 3c0a a43f c054 763f
00000070: 1899 8c3f 850f a53f c93c 523f 4126 843f
00000080: eca4 693f c4bd 6e3f dad6 833f f568 183f
00000090: 0c38 503f 33be 823f 533e 363f 62ff 823f
000000a0: dc4e 6c3f 54b1 b63f 4d0b 3d3f 7a5d 973f
000000b0: 8dc4 3d3f 3356 803f ef17 633f 56a6 883f
000000c0: e386 813f 69f8 b43f 3021 a33f 1b69 9d3f
000000d0: 46cf 713f 74b1 733f a5e3 973f 5b2f 893f
000000e0: e01d 873f 8dbc 1c3f 8644 883f dd0e 3d3f
000000f0: f7d9 763f ccb4 8b3f 3f45 2a3f 6b8e 8e3f
0.97378254 1.0162367 1.1439549 0.90958583 1.1162579 1.2674538 1.1258157 1.1634061
0.61760515 1.0193462 0.9568269 1.0607446 1.6076932 0.9428158 1.0449483 1.0405849
0.5761112 1.1597967 1.0990704 1.0760796 1.0583698 1.2086265 0.828037 1.2044905
1.0164914 0.5586439 1.2815623 0.9622307 1.098422 1.2895361 0.82124 1.0324174
0.91267276 0.9325831 1.0299942 0.5953515 0.8133552 1.0214294 0.7118885 1.0234187
0.9230783 1.4272866 0.7384537 1.1825402 0.7412804 1.0026306 0.88708395 1.0675762
1.0119289 1.4138309 1.2744503 1.2297701 0.944569 0.95192647 1.1866347 1.0717577
1.0555992 0.61225206 1.0645912 0.73850805 0.9642634 1.091455 0.6651191 1.1137213

1.bias f4 [64]
00000000: 38c8 1ebe d0cd 2bbe f50e 33bd c391 72be
00000010: c7b6 bdbd c72e 2abd afb4 2fbe 72ee 7dbe
00000020: 8cca d8bd b7fb f0bd e208 9cbc cc09 f9bd
00000030: 3da6 563d 9d90 53be f452 b0be ae78 82bb
00000040: 6aa9 86be e353 0d3d 624e 41bc d7b0 86be
00000050: f685 55be 8569 873e 8b21 5abe b88d 033e
00000060: 6a41 adbc 2704 babe a90b 34be 8ddd 9cbe
00000070: 4ce3 48be 3266 d4bd 8313 82be cfb0 05be
00000080: 6f3a 0ebe 721c 84be 41bd 10be 2448 a5be
00000090: f582 9bbe 4ae6 b03c 914b 80be bdeb cf3c
000000a0: fc1d cdbe 2804 5bbd 53c5 cfbe 35e6 2d3d
000000b0: 21f1 a8bd 4e10 9a3e a9c1 78bd 1741 53bd
000000c0: c43d 98bc 2c82 4a3c 534b 7ebe b5c6 c3bc
000000d0: 7513 50be 51a0 49bb 6f5f 913d d871 043d
000000e0: ff66 6e3c a42a c0bd c389 993c 06de 93be
000000f0: 9d3a c6be 5eea 09be eba0 20be 4498 5d3d
-0.15506065 -0.1677773 -0.043715436 -0.23688416 -0.09263378 -0.041548517 -0.17158769 -0.24797991
-0.10585508 -0.11766761 -0.019047204 -0.12160072 0.05240463 -0.20660634 -0.34438288 -0.0039816713
-0.26301128 0.03450383 -0.011798473 -0.26306793 -0.20851883 0.26447693 -0.21301858 0.1284703
-0.021149356 -0.36331293 -0.17582573 -0.3063778 -0.19617957 -0.10371055 -0.2540551 -0.13055728
-0.13889478 -0.25802952 -0.14134695 -0.322816 -0.3037335 0.021594185 -0.25057653 0.025380963
-0.4006194 -0.05347076 -0.40580234 0.04245587 -0.08249117 0.30090564 -0.060731564 -0.051575746
-0.01858414 0.012360137 -0.24833421 -0.023898462 -0.20319922 -0.0030765722 0.07098281 0.032335132
0.014550923 -0.09383133 0.018742448 -0.28880328 -0.38716593 -0.1346831 -0.15686385 0.05410029

3.weight f4 [64, 64, 4, 4]
00000000: c6ff f6bc 22cd 63bc 57d7 80bc df50 13bd
00000010: 4cc8 a33a 1d13 82bd d3d8 94bc 233d 37bd
00000020: 4aff 87bd dc35 2ebd 569c 56bd 904f 4fbd
00000030: 063d 8abb c998 2bbd b8ea 33bd 0c9a 86bb
00000040: 1719 bebc 1a1e 033d 1d42 e93c f06a c9bc
00000050: 24d8 8d3b 4faf dd3c 2f74 d43c 915c 8e3c
00000060: 9644 1c3c bd49 20bc 28d5 27bc 1e83 e43c
00000070: e2af 903b 6c21 c13c 48d2 9ebc fa8f 1e3d
00000080: 5118 b93a 9d28 b6bc e537 2cbc 9a45 0bbd
00000090: 3099 8fbc f707 843b 13a2 f53b 2ccc 333c
000000a0: 4c65 34bc c8d7 81bc 17c2 c5bc 724b 433c
000000b0: 4842 f4bb 3570 8abc 4131 fa3c b454 55bc
000000c0: 5e16 a8bc 852e 7e3c 9888 12bd 7a24 aa3b
000000d0: dd38 93bc 41a0 3dbd 3510 f0bc a16a 32bd
000000e0: 5be4 66bd cf6f 413c cec8 79bc a306 e7bc
000000f0: e65a f5bb aaaf cbb9 045c f6bc e81a 71bc
00000100: b757 1dbd d2e0 07bd 877b 2bbd ced1 15bd
00000110: 76d1 a6bc 0a47 f9bc 5366 91bc d72f c2bb
00000120: b871 b1ba fe10 c5bc 6157 49bc 588f 53bc
00000130: 0ee8 20ba 2377 883c ae2e 2abb b6ca 4d3c
00000140: a637 9c3c 54dc a23c edde ff3b 76fe 2dbc
00000150: 1298 bc3c b439 9ebb 69c7 4dbc 6bf2 e0bb
00000160: 232c a73b c474 94bc da46 c53c 9ce8 27bc
00000170: fb8d 593c 6e53 ce3b d8cc a3ba ffee ccbc
00000180: b3ad afbc 276c f43c 70fa 533c e0cf 103d
00000190: c4ae c73c 7476 fb3c 31b3 063d 4872 a33c
000001a0: 97c0 063d 2c8a 523c 9a4a 0d3d 5165 263b
000001b0: 4a34 fb3c 52eb d03b e10d fd3b 1506 a23b
000001c0: b61e c0bc 6575 353c 499c 923c 19db a6bc
000001d0: ff07 f9bc 5b6c 453c a8af 6c3c 595d a83c
000001e0: 7d40 2dbc fc19 523c 7f0b 833c 01c4 05bd
000001f0: a3cf 833c bca6 01bc dc7c 243a fa05 94bc
00000200: 349e e5bc 5c54 49bd 51fb 52bd 6d92 04bd
00000210: 0d50 7bbd 248f c0bc 363b 66bd 12eb 5abd
00000220: fb06 60bd 230a 18bd 4fc1 8dbd 9da3 2abc
00000230: a872 4cbd 56cd 82bd 4946 ffbc 50c3 e63a
00000240: a5b4 3abd 6219 8cbc 5b79 f9bc b9cc 03bd
00000250: 38d9 e2bb 3683 d9bb 97bd 84bb 66e9 7dbc
00000260: a771 25bd 43d2 2fbd 170d 5d3b 2090 a0bc
00000270: b015 b2bc ce48 4ebc 78fa 0dbd 0575 6cbc
00000280: 5601 08bc a63c 3ebc 73bc 673c ce4b a73c
00000290: 92ac 5d3c a645 c73c 6de8 e03c 6fed 63bc
000002a0: cb9c 8f3c 3c0b fc3c 6933 99bc 3dcf 0a3c
000002b0: a9af bb3c e6ee 19bc c841 d7bc 28ff 9bbc
000002c0: df53 f5bc 5b20 4d3a a283 50bc 40fb d5bc
000002d0: 8287 6cbc 49b8 40bc f04f c9bc 7be5 75bd
000002e0: ec0c 55bd 8556 82bd 05c0 7dbc 19d2 e9bc
000002f0: 7a3f 2dbd d967 d9bc 51f8 063c 04c0 8dbc
00000300: 5571 e13c 774c 8f3c 8907 263c 110c ee3a
00000310: 4220 0c3d 93cc 573d ff9c 043d 7e65 0b3d
00000320: 4820 93bc 744a 20bc 4351 35bc 62d6 d93c
00000330: 83a1 fabc ddbd 273c 268d 953c 81e8 e9ba
00000340: 37a6 89bc 8e0b 64ba ce9b ff3c 979e 943c
00000350: 4b9c eb3b 322e 253d 1fa3 90bc 83c8 bdbb
00000360: 1c73 103d d197 fe3c 0a28 f93c e055 9b3c
00000370: cac4 013d 1c67 363d 581e 2fbc 3f13 ab3c
00000380: a0d3 27bd a99b 9bbc cce2 0fbd 3b01 c3bc
00000390: 818b ccbc 93be 9ebb b097 25bd 67c6 3ebd
000003a0: 078f 7fbb b67d 9dbc fb81 2cbd 43d7 01bd
000003b0: 03a5 47bb 803d f03c c3d9 09bd 4619 93ba
000003c0: b61d 84bc c86b 863c 37d6 d73c f343 023d
000003d0: 0d64 023d e9b8 033d aaed 8f3c ec14 763c
000003e0: 5425 1aba d07c c63a 95ab ab3c ff58 2bba
000003f0: d0db adbc 80b4 213c 32da c13c ffb0 0c3c
-0.03015126 -0.013903888 -0.015727682 -0.035965797 0.0012495606 -0.06351302 -0.018169796 -0.04473604
-0.066404894 -0.042531833 -0.052395187 -0.050612986 -0.0042187003 -0.041893754 -0.043925017 -0.0041077193
-0.023205323 0.03201113 0.028473908 -0.024587125 0.0043287445 0.027061133 0.025934307 0.017378123
0.009537837 -0.009783206 -0.0102436915 0.027894553 0.004415498 0.023575507 -0.01938738 0.038711525
0.0014121627 -0.022236163 -0.010511373 -0.034001924 -0.0175291 0.00402927 0.0074961274 0.010973971
-0.011010479 -0.015849963 -0.0241404 0.011919843 -0.0074541904 -0.016899208 0.030541064 -0.013020683
-0.020518478 0.015514021 -0.035774797 0.0051923366 -0.01797145 -0.04629541 -0.029304603 -0.04355872
-0.05637012 0.011806442 -0.0152456295 -0.028201407 -0.0074876426 -0.00038850057 -0.030073173 -0.014715888
-0.03841373 -0.03317339 -0.04186585 -0.03657704 -0.02036355 -0.030429382 -0.017748987 -0.005926113
-0.0013537919 -0.024055954 -0.012288899 -0.012912594 -0.00061380945 0.016658371 -0.0025967765 0.012560537
0.019069504 0.019880451 0.0078085572 -0.01061975 0.023021732 -0.004828656 -0.01255975 -0.006864836
0.005101697 -0.018122084 0.024081636 -0.0102483295 0.01327848 0.0062965667 -0.0012496961 -0.025016306
-0.02144513 0.029836727 0.012938127 0.035354495 0.024375327 0.030696131 0.032885734 0.019951954
0.03289851 0.012850326 0.034494974 0.002538998 0.030664582 0.0063757086 0.0077226018 0.0049445727
-0.023452144 0.011075352 0.017896788 -0.020368146 -0.03039932 0.01204976 0.014446177 0.020552324
-0.010574457 0.012823578 0.015996693 -0.032657627 0.01609022 -0.007913288 0.0006274709 -0.018069256
-0.028029539 -0.049152717 -0.051509205 -0.032366205 -0.06135564 -0.023505755 -0.05620881 -0.053446837
-0.054694157 -0.037119042 -0.06921636 -0.010414985 -0.049914032 -0.06386821 -0.031161444 0.0017605815
-0.045582432 -0.017101947 -0.030453375 -0.03217766 -0.006922867 -0.006637956 -0.004050921 -0.015497541
-0.04039159 -0.04292513 0.0033729726 -0.019599974 -0.021738857 -0.0125906 -0.034662694 -0.0144321965
-0.0083011 -0.011611139 0.014144051 0.020421889 0.0135299135 0.024325203 0.02745458 -0.013911589
0.01753082 0.030767076 -0.018701272 0.008472261 0.02291091 -0.009395337 -0.026276484 -0.019042566
-0.02994722 0.0007824951 -0.012726696 -0.026120782 -0.014436604 -0.011762687 -0.02457425 -0.060033303
-0.052014276 -0.063641585 -0.015487676 -0.028542565 -0.042296864 -0.026538776 0.008237914 -0.017303474
0.027519861 0.017492516 0.010133632 0.0018161555 0.03421045 0.05268533 0.032376286 0.034032337
-0.017959729 -0.009783376 -0.011066738 0.026591484 -0.030594593 0.010238138 0.018255781 -0.0017845781
-0.01680289 -0.00086992315 0.031202223 0.018142028 0.0071902624 0.04032726 -0.017655907 -0.005791725
0.035266027 0.031078251 0.0304146 0.018961847 0.031681813 0.044531927 -0.010688387 0.0208832
-0.040973306 -0.018995123 -0.0351284 -0.023804298 -0.024968864 -0.0048444956 -0.040427864 -0.04657593
-0.0038995163 -0.019224983 -0.042116147 -0.03169943 -0.0030463345 0.0293262 -0.03365494 -0.0011222742
-0.016127449 0.016408816 0.026347263 0.031803083 0.031833697 0.032158766 0.017569382 0.015019637
-0.0005880196 0.0015143398 0.02095584 -0.0006536394 -0.021222979 0.009869695 0.023663614 0.008587121

3.bias f4 [64]
00000000: 494d 50bd 9505 533b 4bcb cb3d 2618 7bbd
00000010: ff65 013b 493a 4dbc ac32 28bd f267 733d
00000020: 7c2a 223d 9f21 1bbd d6ac 0fbc a5c7 763c
00000030: ed1c 1cbd 8d4d ac3d 5bfb 7fbd aec4 733d
00000040: a11d 6fbd 169d a83d 0125 023e 5f54 05be
00000050: 1d01 823c 4d8d 773c 5965 4cbd 1d9e b33d
00000060: de8a 5e3b f0fa 1cbd 52bb a8bc 4e39 953c
00000070: ac62 b13b d3fb c9bc 7ce7 03bd 0846 9c3b
00000080: d96b 403d f276 88bd f0a8 d0bb 210a 2abc
00000090: 8485 5c3d d962 4ebd e1d9 833d 68a8 b4bc
000000a0: 1fb8 9abc e70e 053c 7793 0f3d 1f90 543b
000000b0: eafc 90bd 739a 833d 6314 02bd 5d97 493d
000000c0: e44c bf3d 4292 c4bd 5f49 bc3c 7d54 e23c
000000d0: ad16 1f3c b747 63bb 3c8e bc3c 5830 743b
000000e0: 4c7c a23c 8ad5 57bc a2ad 84bd 5614 873d
000000f0: 0292 433d 3ab7 3fbd 9f85 49be 63f3 353e
-0.050854955 0.0032199372 0.099508844 -0.061302327 0.0019744632 -0.012526103 -0.04106395 0.0594253
0.039591298 -0.03787386 -0.008769235 0.015062247 -0.038113523 0.08413229 -0.06249557 0.05951374
-0.058377866 0.08233087 0.12709428 -0.13020466 0.015869671 0.015109372 -0.04990134 0.08770392
0.0033957283 -0.03832525 -0.020597134 0.018215802 0.005413374 -0.024656212 -0.032203183 0.0047690906
0.04697785 -0.06663312 -0.006367795 -0.0103783915 0.053838268 -0.050387237 0.064380415 -0.022052959
-0.018886624 0.008121229 0.035052743 0.0032434536 -0.070794895 0.06425943 -0.031757724 0.049216617
0.093408376 -0.09598209 0.022984205 0.027628178 0.009709996 -0.0034680197 0.023017041 0.003726026
0.01983466 -0.01317347 -0.0647843 0.06595676 0.047746666 -0.046805598 -0.19679879 0.17768626

4.weight f4 [64]
00000000: 08d1 793f 9354 f53e ebf0 4a3f 0a08 623f
00000010: 443a 9d3f 4e96 593f 29fa 683f 1f5c c73e
00000020: 3ebf 143f 6dfa 553f b1e2 e33e 4d6a 393f
00000030: 9a86 533f 0e13 a83e 91e4 483f 6c64 5a3f
00000040: d8ca 3b3f 5ea7 c63e 5fe3 2b3f 40cb 7b3f
00000050: 33ff 6e3f c639 573f 2b77 4f3f 7092 573f
00000060: 799f 033f 2835 6f3f 34f9 713f 7760 da3e
00000070: 9a96 d93e c031 6f3f 4ec0 5d3f 8978 3d3f
00000080: 9598 f63e a5b4 693f 3396 433f cc6c 4d3f
00000090: d9df 6d3f 9465 223f 1d31 353f 5cfe 533f
000000a0: 1a69 443f 60d9 683f b4e7 213f 5b6c ad3f
000000b0: 8714 2f3f c780 763f 781e 7d3f 188b fe3e
000000c0: 5323 8b3f f758 2f3f 6489 603f 36f4 683f
000000d0: 9fe6 393f 57db 643f a2dd fb3e f765 233f
000000e0: 09be 453f 5914 573f 39e1 803f c86b 2a3f
000000f0: 011b 323f 9b15 483f 2995 673f de2a b03f
0.9758458 0.47916088 0.7927386 0.88293517 1.2283406 0.8499497 0.91006714 0.3893747
0.5810431 0.83585244 0.4450889 0.7242783 0.8262726 0.32827038 0.78473765 0.8530948
0.7335639 0.38799566 0.67143816 0.9835701 0.93358153 0.8407253 0.8104121 0.8420782
0.5141521 0.93440485 0.9452088 0.42651722 0.42497712 0.9343529 0.8662156 0.7401205
0.48163286 0.91291267 0.7640106 0.80244136 0.9291969 0.63436246 0.70778066 0.82809997
0.7672287 0.9095669 0.63244176 1.3548692 0.683907 0.9629025 0.98874617 0.49715495
1.0870155 0.68495125 0.8770964 0.90997636 0.72617525 0.89397186 0.4919253 0.6382746
0.77243096 0.84015423 1.0068733 0.6657071 0.69572455 0.7815797 0.90461975 1.3763082

4.bias f4 [64]
00000000: b3a1 41be 26f8 1dbf d14d 11bf 2687 a9be
00000010: 1eb3 8dbf da9d 9ebe ff54 84be 126d 86be
00000020: 5fa2 debe 53f7 3dbe be99 6fbf 989a c5be
00000030: c567 abbe 7863 17be 176d a5be 94b7 e7be
00000040: d5c4 b5bd 68a4 babe de3d 48bf ba18 853d
00000050: c70f f1be 483e 1ebf 5075 f4bc d1e8 72bf
00000060: 1838 07bf d62e aabe a23c 3cbe 7ece 76bf
00000070: d3ca 20bf a693 57be b27d 3fbf 532e c8be
00000080: f38e 55be 6942 8ebe 681e edbe f1ea 08bf
00000090: dfbd 81bf 99cf c4bd 441e 0abf 0eca e2be
000000a0: 40f4 8cbe 9837 2abf b3d9 08bf 4259 6bbf
000000b0: f08e 3bbe b987 53bf 86bf fbbd 8c8f 2fbf
000000c0: 1065 a0bf 1972 983d cba4 dbbe 8066 25bf
000000d0: fbea 30bf f542 22be e521 1fbe 02ec 2dbf
000000e0: e933 62be f972 28bf 78a0 83be 506b 02bf
000000f0: 3ab2 36bf 7b48 1b3d b3be 79bd c108 b6bf
-0.1890934 -0.6170677 -0.56759363 -0.33110923 -1.1070287 -0.30979806 -0.25846097 -0.2625509
-0.43483254 -0.18551378 -0.93593967 -0.38594508 -0.33477607 -0.14784038 -0.3230979 -0.45257246
-0.08875433 -0.36453557 -0.782194 0.06498857 -0.4708235 -0.61813784 -0.029841095 -0.948865
-0.5281997 -0.33238858 -0.18382505 -0.9640883 -0.62809485 -0.21052417 -0.7480117 -0.39097843
-0.20855312 -0.27785042 -0.4631226 -0.5348349 -1.0136069 -0.096099086 -0.5395243 -0.4429478
-0.27530098 -0.6649108 -0.5345718 -0.9193307 -0.18316245 -0.8262897 -0.122923896 -0.6857841
-1.2530842 0.074436374 -0.42899165 -0.6460953 -0.6910855 -0.15845855 -0.15540273 -0.67938244
-0.22090115 -0.65800434 -0.25708365 -0.50944996 -0.713657 0.03791092 -0.06097288 -1.4221421

6.weight f4 [64, 64, 4, 4]
00000000: c612 c9bc deea 29bc 62e1 c9bb d03c da3b
00000010: 075a 1bbc 9c45 6e3c f239 a63b 1cbe 3c3c
00000020: e761 573c 7031 c2bc e0d4 123d ef4f 113b
00000030: 0ed4 a3bc 9b69 06bc 72e8 01bc 9d5d d6bc
00000040: 4dda 61bd 6557 bcbc 603b 123d b43b 91bc
00000050: 2fe2 01bd ab54 48bd 54d2 13bd 9e40 cdbd
00000060: 089a 64bd b639 23bd e5a0 61bd ff28 1dbd
00000070: b3d2 063e 0c74 d03d c0ee 943d ca64 8bb9
00000080: d6e4 b93b b149 d83c b1e3 9f3c a654 b73d
00000090: b72d 3e3e 3358 4a3d 31b1 843b 562b 2f3d
000000a0: d5e8 093e 4458 16bd e04b 36bd 69fc 1e3e
000000b0: 6d5b bc3d dc43 d53d e5c4 863d 624e 1e3e
000000c0: 1b1f 4e3d 298c 24bc 9a76 9e3d f7b0 903d
000000d0: b0f6 5d3d f371 b03d c2fa 013e 84ae d23a
000000e0: 2b1c a83d 3a19 723d efce 873a 209a bbbd
000000f0: 0243 02bd cfa9 26bc 3278 e3bd eea1 e8bd
00000100: 1bd4 913d 788b ae3d b571 533d c69d d33d
00000110: 8d8b 9ebc 5b6e 87bd fabc a5bd fd9a 42bd
00000120: 2240 adbd fd12 45be c20f e5bd 9f9b e73c
00000130: 9ee7 2bbd 4f79 91bb 5fa2 973c c9c1 fd3d
00000140: d9cd be3c 810f 8abb 4bd0 623d a9a7 8b3d
00000150: eed2 8b3c 554c ab3d 4ec3 643d dfb3 47bc
00000160: 6945 d23c 8037 1ebd c6d7 09ba 40da 51bd
00000170: b140 6fbd efe7 8bbd 2f87 02bd 28cd 8bbd
00000180: 41ae e5bc bebb 02bb e2b2 fbbc a6ee 8e3c
00000190: f2c1 3dbc 154c 1fbd 51db 07bd 6b0b b4bc
000001a0: 0907 823c bd34 b53a b5c9 debc 2f46 15ba
000001b0: 6738 b739 4826 493b e275 1abd f961 2bbc
000001c0: 2fb9 6abd efd3 213d db0a ed3d 640b f23c
000001d0: 2fe9 78bd b74c 8b3c 3171 2fbd 02e5 cd3a
000001e0: 78d7 85b9 f489 933c 112a c4bd f785 5bbc
000001f0: de61 a93d c989 083d 6cc5 093d 75aa 383d
00000200: 04e7 863d 02d2 c73d 7126 d23d ed14 1abd
00000210: 4696 21bc d7ae 033c b445 a1bc b4f2 b8bc
00000220: dbf7 b8bc 488c e0bd f5bc 7cbc ae20 babc
00000230: 82c4 9abd b237 a2bd d8a8 0bbd 2170 2a3d
00000240: 5b5c b4bc 08a2 d0bc b629 e4bc edfa 7cbd
00000250: da64 f93b 48a1 fbbc e568 0ebd 8040 21bc
00000260: 38dc 4fbc 46d1 5fbd fb03 32bd 48fb 0bbd
00000270: d0c0 33bd 30f6 89bc 2a8e 74bd 3948 a2bd
00000280: 09ff 1fbe 34b5 483b 523a b93d 19ba 90ba
00000290: fc04 7cbd f7d5 babd a6c8 14bd 4336 0dbe
000002a0: 0ffa 71bd 41bd dbbc a558 873b 2cc2 8fbd
000002b0: 5dbc 253d 7256 f23d d37c 203e aecc acba
000002c0: eb57 6c3c 6119 c43d 2e4e fe3c c139 f9bc
000002d0: ddd8 923c f48c 0e3d 2a07 00bd 7b5d 82bd
000002e0: ba6b b83b d131 7a3c 426b 11bd 277e e1bb
000002f0: f784 1abd bfc0 8bbd 3e4f 55bd 7d2a cd3c
00000300: a040 ed3b 0bca e1bc 554d 583c 2302 e1bc
00000310: 3c38 abb9 2650 24bd ea2b a73c f11e b9bc
00000320: 63dc 01bd 9226 e8bc cd8f 5e3b 8ca6 4b3a
00000330: 7ca6 053d b65f ff3c d165 fcbb f504 b1bc
00000340: 9f4e 383d cbdd 333d 662a 2e3c 26e7 433d
00000350: 51a7 eebc 6b6d 1f3b 3439 4c3d dacc b03c
00000360: aaf5 5abd 42c5 5c3d 743d 853d 33d7 1fbd
00000370: 590f ca3c 65ed d93d 7eea c63d 709b 873d
00000380: 96ac de3c ee6a d93c 409b b3bd f668 023c
00000390: c93d 60bd 9b59 b8bd 2b86 35be eba0 08be
000003a0: 543a 243d 8f22 47bd d7e2 75bd f42d e3bd
000003b0: 329b 2a3d 2e79 c6bc fb6d a83d 62d5 3a3e
000003c0: b6e5 773d 999c c43d 2444 0a3e d9d2 fb3d
000003d0: 57c0 833d c1bf 593e 2633 523e 5119 823d
000003e0: 5896 473d 9fdc e23d baea 8f3d ea9f 7bbc
000003f0: 1f56 063d 63b4 b8bc 9749 e1bd 33fb 51bd
-0.024545085 -0.010370938 -0.006160901 0.0066600814 -0.009481913 0.014542963 0.0050728256 0.011519935
0.0131459 -0.023705214 0.035847545 0.0022172888 -0.019998576 -0.008203889 -0.007928954 -0.026167685
-0.05513983 -0.022990892 0.035701156 -0.017728664 -0.031709846 -0.04890887 -0.036089256 -0.100220904
-0.05581096 -0.03984996 -0.05508508 -0.038369175 0.13166313 0.10178384 0.072721004 -0.0002658724
0.0056730313 0.026402326 0.019517751 0.08951692 0.18572126 0.04940052 0.004049443 0.042765938
0.13467725 -0.03670527 -0.044505954 0.15525974 0.091971256 0.10413334 0.065805234 0.15459588
0.050322633 -0.010043182 0.07737465 0.07065003 0.054190338 0.08615484 0.12693313 0.0016073738
0.082084976 0.05910609 0.0010361354 -0.091602564 -0.031802185 -0.010172321 -0.1110691 -0.11359011
0.07120534 0.08522695 0.05162211 0.10332827 -0.019353652 -0.066128455 -0.08092685 -0.04751109
-0.08459498 -0.19245525 -0.11184646 0.028272448 -0.041968934 -0.00443951 0.018510042 0.12390477
0.023291515 -0.004213274 0.055374425 0.06819088 0.017068353 0.083641686 0.05585032 -0.012188881
0.025667863 -0.038627148 -0.0005258288 -0.05123353 -0.058411304 -0.06831347 -0.031867202 -0.0682624
-0.028037192 -0.001994833 -0.030724946 0.01744778 -0.011581885 -0.038890917 -0.03316814 -0.0219781
0.015872495 0.0013824921 -0.02719579 -0.0005694357 0.00034946503 0.0030692983 -0.037710078 -0.01046037
-0.05730551 0.039508756 0.11574336 0.029546447 -0.060769256 0.017004354 -0.042832557 0.0015708508
-0.00025528274 0.018010117 -0.09578336 -0.013398639 0.0827062 0.033334527 0.03363554 0.045084435
0.065870315 0.09756853 0.10261238 -0.037617613 -0.009862488 0.008037291 -0.019686557 -0.022576667
-0.022579124 -0.109642565 -0.01542591 -0.022720661 -0.07557012 -0.07920779 -0.03409657 0.04161084
-0.022016695 -0.025467888 -0.02785192 -0.06176274 0.0076108994 -0.030716553 -0.034768004 -0.009842038
-0.012686782 -0.054642938 -0.043460827 -0.034175187 -0.043885052 -0.016841024 -0.05970589 -0.07923932
-0.15624632 0.0030625584 0.09044327 -0.001104179 -0.06152819 -0.09122842 -0.036324166 -0.1379023
-0.059076365 -0.026823642 0.0041304403 -0.07019457 0.04046284 0.118328944 0.15672617 -0.0013183558
0.014425258 0.09575153 0.031043138 -0.030423047 0.017925674 0.034802392 -0.031256832 -0.06365486
0.0056280764 0.015270666 -0.03550268 -0.0068814936 -0.03772446 -0.06823873 -0.052077524 0.025044674
0.00724037 -0.027562162 0.013202031 -0.02746684 -0.0003265756 -0.040115498 0.020406682 -0.022597762
-0.031704318 -0.028338704 0.0033960224 0.0007768653 0.032629475 0.031173568 -0.007702567 -0.021608809
0.044996854 0.04391269 0.010630226 0.047827862 -0.029132517 0.0024326693 0.04985924 0.021582056
-0.05345694 0.053899057 0.06505862 -0.03902359 0.024665521 0.106409825 0.097126946 0.06621444
0.027181905 0.026540246 -0.08769846 0.007959595 -0.054746423 -0.09001466 -0.17726962 -0.13342635
0.04009469 -0.048616942 -0.060030784 -0.11092749 0.041651912 -0.024227705 0.08224102 0.18245462
0.060521804 0.09600181 0.13502556 0.122960754 0.0643317 0.21264555 0.20527324 0.06352485
0.048727363 0.110772364 0.070271924 -0.015357951 0.032796975 -0.022546953 -0.11000364 -0.051264953

6.bias f4 [64]
00000000: 56e6 c0bc b86c 8bbc 9ec1 23be 6fbd 2e3e
00000010: b1f5 a7bd 6199 053e 1e5f 073e e6a0 05be
00000020: 6792 293d 0fb8 87bd f8f3 fd3c 1e8c d5bc
00000030: fdae f6bd 8c49 ca3d 196a 04bd 0827 663d
00000040: 4b49 3cbe aab0 573e 5e97 3fbe da70 483e
00000050: 5375 5ebd fafc 283c 5c18 73be 9e97 793e
00000060: 0a07 523e 4c79 52be d804 153e 4824 34be
00000070: 84ee a83d 0748 c1bd 5aec 8e3e 7702 76be
00000080: 4eb1 38be a43b 463e 084e 913e 8246 a5be
00000090: a2cc 2e3e c6ec 3bbe 30dc 783e 8ada 78be
000000a0: d00a c5bd b8c6 0c3e 948d 373e 4ad0 34be
000000b0: 2beb 4cbe 7c7e 713e 8be0 933c bb25 72bd
000000c0: e0b6 973d a555 fcbd 4dd7 1fbd 849c 7b3b
000000d0: 32b7 32be d179 563e 0a78 1f3d a093 cdbb
000000e0: a73c 58be 3ad6 553e 99b1 0abe 7342 283e
000000f0: b606 153e 054d 36be ce2c 7ebe 3da3 7e3e
-0.023547333 -0.017019615 -0.15991828 0.1706445 -0.08201159 0.1304679 0.13219878 -0.13049659
0.041399386 -0.06626903 0.031000122 -0.02606779 -0.12045095 0.09877309 -0.032327745 0.056189567
-0.18387334 0.21063486 -0.18710086 0.195743 -0.054311108 0.010314221 -0.23739761 0.24374244
0.20510498 -0.20554084 0.14552629 -0.17591965 0.08248618 -0.09437566 0.27914697 -0.24024378
-0.18036386 0.19358689 0.28379846 -0.32280356 0.17070249 -0.1835204 0.24302745 -0.24302116
-0.09621203 0.1374768 0.17925102 -0.17657581 -0.20011584 0.23583406 0.018051406 -0.059118014
0.074079275 -0.12321023 -0.039023686 0.003839285 -0.17452696 0.20944907 0.038932838 -0.006273702
-0.21116887 0.20882502 -0.1354431 0.16431598 0.14553341 -0.17802818 -0.24821779 0.24866958

7.odefunc.norm1.weight f4 [64]
00000000: 796b 783f 4f7e 843f 1ff2 6d3f f26b a83f
00000010: 1863 ad3f 593f 763f 6e62 933f 16fd 713f
00000020: 4538 3f3f 6360 9e3f 9dbe 083f cd6f 7e3f
00000030: 66a3 973f dec0 5e3f 608a 883f 5f24 233f
00000040: 722c a43f ee69 a03f b196 8a3f 569c 473f
00000050: 695d ab3f 3e92 a23f 8a1b a33f 5653 663f
00000060: 8012 833f a872 7e3f 7b8f a13f dd1c 963f
00000070: 6d15 a03f 0d0f 8f3f 2376 7c3f 2bbc 913f
00000080: dbce 8a3f d6dd 8a3f 1770 613f e89c 9c3f
00000090: e3eb 793f 3d0f ac3f dc1a ab3f 3cdf be3f
000000a0: f253 b33f c4c6 8a3f bea1 6f3f 6947 883f
000000b0: 2d9b 9d3f b029 843f 6e56 883f 1b42 a03f
000000c0: a68d 8c3f 8ce1 6f3f d8f0 aa3f d4d5 8d3f
000000d0: debc e13f eaef 8a3f dd11 7d3f dbfa f53e
000000e0: 8b86 8e3f 4044 893f 7c7b a23f a8b9 913f
000000f0: 0dcb 8a3f ad34 9b3f 0b2f a53f f6ed 863f
0.9703899 1.0351046 0.9294757 1.3157942 1.3545866 0.9619041 1.1514413 0.94526803
0.74695235 1.2373165 0.5341585 0.99389344 1.184674 0.8701304 1.0667229 0.6372737
1.2826064 1.2532327 1.0827237 0.77972925 1.3387882 1.270088 1.2742779 0.8997091
1.0240021 0.993937 1.2621912 1.1727558 1.2506539 1.1176468 0.9861776 1.1385549
1.0844377 1.0848949 0.8806166 1.2235384 0.9762556 1.344215 1.3367572 1.4911876
1.4009993 1.0841908 0.93606174 1.0646793 1.2312981 1.0325222 1.0651376 1.2520174
1.0980728 0.9370353 1.335475 1.108088 1.7635763 1.0854466 0.9885538 0.4804295
1.1134809 1.0723953 1.2693934 1.1384783 1.0843216 1.212545 1.2904981 1.054137

7.odefunc.norm1.bias f4 [64]
00000000: 117c 1bbf 6b67 ecbe d2e3 e1be 01c6 3fbe
00000010: 23a9 d3be 37da d8be dbfc fcbe 4efa dbbe
00000020: aacb 26bf 6e48 90be 053a d9be 649b c8ba
00000030: 82c8 b9be 1cc3 0abf 7477 67be 5f25 12bf
00000040: 3218 24bf b7ea 0abf 3fa5 c4be d9b7 b1be
00000050: 60a2 05bf 9e95 0bbf 13d6 c8be eafe 72bf
00000060: 172e b9be f352 c4be 0e0e a9be 4277 a0be
00000070: b14b 03bf 39a6 46bf 0071 abbe fd20 06bf
00000080: dd17 e3be feec 2bbf 488e aabe ffb7 d1be
00000090: 2692 46bf 15e3 ddbe 9a14 ebbe a084 ecbe
000000a0: 7f17 06bf d2fe 00bf bbe6 1fbf d968 1cbf
000000b0: 11fe cdbe 3755 33bf aa9f 50bf 5377 72be
000000c0: 79ad 8cbe afda 2abf 3e5b bfbe 276e 02bf
000000d0: e865 b2be d572 61bf 022f 45bc 4707 dbbe
000000e0: 8ac1 a7be b3ea cdbe 21d3 d4be 5cfe bebe
000000f0: d9dc 35bf 241c 7dbe 1947 e9be 6f33 14bf
-0.60736185 -0.46172652 -0.44119126 -0.18727876 -0.4133998 -0.42353985 -0.49411663 -0.42964405
-0.65154517 -0.2818026 -0.42427078 -0.0015305099 -0.36285788 -0.54203963 -0.22604162 -0.57088274
-0.6409942 -0.54264396 -0.38407323 -0.34710577 -0.5220089 -0.5452517 -0.39225826 -0.9492022
-0.36167976 -0.38344535 -0.33018535 -0.31340986 -0.5128737 -0.77597386 -0.3348465 -0.52394086
-0.44354144 -0.67158496 -0.33311677 -0.4096069 -0.77566755 -0.43337312 -0.45914155 -0.46194935
-0.523796 -0.50388825 -0.6246144 -0.61097485 -0.402329 -0.700519 -0.8149363 -0.23678331
-0.274761 -0.66739935 -0.373743 -0.5094933 -0.34843373 -0.88065845 -0.012035133 -0.4277899
-0.32764846 -0.40218124 -0.4156733 -0.37303436 -0.7104011 -0.24717766 -0.45562056 -0.5789098

7.odefunc.conv1._layer.weight f4 [64, 65, 3, 3]
00000000: 02f4 413d d3be b5bc d6d0 603c ade4 a8bc
00000010: 40e9 193d 72b3 67bd 4993 75bd d16c cc3b
00000020: eb24 28bc 44b8 0dbd 6474 953b d1e5 ac3d
00000030: b700 b3bd 1148 20bd 0dbe 653e 88f8 debd
00000040: ee34 ebbb 02b5 8f3e 0ab3 23bc b820 a13a
00000050: 0137 6cbd 1e49 bb3c fc29 703d 2b89 d0bb
00000060: d9f1 a83d 1494 e6bb e5df 64bd cff4 0ebd
00000070: 29cd 683d fb69 a1bc abe7 14bd 74ac 9a3d
00000080: 9738 71bd 9fb3 883c c508 9fbd a8ae 70bd
00000090: c490 10bd 85c8 28bd 6562 3ebd 6e95 bdbc
000000a0: f1bd 943d 9a63 95bd 3aa0 b6bc c113 53bb
000000b0: 715e 2b3c 03fa c2bc 1111 c73b be6d de3d
000000c0: d687 d6bd 7ca7 f7bc f500 d13c bd74 12be
000000d0: 0d65 c2bd 22c7 d33c 91bc f33d 7d4e 2e3d
000000e0: c06b d1bd 1edb 9d3d b664 413c 9f05 91bd
000000f0: 93c1 dabd 5593 d6bd 7399 69bd 5131 0e3d
00000100: 8354 103e d26d 9ebd 816f e5bc 3497 ff3d
00000110: 6718 e23d b59d 18bd 50f4 9d3d d9c5 a53c
00000120: aaf4 69bd f4ac 53bc 9c08 103d 7c78 9938
00000130: 3685 6a3c 3901 843d 6d42 503d d84b 7a3c
00000140: 8367 4a3d a115 463d 3ddf 3ebd 5d2b 51bd
00000150: dfea 5fbd 4d98 8e3c 8402 4bbc 409a af3a
00000160: a0cd fdbc e129 d1bd e45a e6bd 1053 04be
00000170: 9ecf 4bbd 1c5a 7cbd effa 77bd 04e9 8e3d
00000180: f2a4 febd 3252 c9bd 762f ccbc 888c bf3c
00000190: 6348 a4bd 9b48 e3bd 42ac c9bc d86a 7cbd
000001a0: a85c 44bd d96b 9dbd 2cef c5bd ee97 8abc
000001b0: 143a 00bc 1e7f 1ebd 0aaa e73c 5ed9 95ba
000001c0: 1bf8 babb fb4f 67bb 5845 4fbc 0bf9 01bd
000001d0: 1ca4 973c cdd5 f2bd f2be 92bd 068b 34bc
000001e0: 1597 60bd b8f4 89bd e761 0d3d d053 293b
000001f0: e8f1 0c3b 1e42 05bd 0461 b3bd 1204 9d3d
00000200: 3221 393d 3996 2cbd d889 7c3e d0d4 dd3d
00000210: 5d7f 4cbd 289d 013e 046c d83c ccfa 3c3d
00000220: 210d be3c 3ef6 2b3d fb05 cc3d c9dd 543c
00000230: 2d02 e3bc d7c1 5f3d 7ead 923d 697e 023b
00000240: 9338 d43c 892b 093d f82d 063d 5455 77bb
00000250: 5bf3 163c 03cd 2b3c 456f 43ba 04d9 e7bc
00000260: 1a52 de3d be97 eebc cbda 1b3d 7e0e aa3c
00000270: 3e61 5fbd 8a91 a43b 90b9 9f3d 9f25 4a3d
00000280: a336 54ba 15af c33c 6887 14bb 924f 9a3d
00000290: 3755 f3bc f8c9 8fbc ace3 3b3d aeae 02bc
000002a0: 5f7c e63b 5b21 f23d e819 433d 451b fcbd
000002b0: 6b2c 8ebd 188c 0fbd 497a 8cbd 7492 cd3c
000002c0: 78bb e83b 48a6 aabd ec64 06bd 7355 dbbc
000002d0: a98f 9f3d e990 e7bc fe84 b1bd 22b7 f33c
000002e0: bab3 8ebd 6070 aabd 5e14 5fbd f9cb 84bd
000002f0: 429f 42bc 5413 0d3d ca5d 43bc 7736 60bc
00000300: 2235 b8bd 71b8 fabd ac8d c2bb 7ccb 05be
00000310: a812 06be 5ff8 dcbd 6b0f 99bd 2b61 f7bd
00000320: 7576 903d 7542 29be 4757 4ebb 2827 bf3d
00000330: ce32 fbbd dc5c a7bc e3c5 133d 2a30 5cbd
00000340: 25d8 f7bd 85a1 95bd 0de8 43bd d327 62bd
00000350: f482 edbc 0732 9dbd 107e 04bd 21f1 f5bb
00000360: 38cc 873d a5d6 f5bd 676a 2cbe f537 cdbd
00000370: d204 60be a919 49be 28e7 04be a033 0cbe
00000380: 2006 ed3c b73c f8bc 167a cebd 3432 87bd
00000390: d1a4 bbbd 9b08 6cbd 72a5 c4bd cb64 2fbc
000003a0: 5b1d 3ebd 6496 a9bd c750 7f3a 9c7e 33bd
000003b0: b3e3 d03b ddf2 53bd d711 26bc 239e e9bd
000003c0: 700a d8bd 53ef c4bd f3c9 ac3c 888e aabc
000003d0: 7d46 2f3c 0f05 bdbc f184 37bc f8c5 d03d
000003e0: bc82 7fbd 2cfd 0f3d 4087 c03c 37e3 67bd
000003f0: 59e8 b23b 1834 973c fe32 cbbc eb1c b33d
0.047351845 -0.022185719 0.013721665 -0.020616854 0.03757596 -0.056567617 -0.059954915 0.006238558
-0.010262708 -0.034599558 0.004560994 0.084422715 -0.08740371 -0.039131228 0.2243578 -0.10887247
-0.0071779406 0.28067786 -0.009991417 0.0012293076 -0.057669643 0.022862013 0.05863379 -0.006364008
0.08249254 -0.0070366953 -0.055877585 -0.034901436 0.05683628 -0.019703856 -0.03635375 0.07552424
-0.05889186 0.016687213 -0.077653445 -0.058760315 -0.03529431 -0.041206855 -0.046480555 -0.023142543
0.07262791 -0.07294388 -0.022293199 -0.003220782 0.010459528 -0.023800856 0.0060750325 0.108607754
-0.104751274 -0.03023123 0.025513152 -0.14302345 -0.0949193 0.02585179 0.119012006 0.04255532
-0.1022563 0.07707809 0.0118037965 -0.0708115 -0.106814526 -0.1047732 -0.057031106 0.034715
0.14094739 -0.0773579 -0.02800727 0.124800116 0.11039811 -0.037259776 0.077126145 0.020235943
-0.057118095 -0.012919653 0.03516446 7.3180505e-05 0.0143139865 0.06445546 0.0508446 0.015276872
0.049415123 0.04836047 -0.046599615 -0.051066745 -0.05466735 0.017406607 -0.0123907365 0.001339741
-0.030981839 -0.10213066 -0.11247805 -0.12922311 -0.049758546 -0.061609372 -0.060542043 0.06978038
-0.124338046 -0.09830131 -0.024924975 0.02338244 -0.08021619 -0.11097833 -0.024618272 -0.06162533
-0.047939926 -0.07686586 -0.09664759 -0.016918149 -0.007826347 -0.038695447 0.028279323 -0.0011432578
-0.005705846 -0.0035295475 -0.01265081 -0.031731647 0.01851087 -0.118571855 -0.07165326 -0.011019474
-0.054831583 -0.067361295 0.034517195 0.002583731 0.0021506492 -0.032533757 -0.08758739 0.07666792
0.045197673 -0.04213545 0.24661958 0.108316064 -0.04992615 0.12657607 0.026418693 0.046137616
0.02319962 0.04198288 0.09962078 0.012992331 -0.027710998 0.05462822 0.07161997 0.0019911772
0.025905883 0.033488784 0.032758683 -0.0037740069 0.009213294 0.01048589 -0.000745524 -0.028301723
0.108555034 -0.02912509 0.038050454 0.020758864 -0.054536097 0.0050222324 0.07799065 0.049352285
-0.00080952997 0.023887197 -0.0022663716 0.07534708 -0.02970372 -0.01755236 0.04587142 -0.007976217
0.007033869 0.11822768 0.047632128 -0.12309889 -0.06942066 -0.035045713 -0.068592615 0.025094248
0.007102426 -0.08332497 -0.03281109 -0.026774144 0.07791073 -0.02826734 -0.08667944 0.02975041
-0.06967874 -0.08322215 -0.054462783 -0.06484217 -0.01187879 0.03444226 -0.0119242165 -0.01368486
-0.08994509 -0.12242211 -0.0059372988 -0.13065904 -0.13093054 -0.107895605 -0.07473644 -0.1207908
0.07053844 -0.16529258 -0.0031485127 0.0933364 -0.122655496 -0.020430021 0.03607739 -0.05375687
-0.12101773 -0.07306198 -0.047828723 -0.05521376 -0.028993107 -0.076755576 -0.032346785 -0.0075055514
0.066307485 -0.12003831 -0.16837464 -0.100204386 -0.21876839 -0.19638695 -0.12978804 -0.13691568
0.028933585 -0.030302389 -0.1008188 -0.06601372 -0.091622956 -0.057625394 -0.09601869 -0.010705183
-0.046414714 -0.08280638 0.0009739515 -0.043821916 0.0063748 -0.051745284 -0.010136089 -0.11407115
-0.10548866 -0.0961596 0.02109239 -0.020819917 0.010697958 -0.023073701 -0.011201129 0.101940095
-0.062380537 0.035153553 0.023501992 -0.056613173 0.005459827 0.018457457 -0.024804588 0.0874575

7.odefunc.conv1._layer.bias f4 [64]
00000000: e4c5 0a3d fc1d e3bb ee12 7d3d e1a7 99bd
00000010: 644d 283c f8e2 56bd 6847 243d 8dcb 73bc
00000020: edfd 103d e0a3 a33c 8728 8d3d 6db2 f6bd
00000030: d9b9 be3b 0046 eabc dae0 033c 503b a33b
00000040: bfea c6bd 1b96 be3d f3a4 1dbd af77 febc
00000050: 9cb0 093e 8c05 8dbd 988c 563d 26f3 9ebc
00000060: 0dca 73bc 97ec cf3c c34a 203d 3080 8fbd
00000070: 1990 59bd 3690 303d 599e 263d b933 56bd
00000080: 08c1 823c e48e 263a 2084 be3d c980 b3bd
00000090: 00a3 1ebd 8c82 243d 2b5d f4bd d42b 933d
000000a0: aba5 a83d e5c4 1abd 0535 00be 94c0 e93d
000000b0: 9c27 713c 4f68 a1bd 3e39 6cbd de5d b43c
000000c0: dbb9 523d af3b 38bd 394e c73d bc40 74bd
000000d0: 2bfe eebc 48b4 283d 7266 15bd b00b 4a3d
000000e0: 2528 d1bc 2b3f 253c f460 86bd 6c03 343d
000000f0: 0bc1 153c bf8c cd3c 8abc 6e3d 7e99 77bd
0.03388013 -0.0069310647 0.06178563 -0.075027235 0.010272358 -0.052462548 0.04010716 -0.014880073
0.035398412 0.019975603 0.068924956 -0.12045751 0.0058204946 -0.028597832 0.008049214 0.004981436
-0.09712743 0.09305974 -0.038487386 -0.031062929 0.13446277 -0.068858236 0.052380174 -0.019403052
-0.014879716 0.02538137 0.0391338 -0.07006872 -0.053115938 0.04310628 0.040678356 -0.05229542
0.015961185 0.000635369 0.093025446 -0.08764798 -0.038729668 0.04016356 -0.11931833 0.07186094
0.08234724 -0.03778543 -0.12520225 0.114136845 0.014718916 -0.078812234 -0.057671778 0.022017416
0.051446777 -0.044978794 0.09731717 -0.059632048 -0.029173931 0.041187555 -0.036474653 0.049327552
-0.025531838 0.010085861 -0.06561461 0.043948576 0.009140263 0.025091527 0.058285274 -0.060449116

7.odefunc.norm2.weight f4 [64]
00000000: f987 af3f 0019 4f3f b54f 923f af3f 893f
00000010: 4e74 763f f98b 8d3f 4910 893f 08f9 473f
00000020: 954b 533f 102e 7f3f 313b 993f a15f 853f
00000030: 751c 4f3f 7061 763f a1ce a53f 259e 603f
00000040: 7b93 a13f 4691 643f 5f44 843f 0199 443f
00000050: 746f 823f 7b22 823f 6640 803f 1053 923f
00000060: 010d 943f 905d 593f ee41 643f 11c1 9e3f
00000070: b639 7d3f 4b06 a03f 54c7 8f3f 8bbe 723f
00000080: 13ca 723f 47e5 613f 28df ae3f 5cf9 6b3f
00000090: bfd9 673f 143a 9a3f e55b 5d3f 1319 a23f
000000a0: f837 643f 5a15 863f 0aab 9c3f 5351 d63f
000000b0: 3acf 8c3f e51e b13f 6496 9d3f 8a04 803f
000000c0: aea2 4f3f 2ff3 793f 24e3 883f f0e0 863f
000000d0: 8ba2 5b3f 347b 6f3f d192 a13f 9c81 4a3f
000000e0: 626f 913f f3d2 903f bed7 643f 5634 883f
000000f0: 1f2a 6a3f db92 453f 688e 8e3f 1345 713f
1.371337 0.8089752 1.1430575 1.072256 0.96271217 1.1058341 1.0708095 0.78114367
0.82537204 0.9967966 1.1971189 1.0419809 0.80902797 0.9624243 1.2953683 0.8774131
1.2623132 0.8928417 1.0333365 0.76795965 1.0190263 1.0166773 1.0019653 1.1431599
1.1566468 0.8490839 0.891631 1.2402669 0.98916185 1.250192 1.1232705 0.94821995
0.9483959 0.88240474 1.3661852 0.9217737 0.9056663 1.2048974 0.86468345 1.2663902
0.891479 1.0475266 1.2239697 1.6743568 1.100074 1.3837553 1.231152 1.0001385
0.81107605 0.97636694 1.0694318 1.0537395 0.85794896 0.9354737 1.262293 0.7910402
1.1362116 1.1314377 0.89391696 1.0640972 0.9147052 0.7717721 1.1137209 0.94246024

7.odefunc.norm2.bias f4 [64]
00000000: 85b5 05bf 8876 49bf 8a9b 80bf 6dc4 84bf
00000010: f846 33bf 186a 15bf bbcb a9be 44f5 16bf
00000020: 1394 5fbf 34c4 8dbe c20e 55bf 9553 0fbf
00000030: c279 5ebf 12b2 b7be d847 97bf c9aa e7be
00000040: 0a9b b8be f3d6 7cbf 740b 2cbe 61c4 70bf
00000050: d3ba bebe 6a20 55bf fadc 78bf a6ef f8be
00000060: a45b babe 4001 59bf d06b 3abf 1b64 fbbe
00000070: 194f 21bf b28e 47bf 327d 2fbf 393a 2abf
00000080: 34b7 febe 6f17 5fbf 9cbc 4bbf 7108 f8be
00000090: 9178 0dbf abfd 27bf 25f4 e6be 29b1 6abf
000000a0: 8dac 32bf 0846 b0be cf4e 15bf 9739 afbf
000000b0: a5cb 44bf 04e4 1bbf a0ae e4be 5df5 3dbf
000000c0: c8f7 5fbf 0ce5 1dbe a544 66bf 4124 e5be
000000d0: 5114 2cbf 13ce f1be 52b1 afbe 7640 51bf
000000e0: 8084 8abf 594f fdbe d0b9 abbe 9a8f 33bf
000000f0: 6218 e6be 13e4 4dbf b7b1 66bf b11f 4dbf
-0.522301 -0.7869649 -1.0047467 -1.0372444 -0.70030165 -0.5836501 -0.33163247 -0.58967996
-0.8733532 -0.27688754 -0.83225644 -0.5598691 -0.8690454 -0.35878044 -1.18188 -0.45247486
-0.36055785 -0.98765486 -0.16801244 -0.9404965 -0.3725191 -0.83252585 -0.97212183 -0.48620337
-0.3639804 -0.8476753 -0.7282076 -0.49099812 -0.6301132 -0.7795211 -0.6855041 -0.6649509
-0.49749148 -0.8714513 -0.7958467 -0.4844394 -0.55262095 -0.6562144 -0.45108142 -0.91676575
-0.6979454 -0.3442843 -0.5832338 -1.368945 -0.76873237 -0.608948 -0.44664478 -0.7420252
-0.8748746 -0.15419406 -0.89948493 -0.44754222 -0.672185 -0.47227535 -0.34314972 -0.81738985
-1.0821686 -0.494746 -0.335402 -0.70140994 -0.44940478 -0.8042614 -0.9011492 -0.8012648

7.odefunc.conv2._layer.weight f4 [64, 65, 3, 3]
00000000: cb0d ce3b 73e2 2f3d 4b22 203d 6ae1 a03c
00000010: 68df 00bc 23f4 263d 581e 5fbc 6b71 0cbd
00000020: 1703 bf3c f75d b7bc f33d 063e cf46 073e
00000030: ca2a eb3d 3f8b 1a3e 22d5 893d 799e 8c3d
00000040: 385a 093d 0d55 65bd 633a 61be fc94 56be
00000050: 4f5c 77be 9266 80bd f92f 16bd 8c9e 2cbd
00000060: ae25 683e 5042 503e c08b 3d3e 1132 10be
00000070: 7c02 49be 80ba 03be a15f 71be cb34 00be
00000080: 5eef 9ebd 3aeb eb3c 6f07 bf3d 989e 263d
00000090: b6d6 883e 6380 093e 17fc f63d d515 9f3d
000000a0: 9eb5 923d d028 473e 8336 90bd 9bcf 79bc
000000b0: 5bac 5e3e e675 68bd b22a a23b e070 9b3d
000000c0: 8fba ed3d 3cfa 393e eef5 913c 8d66 f23d
000000d0: c5d6 a2bd 2b9f 8fbc 11dd 1b3c a27e c93b
000000e0: 4b52 a03d 6e44 543c c587 f13c 323a 8fbd
000000f0: c48b 49bc 7222 94bc def1 9dbd 04bc dc3c
00000100: 63ea 07bd 18ae c0bc 737f e13b ec93 20bd
00000110: 67dc 49bc 2bfb 403b 8703 f4bd 2a01 30be
00000120: 89ef ca3c 2059 633d 8bdb 85bd 5dd5 69bc
00000130: ff12 3ebd b621 9cbd b112 5b3b 1fd8 023e
00000140: 6bc2 f53d 2d3a c5bb f6d7 e4bd 4758 70bd
00000150: e6df 85bd 53ee 32be 5080 103d f9fe 003e
00000160: 24cd a5bc f2d2 29bd e727 a0bd 5a18 f03d
00000170: 9c46 9f3c 8376 84bd 5f3e a83d 6022 97bd
00000180: fdbc 683c 9c8e bdbb a9cc 7bbc 2717 41bc
00000190: 669e 24bc 4296 99bd 748b d0bc f48c bc3a
000001a0: 6082 b1bd a282 4b3d bc2c 4abc c796 01bd
000001b0: 0adc 8c3c e589 4fbc 8c9a 813c 433e f7bd
000001c0: 42bd 11be c8a5 04be aa1c 073e 86dd 533d
000001d0: 5486 1a3d 0b41 0f3e 0832 b53c 0419 ee3d
000001e0: ba74 063e b910 273d 5b45 2d3e 0fd2 023d
000001f0: c404 09be d6d7 9c3c 8a19 433d b808 3ebd
00000200: 4bb2 d8bd 4036 64bd d2c4 ecbd 67ac 6ebd
00000210: 88f9 39bd d594 68bd 6192 21bd e7e5 cf3d
00000220: ed4d 483e 1aec c83c 8990 223e ef80 863e
00000230: 0fdd 003e 6a2f 803e b454 933e e8b7 4ebd
00000240: 5cc6 1cbe 1ac5 94bd bd92 e2bd 266b abbd
00000250: 2af8 303b 42ee f0bd 6f5c df3a 9239 5d3d
00000260: 56c6 c43d ad9f c7bd feff 6fbd 7e85 af3c
00000270: da4e c5bc b759 a0bc e14e 053d d1c5 7c3d
00000280: 0779 9f3d b58a 9dbc f0a2 93bd c89f d7bc
00000290: b91a e23b 234e 58bb 7f3e 2cbd e5a5 88bd
000002a0: b1ba de3d 4df9 1f3d 14c5 8fbc c62c b3bc
000002b0: 551f 103d c74c 27bd bbf9 213c c46b 2d3d
000002c0: f88d 63bc 3906 a43a 1891 23bc 0e02 853c
000002d0: a8b6 bbbd 533b d9bc d36c c33d 5ce8 863d
000002e0: f866 843d 67cd 3c3e 92a6 9abd fd13 5bbd
000002f0: 81a3 ce3d 1ce3 a2bc e8c6 5fbc 5566 1dbc
00000300: 3975 d63d 6a7c 9c3d 467f acbd 1247 fd3d
00000310: ccbd 35bb 54ba 0cbe fe51 85bd 449a 953d
00000320: 683e 263c db71 f9bd 0afb 9abc b803 4bba
00000330: 2f03 5dbd 65e3 7fbd 2ef1 3abd 22f2 733d
00000340: 8065 86bc d3cc e4bd c4a0 7d3d a254 90bd
00000350: 46f6 46be b1ba efbd 0fbb 3b3d d9ef b03d
00000360: 6589 453d 2c79 babc 28e6 843d 4f61 0b3d
00000370: e122 e93c d60a 7a3c 5f8f a53c e465 393d
00000380: 8ec0 e03d 4f70 9d3d c46f 0f3d cabf 033d
00000390: 8550 e23c b001 353d 727c 5d3d ff78 f33b
000003a0: fa7c 573d 7d30 2eba 0da4 cd3c de6a 9a3d
000003b0: d105 de3d a359 8f3d 4efa 613c a484 cb3c
000003c0: 4f4f 52bd 3ae9 ddbd 0b48 c9bd 247b 0ebd
000003d0: f84e d0bd d575 443c cb83 063d 44e5 04bd
000003e0: bc31 cdbd 8dd2 113e a0bb 923d 797b 783d
000003f0: 9b23 a4bd 3de4 52bd 4a7f f83c 4e1f b2bd
0.0062882653 0.04294057 0.039095204 0.019638736 -0.007865764 0.04076017 -0.013618074 -0.03428785
0.023316903 -0.022383673 0.13109569 0.13210605 0.11482771 0.1509218 0.06730105 0.06866164
0.033533305 -0.055989314 -0.21994929 -0.2095527 -0.24156307 -0.06269564 -0.036666844 -0.04214339
0.22670624 0.20337796 0.18510342 -0.14081599 -0.19629854 -0.12864113 -0.23571636 -0.12520139
-0.077604994 0.028798688 0.0932759 0.04067859 0.2672631 0.13427882 0.12059801 0.07767836
0.07163547 0.19449162 -0.07041647 -0.015247251 0.21745436 -0.05675306 0.0049489373 0.075898886
0.11607849 0.18161863 0.017817464 0.11835966 -0.0795112 -0.017531952 0.009513156 0.006149129
0.07828196 0.012955768 0.029483685 -0.06993522 -0.012301389 -0.018082831 -0.07712148 0.026945122
-0.033182513 -0.023520514 0.006881648 -0.03920357 -0.012320614 0.0029446583 -0.11914735 -0.17187944
0.024772422 0.055504918 -0.06536015 -0.014272061 -0.046404835 -0.07623617 0.003342789 0.12777756
0.11999973 -0.006018898 -0.11174004 -0.058677938 -0.06536846 -0.17473726 0.03527862 0.12597264
-0.02023942 -0.04146094 -0.07820111 0.11723395 0.019442849 -0.06467917 0.08215021 -0.073796034
0.014205215 -0.0057848226 -0.015368619 -0.011785305 -0.010047531 -0.074993625 -0.025457121 0.0014385269
-0.08667445 0.049685128 -0.012339767 -0.031637933 0.017194767 -0.012667154 0.015820764 -0.12072422
-0.14232352 -0.12953866 0.13194528 0.051724933 0.03772576 0.13989656 0.022118583 0.11625865
0.13130465 0.040787432 0.16920988 0.03193861 -0.13380724 0.019145887 0.047631778 -0.046395034
-0.10580882 -0.0557158 -0.11560978 -0.058269884 -0.045403987 -0.056782562 -0.03944624 0.10151272
0.19560976 0.024526644 0.15875448 0.26270244 0.12584327 0.25036174 0.2877556 -0.050468355
-0.15310043 -0.07264157 -0.11063144 -0.08370046 0.0027003386 -0.11764194 0.0017041097 0.05400998
0.09608142 -0.097472526 -0.058593743 0.021425959 -0.02408545 -0.01957403 0.032545928 0.06171209
0.07786756 -0.01923118 -0.07208812 -0.026321307 0.0069001582 -0.0033005557 -0.04205179 -0.06672267
0.10875452 0.03905611 -0.017550029 -0.021871936 0.03518613 -0.040844705 0.009886201 0.0423391
-0.013888828 0.0012514062 -0.0099833235 0.016236331 -0.09165698 -0.026517546 0.09542241 0.06587288
0.06464952 0.1843773 -0.07551302 -0.05348586 0.1008978 -0.019883685 -0.013658263 -0.009606917
0.10471577 0.076409176 -0.08422713 0.12367071 -0.0027731536 -0.13742954 -0.065097794 0.073048145
0.010146715 -0.12179919 -0.018918533 -0.00077443896 -0.053958114 -0.06247272 -0.045640163 0.059557088
-0.01640582 -0.111718796 0.061920896 -0.070473924 -0.19429883 -0.117055304 0.04583269 0.08639497
0.048226733 -0.022762857 0.06489211 0.034028348 0.028459014 0.015261373 0.020209966 0.045263186
0.10974227 0.07687437 0.035018697 0.032165326 0.027626285 0.044191062 0.05407376 0.0074301953
0.05260942 -0.00066447986 0.02510264 0.075399145 0.10840953 0.06999519 0.013792587 0.024843521
-0.051345166 -0.108355 -0.09828194 -0.034785405 -0.10171312 0.011990984 0.03284053 -0.032445207
-0.10019252 0.14240475 0.07164693 0.060664628 -0.08014604 -0.051487196 0.030334134 -0.08697377
