experiment_anode_cifar_v1/model.pth (torch, 854377 bytes, 24 tensors)

0.weight f4 [64, 3, 3, 3]
0	0x3eb4dbba	0.35323888
1	0x3f174867	0.5909485
2	0x3dbbdfec	0.09173569
3	0xbc51d706	-0.012807613
4	0xbe34f3f7	-0.1767119
5	0x3e35a7da	0.17739812
6	0x3e7c4489	0.24635519
7	0xbf2cf399	-0.675592
8	0xbd94316f	-0.07235991
9	0xbca33613	-0.019923246
10	0x3d657d69	0.056027804
11	0xbf159368	-0.5842805
12	0xbee8d980	-0.4547844
13	0xbf0a48f9	-0.540176
14	0xbeccb2da	-0.39980203
15	0xbe890f95	-0.267697
16	0xbf6de91b	-0.92933816
17	0xbe2b6ea4	-0.16741425
18	0x3f2675f7	0.6502375
19	0x3f6a9bdf	0.9164409
20	0x3f21867f	0.6309585
21	0x3efc9c39	0.49337938
22	0x3ec8c9de	0.39216512
23	0x3e50cb43	0.20390038
24	0x3f0e7224	0.55642915
25	0x3dc7420a	0.09729393
26	0x3eae3078	0.34021354
27	0x3dbe83da	0.093024924
28	0x3ec316cd	0.38103333
29	0x3f2f8b99	0.68572384
30	0xbf28fd77	-0.66011757
31	0xc0296f94	-2.6474352
32	0xbfb6d066	-1.4282348
33	0x3f8de727	1.1086167
34	0x3fd17701	1.6364442
35	0x3f638b79	0.88884693
36	0x3e53ebdc	0.20695442
37	0x3f7364a1	0.9507542
38	0x3f9a77ef	1.2067851
39	0xbefa8d32	-0.48935848
40	0xc02617a9	-2.595194
41	0xbfaa163a	-1.3288033
42	0x3f027561	0.50960356
43	0x3f8e84a8	1.1134233
44	0x3e4e072d	0.20119925
45	0x3e987521	0.29776862
46	0x3fb1c029	1.3886768
47	0x3fc2cbc1	1.5218431
48	0xbf8afca9	-1.0858356
49	0xc026f62e	-2.6087756
50	0xbf87040f	-1.0548114
51	0x3ed6b18a	0.41932327
52	0x3f7b3016	0.9812025
53	0x3e2b37d0	0.1672051
54	0x3fcb0740	1.5861588
55	0x3ef701c8	0.48243546
56	0xbef4e374	-0.47829783
57	0x3fe40cf5	1.7816454
58	0xc03c722f	-2.9444692
59	0x3dcaaa1c	0.09895727
60	0x3e35675d	0.17715211
61	0xbf7768c1	-0.96644217
62	0x3f12d75b	0.57359856
63	0x3f8bee49	1.0932094
64	0xbed404b4	-0.41409838
65	0xbea84926	-0.32868308
66	0x3f89c1e8	1.07623
67	0xc0419792	-3.024876
68	0x3f8cc7ec	1.0998511
69	0xbe4837a7	-0.1955248
70	0xbf0014ff	-0.5003204
71	0x3fccd378	1.6002035
72	0x3ec99a99	0.3937576
73	0xbf30208d	-0.6879967
74	0xbe832d5b	-0.2562054
75	0x3f0bff29	0.5468622
76	0xc02b5665	-2.677148
77	0x3fb08d49	1.3793117
78	0xbf5cd5e9	-0.862639
79	0xbeb70697	-0.35747215
80	0x3ff980ac	1.9492393
81	0x3f4ce613	0.80038565
82	0x3ede9644	0.4347402
83	0xc00ec892	-2.2309918
84	0x3fd82d50	1.6888828
85	0x3f3441d8	0.7041297
86	0xbeb04108	-0.34424615
87	0xbeedee2a	-0.46470767
88	0x3f168dad	0.5880993
89	0x400c96d0	2.1967049
90	0x3f25b19b	0.6472413
91	0x3ec3fd81	0.38279346
92	0xbfdcc91d	-1.7248875
93	0x3ba3a968	0.00499456
94	0xbf7e34f7	-0.9929957
95	0xbf40c69a	-0.7530304
96	0xbfffdcc7	-1.9989251
97	0xbf90cc22	-1.1312296
98	0x3fdbc7a9	1.7170306
99	0x3f2f4163	0.6845915
100	0x3f864097	1.0488461
101	0xbf849f32	-1.0361083
102	0x3dd14464	0.102181226
103	0xbefe0f34	-0.49620974
104	0xbf1dd6b1	-0.6165572
105	0xbfe4b657	-1.7868146
106	0xbf5323eb	-0.8247668
107	0x3fdd0ff5	1.7270495
108	0x3f11bf12	0.56932175
109	0x3f730417	0.94928116
110	0x3f29cbbb	0.66326493
111	0x3f82c7dc	1.0217242
112	0x3f14a4e5	0.5806411
113	0xbea6154b	-0.3243812
114	0x3f348ce2	0.7052747
115	0xbfac0a5d	-1.3440663
116	0xbfb60a32	-1.4221861
117	0x3f0a1a2b	0.5394618
118	0x3e88ef61	0.26745132
119	0xbe987fc6	-0.29784983
120	0x3f5ad0e8	0.85475016
121	0x3e387909	0.18014921
122	0xbf1a3c69	-0.6024843
123	0x3f2d9ec3	0.67820376
124	0xbf9d0bf5	-1.2269274
125	0xbf96182b	-1.1726125
126	0x3f2c376c	0.6727207
127	0x3e87fe4a	0.26561195
128	0x3dd25c60	0.102715254
129	0x3f300c4a	0.6876875
130	0xbd838cac	-0.064233154
131	0xbf0ee376	-0.5581583
132	0x3eb028f7	0.34406254
133	0xbf828c2d	-1.0199028
134	0xbf367702	-0.7127534
135	0x3ee2bd9f	0.44285294
136	0xbec11422	-0.37710673
137	0xbef7d0d8	-0.48401523
138	0xbdee0677	-0.11622327
139	0xbfd96032	-1.6982481
140	0x3f8957a7	1.0729874
141	0xbf5ed1a7	-0.87038654
142	0x3f960064	1.1718869
143	0x3f51dcfc	0.8197782
144	0x3f9000f5	1.1250292
145	0xbe9a7708	-0.3016894
146	0xbf8dac6e	-1.1068246
147	0xbe570024	-0.20996147
148	0xc0112da7	-2.2684114
149	0x3f27e35a	0.65581286
150	0xbf77f56f	-0.96858877
151	0x3f4b08bb	0.79310197
152	0x3f50ecae	0.81611145
153	0x3ff64366	1.9239318
154	0x3f010982	0.5040513
155	0xbeb72ab9	-0.35774782
156	0x3f16cf35	0.5890992
157	0xbfee0421	-1.859501
158	0x3f0468fc	0.51722693
159	0xbf75c389	-0.9600149
160	0x3eedd826	0.4645397
161	0xbf3c3a1a	-0.73526156
162	0x3c3dc5a2	0.011582764
163	0x3e581292	0.21100834
164	0x3f43d373	0.7649452
165	0x3ef4801d	0.47753993
166	0x3db601f3	0.088870905
167	0x3d4d0106	0.050049804
168	0xbd58e357	-0.052951183
169	0x3f2fa6a5	0.68613654
170	0x3ece0855	0.40240732
171	0xbf253005	-0.64526397
172	0xbf32c549	-0.69832283
173	0xbdefdc44	-0.11711934
174	0xbe53a9b4	-0.20670205
175	0xbf19009c	-0.59766555
176	0xbf762bc3	-0.96160525
177	0xbe8a0c05	-0.26962295
178	0xbe508149	-0.20361818
179	0xbf55894f	-0.8341264
180	0x3d5c5776	0.053794347
181	0xbe834010	-0.25634813
182	0xbdacb271	-0.084324725
183	0x3f5e148f	0.8675012
184	0x3e989614	0.29802
185	0x3df89472	0.12137689
186	0x3eb553e5	0.3541557
187	0x3f81d3bd	1.0142742
188	0x3f0e559d	0.55599385
189	0x3fdc1c13	1.7196068
190	0x3ff61a64	1.9226804
191	0x3fb0bd36	1.3807743
192	0x3dc69a65	0.09697417
193	0x3e6f3476	0.23359856
194	0xbe95423d	-0.29152098
195	0xc00021a2	-2.0020528
196	0xc00bffb9	-2.187483
197	0xbfb1d05a	-1.3891709
198	0xbe083e57	-0.13305031
199	0xbe8b77a4	-0.27239716
200	0x3f051808	0.51989794
201	0x3f1aca56	0.6046499
202	0x3f611605	0.87924224
203	0x3d0b16b2	0.03395719
204	0xbe53d29e	-0.20685813
205	0xbe09860b	-0.1343004
206	0x3c8564e6	0.016283464
207	0xbfdb5f66	-1.7138488
208	0xc024248a	-2.5647302
209	0xbfc7af35	-1.5600344
210	0x3f032ebd	0.5124319
211	0x3e056267	0.13025819
212	0xbe5f1984	-0.21787077
213	0x3fc7f48c	1.5621505
214	0x3fec2b56	1.8450725
215	0x4004ee54	2.0770464
216	0x3f64cdf3	0.89376754
217	0x3f17ad78	0.5924907
218	0x3de3ba87	0.11119562
219	0xbf31eac9	-0.6949888
220	0x3e9b29f9	0.3030546
221	0x3f81ce36	1.0141056
222	0xbfbd315f	-1.4780692
223	0xbf1c2828	-0.60998774
224	0x3f8ce3e0	1.1007042
225	0x3ea1c9c0	0.31599236
226	0x3d19eb29	0.03757778
227	0xbe8fa0e5	-0.2805244
228	0xbf4678b9	-0.7752796
229	0x3c4604e3	0.012086126
230	0x3e0891a5	0.13336809
231	0xbfa4d7e8	-1.2878389
232	0xbf60b457	-0.87775177
233	0x3eacae0c	0.33726537
234	0x3f2cf4d9	0.6756111
235	0x3e0a3a70	0.13498855
236	0xbeb53830	-0.3539443
237	0xbebfd066	-0.37463683
238	0x3ef9d57b	0.48795685
239	0x3e805cf4	0.25070918
240	0xbf3406f1	-0.7032309
241	0xbd85dc00	-0.06536102
242	0x3ef6535e	0.4811048
243	0xbf6df84c	-0.92956996
244	0xbf511783	-0.816765
245	0x3daab055	0.08334414
246	0xbeaca0fe	-0.33716577
247	0x3edd29fa	0.43196088
248	0x3f30f7fa	0.6912838
249	0x3ebd0221	0.36915687
250	0x3f96368e	1.1735399
251	0x3f2de6e9	0.67930466
252	0xbf06eab5	-0.52701885
253	0xbe9151cd	-0.28382722
254	0x3e215b0a	0.15757385
255	0xbf19ba9e	-0.6005038

0.bias f4 [64]
0	0xbd0eee74	-0.034895375
1	0x3d242753	0.040076565
2	0xbc55ff9c	-0.01306143
3	0x3d89638a	0.06708439
4	0xbe435540	-0.19075489
5	0x3e305ad3	0.17222147
6	0x3dd1ad64	0.1023815
7	0x3dc39b9f	0.09551167
8	0xbd3af523	-0.045643937
9	0xbe101088	-0.14068806
10	0xbdccfd07	-0.10009199
11	0x3d28a2d5	0.041170914
12	0xbe26cb6e	-0.1628854
13	0xbcf018d2	-0.02930871
14	0x3e067bd8	0.1313318
15	0x3deffc64	0.117180616
16	0xbd0ccc38	-0.034374446
17	0xbcfdcf0c	-0.030982517
18	0xbe4251b1	-0.18976475
19	0x3e2254be	0.15852639
20	0x3d8a84ac	0.067635864
21	0xbdebc5c0	-0.11512327
22	0x3c82fc8c	0.015989564
23	0x3ce1741a	0.027521182
24	0xbd29dc00	-0.041469574
25	0x3d4513f4	0.048114732
26	0x3d800615	0.0625116
27	0xbde964ec	-0.113962024
28	0xbd8ed17d	-0.069735505
29	0xbc331934	-0.010931302
30	0x3de2e7aa	0.11079343
31	0x3e061322	0.13093236
32	0x3d9e7dd5	0.07738844
33	0xbd28fb74	-0.04125543
34	0xbe0abf37	-0.13549505
35	0x3da978a5	0.08274964
36	0xbe22b35f	-0.15888737
37	0x3e04662e	0.12929603
38	0xbc9432b4	-0.018090583
39	0x3e213ded	0.15746279
40	0x3dd77e15	0.10522095
41	0x3e10b2d4	0.14130718
42	0xbcc4220f	-0.023942022
43	0x3d439d2a	0.047757305
44	0xbe449782	-0.1919842
45	0xbd887ff2	-0.06665029
46	0xbdfe48a1	-0.124161966
47	0xbcb8d449	-0.022562163
48	0x3d848ac1	0.06471778
49	0xbe2403f8	-0.16017139
50	0x3dd1f38c	0.10251531
51	0xbd421ec5	-0.047392625
52	0xbe2b5882	-0.16732982
53	0xbcb33c90	-0.021879464
54	0x3d766a7c	0.060160145
55	0x3e2e707b	0.17035095
56	0xbcc73cfd	-0.024321074
57	0x3ca4e0d4	0.020126738
58	0xbd725a2e	-0.059168033
59	0x3da0a420	0.07843804
60	0x3db2eb29	0.087362595
61	0x3e0b68b9	0.13614167
62	0x3c82e425	0.015977928
63	0x3dababd2	0.083823815

1.weight f4 [64]
0	0x3f7e9e24	0.99460053
1	0x402266e0	2.537529
2	0x402065d4	2.506215
3	0x4005787b	2.0854785
4	0x3fb5bde2	1.4198573
5	0x4012d0a4	2.2939844
6	0x3f9f3546	1.2438133
7	0x3fe407e1	1.7814904
8	0x3fb609b2	1.4221709
9	0x3fb8652f	1.4405879
10	0x3faae015	1.3349634
11	0x3f88532d	1.0650383
12	0x3fc092b6	1.5044773
13	0x3fd561fa	1.6670525
14	0x400aec3b	2.1706684
15	0x3fe34347	1.7754906
16	0x3fe22c2e	1.7669733
17	0x3f90a1d9	1.1299392
18	0x3f40ae5d	0.7526606
19	0x3f6afd59	0.9179283
20	0x3ff4255d	1.9073902
21	0x3fae663e	1.3624952
22	0x3f991a46	1.1961143
23	0x401b6daa	2.4285684
24	0x3fb21976	1.391402
25	0x3fc36404	1.5264897
26	0x3f2b013f	0.66798776
27	0x3fbca426	1.4737594
28	0x3f8d1ca4	1.1024365
29	0x3f9a388b	1.2048506
30	0x3fe67a32	1.8006041
31	0x3fd3a54d	1.6534821
32	0x3fcee781	1.6164399
33	0x3fd20312	1.6407187
34	0x3fed41aa	1.8535664
35	0x3f83495c	1.0256763
36	0x3fafedba	1.3744423
37	0x3fb3ac45	1.4036947
38	0x3feb0265	1.8360106
39	0x4008569f	2.130287
40	0x3fbd9c9d	1.481342
41	0x3ff2698a	1.8938458
42	0x3f9432e2	1.1578028
43	0x3fe4abc5	1.786492
44	0x3fd0afeb	1.6303686
45	0x3fdab129	1.7085315
46	0x40237637	2.5540903
47	0x3f43a45e	0.7642268
48	0x3f9f8818	1.2463408
49	0x3fc76571	1.5577832
50	0x3f917926	1.1365097
51	0x3ff9bd66	1.9510925
52	0x3fa39df4	1.2782578
53	0x3f6e2c65	0.9303649
54	0x3fc703ec	1.5548072
55	0x3fb400fe	1.4062803
56	0x3f30a4be	0.69001377
57	0x3fba8af0	1.457365
58	0x3fd8b218	1.692935
59	0x3fa6506a	1.299329
60	0x3fb908f8	1.4455862
61	0x4025b4e1	2.589165
62	0x3fcf1b98	1.6180296
63	0x3fb21eb9	1.3915626

1.bias f4 [64]
0	0xbdb9016a	-0.09033473
1	0xbdfad4a4	-0.12247589
2	0xbee82a41	-0.45344737
3	0x3f206be3	0.6266462
4	0x3fa7ef04	1.3119817
5	0xbeb84060	-0.35986614
6	0xbf0f2548	-0.5591626
7	0xbed7c67f	-0.42143628
8	0x3f145755	0.5794576
9	0xbec9c0ba	-0.3940485
10	0xbf7aeaa0	-0.9801426
11	0xbf44ecf3	-0.76924056
12	0xbdf7b15c	-0.120943755
13	0x3f299606	0.6624454
14	0xbe50330c	-0.20331973
15	0xbf580798	-0.8438659
16	0x3f8c9927	1.0984238
17	0x3da80ec8	0.08205944
18	0x3eabcc78	0.33554435
19	0xbe3e6661	-0.18593742
20	0xbedb8edf	-0.4288244
21	0x3e21e581	0.15810205
22	0x3f04b192	0.5183345
23	0xbd6b21cf	-0.05740529
24	0x3e60b57f	0.21944235
25	0xbf55a641	-0.8345681
26	0x3ea000b7	0.31250545
27	0xbf56e0fa	-0.83937037
28	0x3edee7d7	0.43536255
29	0x3e025ca3	0.1273065
30	0xbf5aa3ac	-0.85405993
31	0xbf1e46b6	-0.61826646
32	0xbf162a34	-0.58658147
33	0xbf0a063a	-0.5391575
34	0x3fa6a53d	1.3019177
35	0x3f06b0a0	0.5261326
36	0x3e1759fd	0.14780422
37	0x3ead0182	0.33790213
38	0xbf0124b1	-0.5044661
39	0xbf5fbe4c	-0.87399745
40	0x3d8b2eed	0.0679606
41	0xbeb1de18	-0.34739757
42	0x3d223685	0.039602775
43	0xbdac5850	-0.08415282
44	0x3e64777c	0.22311205
45	0x3c00abab	0.007853429
46	0xbe7b25bc	-0.24526113
47	0x3ea468bb	0.32111153
48	0xbe90405e	-0.28174108
49	0xbeb970f1	-0.3621898
50	0xbe74c94d	-0.23904915
51	0xbf726263	-0.94681376
52	0xbe594287	-0.21216784
53	0x3ebbd84c	0.3668846
54	0xbf5116b9	-0.816753
55	0x3f4a6b29	0.79069763
56	0x3f16e244	0.58939004
57	0xbf27b6ae	-0.6551312
58	0xbf77e7e0	-0.9683819
59	0xbd5aae54	-0.05338891
60	0xbd9b0061	-0.07568432
61	0xbe60b920	-0.2194562
62	0xbe63fb6d	-0.2226388
63	0xbf7f5b95	-0.9974912

3.weight f4 [64, 64, 4, 4]
0	0xbe798531	-0.24367215
1	0xbe8eb200	-0.27870178
2	0xbe9e361d	-0.3090066
3	0xbe7675e1	-0.24068405
4	0xbe91d90f	-0.28485915
5	0xbeb39372	-0.3507343
6	0xbea7134f	-0.3263192
7	0xbea3f4e2	-0.32022768
8	0xbe6febdf	-0.23429821
9	0xbeb64778	-0.356014
10	0xbec80223	-0.3906413
11	0xbe8e2ff7	-0.2777097
12	0xbe3002c9	-0.17188562
13	0xbe5344b9	-0.20631684
14	0xbe8fc4fd	-0.28079978
15	0xbe4c7114	-0.19965011
16	0xbed51fc7	-0.41625807
17	0xbef7148b	-0.4825786
18	0xbef2e11e	-0.47437376
19	0xbeb4bd0a	-0.35300475
20	0xbd975501	-0.0738926
21	0xbe22ff1f	-0.15917633
22	0xbe60e66e	-0.21962902
23	0xbe06388b	-0.13107507
24	0xbd27d3d2	-0.040973492
25	0xbde17f48	-0.11010605
26	0xbcc211e6	-0.023690175
27	0xbe134807	-0.14382945
28	0xbe29865e	-0.16555163
29	0xbe269792	-0.16268757
30	0xbe1cc4ea	-0.15309492
31	0xbe981c57	-0.29709122
32	0xbe1addfe	-0.15123746
33	0xbe27397a	-0.1633052
34	0xbe4d81b7	-0.20069014
35	0xbe0e1c01	-0.1387787
36	0xbe0bee8f	-0.13665222
37	0xbd396b53	-0.045268368
38	0x3d51f34f	0.051257428
39	0x3dffb2db	0.12485286
40	0xbdfbe91f	-0.12300324
41	0xbdd94a87	-0.10609918
42	0x3e2d99a6	0.16953143
43	0x3dc3578e	0.09538184
44	0xbe088f4c	-0.13335913
45	0xbe12011c	-0.14258236
46	0xbd666bec	-0.056255266
47	0x3bbc6dfc	0.005750416
48	0x3c056cd7	0.008143625
49	0xbe0e5767	-0.13900529
50	0xbe216b80	-0.15763664
51	0xbe12d901	-0.14340593
52	0xbbe91181	-0.0071126823
53	0xbd17b71d	-0.037039865
54	0xbde475b3	-0.11155262
55	0xbe648c1d	-0.22319074
56	0xbe2c4131	-0.16821744
57	0xbc1430a2	-0.009044798
58	0xbd8f4147	-0.069948725
59	0xbe353367	-0.1769539
60	0xbe215112	-0.15753582
61	0xbddceb0e	-0.107870206
62	0xbd1941ca	-0.037416257
63	0x3d6fc4e7	0.05853739
64	0xbe1f4ca3	-0.15556578
65	0xbdec0011	-0.1152345
66	0xbe013d1a	-0.12620965
67	0x3d5edd1e	0.054410093
68	0xbda05fb4	-0.07830754
69	0x3d19e591	0.037572447
70	0xbcac502e	-0.021034326
71	0xbcf24ad3	-0.029576695
72	0xbd21d9b4	-0.03951426
73	0x3da10441	0.078621395
74	0xbcbb988f	-0.022899894
75	0xbd026c48	-0.031841546
76	0xbc6aed8f	-0.014338865
77	0x3dd00738	0.10157627
78	0x3d2c14f4	0.04201217
79	0x3da55313	0.08072486
80	0xbdda43c3	-0.10657456
81	0xbe29a02a	-0.16565004
82	0xbe49341b	-0.19648783
83	0xbe88dd4a	-0.2673133
84	0xbe1a1bb7	-0.15049635
85	0xbdc74abf	-0.097310536
86	0xbe3588a4	-0.17727906
87	0xbe2203f3	-0.15821819
88	0xbe906ee0	-0.2820959
89	0xbde5dbbd	-0.112235524
90	0xbdd519fc	-0.10405347
91	0xbd8d18c2	-0.06889488
92	0xbe8cadb4	-0.27476275
93	0xbe6dee67	-0.23235475
94	0xbe4a291a	-0.19742242
95	0xbd877f79	-0.0661611
96	0x3c0acc7c	0.008471604
97	0xbe198cc5	-0.14995106
98	0xbe2177cb	-0.15768354
99	0xbe0163e6	-0.12635764
100	0x3d3d8052	0.046264954
101	0xbd60b51e	-0.054860227
102	0xbdd793ed	-0.105262615
103	0xbd9953d6	-0.074866936
104	0x3cc1b86e	0.023647513
105	0xbd81efbe	-0.06344555
106	0xbdef27d9	-0.11677522
107	0xbdb211c4	-0.08694795
108	0x3d50dd5c	0.050992355
109	0x3dafb148	0.085787356
110	0x3d87dfb8	0.06634468
111	0x3c05c8d3	0.008165556
112	0x3d388d28	0.045056492
113	0xbd1be06e	-0.03805583
114	0x3dc06f4e	0.0939623
115	0x3e215634	0.1575554
116	0xbe1e34a7	-0.15449773
117	0xbe74f718	-0.23922384
118	0xbe14b4d1	-0.14522101
119	0xbcc4c6e9	-0.024020629
120	0xbe0c1d63	-0.13683085
121	0xbe1ee531	-0.15517117
122	0xbe4e18c9	-0.20126642
123	0xbe85dc55	-0.26144662
124	0xbe20cce0	-0.15703154
125	0xbe8602de	-0.26174062
126	0xbe9fa8d8	-0.31183505
127	0xbee389ca	-0.44441062
128	0x3c1ffe14	0.009765167
129	0x3d81625a	0.06317587
130	0x3cc6ded9	0.024276184
131	0xbcf24a26	-0.029576372
132	0x3da162d1	0.07880176
133	0x3d76f544	0.060292497
134	0x3d9cd070	0.07656944
135	0xbd46af33	-0.048506927
136	0x3cb822cf	0.022477536
137	0x3e0694ec	0.13142747
138	0x3e2d1599	0.1690277
139	0x3c0828a3	0.00831047
140	0x3e1de70d	0.1542017
141	0x3db569a3	0.08858039
142	0x3db93246	0.09042792
143	0x3d93fc76	0.072258875
144	0x3da8b86b	0.082383
145	0x3e017bd9	0.126449
146	0x3b889474	0.0041680876
147	0x3d0c536e	0.034259252
148	0x3df64afc	0.12026021
149	0x3e392a5f	0.1808257
150	0x3da582f8	0.08081621
151	0x3dbb32ea	0.091405705
152	0xbcb0e396	-0.021592896
153	0xbd1008d7	-0.03516468
154	0xbe0d5bbe	-0.13804528
155	0xbe290aef	-0.16508077
156	0xbd99fb7b	-0.07518669
157	0xbd9e22a2	-0.077214494
158	0xbe44664f	-0.19179653
159	0xbe6694a5	-0.22517641
160	0xbda27ea9	-0.07934315
161	0xbdb3d213	-0.08780303
162	0xbdf642b8	-0.12024444
163	0xbdd97f63	-0.1062
164	0xbd9428a2	-0.072343126
165	0xbded083c	-0.11573836
166	0xbdeb96f3	-0.11503401
167	0xbd42ccca	-0.047558583
168	0xbda4bebb	-0.080441914
169	0xbd7d84b9	-0.061894152
170	0xbd868840	-0.065689564
171	0x3b5cc925	0.0033689227
172	0x3cdb19ff	0.026745794
173	0x3cb7abfb	0.022420874
174	0x3ba87085	0.0051403665
175	0x3bd09fde	0.006366714
176	0xbdc663a8	-0.09686977
177	0xbdfb7529	-0.12278206
178	0xbe0f047b	-0.13966553
179	0xbd895ee4	-0.06707552
180	0xbe0bcbcd	-0.13651963
181	0xbe3d05f9	-0.1845931
182	0xbe2547e0	-0.161407
183	0xbdcb498c	-0.09926137
184	0xbd9f22f4	-0.07770339
185	0xbe080abd	-0.13285346
186	0xbe0f030d	-0.13966008
187	0xbc905252	-0.017617378
188	0xbc6b127a	-0.014347667
189	0xbd68c86b	-0.05683176
190	0xbd240a62	-0.040048964
191	0x3d62f7c3	0.055412065
192	0xbe936937	-0.2879121
193	0xbe269d2d	-0.16270895
194	0xbe16c3da	-0.14723149
195	0xbd8aa392	-0.0676948
196	0xbdd126ca	-0.102124766
197	0xbc8df3f0	-0.017328233
198	0xbe0326cd	-0.1280777
199	0xbe1350c5	-0.1438628
200	0xbd9024ce	-0.0703827
201	0x3dabed09	0.0839482
202	0xbc44ca16	-0.012011072
203	0xbd92effc	-0.0717468
204	0x3c5a32b2	0.013317751
205	0x3d147f35	0.036254127
206	0x3c020ccd	0.007937622
207	0x3d63ed82	0.055646427
208	0xbd3d2853	-0.046181034
209	0xbe697935	-0.22800143
210	0x3c0c8086	0.008575564
211	0x3e31f4cc	0.17378539
212	0xbcba644d	-0.022752905
213	0xbe3433bd	-0.17597862
214	0xbbf51721	-0.007479564
215	0x3dbbdcab	0.091729484
216	0x3e86c0af	0.2631888
217	0x3de86b52	0.11348595
218	0x3e602c84	0.21891981
219	0x3e4bf691	0.19918276
220	0x3df35d8d	0.11883078
221	0x3d1277c7	0.03575876
222	0x3dceb0a8	0.10092288
223	0xbba715a7	-0.0050990167
224	0xbe2f8c56	-0.17143378
225	0xbe450482	-0.19240001
226	0xbe35f00b	-0.1776735
227	0xbe3553e8	-0.17707789
228	0xbe2fd99f	-0.1717286
229	0xbe60b050	-0.21942258
230	0xbe48a4ac	-0.19594067
231	0xbd370f46	-0.0446923
232	0xbe8db9ba	-0.2768076
233	0xbe578396	-0.2104629
234	0xbdbf119c	-0.093295306
235	0xbd8a0018	-0.06738299
236	0xbe3bee41	-0.18352605
237	0xbe60f3ce	-0.21968004
238	0xbdfe418c	-0.12414846
239	0xbdbd685a	-0.09248419
240	0x3b886876	0.0041628433
241	0x3c61cfc2	0.0137824435
242	0xbd019a90	-0.031641543
243	0x3db4b897	0.0882427
244	0xbd394063	-0.04522742
245	0xbe39e41b	-0.18153422
246	0xbe35cd15	-0.17754014
247	0xbe089534	-0.13338166
248	0xbbc795d7	-0.0060908603
249	0xbd8c1495	-0.06839863
250	0xbdf0f570	-0.117655635
251	0xbc84306e	-0.016136374
252	0x3d5918bd	0.053002108
253	0x3bb7e12d	0.00561156
254	0xbdacff0c	-0.08447084
255	0xbbac8e42	-0.005265982

3.bias f4 [64]
0	0xbc85cc46	-0.016332757
1	0x3bb4ad51	0.005513825
2	0x3c7e604f	0.015525891
3	0xbcdd0d58	-0.026983902
4	0x3c66ab2c	0.0140788965
5	0xbb5d01c0	-0.0033722967
6	0x3ca2ed2c	0.019888483
7	0xbb874507	-0.0041281017
8	0x3c96f602	0.018427853
9	0x3a44abe1	0.00075024186
10	0xbcbf22d4	-0.023332037
11	0x3b01913b	0.0019770402
12	0x3c8d6370	0.01725933
13	0x3c1665e8	0.00917957
14	0xbcbc97bc	-0.023021571
15	0x3c6a39c8	0.014296003
16	0x3c8e89f0	0.017399758
17	0x3a92b66a	0.001119328
18	0xbcc317fa	-0.023815144
19	0xbc39038c	-0.01129235
20	0xbc9dd758	-0.019267723
21	0x3a13a14c	0.000563164
22	0xbcc7934c	-0.024362229
23	0x3c736664	0.014855955
24	0x3caa80f4	0.020813443
25	0xbc8997ea	-0.016796071
26	0xbb1feeae	-0.0024403739
27	0xbb5781c6	-0.0032883747
28	0x3c604af5	0.013689746
29	0xbc31e1f8	-0.010857098
30	0xbc0a9480	-0.008458257
31	0x3b8b9a05	0.004260304
32	0xbc907f0a	-0.017638702
33	0xbc60c164	-0.013717983
34	0xbc6a68fa	-0.014307255
35	0x3cd780d0	0.02630654
36	0x3bd407e9	0.0064706695
37	0xbcfc36d4	-0.030787863
38	0xbcba0df6	-0.022711735
39	0x3a70bf7a	0.00091838057
40	0xbcc319ca	-0.023816008
41	0xbc33dd92	-0.010978119
42	0x3cbb9f78	0.022903189
43	0x3cf0f026	0.029411387
44	0x3c67e7a0	0.014154345
45	0x3bfbdd0c	0.007686263
46	0xbb91057c	-0.0044257026
47	0xbc8ce35e	-0.01719826
48	0xbc859f20	-0.016311228
49	0x3cfe023a	0.031006921
50	0x3b3dbc8a	0.002895149
51	0x3ccec660	0.025241077
52	0xbc59a7f8	-0.013284676
53	0x3cb8cede	0.02255958
54	0x3a9e2688	0.0012065927
55	0x3c42f378	0.011898868
56	0x3c5d2a80	0.013498902
57	0xbc61db88	-0.0137852505
58	0x3c709fbc	0.014686521
59	0xba92a32c	-0.0011187545
60	0xbcd705f2	-0.026247952
61	0x3c9581b8	0.018250331
62	0x3c976638	0.018481359
63	0x3c9bacfe	0.019003388

4.weight f4 [64]
0	0x3fb4446c	1.4083381
1	0x3f794a27	0.9737877
2	0x3f5d6ede	0.86497295
3	0x3fd3421c	1.650455
4	0x3f45c51f	0.7725391
5	0x3fac63ed	1.3467995
6	0x3f5e79fd	0.8690489
7	0x3dad987d	0.084763505
8	0x3ebee020	0.3728037
9	0x3f31fce5	0.6952651
10	0x3f897a3b	1.0740427
11	0x3f463f31	0.7744017
12	0x3f808a61	1.004223
13	0x3ea179a0	0.31538105
14	0x3f36800c	0.71289134
15	0x3f77fe1b	0.9687211
16	0x3f3f5127	0.74733204
17	0x3f1a5eff	0.603012
18	0x3fa765c9	1.3077937
19	0x3f9b00e9	1.2109653
20	0x3f2b5b09	0.66935784
21	0x3f5e7250	0.8689318
22	0x3f676056	0.9038137
23	0x3f5fbea4	0.8740027
24	0x3f6bfbb4	0.92180943
25	0x3fa6fefe	1.3046567
26	0x3f03c8e0	0.51478386
27	0x3fa53312	1.290621
28	0x3f499de1	0.7875653
29	0x3f235785	0.6380542
30	0x3f65f733	0.8983032
31	0x3f878037	1.0586003
32	0x3f984ca9	1.1898395
33	0x3f83ee1c	1.030704
34	0x3f84b8e7	1.0368928
35	0x3f466f96	0.77514017
36	0x3f64b876	0.89343965
37	0x3f658fa6	0.89672315
38	0x3ea3365f	0.3187742
39	0x3f55d4f0	0.8352804
40	0x3f112151	0.5669146
41	0x3f5b9fe1	0.8579083
42	0x3f4113bf	0.75420755
43	0x3f5ea551	0.86971
44	0x3f5f0283	0.8711321
45	0x3f25289a	0.6451508
46	0x3f926cbd	1.1439434
47	0x3f292f8d	0.6608818
48	0x3f9fd95d	1.2488209
49	0x3fa345bd	1.2755657
50	0x3f4294b1	0.76008135
51	0x3f1d6f44	0.614979
52	0x3f355594	0.70833707
53	0x3f46a0a8	0.7758889
54	0x3f87a268	1.0596437
55	0x3f2f3afc	0.6844938
56	0x3f17570b	0.5911719
57	0x3f5c0aa8	0.8595376
58	0x3f878b69	1.058942
59	0x3fc62a83	1.5481724
60	0x3f934ac6	1.1507194
61	0x3f7a96d4	0.97886395
62	0x3f27651c	0.65388656
63	0x3faf340d	1.368776

4.bias f4 [64]
0	0xbf9bd780	-1.217514
1	0xbf7d1278	-0.98856306
2	0xbf02624d	-0.50931245
3	0xbfeb5571	-1.838545
4	0xbf98fdf5	-1.1952502
5	0xbfad0be4	-1.3519254
6	0xbe4d7dfb	-0.20067589
7	0xbf1f0057	-0.62109894
8	0x3e3c5c16	0.18394503
9	0xbe6e5b44	-0.23277003
10	0xbf830cc7	-1.0238274
11	0xbf20bbcc	-0.62786555
12	0xbf3bc2a5	-0.7334388
13	0xbf687bbf	-0.9081382
14	0x399b0fb3	0.000295756
15	0xbef8e204	-0.48609936
16	0xbea49fb0	-0.32153082
17	0xbe1c1af7	-0.15244661
18	0xbfe0ac68	-1.7552614
19	0xbf7ef16e	-0.9958714
20	0xbe83f73f	-0.2577457
21	0xbf17c6b2	-0.5928756
22	0xbedb8fdc	-0.42883193
23	0xbf11c94a	-0.5694777
24	0xbf4e1534	-0.80501103
25	0xbfd4b3de	-1.6617391
26	0xbdb4ebfb	-0.08834072
27	0xbfcf29a6	-1.6184585
28	0xbf3e480f	-0.743287
29	0xbe966be6	-0.29379195
30	0xbf326dc3	-0.69698733
31	0xbf3f205f	-0.7465877
32	0xbf7a778b	-0.9783866
33	0xbf7cde59	-0.98776776
34	0xbf31d0f4	-0.6945946
35	0xbeabe95b	-0.33576474
36	0xbf307359	-0.68926007
37	0xbee38ad7	-0.44441864
38	0x3dee0649	0.116222925
39	0xbf1b78fa	-0.6073147
40	0xbe3b6c42	-0.18303016
41	0xbe7ac1e3	-0.24488024
42	0xbf1e0714	-0.6172955
43	0xbed2a312	-0.41140038
44	0xbf030dd7	-0.5119299
45	0xbe93506d	-0.28772298
46	0xbfafc4a1	-1.3731881
47	0xbddb05d3	-0.1069447
48	0xbfd896a4	-1.6920972
49	0xc0108e14	-2.2586718
50	0xbe04a47f	-0.12953375
51	0xbd858f24	-0.065214425
52	0xbe9a6e8e	-0.30162472
53	0xbec2fd48	-0.38083863
54	0xbf1ab933	-0.6043884
55	0xbf08725a	-0.53299487
56	0xbe2ef59c	-0.1708588
57	0xbfa38226	-1.2774093
58	0xbe99277c	-0.29912937
59	0xbfa1da2d	-1.2644707
60	0xbf8f7d42	-1.1210101
61	0xbee7ba11	-0.45259145
62	0xbe87f0b0	-0.26550817
63	0xbfb05cab	-1.377828

6.weight f4 [64, 64, 4, 4]
0	0xbe1d631e	-0.15369841
1	0x3c8341ff	0.01602268
2	0xbd7d8596	-0.061894976
3	0x3c8eedaf	0.01744732
4	0x3da6d852	0.081467286
5	0x3e39dfcd	0.1815178
6	0xbe010312	-0.12598827
7	0xbd346b8c	-0.044047877
8	0xbd914084	-0.070923835
9	0xbe044279	-0.12915982
10	0xbdfd5e09	-0.123714514
11	0xbdaba0f4	-0.08380309
12	0x3d36d393	0.044635367
13	0xbe4e876d	-0.20168848
14	0xbde2011c	-0.11035368
15	0x3df0baee	0.11754404
16	0xbe36b82c	-0.17843693
17	0xbe2e9927	-0.1705061
18	0x3a97d36a	0.0011583392
19	0x3d1daa9b	0.03849278
20	0xbdf80449	-0.12110192
21	0xbe1a7180	-0.1508236
22	0x3e186ab1	0.1488445
23	0x3e499b79	0.19688214
24	0xbd46893f	-0.04847073
25	0xbba42456	-0.0050092144
26	0x3c833924	0.016018458
27	0x3e29854e	0.16554758
28	0x3db1b7c0	0.08677626
29	0x3e03241d	0.12806745
30	0x3d85fc3c	0.065422505
31	0xbdead7ca	-0.1146694
32	0x3e1ca585	0.15297516
33	0x3e3fa0f7	0.18713747
34	0x3dfd91a5	0.12381295
35	0xbd0d1688	-0.034445316
36	0x3c42385c	0.011854257
37	0x3ea55e1b	0.3229836
38	0x3e675554	0.22591144
39	0x3e4b1873	0.19833545
40	0x3d153a59	0.036432598
41	0xbd49760f	-0.049184855
42	0x3b530c5a	0.0032203407
43	0xbbd47a79	-0.0064843264
44	0xbe15506e	-0.14581463
45	0xbd3f0dd9	-0.046644066
46	0xbda918fb	-0.08256718
47	0x3e85b196	0.2611205
48	0xbd31bca5	-0.043392796
49	0xbdbd3b47	-0.09239822
50	0x3cf04ca2	0.029333416
51	0x3d202103	0.039093982
52	0xbe60bf12	-0.21947888
53	0xbde4d77a	-0.111739114
54	0x3c42fdb5	0.011901309
55	0x3dbf9ece	0.093564615
56	0xbd7693fb	-0.06019972
57	0xbe201dc3	-0.15636353
58	0x3d8d4aa9	0.06899006
59	0x3e3f5301	0.18684007
60	0x3dc55943	0.09636166
61	0x3d933c21	0.07189203
62	0x3d8406a7	0.06446581
63	0x3d93f0fd	0.07223699
64	0xbe2dfbf0	-0.16990638
65	0xbe285566	-0.16438827
66	0xbe601551	-0.21883132
67	0xbd7ede9a	-0.06222401
68	0x3d511b95	0.051051695
69	0xbba3b420	-0.004995838
70	0xbe44ba62	-0.19211724
71	0xbc5a3764	-0.01331887
72	0x3e481d6a	0.1954247
73	0x3e410009	0.1884767
74	0x3dce2678	0.10065931
75	0xbc5ce886	-0.013483172
76	0x3e388441	0.18019201
77	0x3e35e819	0.1776432
78	0x3d99d2db	0.075109206
79	0xbe4490d2	-0.1919587
80	0xbe06522c	-0.13117284
81	0x3d50c65e	0.050970428
82	0xbd094c6d	-0.03352015
83	0xbd94e094	-0.072693974
84	0xbdc5855d	-0.09644578
85	0x3da98da6	0.082789704
86	0x3e192cd0	0.14958501
87	0x3cf1a46e	0.029497351
88	0xbdd80d88	-0.10549456
89	0x3da60b8d	0.08107672
90	0x3cf83029	0.030296402
91	0x3cecb5a0	0.0288952
92	0xbe76af08	-0.24090207
93	0xbdddae7d	-0.108242966
94	0xbd755074	-0.05989118
95	0xbe099924	-0.13437325
96	0x3be3bf41	0.0069502895
97	0xbda3643c	-0.079781026
98	0xbcf4ad4c	-0.02986779
99	0x3c95d8de	0.018291887
100	0x3e5b9eca	0.21447292
101	0x3e3a219d	0.18176885
102	0x3e8f8cb8	0.28037047
103	0x3e5b40ea	0.21411481
104	0x3e3b9108	0.18317044
105	0x3e08c1c5	0.13355167
106	0x3e993a8b	0.29927477
107	0x3e775d4b	0.24156682
108	0xbe8f59c0	-0.2799816
109	0x3c7d91c1	0.015476645
110	0x3d97f77a	0.07420249
111	0x3e6a9f2d	0.22912283
112	0x3c9a3a76	0.018826704
113	0x3b3beca9	0.0028674996
114	0xbd5bdddc	-0.05367838
115	0xbd48fb00	-0.049067497
116	0xbd48ebec	-0.049053118
117	0x3c3e179c	0.011602309
118	0xbbc4772e	-0.0059956526
119	0x3d3164d5	0.04330905
120	0xba7cb916	-0.0009640617
121	0x3d186f79	0.037215684
122	0x3cbaca4e	0.022801545
123	0x3d4f6cee	0.050640993
124	0xbc20b72a	-0.009809295
125	0xba362dbc	-0.0006949564
126	0xbbb9d152	-0.005670705
127	0xbb4d2d35	-0.0031307463
128	0xbe5b77c9	-0.21432413
129	0xbdfb8885	-0.122818984
130	0xbeb35f91	-0.3503385
131	0xbe22586d	-0.15854044
132	0x3deba8bc	0.11506793
133	0x3e79750f	0.2436106
134	0xbdb97581	-0.09055615
135	0xbe473131	-0.19452359
136	0x3df2dbcc	0.11858329
137	0x3e60e1f9	0.21961202
138	0x3e98d22e	0.29847854
139	0x3dbb1b20	0.09136033
140	0xbd867acc	-0.065663904
141	0x3dee95fe	0.116497025
142	0x3dca16dc	0.09867641
143	0x3cc82366	0.024430942
144	0x3d689407	0.056781795
145	0x3e338231	0.17530133
146	0x3d4a260f	0.0493527
147	0x3d1f4cbe	0.038891546
148	0x3df6952f	0.12040173
149	0x3eace3fa	0.33767682
150	0x3e7feb4d	0.24992104
151	0x3e5e6d05	0.21721275
152	0xbcd0e8a2	-0.025501553
153	0x3ea876bf	0.32903096
154	0x3e528215	0.20557435
155	0x3dd41455	0.103554405
156	0xbd50c0a1	-0.050964955
157	0x3d5c99f7	0.05385777
158	0xbcfccdc6	-0.03085984
159	0x3d4a3e67	0.049375918
160	0xbdbd8d4d	-0.092554666
161	0xbf01542f	-0.5051908
162	0xbebf7cfc	-0.37400043
163	0xbe847ef7	-0.25878116
164	0xbe0d2523	-0.13783698
165	0xbe882f3d	-0.2659854
166	0xbdfd9786	-0.123824164
167	0xbda36d42	-0.07979824
168	0x3cb09d07	0.021559251
169	0xbd1c9e78	-0.038237065
170	0x3dd2fcc7	0.1030212
171	0x3e072e8b	0.13201348
172	0xbc0a7bed	-0.008452398
173	0x3e169e51	0.1470883
174	0x3ce76aeb	0.028249225
175	0xbbe675fa	-0.007033107
176	0xbcd64eba	-0.026160587
177	0x3dacb887	0.08433633
178	0x3cec6b54	0.028859772
179	0x3d41740e	0.04722982
180	0xbe3d18f4	-0.1846655
181	0x3bdd3394	0.0067505334
182	0xbd88fd07	-0.06688886
183	0xbe29d895	-0.16586526
184	0xbde5a58a	-0.11213215
185	0xbe2c7dda	-0.16844884
186	0xbde01f8f	-0.10943519
187	0xbe5c0ae5	-0.21488531
188	0x3d82256c	0.06354794
189	0xbdef9aab	-0.116994224
190	0xbd002157	-0.031281795
191	0xbdf39fb4	-0.11895695
192	0xbe4bbc63	-0.19896083
193	0xbddb1e6f	-0.10699164
194	0xbe4fa4c2	-0.20277694
195	0xbe73a1f2	-0.23792246
196	0x3e01d210	0.12677789
197	0xbe4fe1c6	-0.2030097
198	0xbe516f8e	-0.20452711
199	0xbd60dd1e	-0.054898374
200	0xbc8bb8e8	-0.017055944
201	0x3eae2358	0.3401134
202	0x3e497719	0.19674338
203	0x3dad52d3	0.08463063
204	0x3e21f12c	0.15814656
205	0x3ec1453f	0.37748143
206	0x3e32fbe3	0.174789
207	0x3e509135	0.20367892
208	0xbc17e69c	-0.00927129
209	0xbccd4762	-0.025058452
210	0xbcddff2b	-0.027099213
211	0xbd4d2029	-0.0500795
212	0xbbfd63a6	-0.0077328263
213	0xb9af0060	-0.0003337888
214	0xbdd5f674	-0.10447398
215	0xbd03627d	-0.032076348
216	0x3d3dcb24	0.046336308
217	0x3cef196a	0.029186923
218	0xbd1c4a2c	-0.038156673
219	0xbc18f5c1	-0.009335936
220	0x3c87c143	0.016571647
221	0xbd03c686	-0.03217175
222	0x3c52217c	0.012825366
223	0xbcce4358	-0.025178596
224	0xbe2ab2cf	-0.16669773
225	0x3ddb71ea	0.10715087
226	0x3e56e5e9	0.20986141
227	0x3e4c7bd3	0.1996911
228	0xbd47302e	-0.048629932
229	0x3d9d7145	0.0768762
230	0xbd64b1da	-0.055833675
231	0x3e82acf1	0.2552257
232	0xbdf6c578	-0.12049383
233	0xbd8967d9	-0.067092605
234	0xbe5f3b67	-0.21800004
235	0xbdaf4ff5	-0.085601725
236	0xbcc056f0	-0.023478955
237	0x3d68938c	0.056781337
238	0xbdf2bbf0	-0.118522525
239	0xbcf47fc3	-0.029846078
240	0xbe87a2e4	-0.26491463
241	0x3d85eb0e	0.06538974
242	0x3d3c98de	0.046044223
243	0x3ce6ffad	0.028198088
244	0xbe40afc9	-0.18817057
245	0x3c2872bd	0.010281262
246	0xbc02698b	-0.007959734
247	0x3c97c806	0.018527996
248	0xbe36513a	-0.17804423
249	0x3d8f32e3	0.06992128
250	0x3da45bee	0.08025347
251	0x3e1370ad	0.14398451
252	0xbd747131	-0.05967826
253	0x3d91d4e1	0.071206816
254	0x3e91b86e	0.2846102
255	0x3db8f199	0.09030456

6.bias f4 [64]
0	0x3cb7e802	0.022449497
1	0xbcbf40da	-0.023346353
2	0x3bf8521b	0.007578147
3	0x3ccf8f8a	0.025337
4	0xbb9e16fb	-0.004824517
5	0x3cad3850	0.021145016
6	0xbc5b0f52	-0.013370352
7	0xbccf1924	-0.025280543
8	0xbc587486	-0.013211375
9	0xbc65a04d	-0.0140152695
10	0x3c3b3464	0.011426065
11	0x3ce77d41	0.028257968
12	0xbccb1de2	-0.024794523
13	0x3cac5bd7	0.021039886
14	0xbcc9c8b9	-0.024631845
15	0x3cacedab	0.021109423
16	0x3cb6fc7a	0.022337187
17	0xbcb1fc8c	-0.021726869
18	0x3ca45e03	0.02006436
19	0x3a5c4c1b	0.00084036746
20	0xbbff3a46	-0.007788929
21	0x3c1ad98e	0.009451283
22	0x3cd6edb7	0.026236398
23	0xbc1417f2	-0.009038912
24	0xbcb9683a	-0.022632707
25	0xbc7485ed	-0.0149245085
26	0xbc52a1fe	-0.012856005
27	0xbc01a9e5	-0.007914041
28	0xbb6fe178	-0.0036602896
29	0x3c8ed654	0.017436184
30	0xbc4c463e	-0.012467919
31	0xbcd0f5ae	-0.025507774
32	0xbc6f2120	-0.0145953
33	0xbc51aedc	-0.012798037
34	0x3ccd05d5	0.025027195
35	0x3c3cd3f2	0.011525141
36	0x3c36e43a	0.011162812
37	0xbc8dedaf	-0.01732525
38	0xbc358536	-0.011079123
39	0x3c10a99b	0.0088295
40	0xbce2366d	-0.027613843
41	0x3c92b471	0.017908307
42	0xbca383ac	-0.019960247
43	0xbbc84d80	-0.0061127543
44	0x3c6e990e	0.014562858
45	0x3cba45fa	0.022738446
46	0x3c4f6db2	0.012660431
47	0xbc275674	-0.010213483
48	0xba13d75b	-0.00056396954
49	0xbc9536c5	-0.018214593
50	0x3c96a777	0.0183904
51	0xbc8025f6	-0.015643101
52	0xbac13a3b	-0.0014742085
53	0x3c96af0c	0.018394016
54	0x3c5cd95d	0.013479558
55	0x3c5c6776	0.013452401
56	0xbca14a3a	-0.019688714
57	0x3ce5da5b	0.028058222
58	0xbc3db7cd	-0.011579466
59	0xbca8cf03	-0.020606523
60	0x3c65edf5	0.014033784
61	0x3cca6114	0.024704494
62	0xbcc463d8	-0.02397339
63	0xbbe38b76	-0.0069441153

7.odefunc.norm1.weight f4 [65]
0	0x3ffbe981	1.9680635
1	0x3fd93df6	1.6972034
2	0x40045b9a	2.068091
3	0x3fc9b6a0	1.5758858
4	0x3ff5d35d	1.9205128
5	0x400728e6	2.1118712
6	0x3ff7bef4	1.9355149
7	0x3ff5c0fd	1.919952
8	0x40247857	2.569845
9	0x40100661	2.2503893
10	0x4003b8ee	2.0581622
11	0x400ddc96	2.2165885
12	0x4002828c	2.039218
13	0x40008588	2.00815
14	0x3fe9c95e	1.8264577
15	0x3fee6ab2	1.8626311
16	0x3fc64a8e	1.5491502
17	0x400e8b40	2.2272491
18	0x401fef7d	2.4989922
19	0x3fd3c423	1.6544231
20	0x400cc177	2.1993082
21	0x3ff870bb	1.9409403
22	0x401a854c	2.4143858
23	0x3feb4914	1.8381677
24	0x3ffdf358	1.9839888
25	0x402b5eb5	2.6776555
26	0x3ffd1e38	1.9774847
27	0x401ef2af	2.4835622
28	0x3fff6fcb	1.9955992
29	0x401c417c	2.4414968
30	0x3fffc79a	1.9982789
31	0x40017610	2.022831
32	0x3ff0e582	1.882004
33	0x3fe57154	1.792521
34	0x400eb0e8	2.2295475
35	0x400aee7c	2.170806
36	0x400e885e	2.2270732
37	0x40006982	2.0064397
38	0x3fe05e7c	1.7528834
39	0x3ff5a848	1.919198
40	0x40006d5e	2.0066752
41	0x40178bd3	2.3679092
42	0x3ff47997	1.9099606
43	0x3fdeaddd	1.7396809
44	0x3fe39fc1	1.7783128
45	0x3fed90b0	1.855978
46	0x4003d972	2.0601468
47	0x401af042	2.4209142
48	0x40053f25	2.081979
49	0x400b727e	2.178863
50	0x3fff90cf	1.9966067
51	0x3fcb0c26	1.5863082
52	0x400d8f79	2.2118819
53	0x3fe135d8	1.7594557
54	0x400bfaa6	2.1871734
55	0x40134013	2.3007858
56	0x4002c18f	2.0430639
57	0x3ff6c784	1.9279637
58	0x401ab2c5	2.4171612
59	0x4007f6fe	2.1244502
60	0x3fdea128	1.7392931
61	0x4000e9c8	2.0142689
62	0x4010b85f	2.261253
63	0x3fe338fe	1.7751768
64	0x3fd5a191	1.6689931

7.odefunc.norm1.bias f4 [65]
0	0xbe71d35d	-0.23615785
1	0xbec1bdba	-0.37840062
2	0xbe558614	-0.20851928
3	0x3ed23eb7	0.41063473
4	0x3e7ee95b	0.24893706
5	0xbe0c799c	-0.13718265
6	0x3e2e6fd8	0.17034853
7	0xbf0bdfc8	-0.5463834
8	0xbf85d166	-1.0454528
9	0xbf63fe92	-0.8906032
10	0xbf3f72d9	-0.7478462
11	0xbf2b3fba	-0.66894114
12	0xbf265a4a	-0.6498152
13	0xbefb9d96	-0.49143666
14	0xbef5f479	-0.4803808
15	0xbefd102c	-0.494264
16	0xbd11ad42	-0.035565622
17	0xbeb65372	-0.3561054
18	0xbfe857ba	-1.8151772
19	0xbe475c18	-0.19468725
20	0x3eec08a5	0.46100345
21	0xbe6f58bb	-0.23373692
22	0xbfb6fc8f	-1.4295825
23	0x3dbd6573	0.092478655
24	0x3dc3155c	0.09525558
25	0xbea80c69	-0.32821968
26	0xbe6edd59	-0.23326625
27	0xbfa605dd	-1.2970539
28	0xbf9dee33	-1.2338318
29	0xbfc0c122	-1.505894
30	0x3e31aa3b	0.17350094
31	0xbf858a37	-1.0432805
32	0x3d86d2ea	0.065831974
33	0x3ee14b6e	0.4400286
34	0xbf85c200	-1.0449829
35	0xbf0d7811	-0.5526133
36	0xbf831af5	-1.0242602
37	0xbf3e3fef	-0.74316305
38	0xbf19f076	-0.6013254
39	0xbf8afdb2	-1.0858672
40	0x3ecdd3fb	0.4020079
41	0xbf8492e1	-1.0357324
42	0x3e4fb8f1	0.20285393
43	0x3ea27e92	0.3173719
44	0x3e0b5e99	0.13610305
45	0xbe02baab	-0.1276652
46	0xbf20f9a9	-0.6288095
47	0xbe49b6bb	-0.19698612
48	0xbf060a0d	-0.52359086
49	0x3f343b18	0.7040267
50	0xbe6e57eb	-0.23275726
51	0x3f4722d4	0.7778752
52	0xbf8eb6d8	-1.114955
53	0x3f186489	0.59528404
54	0xbf133a3f	-0.5751075
55	0xbf449e34	-0.768039
56	0xbf846dbf	-1.0345992
57	0xbe9fa39f	-0.3117952
58	0x3ee981c0	0.45606804
59	0xbdafd1af	-0.08584916
60	0xbe55a447	-0.20863448
61	0xbe01f710	-0.12691903
62	0xbf2e99d0	-0.6820345
63	0xbd7e8f1a	-0.06214819
64	0xbfbcf0b7	-1.476096

7.odefunc.conv1._layer.weight f4 [65, 66, 3, 3]
0	0xbcd6818e	-0.026184823
1	0xbd342177	-0.043977227
2	0x3d32edff	0.043684002
3	0xbc5a3c33	-0.013320017
4	0x3d174ef7	0.03694054
5	0x3d2f696b	0.042825144
6	0xbc6fdc68	-0.014639951
7	0x3d15d783	0.03658248
8	0x3d78fd10	0.060788214
9	0x3d7801a7	0.06054845
10	0x3eb89004	0.36047375
11	0x3e754d4d	0.23955269
12	0x3ceb56d1	0.02872792
13	0x3c933223	0.017968243
14	0xbc8869cb	-0.016652009
15	0x3dff374c	0.12461719
16	0x3d2797fd	0.04091643
17	0xbca3242f	-0.019914715
18	0x3cc0976e	0.023509707
19	0xbd7bc1f6	-0.061464272
20	0xbd8b3183	-0.06796553
21	0x3e83094a	0.25593024
22	0xbc6530a1	-0.013988645
23	0xbca00c3a	-0.01953708
24	0x3e18a575	0.14906867
25	0x3e7b30b5	0.24530299
26	0x3e92b403	0.28652963
27	0xbe46608b	-0.19372766
28	0xbe3c7098	-0.18402326
29	0xbd983de0	-0.07433677
30	0x3cc9fa1d	0.024655396
31	0x3ceadbcf	0.028669266
32	0xbe614d14	-0.22002059
33	0xbd73970b	-0.059470218
34	0xbb1d07b2	-0.0023960886
35	0xbd5ea996	-0.05436095
36	0x3e3e8356	0.18604788
37	0xbe73fdd6	-0.238273
38	0xbca07221	-0.01958567
39	0x3e5393e5	0.20661886
40	0x3e8596f6	0.26091737
41	0xbc409cb6	-0.011756113
42	0x3c03ec70	0.008051977
43	0x3e87cc9b	0.2652329
44	0x3e43f5aa	0.19136682
45	0xbe250e43	-0.16118722
46	0xbe3ee378	-0.1864146
47	0x3d285228	0.041093975
48	0xbe9826c8	-0.29717088
49	0xbdb4e215	-0.08832184
50	0xbda81ae7	-0.08208256
51	0xbd2db0aa	-0.042404808
52	0x3e10b8a6	0.14132938
53	0x3e8c1f4f	0.27367637
54	0x3eafb57b	0.34318146
55	0x3e013d2a	0.12620988
56	0xbd860565	-0.06543998
57	0x3e3ec405	0.18629463
58	0x3e345058	0.17608774
59	0xbe548348	-0.20753205
60	0x3e6ff864	0.23434597
61	0xbe8f03b7	-0.27932522
62	0xbefe2427	-0.49636957
63	0x3d8d98d1	0.06913913
64	0x3d0968da	0.03354726
65	0xbe73295f	-0.2374625
66	0x3ef405a2	0.47660547
67	0xbe2e70a6	-0.1703516
68	0x3de7319d	0.1128876
69	0x3e003044	0.12518412
70	0x3e76c4cb	0.24098508
71	0x3ed781b4	0.42091143
72	0xbde5a639	-0.11213345
73	0xbd9a73e3	-0.07541635
74	0xbdbeff99	-0.09326095
75	0xbd7fdfdc	-0.06246935
76	0x3e3c1d68	0.18370593
77	0xbce8376c	-0.02834674
78	0x3dc7c7bd	0.09754894
79	0xbd5f01e9	-0.05444518
80	0x3eda1624	0.42595017
81	0x3c324bd8	0.01088234
82	0xbeb4c634	-0.35307467
83	0xbeaa55bc	-0.33268535
84	0xbe215c36	-0.15757832
85	0xbd305d6f	-0.043057855
86	0xbed58846	-0.4170553
87	0x3e341c2a	0.17588869
88	0x3de58f40	0.112089634
89	0xbe4624e8	-0.19350016
90	0x3d399737	0.045310225
91	0xbe374ee0	-0.17901182
92	0xbe5dee5c	-0.21672958
93	0xbdffcff8	-0.12490839
94	0x3e912e29	0.2835553
95	0x3ea5d59f	0.32389542
96	0xbd6c7cdf	-0.057736274
97	0xbe2c762c	-0.16841954
98	0x3e1eb102	0.1549721
99	0xbe3f85fa	-0.18703452
100	0x3e57676b	0.21035545
101	0x3d4d3036	0.050094806
102	0xbe1f0c3d	-0.15532012
103	0x3f535b0b	0.82560796
104	0x3dd2ef11	0.102995045
105	0xbcb01763	-0.021495527
106	0xbf06dc8e	-0.5268029
107	0x3bd0fb01	0.0063775782
108	0xbd09e4fa	-0.033665635
109	0xbd975a95	-0.07390324
110	0xbe4056ef	-0.18783163
111	0xbdfcd593	-0.123454235
112	0xbe94e51f	-0.29081056
113	0xbe2c1e87	-0.1680852
114	0xbca996e2	-0.02070183
115	0x3d35d64b	0.04439382
116	0x3e1163c1	0.1419821
117	0xbe8c2921	-0.2737513
118	0x3d051c95	0.03249796
119	0x3dfce606	0.12348561
120	0x3e1ca922	0.15298894
121	0x3e809f97	0.25121757
122	0x3d434954	0.047677353
123	0xbddc6a56	-0.107624695
124	0xbd42e39b	-0.047580343
125	0xbe06d89f	-0.13168572
126	0xbf127984	-0.5721667
127	0xbe2fdcfc	-0.17174143
128	0xbc9eb844	-0.019374974
129	0x3ea49bfb	0.32150254
130	0xbd854de2	-0.065089956
131	0xbe9d67a2	-0.30743128
132	0xbe79f996	-0.24411616
133	0xbe459c49	-0.192979
134	0xbede6f4a	-0.43444282
135	0x3c7083fb	0.014679904
136	0x3e35c790	0.17751908
137	0xbe54ae61	-0.20769645
138	0xbd821a03	-0.063526176
139	0x3e628cc1	0.22124006
140	0x3e26737f	0.16254996
141	0x3db8fb0c	0.090322584
142	0xbd3e2dde	-0.04643046
143	0x3ee407d1	0.44537213
144	0xbc8f1ce8	-0.017469838
145	0x3e228f23	0.15874915
146	0x3c0a2326	0.008431232
147	0xbb51d255	-0.0032016237
148	0x3d58c721	0.05292428
149	0x3d4076f7	0.046988454
150	0x3dc86e0a	0.09786613
151	0x3de83085	0.11337379
152	0x3e599c93	0.21251135
153	0xbe6a09c5	-0.2285529
154	0xbdaa5bb3	-0.083182715
155	0xbda60d1e	-0.08107971
156	0x3e7ed623	0.24886374
157	0x3e96edc6	0.29478282
158	0xbcad5dc9	-0.021162884
159	0x3e52371d	0.20528837
160	0x3eda2ebe	0.42613786
161	0xbbc669bf	-0.0060550864
162	0x3d2e2943	0.04251982
163	0x3e2b84c3	0.16749863
164	0xbe8a1543	-0.26969346
165	0xbe4c2325	-0.19935282
166	0x3e066231	0.13123395
167	0xbb276824	-0.002554425
168	0xbe833a12	-0.25630242
169	0xbe360c69	-0.17778172
170	0xbd6de2b9	-0.058077548
171	0xbeba8184	-0.36426938
172	0x3e105ddd	0.14098306
173	0xbdcfed52	-0.10152687
174	0x3f0d1783	0.55114
175	0x3e14381f	0.14474533
176	0x3c098575	0.008393635
177	0x3e4c90bd	0.19977088
178	0xbe279a34	-0.16367418
179	0xbe478cdc	-0.19487327
180	0xbe8f2f99	-0.27966002
181	0x3cec5fdb	0.028854301
182	0xbba765d0	-0.0051085725
183	0x3ba60940	0.0050670207
184	0xbe1b7e0a	-0.15184799
185	0xbe8c6eb1	-0.274282
186	0x3ea60132	0.32422787
187	0x3e00cbca	0.1257774
188	0xbe6d95fc	-0.23201746
189	0x3c0af6a5	0.008481656
190	0xbf0334db	-0.51252526
191	0xbd72e5a0	-0.05930102
192	0x3dbcd6b8	0.09220642
193	0xbe59391e	-0.21213195
194	0x3e53d57c	0.20686907
195	0x3ead311f	0.3382654
196	0x3d815148	0.06314331
197	0x3e1e222f	0.15442728
198	0x3de01fa3	0.10943534
199	0xbe95f4f3	-0.29288444
200	0xbed0ab82	-0.4075585
201	0xbcddb21a	-0.027062465
202	0x3da2882e	0.079361305
203	0xbeb46f82	-0.35241324
204	0x3e4655b5	0.19368632
205	0x3e3826dd	0.17983575
206	0xbdf7fcbe	-0.121087536
207	0x3d2799a8	0.040918022
208	0x3d8f0170	0.06982696
209	0x3e0e2df5	0.13884719
210	0xbe3c163f	-0.18367861
211	0xbeb842a8	-0.35988355
212	0xbdaac6dd	-0.083387114
213	0x3c571e85	0.013129835
214	0xbe9846a6	-0.297414
215	0xbe605c92	-0.21910313
216	0x3e245d43	0.16051202
217	0xbe81d56a	-0.25358135
218	0xbe841998	-0.25800776
219	0x3dca6ff2	0.09884633
220	0x3e2fac35	0.17155536
221	0xbdf0880c	-0.11744699
222	0x3db44598	0.088023365
223	0xbb5ee86e	-0.003401305
224	0xbe8fcbe3	-0.2808524
225	0x3ec285ee	0.37992805
226	0x3e1f57fe	0.1556091
227	0x3d470a8d	0.048594046
228	0x3dbb3a22	0.09141947
229	0xbd949d33	-0.07256546
230	0x3cfc370c	0.030787967
231	0x3dab6f24	0.08370808
232	0x3e119d06	0.14220056
233	0x3ce83824	0.028347082
234	0xbeaeaa88	-0.3411448
235	0x3e0b90e8	0.13629496
236	0x3e9f3db5	0.31101766
237	0xbe6a7a6c	-0.22898263
238	0xbd99bcaa	-0.07506688
239	0x3ebdaf35	0.37047735
240	0x3dc4ffa2	0.096190706
241	0xbe0e9f5b	-0.13927977
242	0x3da69151	0.08133186
243	0x3ea8dc2e	0.32980484
244	0x3dcc6d8c	0.09981832
245	0xbe93b9d0	-0.288527
246	0x3eed5a91	0.4635816
247	0x3e9d57a1	0.30730918
248	0xbc19478c	-0.009355437
249	0x3cd8ce72	0.026465628
250	0xbd22b196	-0.03972014
251	0xbe280078	-0.16406429
252	0xbdaac6a1	-0.08338667
253	0xbe246f47	-0.16058074
254	0xbd8c586a	-0.06852801
255	0xbdfff4bd	-0.12497852

7.odefunc.conv1._layer.bias f4 [65]
0	0xbcc9cb53	-0.024633085
1	0x3d03cbea	0.03217689
2	0x3c302425	0.010750805
3	0x3ce06b6a	0.027394969
4	0xbcec2cb9	-0.02882992
5	0x3bb22793	0.0054368465
6	0xbd042013	-0.03225715
7	0x3c29479c	0.010332014
8	0xbc3a49f3	-0.01137017
9	0x3c20b48a	0.009808669
10	0xbc2e9d3a	-0.010657603
11	0xbca7aa9c	-0.020467095
12	0xbbe39c9c	-0.0069461595
13	0xbc5f6362	-0.013634535
14	0x3c6efeba	0.014587099
15	0x3cd92020	0.026504576
16	0xbc10ba65	-0.008833502
17	0xbcace732	-0.021106336
18	0xbce758a1	-0.028240504
19	0x3c27f020	0.010250121
20	0xbc82a286	-0.015946638
21	0x3d1585b2	0.036504455
22	0xbc36b9a9	-0.011152663
23	0x3c8e9ad3	0.01740781
24	0xbd021d1f	-0.031766053
25	0x3c032458	0.0080042705
26	0xbc474bd2	-0.012164073
27	0x3c688ca0	0.014193684
28	0xbcc20474	-0.023683764
29	0x3d138f00	0.036025047
30	0xbd0ca20d	-0.03433423
31	0xbcd69911	-0.026196035
32	0xbd0d98de	-0.034569614
33	0xbc0e4546	-0.008683508
34	0x3d02f47c	0.03197144
35	0x3d0cb3f2	0.034351297
36	0x3d267ca3	0.040646207
37	0xbc8ee3f3	-0.017442679
38	0xbb51fd34	-0.003204179
39	0x3d16fb62	0.03686083
40	0xbc6390c3	-0.013889494
41	0x3b7a08a4	0.0038152123
42	0x3cd988de	0.026554521
43	0xbc2fc597	-0.010728261
44	0x3d190660	0.037359595
45	0xbcfa4959	-0.030552553
46	0xbc8ff4d3	-0.017572796
47	0xbb23416c	-0.002491082
48	0x3c971a3d	0.018445129
49	0x3d07fdc4	0.033200994
50	0xbcaaaa28	-0.02083309
51	0xbccf8486	-0.025331747
52	0xbbc33e9d	-0.005958392
53	0xbcd467b2	-0.025928352
54	0x3c0a1184	0.008427028
55	0xbd085cec	-0.033291742
56	0x3baf3095	0.0053463676
57	0xbd1b66a3	-0.03793968
58	0xbc61a7dd	-0.013772932
59	0x3cbc8805	0.023014078
60	0x3cd1aae8	0.02559419
61	0x3d23f084	0.040024295
62	0xbb9e52f4	-0.004831666
63	0x3ca89649	0.020579474
64	0xbce90477	-0.028444512

7.odefunc.norm2.weight f4 [65]
0	0x400f4230	2.2384148
1	0x3fbd4b4d	1.4788605
2	0x3fea86fd	1.8322445
3	0x40071610	2.1107216
4	0x3ff81686	1.9381874
5	0x3fe8c1d9	1.8184158
6	0x400594b8	2.087202
7	0x3fccd45f	1.600231
8	0x3fd4d9d1	1.6628972
9	0x3fc8eb0e	1.5696733
10	0x3fddec07	1.7337655
11	0x4004e0c6	2.076219
12	0x3fe3ee54	1.7807107
13	0x4005b9f2	2.0894742
14	0x3fe6bd01	1.802643
15	0x400c1adc	2.1891394
16	0x3fc73876	1.5564106
17	0x3fe3ed07	1.780671
18	0x40057f3b	2.0858905
19	0x400a78de	2.1636271
20	0x3feb3eaf	1.8378505
21	0x3fcf4fe2	1.6196253
22	0x40122b45	2.283891
23	0x400197e2	2.0248952
24	0x3fe19637	1.7623967
25	0x3fd104e2	1.6329615
26	0x40090b5b	2.141318
27	0x3ff91568	1.9459658
28	0x3fc9413d	1.5723034
29	0x40025715	2.036565
30	0x40001d6b	2.0017955
31	0x40076ec2	2.1161351
32	0x3ffa3663	1.9547848
33	0x4015e87c	2.3423147
34	0x3fe9e8a7	1.8274125
35	0x40004170	2.003994
36	0x3fd5309e	1.6655462
37	0x3ff9e29c	1.9522281
38	0x3fcfe256	1.6240947
39	0x3ff20e82	1.8910677
40	0x3fdad66d	1.7096688
41	0x3feee65c	1.866405
42	0x4001aac3	2.0260475
43	0x3ff17a4d	1.8865448
44	0x3fed1ad2	1.852381
45	0x3f8645f5	1.0490099
46	0x3fe9f995	1.8279291
47	0x3ff09645	1.8795859
48	0x4008e79c	2.1391363
49	0x4003a377	2.056852
50	0x3fb11baf	1.3836573
51	0x3ff261b7	1.893607
52	0x3ff9653c	1.9484019
53	0x403e3d1d	2.97248
54	0x3fe157a1	1.7604867
55	0x4002d2e4	2.0441217
56	0x4000f4a8	2.0149326
57	0x3ff8ac3b	1.942756
58	0x3ff83bd6	1.939326
59	0x40025b5b	2.036826
60	0x3ff743b0	1.9317532
61	0x3ffa8543	1.9571918
62	0x3fc20e34	1.5160584
63	0x3fe73b59	1.8064986
64	0x3ff3f133	1.9057983

7.odefunc.norm2.bias f4 [65]
0	0xbfee1058	-1.8598738
1	0xbe903174	-0.2816273
2	0xbfdb97c6	-1.7155693
3	0xbfccc795	-1.5998408
4	0xbfcb76a2	-1.5895579
5	0xbfa31906	-1.2742012
6	0xbff50f83	-1.9145359
7	0xbf693e71	-0.91110903
8	0xbf308b61	-0.68962675
9	0xbed32cb7	-0.41245052
10	0xbf7f1266	-0.9963745
11	0xbfc42f34	-1.5326905
12	0xbf77b73d	-0.96763974
13	0xbfd0194d	-1.6257721
14	0xbfc7a9db	-1.5598711
15	0xbf737d6c	-0.95113254
16	0xbef3f10a	-0.47644836
17	0xbfd09ef1	-1.6298505
18	0xbfb05b47	-1.3777856
19	0xbfde8c37	-1.738654
20	0xbf7762ef	-0.96635336
21	0xbf2a3120	-0.6648121
22	0xbfc51a10	-1.5398579
23	0xbfb1ef63	-1.390118
24	0xbf9952c5	-1.1978384
25	0xbf9bd952	-1.2175696
26	0xc015b61d	-2.3392403
27	0xbf983c93	-1.1893486
28	0xbe9e66bb	-0.30937752
29	0xbf68e0b7	-0.9096789
30	0xbfcd6047	-1.6045007
31	0xbff2d1a6	-1.897023
32	0xbf8d334c	-1.103128
33	0xbfd545d2	-1.6661932
34	0xbf0c4fae	-0.5480908
35	0xbf82e29b	-1.0225405
36	0xbf36d946	-0.7142528
37	0xbf8099aa	-1.0046895
38	0xbf309d91	-0.6899043
39	0xbfc63688	-1.5485392
40	0xbf676ce0	-0.90400505
41	0xbfbf3773	-1.4938797
42	0xbfb81f9c	-1.4384646
43	0xbfaf2ff2	-1.3686507
44	0xbf6b7efb	-0.9199063
45	0xbf89a8a8	-1.0754595
46	0xbfa0178f	-1.250719
47	0xbfb2b18d	-1.3960434
48	0xbfbcc701	-1.4748231
49	0xbfc8b848	-1.5681238
50	0xbe3114fb	-0.1729316
51	0xbf616eac	-0.88059497
52	0xbff553bb	-1.9166178
53	0xc0437bf9	-3.0544417
54	0xbf8d7ab4	-1.1053071
55	0xbfc485e6	-1.5353363
56	0xbf53750e	-0.82600486
57	0xbf8d9fc3	-1.106438
58	0xbfbe6cc8	-1.4876947
59	0xbf82d4d8	-1.0221205
60	0xbfbcaf2a	-1.4740956
61	0xbfa2b4eb	-1.2711462
62	0xbec51f46	-0.38500422
63	0xbf996d40	-1.1986465
64	0xbf6db7f0	-0.9285879
