experiment_anode_mnist10_v1/model.pth (torch, 940777 bytes, 24 tensors)

0.weight f4 [64, 1, 3, 3]
0	0xbe3a0fbd	-0.18170066
1	0xbc1c5f31	-0.00954418
2	0x3e97263a	0.29521352
3	0x3ebbd70f	0.36687514
4	0x3e7e0ef3	0.2481039
5	0x3e032f4b	0.1281101
6	0xbe1a5508	-0.150715
7	0xbddba254	-0.10724321
8	0x3e25e27a	0.16199675
9	0xbd569c21	-0.05239499
10	0x3e8a331e	0.26992124
11	0xbed19fbe	-0.40942186
12	0x3e4bab1e	0.19889495
13	0x3df7d71e	0.12101577
14	0xbefd090b	-0.49420962
15	0xbc959a50	-0.018262058
16	0xbeaa168e	-0.33220333
17	0xbe18d345	-0.14924343
18	0xba979ecc	-0.0011567711
19	0xbdce792f	-0.10081708
20	0xbda0bde7	-0.07848721
21	0xbe89b145	-0.26893058
22	0x3de8c234	0.11365166
23	0xbd302f5a	-0.043013908
24	0xbe765f01	-0.24059679
25	0x3ed7ae64	0.42125237
26	0x3ee760a5	0.4519092
27	0x3e3b3a1c	0.18283886
28	0xbea5c0a7	-0.32373545
29	0xbe42cbe9	-0.19023098
30	0xbe73a558	-0.23793542
31	0xbe1d2375	-0.15345557
32	0xbdf9b6d9	-0.121930785
33	0xbe84472c	-0.2583555
34	0xbdcf7bec	-0.10131058
35	0x3ebfcfdc	0.37463272
36	0x3ec7e7fb	0.39044175
37	0xbf160397	-0.5859923
38	0xbf746e4a	-0.9548079
39	0x3f169f74	0.58837056
40	0x3f242761	0.6412259
41	0x3d4cb364	0.049975768
42	0xbdcbdec4	-0.099545985
43	0x3e047158	0.12933862
44	0x3e866ffc	0.26257312
45	0x3bc268f8	0.0059329234
46	0x3e77fa0f	0.24216484
47	0x3e29301a	0.16522256
48	0xbe2c1b34	-0.16807252
49	0x3ca674ac	0.020319305
50	0xbe35743e	-0.17720124
51	0xbed681ac	-0.41895807
52	0xbe93e740	-0.28887367
53	0xbeb2e131	-0.34937432
54	0xbe621e2b	-0.2208182
55	0x3e6afb96	0.22947535
56	0x3f0ae058	0.5424857
57	0xbcffc00d	-0.031219507
58	0xbe88dc45	-0.26730552
59	0xbebf41ce	-0.37354892
60	0x3e90cb04	0.2827989
61	0xbe95fd4e	-0.2929482
62	0xbe794a42	-0.24344733
63	0xbe4828a9	-0.1954676
64	0xbe46e19d	-0.19422002
65	0xbdaa3bf9	-0.0831222
66	0xbe10a95c	-0.14127105
67	0x3d963943	0.073351406
68	0xbdd752ca	-0.10513838
69	0xbe4fe511	-0.20302226
70	0xbdfa1702	-0.1221142
71	0xbe56e910	-0.20987344
72	0xbe8f4d70	-0.27988768
73	0xbf03a5fa	-0.51425135
74	0x3ed8e76b	0.42364058
75	0xbee969d6	-0.4558856
76	0x3e4c62b9	0.19959535
77	0x3f1b3c32	0.60638726
78	0xbdbd852f	-0.092539184
79	0x3ea6c93e	0.3257541
80	0xbe97e4c2	-0.29666716
81	0xbefcb818	-0.49359202
82	0xbef29e0d	-0.47386208
83	0xbefee0b7	-0.4978082
84	0x3f07adef	0.52999777
85	0x3e8a96fc	0.27068317
86	0x3ebf0996	0.37312
87	0x3ef7a984	0.48371518
88	0x3ee50f12	0.4473806
89	0x3eba72f1	0.36415818
90	0x3e8038fc	0.25043476
91	0xb9a19696	-0.00030820508
92	0xbe841c31	-0.25802758
93	0xbeced4ae	-0.40396637
94	0xbdaeb8d3	-0.08531346
95	0x3dc0c65e	0.094128355
96	0x3f03427c	0.5127332
97	0x3ecb4fdc	0.39709365
98	0x3eb3db33	0.35128173
99	0xbecaf83b	-0.3964251
100	0xbe0f9702	-0.14022449
101	0x3dbfb896	0.09361379
102	0x3e58c7d5	0.2116998
103	0x3eb89019	0.36047438
104	0x3e08e12f	0.1336715
105	0xbeae29ff	-0.34016415
106	0xbeb37479	-0.350498
107	0x3ebfeb11	0.3748403
108	0x3ea73873	0.32660255
109	0xbe865293	-0.26234874
110	0xbec5c2ed	-0.3862528
111	0xbe481cca	-0.19542232
112	0xbeb8cdcf	-0.3609452
113	0xbbc0eb34	-0.0058874134
114	0xbe9cf380	-0.30654526
115	0xbd0ebefa	-0.0348501
116	0x3e864f11	0.26232198
117	0x3db56122	0.08856417
118	0x3e6bad95	0.23015435
119	0x3ea32584	0.3186456
120	0xbef71788	-0.4826014
121	0xbea4d306	-0.32192248
122	0x3eb6ba4e	0.35689014
123	0xbece6bad	-0.40316525
124	0xbe07380f	-0.13204978
125	0x3ea5627e	0.32301706
126	0x3e0220d7	0.1270784
127	0xbea3abb9	-0.3196695
128	0xbea19c0a	-0.3156436
129	0xbe1c0c7d	-0.15239139
130	0xbd81068f	-0.06300079
131	0xbe86577c	-0.2623862
132	0xbeaf33ca	-0.342192
133	0x3e31fda7	0.17381917
134	0xbeaa28ed	-0.3323435
135	0x3ec32b6d	0.3811907
136	0x3e8861cc	0.26637113
137	0xbd9247e7	-0.071426205
138	0xbde0c806	-0.109756514
139	0xbf212820	-0.6295185
140	0xbee6e48e	-0.45096248
141	0xbed40d09	-0.41416195
142	0x3dbbdbf2	0.091728106
143	0x3e9d7073	0.30749854
144	0xba9be0e7	-0.0011892588
145	0x3f001aed	0.50041085
146	0x3e1dd401	0.15412904
147	0xbed9ce42	-0.42540175
148	0xbe83fb04	-0.25777447
149	0xbe482e94	-0.19549018
150	0xbe19a83a	-0.1500558
151	0xbe433c11	-0.19065882
152	0x3c641b8d	0.013922584
153	0xbe3bfcb0	-0.18358111
154	0x3c4bccf7	0.012439004
155	0x3e816ecd	0.25279847
156	0xbe6a5911	-0.22885539
157	0xbf0e6ef8	-0.55638075
158	0x3e838e72	0.25694615
159	0x3ee36835	0.4441544
160	0xbe4e46fd	-0.20144267
161	0xbebb6caa	-0.36606342
162	0xbd1861c3	-0.037202608
163	0xbec0d8c0	-0.37665367
164	0xbe491924	-0.19638497
165	0x3e1e4225	0.1545492
166	0x3e07e573	0.13271122
167	0xbecf4571	-0.40482667
168	0x3eac6bed	0.3367609
169	0xbe5a98b7	-0.21347319
170	0xbe6830e2	-0.22674897
171	0xbe7171ce	-0.2357857
172	0xbeac21c4	-0.3361951
173	0x3e92c254	0.28663886
174	0xbebff441	-0.37491038
175	0xbd635c8b	-0.055508178
176	0x3e8c7344	0.2743169
177	0xbed288c5	-0.41119972
178	0xbe80ae3c	-0.2513293
179	0x3e0c6215	0.1370929
180	0xbf0b1753	-0.54332465
181	0xbe92646f	-0.2859225
182	0x3cdfe2e1	0.027329864
183	0xbf0ab4c6	-0.5418209
184	0x3ea8fd49	0.3300574
185	0x3df5badf	0.119985335
186	0x3d229a4e	0.039697938
187	0x3eccf482	0.40030295
188	0x3e9d8050	0.30761957
189	0xbde8ce35	-0.11367456
190	0x3d14acfa	0.036297776
191	0x3edaace7	0.4271004
192	0xbe39f3ea	-0.18159452
193	0x3b9c9711	0.0047787507
194	0xbf03f971	-0.5155249
195	0x3eddd6e2	0.43328005
196	0x3ef38519	0.47562483
197	0xbf116cc1	-0.5680657
198	0x3edfa9d0	0.43684244
199	0x3cb51581	0.02210498
200	0x3e3b9b4f	0.18320964
201	0xbda20dd6	-0.07912795
202	0xbe5f7e2d	-0.21825476
203	0x3e8db788	0.27679086
204	0x3ec43923	0.38324842
205	0xbce03831	-0.027370544
206	0x3e8f9ba3	0.2804843
207	0xbf0626d1	-0.5240298
208	0x3e46ae7c	0.19402498
209	0x3e44c9a3	0.19217543
210	0xb8323ba1	-4.249404e-05
211	0x3f0c56f6	0.5482019
212	0x3e1023d3	0.14076166
213	0x3ea5add8	0.32359195
214	0x3e2eb8a9	0.1706263
215	0xbec96a57	-0.39338943
216	0xbe995817	-0.2995002
217	0xbd7adfe0	-0.06124866
218	0x3e8322e2	0.2561255
219	0xbe3e0877	-0.18557917
220	0xbec7ad0c	-0.38999212
221	0xbefb1e14	-0.49046385
222	0x3ed366fe	0.41289514
223	0x3e5aa357	0.21351372
224	0xbdda6026	-0.1066287
225	0x3e8ed7a8	0.27898908
226	0xbe3608ce	-0.17776796
227	0xbeac110c	-0.33606756
228	0x3e903451	0.28164914
229	0xbf079025	-0.5295432
230	0xbd846773	-0.06465044
231	0xbe9fe1ff	-0.3122711
232	0xbe9a8a0a	-0.3018344
233	0x3eabacd2	0.3353029
234	0x3e0cb4e2	0.13740876
235	0x3e9b9e2c	0.30394113
236	0x3d30e826	0.043190144
237	0x3eebe970	0.46076536
238	0xbe05faf8	-0.13084018
239	0xbf12f7a0	-0.57409096
240	0xbee3b552	-0.44474274
241	0xbee0422c	-0.43800485
242	0x3e65913c	0.22418684
243	0x3e942e05	0.2894136
244	0x3d5f372e	0.054495983
245	0xbe61db31	-0.22056271
246	0xbe26e848	-0.16299546
247	0xbe07d978	-0.13266551
248	0xbeb14cc7	-0.3462889
249	0xbeb02411	-0.34402516
250	0xbe2c4f44	-0.16827112
251	0xbd36362d	-0.04448526
252	0xbb9c1c21	-0.0047640954
253	0x3e7113ff	0.23542784
254	0x3f175e83	0.5912859
255	0x3cbad309	0.022805708

0.bias f4 [64]
0	0xbea64200	-0.3247223
1	0xbc4ce1e0	-0.012505025
2	0xbe9b373c	-0.30315578
3	0xbcc78634	-0.024355985
4	0x3d5d4f30	0.054030597
5	0x3e5eb916	0.21750292
6	0x3e608868	0.21927035
7	0xbe914bbb	-0.2837809
8	0x3d1ad620	0.03780186
9	0x3e2fa433	0.17152481
10	0xbea1be7f	-0.3159065
11	0xbdec6fb6	-0.11544745
12	0x3ea9d253	0.33168277
13	0x3dfc3f06	0.12316708
14	0xbe6c4df3	-0.2307661
15	0xbea5bdb4	-0.32371294
16	0x3e20c0a8	0.15698493
17	0x3d4cfd7d	0.050046433
18	0xbdd49b5b	-0.10381194
19	0x3d119d4b	0.035550397
20	0x3e1d42ce	0.15357515
21	0xbe296ad3	-0.16544656
22	0x3daeb990	0.08531487
23	0xbe29b23e	-0.165719
24	0xbe5ce286	-0.21570787
25	0xbd99cd30	-0.075098395
26	0xbe0ba850	-0.13638425
27	0xbe8dd5ae	-0.27702087
28	0x3e8c2acb	0.27376398
29	0xbe26fd53	-0.16307573
30	0x3e84c84a	0.25934058
31	0xbe6f8e3b	-0.233941
32	0xbe3a2493	-0.18178014
33	0x3df5ffb0	0.12011659
34	0x3d2a1be3	0.0415305
35	0x3e86f143	0.26355943
36	0xbe6217eb	-0.22079436
37	0xbe2ee9bb	-0.17081349
38	0xbd917527	-0.07102423
39	0xbe67201e	-0.22570845
40	0xbe5f76c3	-0.21822648
41	0xbea89048	-0.32922578
42	0xbcd2f96b	-0.025753697
43	0x3e35183b	0.17685024
44	0xbc525527	-0.012837685
45	0xbd253cd7	-0.040341225
46	0xbd0ac4fe	-0.033879273
47	0x3e603b88	0.2189771
48	0xbda64b8c	-0.08119878
49	0x3e5a4923	0.21316962
50	0xbe915566	-0.28385466
51	0x3d4f5d56	0.05062612
52	0x3e2c35b3	0.1681736
53	0xbd7704d6	-0.060307346
54	0x3e1ef29b	0.15522234
55	0x3e9c5d4f	0.3053994
56	0xbdb871b0	-0.09006059
57	0x3e847030	0.25866842
58	0xbd777e7b	-0.060423356
59	0xbe5b1e26	-0.2139822
60	0x3e679066	0.22613677
61	0x3d99fe10	0.07519162
62	0xbe08d788	-0.13363469
63	0xbe7d54a3	-0.24739318

1.weight f4 [64]
0	0x3f28c50c	0.6592567
1	0x3f851094	1.0395684
2	0x3f2a2801	0.6646729
3	0x3f8dbe7a	1.1073754
4	0x3f80f1a8	1.0073748
5	0x3f8c67e3	1.0969204
6	0x3f7cc472	0.9873725
7	0x3f8b8af0	1.0901775
8	0x3f8de618	1.1085844
9	0x3f85d564	1.0455747
10	0x3f40af90	0.7526789
11	0x3f46e5d4	0.7769444
12	0x3f99c9cb	1.2014707
13	0x3f5d0119	0.863298
14	0x3f875987	1.0574197
15	0x3f914e6e	1.135206
16	0x3f8880ae	1.066427
17	0x3f953286	1.1656044
18	0x3f8d6493	1.1046318
19	0x3f94a06e	1.1611459
20	0x3f7c3c20	0.98529243
21	0x3f67c08e	0.9052819
22	0x3f3cc048	0.737309
23	0x3f4c07dc	0.7969949
24	0x3f8cc46a	1.0997441
25	0x3f989db4	1.1923127
26	0x3f904a43	1.1272663
27	0x3f8c0957	1.094035
28	0x3f5a060f	0.85165495
29	0x3f926118	1.1435881
30	0x3f8af04c	1.0854583
31	0x3f99ff83	1.2031101
32	0x3f5e16d2	0.8675357
33	0x3f7d9dc4	0.99068856
34	0x3f7f3493	0.99689597
35	0x3f89ffc0	1.0781174
36	0x3f91ec4c	1.1400237
37	0x3f872598	1.0558348
38	0x3f73bebb	0.95212907
39	0x3f9460e8	1.1592073
40	0x3f6c8380	0.92388153
41	0x3f9b3f49	1.2128688
42	0x3f91e4e0	1.1397972
43	0x3fa608a1	1.2971383
44	0x3f51ef51	0.8200579
45	0x3f81f5b3	1.0153106
46	0x3f284fa3	0.65746516
47	0x3f95df25	1.1708723
48	0x3f8b201e	1.0869176
49	0x3f6568d9	0.8961311
50	0x3f949543	1.1608051
51	0x3f1f2a7d	0.62174207
52	0x3f392c8f	0.72333616
53	0x3f8acb7d	1.084335
54	0x3f8453ff	1.0338134
55	0x3f8cc886	1.0998695
56	0x3f8ba725	1.0910383
57	0x3f7d0390	0.9883356
58	0x3f44d77a	0.7689129
59	0x3f8e3bb0	1.1111965
60	0x3f439d48	0.7641187
61	0x3f3f09d5	0.7462438
62	0x3f3ef178	0.745872
63	0x3f8a8f6c	1.0825019

1.bias f4 [64]
0	0xbebeef66	-0.37292022
1	0x3e11480e	0.14187643
2	0xbd8e72d8	-0.069554985
3	0x3de5fb95	0.11229626
4	0xbec44226	-0.38331717
5	0x3e05d3de	0.13069102
6	0xbbc0e6c6	-0.0058868853
7	0x3cac5039	0.021034347
8	0xbe3de4f3	-0.18544368
9	0xbe8e2281	-0.277607
10	0xbe3481a4	-0.17627579
11	0xbdf1fba5	-0.118155755
12	0x3e21386c	0.1574418
13	0xbddf0005	-0.108886756
14	0x3c403956	0.01173242
15	0x3dd7b30c	0.10532197
16	0xbd3f1f18	-0.046660513
17	0xbbe35703	-0.006937863
18	0x3d2d87bb	0.04236577
19	0x3cec9ca4	0.028883286
20	0x3adfc38a	0.0017071825
21	0xbe58ede3	-0.21184497
22	0xbe95d977	-0.29267475
23	0xbed6366a	-0.4183839
24	0x3d789c24	0.060695782
25	0x3de2933a	0.110632375
26	0x3e09d21b	0.13459055
27	0x3e11cbf9	0.14237966
28	0xbd8f57a7	-0.0699914
29	0xbd51ab75	-0.051188905
30	0x3e224e9b	0.15850298
31	0x3db600c0	0.08886862
32	0xbbedcfab	-0.007257422
33	0xbd20330b	-0.03911118
34	0x3de78b41	0.113058574
35	0x3dbb55e4	0.09147242
36	0x3dc74803	0.09730532
37	0x3c4883c7	0.012238449
38	0xbdb3699f	-0.0876038
39	0x3d782819	0.060585115
40	0xbeb15e31	-0.34642175
41	0xbe9098b0	-0.2824149
42	0x3de81ece	0.113340005
43	0x3e27f81a	0.16403237
44	0xbdcc8f67	-0.09988289
45	0xbdaf7d67	-0.085688405
46	0xbe96f4a7	-0.2948353
47	0x3de2715e	0.11056779
48	0xbe8ba465	-0.2727386
49	0xbe972bb8	-0.29525542
50	0xbe32466d	-0.17409678
51	0xbe51d5c3	-0.204917
52	0xbdfe8d8d	-0.124293424
53	0x3d911049	0.07083184
54	0xbd2bfcb7	-0.041989055
55	0x3d2e3a10	0.04253584
56	0x3d9ae2f5	0.0756282
57	0xbea5d08e	-0.32385677
58	0xbea55ee7	-0.32298967
59	0x3e0590ab	0.13043468
60	0xbe0de384	-0.13856322
61	0xbd6b2c62	-0.057415374
62	0xbeba81d3	-0.36427173
63	0x3e0a9e8d	0.13537045

3.weight f4 [64, 64, 4, 4]
0	0x3ceaea4d	0.028676176
1	0x3ccf7088	0.025322214
2	0x3cb8473d	0.022494907
3	0x3d740aa9	0.05958048
4	0x3d7b68b1	0.06137914
5	0x3d8616d7	0.06547325
6	0x3d88df5c	0.066832274
7	0x3d3d1c14	0.046169356
8	0x3d5997a0	0.053123116
9	0x3def2fcd	0.11679039
10	0x3db35b7d	0.087576844
11	0x3d13ae79	0.036055062
12	0x3d75ebc8	0.06003931
13	0x3d40c359	0.047061298
14	0xbaffdfcc	-0.0019521653
15	0xbd0f8ac4	-0.035044447
16	0xbd008031	-0.031372253
17	0xbd1b2f1d	-0.037886728
18	0xbbbc70e4	-0.0057507623
19	0xbc9e7c7f	-0.019346474
20	0xbd32b8ca	-0.04363326
21	0xbc902bb8	-0.017598972
22	0xbd76c9c8	-0.060251027
23	0xbcb1855b	-0.021670034
24	0x3c4d5141	0.0125315795
25	0x3b676798	0.003530955
26	0xbd24a351	-0.040194813
27	0xbd39f1d2	-0.045396633
28	0x3d628c1f	0.05530941
29	0x3cf5db39	0.03001176
30	0xbd4402a4	-0.04785408
31	0xbd0e2b95	-0.03470953
32	0x3c2c5efb	0.010520692
33	0xbbe5e97d	-0.0070163594
34	0x3d2c35a0	0.04204333
35	0xbc181385	-0.009281998
36	0x3dc0ea8e	0.09419738
37	0x3d5072ac	0.05089061
38	0x3d14ba37	0.0363104
39	0xbc45c886	-0.012071734
40	0x3bb878d7	0.0056296396
41	0xbc803bc9	-0.015653508
42	0x3d3e5413	0.0464669
43	0x3d3bda30	0.045862377
44	0xbd6fbf4a	-0.058532037
45	0xbc78864f	-0.01516874
46	0x3c5163a5	0.012780105
47	0x3d45bd96	0.048276506
48	0xbb6e80cf	-0.0036392694
49	0xbc309470	-0.010777578
50	0x3af4af50	0.001866797
51	0x3ba11487	0.004915777
52	0xbc5aea09	-0.013361462
53	0xbbfa38fe	-0.0076361885
54	0xbba55c8b	-0.0050464324
55	0xbd8b3022	-0.0679629
56	0xbc1a492a	-0.009416858
57	0xbc41f6c4	-0.011838619
58	0xbc9a7663	-0.01885528
59	0xbd8080cd	-0.06274567
60	0x3d7001a5	0.05859532
61	0x3d306fd7	0.04307541
62	0xbc0f9f2a	-0.008765975
63	0xbd06ffc9	-0.03295878
64	0xbd307b07	-0.043086078
65	0x39523e47	0.00020050361
66	0x3dca841e	0.098884806
67	0x3dedb45c	0.116066664
68	0x3c18c1d4	0.009323556
69	0x3c43d4f8	0.011952631
70	0x3d59ea22	0.053201802
71	0x3d87ce5c	0.06631157
72	0xbcade9da	-0.021229673
73	0x3d63ecdf	0.05564582
74	0x3dbe8984	0.09303573
75	0x3dbded90	0.09273827
76	0xbe1ff80f	-0.1562197
77	0xbdd4513c	-0.10367057
78	0xbc752d7c	-0.014964458
79	0x3da23766	0.07920723
80	0x3c9e0e12	0.019293819
81	0x3bfdfa53	0.0077507882
82	0x3d2c3d5f	0.042050716
83	0xbbbebcc7	-0.005820844
84	0x3d0963cd	0.033542443
85	0x3dc92de9	0.0982321
86	0x3d51f782	0.051261432
87	0x3c7b7eda	0.015350068
88	0x3c0f882e	0.008760495
89	0x3cba5f21	0.02275044
90	0xbc4e6e93	-0.012599605
91	0xbce62e06	-0.028098118
92	0xbceb421a	-0.028718043
93	0xbd08d21e	-0.03340351
94	0xbd99d794	-0.075118214
95	0xbd78e59d	-0.06076585
96	0xbd7ab7d2	-0.06121046
97	0xbd31abf4	-0.043376878
98	0xbd4e7c27	-0.05041137
99	0xbd5de70c	-0.05417542
100	0x3db8efc0	0.09030104
101	0x3db82aa8	0.08992511
102	0x3d5f6ab6	0.054545127
103	0x3c972153	0.018448507
104	0x3d284a71	0.041086618
105	0xbc7c5b8c	-0.015402686
106	0xbbc0cd54	-0.005883852
107	0xbc4149ea	-0.011797408
108	0xbcbfe129	-0.023422794
109	0xbd33cac8	-0.04389456
110	0xbd52638e	-0.051364474
111	0x3c43091c	0.011904027
112	0x3c37487c	0.011186715
113	0xbc58a387	-0.013222582
114	0xbd313de6	-0.04327192
115	0xbbbb9cda	-0.0057254853
116	0xbb7a85d2	-0.0038226736
117	0xbc3ce615	-0.011529465
118	0xbcff0da3	-0.031134432
119	0xbb2bea60	-0.0026232228
120	0x3c396a4d	0.011316848
121	0x3ca20064	0.019775577
122	0x3cc010da	0.023445535
123	0xbbb845e9	-0.0056235683
124	0x3ce627f4	0.028095223
125	0x3c92e3f1	0.017930957
126	0x3cb31089	0.02185847
127	0x3ca56018	0.020187423
128	0x3cc3ec25	0.023916313
129	0x3c0573eb	0.008145313
130	0xbcab6e5a	-0.020926643
131	0x3c5fb426	0.013653791
132	0x3bba2c56	0.005681555
133	0xbd088e49	-0.03333882
134	0xbc5a5c36	-0.013327649
135	0xbdb09c87	-0.08623605
136	0xbd4df502	-0.050282486
137	0xbc918803	-0.01776505
138	0xbdbdc2b6	-0.09265654
139	0xbd450955	-0.048104603
140	0xbdde4281	-0.10852528
141	0xbddb8e06	-0.10720448
142	0xbd1a8389	-0.037723098
143	0xbcdd29f6	-0.026997548
144	0xbcac3faa	-0.021026451
145	0x3d1c3159	0.038133
146	0x3d8e38a8	0.069444
147	0x3d230b63	0.03980578
148	0x3d9051dd	0.07046864
149	0x3e222c3b	0.15837185
150	0x3da60100	0.081056595
151	0x3d81faa3	0.06346633
152	0x3d8d2512	0.06891836
153	0x3da9906e	0.08279501
154	0x3c9186ca	0.017764468
155	0xbc2dbf35	-0.010604669
156	0xbd9815c9	-0.0742603
157	0xbe03595c	-0.12827057
158	0xbde3f9c8	-0.11131626
159	0xbd50b623	-0.05095495
160	0x3cbf9824	0.023387976
161	0x3d1dd36e	0.038531713
162	0x3d2f226c	0.042757437
163	0x3cbdaa38	0.023152456
164	0x3db263ae	0.08710419
165	0x3dcc8096	0.09985463
166	0x3dc0472f	0.09388577
167	0x3d1a3087	0.037643936
168	0x3d83b179	0.064303346
169	0x3cb95310	0.022622615
170	0x3c717e8e	0.014739646
171	0x3d947bec	0.07250199
172	0xbda9ae77	-0.0828523
173	0xbc120e30	-0.008914515
174	0x3cbee202	0.023301128
175	0xbcaa2a43	-0.020772105
176	0xbbe3a4b8	-0.0069471262
177	0xbbe1934d	-0.0068840147
178	0x3d1637d4	0.036674336
179	0x3cda3349	0.026635783
180	0xbcee5412	-0.029092822
181	0x3da2e5a2	0.07953955
182	0x3cf47101	0.02983904
183	0x3d814bba	0.06313272
184	0xbb982c1c	-0.00464393
185	0x3d3c6fc8	0.04600504
186	0x3d9e55ba	0.07731195
187	0x3ba04fe8	0.004892338
188	0xbd3aa5be	-0.04556822
189	0x3be911b9	0.0071127084
190	0x3d0a4758	0.033759445
191	0xbb2d56ed	-0.0026449517
192	0x3c38169c	0.011235859
193	0xbce27dfb	-0.027647963
194	0x3b2c806e	0.0026321667
195	0xbcc02d55	-0.023459116
196	0xbd0c935d	-0.034320224
197	0xbd908a55	-0.07057635
198	0xbcdf8273	-0.027283883
199	0xbdbb9b1b	-0.091604434
200	0x3c8e17b7	0.017345292
201	0x3c8c11f1	0.017098399
202	0xbc925683	-0.017863518
203	0xbdbb39ce	-0.09141885
204	0x3d9ba0b1	0.07599009
205	0x3d16d6ad	0.036825825
206	0xbcfcfc63	-0.030882066
207	0xbd656f6d	-0.056014467
208	0x3c17cc1a	0.00926497
209	0xbd2f172c	-0.042746708
210	0xbd488a47	-0.048959997
211	0xbdd33c15	-0.10314194
212	0xbd083fb1	-0.033263866
213	0x3c6bf3f5	0.014401426
214	0x3cd3fbdb	0.02587693
215	0x3ce50f71	0.027961465
216	0xbdd8f8e7	-0.10594349
217	0x3cb84de5	0.02249808
218	0x3d188b25	0.037242074
219	0x3d7a2375	0.06106897
220	0xbd8f4051	-0.06994689
221	0x3baf52d8	0.005350452
222	0x3d57f636	0.05272504
223	0x3d8e5ceb	0.069513164
224	0x3ca00513	0.01953367
225	0xbbc0b195	-0.0058805444
226	0xbcdea79c	-0.027179532
227	0xbce8172f	-0.028331367
228	0xbcbf6279	-0.023362385
229	0xbd2d65d6	-0.042333446
230	0xbd79d01c	-0.060989484
231	0xbd229f8e	-0.039702944
232	0x3cef9521	0.029245915
233	0x3bf90c3b	0.007600335
234	0x3bc697e8	0.006060589
235	0xbd466b50	-0.048442185
236	0x3bc0d208	0.0058844127
237	0x3ca4033b	0.020021072
238	0xbcd50058	-0.02600114
239	0xbd336202	-0.04379464
240	0xbb481854	-0.0030532079
241	0xbd677f96	-0.05651816
242	0xbcb76d2b	-0.022390923
243	0xbcd9fd47	-0.02661003
244	0x3d9ac15a	0.0755641
245	0x3d296a19	0.04136095
246	0x3d82433d	0.06360481
247	0xbc9c276c	-0.019061767
248	0x3d1bac04	0.038005844
249	0x3c116028	0.008873023
250	0x3b5e2946	0.0033899113
251	0xbd173757	-0.03691801
252	0x3ce3466a	0.027743537
253	0x3c6ef3f8	0.014584534
254	0xbcd56aa4	-0.026051827
255	0xbdcd4351	-0.10022605

3.bias f4 [64]
0	0xbcb77bc0	-0.022397876
1	0xbb229518	-0.0024808105
2	0x3cae4f68	0.021278098
3	0xbcb82808	-0.022480026
4	0x3c8fa066	0.017532539
5	0x3c0e2ae4	0.008677218
6	0xbcbe7e62	-0.023253623
7	0xbce4dc6c	-0.027937137
8	0xbc9a4f62	-0.01883668
9	0x3946e80e	0.00018969199
10	0xbc8721ca	-0.016495604
11	0xbc61f2e8	-0.0137908235
12	0x3cda9c90	0.026685983
13	0xbcd9f404	-0.026605614
14	0x3bcc6428	0.0062375255
15	0x3b7a4e0f	0.00381935
16	0xbb33fc2c	-0.0027463539
17	0x3bb30d90	0.0054642633
18	0xbcbf5900	-0.023357868
19	0xbbb40d68	-0.005494762
20	0xbb0d10c2	-0.002152488
21	0x3c9a2fa2	0.018821541
22	0xbcaac704	-0.020846851
23	0xbbacdb80	-0.00527519
24	0xbc315484	-0.010823373
25	0xbce2d26e	-0.027688231
26	0xbce1fd34	-0.027586557
27	0xbc97e662	-0.018542472
28	0xbc3d8594	-0.011567492
29	0xb96770dc	-0.0002207192
30	0xbc98d56e	-0.018656459
31	0x3cd68df2	0.026190732
32	0xbce17cd4	-0.027525343
33	0xbca8ea76	-0.020619612
34	0xbbd6b000	-0.0065517426
35	0xbab9766e	-0.0014149675
36	0xbcb237d0	-0.02175513
37	0xbc80929c	-0.015694909
38	0x3cabbdd0	0.020964533
39	0x3ca1a5d4	0.019732393
40	0x3c1a265c	0.00940856
41	0x3c8de8bc	0.01732289
42	0x3c50fe18	0.012755893
43	0xbb71486e	-0.0036816853
44	0x3c9d345a	0.019190002
45	0xbc104f5c	-0.008807983
46	0xbcb84ca4	-0.022497483
47	0xbcd732d4	-0.026269354
48	0x3cc69cce	0.024244692
49	0x3cfcbdbe	0.030852195
50	0xbcae68b0	-0.021290153
51	0xbbc916e0	-0.00613676
52	0xbcc20776	-0.023685198
53	0x3b5b5814	0.0033469247
54	0x3cd0a8e8	0.025471166
55	0xbc6b28e8	-0.0143530145
56	0x3cd8fd9e	0.026488122
57	0xbcd094aa	-0.025461514
58	0x3c2ffb24	0.010741029
59	0xbcb061e6	-0.021531057
60	0x3bea9080	0.007158339
61	0xbc7409f4	-0.014894951
62	0xbb547967	-0.0032420994
63	0x3c63949c	0.013890412

4.weight f4 [64]
0	0x3eb59a9f	0.3546953
1	0x3f3bff96	0.7343687
2	0x3ebfd1b3	0.37464675
3	0x3f26c153	0.6513874
4	0x3f4209ab	0.75796
5	0x3f03767b	0.5135266
6	0x3eee3f23	0.46532544
7	0x3f32e0c1	0.698742
8	0x3f1ac3aa	0.6045481
9	0x3ee24332	0.4419189
10	0x3ee45aae	0.44600433
11	0x3f142832	0.57873833
12	0x3f1180e4	0.56837296
13	0x3f090639	0.5352512
14	0x3f0304ec	0.51179385
15	0x3f28bc97	0.65912765
16	0x3f459b49	0.7719007
17	0x3f06e363	0.52690715
18	0x3f2e7326	0.6814445
19	0x3f34e425	0.7066062
20	0x3f1c7005	0.6110843
21	0x3f21a1f8	0.6313777
22	0x3f32beb0	0.69822216
23	0x3eff4f6f	0.4986529
24	0x3f3003af	0.6875562
25	0x3f2b4e39	0.66916233
26	0x3f04c04a	0.5185591
27	0x3f3ace5e	0.7297114
28	0x3ec60427	0.38675043
29	0x3e5ed497	0.21760784
30	0x3f3d07c4	0.73839974
31	0x3f29640a	0.6616827
32	0x3f247958	0.64247656
33	0x3f3a03bc	0.7266195
34	0x3f34f99d	0.7069338
35	0x3f451147	0.7697949
36	0x3f23642c	0.63824725
37	0x3ed6f8e7	0.41986772
38	0x3f399926	0.7249931
39	0x3f38158b	0.7190787
40	0x3f06303e	0.5241736
41	0x3f0c09c3	0.54702395
42	0x3f3b5799	0.7318054
43	0x3f11a311	0.56889445
44	0x3ea8b33d	0.32949248
45	0x3f2373a6	0.6384834
46	0x3e7277e4	0.23678547
47	0x3f4e2df3	0.8053886
48	0x3f307a9e	0.689371
49	0x3ec448aa	0.38336688
50	0x3f282850	0.6568651
51	0x3ef6d418	0.4820869
52	0x3f1001a1	0.56252486
53	0x3f35bb82	0.7098924
54	0x3f453772	0.7703773
55	0x3f39cb6f	0.7257604
56	0x3efba830	0.49151754
57	0x3f260ab2	0.6486007
58	0x3f3d9725	0.74058753
59	0x3f0ff26f	0.562293
60	0x3f279404	0.6546023
61	0x3f3a797e	0.7284163
62	0x3f16161d	0.5862749
63	0x3eca80d3	0.3955141

4.bias f4 [64]
0	0xbef75dd1	-0.48313764
1	0xbe910be2	-0.28329378
2	0xbf233ade	-0.637617
3	0xbe94aaf8	-0.2903669
4	0xbea564c4	-0.3230344
5	0xbeaeb546	-0.34122676
6	0xbe6bf23c	-0.23041624
7	0xbe4ad7bb	-0.19808857
8	0xbe13d958	-0.14438379
9	0xbe8c8030	-0.2744155
10	0xbf32572f	-0.6966428
11	0xbd8c68a6	-0.068558976
12	0x3dab78f7	0.083726816
13	0xbf4bfa63	-0.79678935
14	0xbdf633f6	-0.120216295
15	0xbed66ce1	-0.41879943
16	0xbe905892	-0.28192574
17	0xbef2ce89	-0.474232
18	0xbe9764eb	-0.29569182
19	0xbe80618a	-0.25074416
20	0xbd98eea6	-0.074673936
21	0xbe62ac6e	-0.22136089
22	0xbec26c05	-0.37973037
23	0xbf48de02	-0.7846376
24	0xbeb5de2b	-0.35521063
25	0xbe7a0fa5	-0.2442003
26	0xbf436b72	-0.76335824
27	0xbea83a61	-0.3285704
28	0xbe9f6b55	-0.31136575
29	0xbefb8ae8	-0.49129415
30	0xbea40d1f	-0.3204126
31	0xbe8013ad	-0.2501501
32	0xbec8ed69	-0.3924363
33	0xbec18211	-0.37794545
34	0xbe9579ed	-0.29194584
35	0xbe9f0b1e	-0.3106317
36	0xbe324cde	-0.17412135
37	0xbeeb77ad	-0.45989743
38	0xbeb5e57f	-0.35526654
39	0xbe8d1bf0	-0.27560377
40	0xbed7b8bc	-0.4213313
41	0xbf0caace	-0.5494813
42	0xbe6247f5	-0.22097762
43	0x3c4ff7e9	0.012693384
44	0xbeb5970e	-0.35466808
45	0xbd76119c	-0.060075387
46	0xbed32078	-0.4123571
47	0xbef46901	-0.47736362
48	0xbea7c924	-0.32770646
49	0xbe8c8cc2	-0.2745114
50	0xbe940de1	-0.2891684
51	0xbdd6001b	-0.10449239
52	0xbe1817b8	-0.14852798
53	0xbe38433a	-0.17994395
54	0xbeab745e	-0.3348722
55	0xbe73e5af	-0.23818086
56	0xbeb3772c	-0.35051858
57	0xbe8d0039	-0.27539232
58	0xbea7289f	-0.3264818
59	0xbe53d5ba	-0.20686999
60	0xbe4ffb38	-0.20310676
61	0xbdceaf71	-0.100920565
62	0xbed53bfd	-0.4164733
63	0xbec868fc	-0.39142597

6.weight f4 [64, 64, 4, 4]
0	0x3dc9585d	0.09831307
1	0x3d81186d	0.06303487
2	0x3d3a9a71	0.045557443
3	0x3ce87a2a	0.028378565
4	0x3e0dd6ef	0.13851522
5	0x3e01665e	0.12636706
6	0xbd00d2b4	-0.031450942
7	0xbd542bc9	-0.05179957
8	0x3e16188d	0.14657803
9	0x3d703464	0.058643714
10	0xbdb72718	-0.089430034
11	0xbdbf5c63	-0.09343793
12	0x3d3b3cb6	0.045712195
13	0xbbef0f5a	-0.007295531
14	0xbd533d06	-0.05157187
15	0xbcac9c98	-0.021070763
16	0xbc047d6f	-0.008086546
17	0xbd69dabc	-0.057093367
18	0xbc8b4cd9	-0.017004417
19	0x3d301cb2	0.042996116
20	0xbcc36f68	-0.023856834
21	0xbd1a1926	-0.03762164
22	0xbd7d5788	-0.061851054
23	0xbdbc9428	-0.09207946
24	0x3d30e78c	0.04318957
25	0xbc2719af	-0.010198995
26	0xbc6c2f0a	-0.014415512
27	0xbd8114fe	-0.06302832
28	0x3ceebbf7	0.029142363
29	0x3d78a296	0.06070193
30	0x3d13e88c	0.036110446
31	0xbcdd66ce	-0.02702656
32	0x3d472141	0.048615698
33	0xbc41acca	-0.011820981
34	0xbcf16041	-0.029464843
35	0x3d16fedc	0.036864147
36	0x3d079b42	0.03310705
37	0xbc082312	-0.008309143
38	0x3ca21876	0.019787055
39	0x3dfe716a	0.12423976
40	0x3ca88a3b	0.020573726
41	0xbced33c0	-0.02895534
42	0x3dd5d238	0.10440487
43	0x3dd365af	0.10322129
44	0x3dcbf09d	0.09958003
45	0x3d8e718a	0.069552496
46	0x3ca63196	0.020287316
47	0x3d837f69	0.06420786
48	0x3d3db566	0.046315573
49	0x3ccde547	0.025133742
50	0x3ccf197d	0.025280708
51	0x3d3d0406	0.046146415
52	0x3dc31d95	0.09527127
53	0x3d0368ba	0.032082297
54	0x3c076412	0.008263605
55	0xbd7410a3	-0.05958618
56	0x3d25fe10	0.040525496
57	0x3c7e1c1d	0.015509632
58	0xbd405fdb	-0.046966415
59	0xbe0a7413	-0.13520841
60	0xbd8cf10b	-0.06881913
61	0xbd413e7a	-0.047178723
62	0xbd662967	-0.056191828
63	0xbc32cd24	-0.010913167
64	0xbd5a92bb	-0.05336259
65	0xbc62a2e6	-0.013832783
66	0x3d2df6b0	0.042471588
67	0xbc01f183	-0.007931116
68	0xbcd01fa9	-0.025405722
69	0xbc0fe1fe	-0.008781908
70	0xbc162374	-0.009163726
71	0xbd9436e9	-0.07237036
72	0x3cdd5251	0.02701679
73	0xbcc597a4	-0.02412016
74	0x3ce793eb	0.028268775
75	0xbd62b8fa	-0.05535219
76	0x3c1bb291	0.009503023
77	0x3b3ed8c4	0.0029120902
78	0x3ce4f852	0.02795044
79	0xbcb51f5d	-0.022109682
80	0x3df04086	0.11731057
81	0x3e31e2f4	0.17371732
82	0x3e07c584	0.1325894
83	0xbb961d15	-0.0045811036
84	0x3dbf4c5f	0.093407385
85	0x3dc73c47	0.09728294
86	0x3c489b73	0.012244093
87	0xbd0bc492	-0.03412301
88	0x3e3672a6	0.17817172
89	0x3e03a64c	0.12856406
90	0xbd89d60c	-0.06730279
91	0xbdd4a274	-0.10382548
92	0x3d4f61e7	0.050630476
93	0x3cdafdff	0.026732443
94	0xbd880a80	-0.06642628
95	0xbcd6f312	-0.026238952
96	0xbcaaadec	-0.020834886
97	0xbd3c89fc	-0.04603003
98	0x3cc492f8	0.023995861
99	0x3cfc9239	0.030831443
100	0xbdb23f48	-0.08703476
101	0x3d190070	0.037353933
102	0x3e11c911	0.14236857
103	0x3d821800	0.06352234
104	0xbcbe0a6d	-0.02319833
105	0x3e0068e7	0.12540017
106	0x3e19daf0	0.15024924
107	0x3d73a574	0.05948396
108	0xbc4e74b1	-0.012601064
109	0x3d95fe40	0.07323885
110	0x3df76172	0.12079133
111	0x3daba42c	0.08380923
112	0x3cc8dffe	0.02452087
113	0xbd0efeb1	-0.03491086
114	0xbd24c3f5	-0.04022594
115	0xbd6bb074	-0.057541326
116	0x3c9bcf9a	0.01901989
117	0xbd0f0709	-0.03491882
118	0xbda70b14	-0.0815641
119	0xbd384bcb	-0.044994157
120	0xbca548fd	-0.020176405
121	0x3ce79289	0.028268116
122	0x3c264ed4	0.01015063
123	0x3c319400	0.010838509
124	0xbbb5b715	-0.0055455067
125	0xbd1b37c4	-0.03789498
126	0xbd5b616b	-0.053559702
127	0xbd9a54b7	-0.07535689
128	0xbc2ed1b1	-0.0106701115
129	0xbd6db5ae	-0.05803459
130	0xbcb29e9b	-0.021804145
131	0xbd5e7a6f	-0.05431598
132	0xbdaabb36	-0.08336489
133	0xbdb7a49a	-0.08966942
134	0xbd17b755	-0.037040073
135	0xbc49eda2	-0.0123247225
136	0xbc12e589	-0.008965858
137	0x3c29edc1	0.010371626
138	0xbc1a810e	-0.009430183
139	0x3c28bdd5	0.010299166
140	0xbc81a4a0	-0.01582557
141	0x3d6915fc	0.05690573
142	0x3d2d6bf4	0.04233928
143	0x3cccbaa7	0.024991347
144	0x3d912ae5	0.070882596
145	0x3ba65f2f	0.0050772647
146	0x3d37bed9	0.04485974
147	0x3c01738a	0.007901082
148	0xbd73cdf0	-0.05952257
149	0xbbcafaf0	-0.006194465
150	0x3e19b06c	0.15008706
151	0x3e3d3f22	0.18481115
152	0xbccc1889	-0.024914043
153	0xbc5a9f3c	-0.0133436285
154	0x3dc2117c	0.09475991
155	0x3dbcc46f	0.09217154
156	0xbdd7129b	-0.105015956
157	0xbd860b41	-0.06545115
158	0xbdcfaae1	-0.101400144
159	0xbda4edbb	-0.08053156
160	0xbc4fb36b	-0.012677054
161	0xbdf9eda7	-0.12203532
162	0xbdc1d454	-0.094643265
163	0xbcbd8e56	-0.02313916
164	0x3d715d8d	0.058927108
165	0xbd6c57c3	-0.057700884
166	0xbdf5379e	-0.11973499
167	0xbcd3d1be	-0.025856849
168	0x3db4177e	0.08793543
169	0xbc355b96	-0.011069199
170	0xbdae513b	-0.08511587
171	0x3d1b6c06	0.037944816
172	0x3d8be827	0.06831389
173	0x3d650dc7	0.055921342
174	0x3d2644c9	0.040592942
175	0x3cd4b82d	0.025966728
176	0xbd986771	-0.07441605
177	0xbba16d2b	-0.004926344
178	0xbbcc4839	-0.0062341955
179	0x3d1ffe5f	0.039060947
180	0xbd376a49	-0.044779096
181	0xbd2062d8	-0.039156765
182	0xbbe4f867	-0.0069876197
183	0xbd07ce9c	-0.033156022
184	0x3d03f9a6	0.032220505
185	0x3ce488c4	0.027897246
186	0xbc8c7237	-0.017144306
187	0xbd4401fd	-0.04785346
188	0x3dbfe90d	0.09370623
189	0x3d0f0af2	0.034922548
190	0x3c1f974a	0.00974066
191	0xbd2958f4	-0.041344598
192	0xbca610e7	-0.020271732
193	0xbd812060	-0.06305003
194	0xbce8925f	-0.028390108
195	0x3c25900b	0.010105143
196	0xbdbd9f24	-0.09258869
197	0xbba54123	-0.0050431653
198	0xbcaee2ed	-0.021348441
199	0x3dec20a7	0.115296654
200	0xbdd4678f	-0.10371315
201	0x3c5aa313	0.013344544
202	0x3d3611df	0.044450637
203	0x3de47346	0.11154799
204	0xbe0c07fd	-0.13674922
205	0xbe1f535a	-0.1555914
206	0xbe7a0f4c	-0.24419898
207	0xbdd2db9a	-0.10295792
208	0xbd17c2a6	-0.037050866
209	0xbe0a425b	-0.13501875
210	0xbd9e75fb	-0.07737347
211	0xbc899990	-0.016796857
212	0x3c710711	0.014711157
213	0xbd046e62	-0.03233183
214	0xbcc7ee14	-0.024405517
215	0x3d86e70a	0.06587036
216	0x3d719120	0.058976293
217	0x3dd1e274	0.10248271
218	0x3c7dac13	0.01548292
219	0xbbc9460e	-0.0061423844
220	0x3e2a23f2	0.16615275
221	0x3dbf87ac	0.09352049
222	0xbc2dd84e	-0.010610653
223	0xbc8c8272	-0.017152045
224	0x3d439d2a	0.047757305
225	0xbd35077d	-0.044196595
226	0x3d2d51b1	0.042314235
227	0x3c2e49e7	0.010637737
228	0xba2bcd3b	-0.0006553714
229	0xbd0f9a54	-0.03505929
230	0x3cf8f602	0.030390743
231	0x3c03e3e7	0.008049942
232	0x3d3a177c	0.045432553
233	0x3cdcf579	0.02697252
234	0x3c9af5f9	0.018916117
235	0xbd9c8748	-0.0764299
236	0x3c574e38	0.013141207
237	0xbc6608ce	-0.014040185
238	0xbc0a678d	-0.00844754
239	0x3ad57800	0.0016286373
240	0x3c704327	0.014664448
241	0x3c98cd00	0.01865244
242	0xba87476c	-0.0010320968
243	0x3cf00603	0.029299742
244	0xbce2eb45	-0.027700076
245	0xbcd2ef4d	-0.025748873
246	0x3d5402b2	0.051760383
247	0xbd2237ea	-0.039604105
248	0xbd32fb30	-0.043696582
249	0x3ba7ceb2	0.0051210755
250	0xbd3a1094	-0.045425966
251	0xbcf07850	-0.029354244
252	0xbd6e78b6	-0.058220588
253	0x3c1b1745	0.009465997
254	0xbd2d7010	-0.0423432
255	0xbcbad297	-0.022805495

6.bias f4 [64]
0	0xbc9f1bf9	-0.019422518
1	0x3c5ba83c	0.013406809
2	0xba1ef2e8	-0.00060634175
3	0x3c7b7977	0.015348784
4	0x3ce15d08	0.027510181
5	0xbba5cc07	-0.0050597223
6	0x3c9df8dd	0.019283706
7	0xbb823abb	-0.0039742864
8	0xbcdf3850	-0.027248532
9	0xbae18a9c	-0.0017207447
10	0x3ca35aa4	0.019940682
11	0xbc36888e	-0.011140956
12	0x3ace2e8c	0.0015730425
13	0xbcd47a05	-0.02593709
14	0x3b952037	0.0045509594
15	0x3bef4478	0.0073018633
16	0xbbaff12b	-0.0053693256
17	0xbc0dace2	-0.0086471755
18	0x3b40f903	0.0029445298
19	0xbcaec51c	-0.021334223
20	0x3bbd91fe	0.005785226
21	0x3c57545d	0.013142672
22	0xbc918f60	-0.017768562
23	0xbbf6a26d	-0.007526687
24	0x3cd830f6	0.026390534
25	0x3cf162c3	0.029466039
26	0x3cbad036	0.02280436
27	0x3bc47a0c	0.0059959944
28	0x3cee67ed	0.02910229
29	0xbca92355	-0.02064673
30	0x3cf8cf0b	0.030372163
31	0xbcfc7e76	-0.03082202
32	0xbc54ca7b	-0.012987728
33	0x3cd5e6d6	0.026111048
34	0x3c94763f	0.01812279
35	0xbc8d0db7	-0.017218454
36	0x3cdb681f	0.026783047
37	0x3cd80f57	0.026374502
38	0x3be5af05	0.0070093893
39	0xbbbaf978	-0.0057060085
40	0x3cf8c376	0.03036664
41	0xbc752062	-0.014961334
42	0xbcc03c0a	-0.023466129
43	0x3c0ba286	0.008522635
44	0x3cd0e43b	0.025499454
45	0xbc8c3d8e	-0.017119195
46	0xbc0d8d16	-0.008639595
47	0xbc347286	-0.011013633
48	0x3cd27e9e	0.025695141
49	0xbc990152	-0.018677387
50	0x3ae79bb4	0.0017670305
51	0x3c586ea5	0.013209973
52	0x3cf5f2d9	0.030023025
53	0x3b93206a	0.004489948
54	0x3ca2be21	0.019866051
55	0x3c59e700	0.013299704
56	0x3ced4471	0.0289633
57	0x3c0f3698	0.0087410435
58	0x3c7352bb	0.014851267
59	0x3c2b64c1	0.010461033
60	0xba960a8f	-0.0011447239
61	0xbc7e7efd	-0.015533206
62	0xbb75c59e	-0.0037501822
63	0xbce6f737	-0.028194053

7.odefunc.norm1.weight f4 [74]
0	0x3f5e970b	0.86949223
1	0x3f5f6f51	0.8727923
2	0x3f46f932	0.7772399
3	0x3f63946c	0.8889835
4	0x3f5e99e0	0.86953545
5	0x3fa93703	1.3219913
6	0x3f8c1034	1.0942445
7	0x3f5e0838	0.8673129
8	0x3f61c319	0.8818832
9	0x3f91bfd4	1.1386666
10	0x3f2f039b	0.68364877
11	0x3fa2e053	1.2724708
12	0x3f53c37c	0.8272016
13	0x3f9a8042	1.2070391
14	0x3f55967c	0.83432746
15	0x3fa0a88b	1.2551435
16	0x3f9ccd1d	1.2250096
17	0x3fb6e668	1.4289064
18	0x3f56af0b	0.83860844
19	0x3f279ef6	0.6547693
20	0x3f788066	0.9707092
21	0x3f84e824	1.0383344
22	0x3f853b02	1.0408633
23	0x3f692eea	0.9108721
24	0x3f930d17	1.148837
25	0x3f80e3e9	1.0069553
26	0x3f8f94f4	1.1217332
27	0x3f53eefc	0.82786536
28	0x3f8b463c	1.0880809
29	0x3f7301dc	0.9492471
30	0x3fad0c14	1.3519311
31	0x3f4f6e16	0.8102735
32	0x3f4fcf09	0.81175286
33	0x3f7ba770	0.98302364
34	0x3f4dae28	0.80343866
35	0x3f5214c6	0.8206295
36	0x3fa83f6a	1.3144352
37	0x3f5cff5b	0.8632714
38	0x3f66bac9	0.9012876
39	0x3f69267c	0.9107435
40	0x3f30ad10	0.6901407
41	0x3f898187	1.0742654
42	0x3f42fc69	0.761664
43	0x3f7f2908	0.99671984
44	0x3f9e5321	1.2369119
45	0x3f8911dc	1.0708575
46	0x3f86eab5	1.0540377
47	0x3f86422f	1.0488948
48	0x3f8224c0	1.0167465
49	0x3f55e2f7	0.83549446
50	0x3f931af1	1.1492597
51	0x3f6ff4d1	0.93732935
52	0x3f73e880	0.9527664
53	0x3f27841b	0.6543595
54	0x3f964e17	1.1742581
55	0x3f4e8fe7	0.8068833
56	0x3f7ffe0f	0.9999704
57	0x3f9246b9	1.1427833
58	0x3f76611a	0.96241915
59	0x3f87eeca	1.0619748
60	0x3fa926df	1.3214988
61	0x3f3e0776	0.74230134
62	0x3f6ae0b4	0.9174912
63	0x3f53ca5d	0.82730657
64	0x3f8f0351	1.1172887
65	0x3f79d60e	0.97592247
66	0x3f6d0d8c	0.92598796
67	0x3f63f158	0.89040136
68	0x3f97ee30	1.1869564
69	0x3f65cd91	0.89766794
70	0x3f916b2e	1.1360834
71	0x3f8c12f1	1.094328
72	0x3f93fcc8	1.1561518
73	0x3f7a0e03	0.9767763

7.odefunc.norm1.bias f4 [74]
0	0xbe9f318b	-0.31092486
1	0xbf02ab16	-0.51042306
2	0xbeebff68	-0.46093297
3	0xbeab9777	-0.33513996
4	0xbeb96162	-0.3620711
5	0xbe6ac380	-0.2292614
6	0xbe847a65	-0.2587463
7	0xbf144015	-0.5791028
8	0xbefcc7ef	-0.49371287
9	0xbdfe401d	-0.124145724
10	0xbea13bae	-0.31490844
11	0xbdca93f3	-0.098915
12	0xbf092d28	-0.5358453
13	0xbe04b944	-0.12961298
14	0xbedc61c9	-0.43043354
15	0xbdba4744	-0.09095624
16	0xbe779010	-0.24176049
17	0xbcd6c236	-0.026215654
18	0xbedfdbda	-0.4372242
19	0xbf00cec5	-0.50315505
20	0xbf11de74	-0.5698006
21	0xbe2d0741	-0.16897298
22	0xbe9ba89e	-0.30402082
23	0xbf06ac80	-0.52606964
24	0xbe85194a	-0.25995857
25	0xbe4dd117	-0.20099293
26	0xbe36fe7f	-0.1787052
27	0xbef52f3a	-0.47887594
28	0xbeac02a8	-0.33595777
29	0xbe9e5245	-0.30922142
30	0xbe8bd2dd	-0.27309313
31	0xbf546572	-0.82967293
32	0xbeb41913	-0.3517538
33	0xbdcd92d8	-0.10037774
34	0xbec5644f	-0.38553092
35	0xbeed2fe0	-0.46325588
36	0xbebb0a9b	-0.3653153
37	0xbecfb9ed	-0.40571538
38	0xbf38f08f	-0.72242063
39	0xbec6332e	-0.38710922
40	0xbede56fd	-0.43425742
41	0xbabfbcae	-0.0014628374
42	0xbecfaa73	-0.4055973
43	0xbf05ccca	-0.5226561
44	0xbe31f51e	-0.17378661
45	0xbe8efcfc	-0.27927387
46	0xbe2bf497	-0.16792522
47	0xbe272482	-0.1632252
48	0xbeaf4953	-0.3423563
49	0xbe86267a	-0.2620123
50	0xbe505121	-0.20343448
51	0xbeb2f17a	-0.34949857
52	0xbefca8a8	-0.49347425
53	0xbee49635	-0.4464585
54	0xbe3a66f0	-0.1820333
55	0xbe741546	-0.2383624
56	0xbe0796f8	-0.13241184
57	0xbebd8d8f	-0.37022063
58	0xbf02128c	-0.5080955
59	0xbe74a6c2	-0.23891738
60	0xbea7d29f	-0.3277788
61	0xbeabdfd7	-0.33569214
62	0xbf052be9	-0.52020127
63	0xbea4fb25	-0.32222858
64	0xbf0cf2fa	-0.5505825
65	0xbf01ae47	-0.5065655
66	0xbf18368c	-0.5945823
67	0xbe8f31b6	-0.27967614
68	0xbc896819	-0.01677327
69	0xbf106751	-0.5640765
70	0xbe3ee29f	-0.18641137
71	0xbeaba71f	-0.3352594
72	0xbd8eae74	-0.06966868
73	0xbf315e80	-0.6928482

7.odefunc.conv1._layer.weight f4 [74, 75, 3, 3]
0	0xbb4c9d17	-0.0031221563
1	0x3c85db14	0.016339816
2	0xbc040aaa	-0.008059183
3	0xbcbe0d5b	-0.023199728
4	0xbcf43d91	-0.029814513
5	0xbd3afdb5	-0.04565211
6	0x3a8d4d93	0.0010780565
7	0x3d79c0ab	0.060974758
8	0x3cc3674f	0.023852972
9	0xbb99e94a	-0.0046969997
10	0x3e0afc08	0.13572705
11	0xbcede991	-0.029042037
12	0xbd070a6e	-0.03296893
13	0xbd900adc	-0.07033321
14	0x3c85f8d5	0.016354004
15	0xbc9bc12e	-0.019013014
16	0xbd49d767	-0.04927769
17	0xbd6275d8	-0.055288166
18	0x3bfcf874	0.0077200476
19	0xbd5a30d9	-0.05326924
20	0xbe22031a	-0.15821496
21	0xbc64df10	-0.013969198
22	0xbd57d356	-0.05269178
23	0xbcca00c2	-0.024658564
24	0xbc95d3c8	-0.018289462
25	0x3cf5f27a	0.030022848
26	0xbd6efc52	-0.0583461
27	0x3d27d8d7	0.04097828
28	0xbd9808f2	-0.07423581
29	0xbdb729fb	-0.08943554
30	0x3dca196c	0.0986813
31	0x3dfa7470	0.1222924
32	0xbdb32a5b	-0.08748313
33	0x3d910780	0.07081509
34	0xbda5029e	-0.0805714
35	0xbe414b71	-0.18876435
36	0x3d486d74	0.048932508
37	0x3daf55eb	0.085613094
38	0x3d1a7a99	0.037714574
39	0xbc9db501	-0.019251348
40	0xbd03229e	-0.032015435
41	0x3ceedafc	0.029157154
42	0x3a4c644c	0.0007796928
43	0x3e2561be	0.16150567
44	0x3e263ea4	0.16234833
45	0xbba9e6d4	-0.0051849876
46	0xbe00ed2a	-0.12590471
47	0xbddf1f36	-0.10894625
48	0x3db2f85e	0.087387785
49	0xbd9415d6	-0.072307274
50	0x3e32c22e	0.17456886
51	0xbdbcfd33	-0.092279814
52	0x3c99c60c	0.018771194
53	0xbd21ec74	-0.03953214
54	0xbd29959f	-0.041402455
55	0xbd91eb3b	-0.07124945
56	0xbe6d7293	-0.23188238
57	0xbd87faba	-0.06639619
58	0x3daefdc7	0.08544498
59	0x3d9a445f	0.07532572
60	0xbdbe3007	-0.09286504
61	0x3c882380	0.01661849
62	0x3e6646f0	0.22487998
63	0xba7ff82d	-0.0009764459
64	0xbdb651d6	-0.08902328
65	0x3c72d6d3	0.014821726
66	0xbd9f4d49	-0.07778413
67	0x3cf843ab	0.030305704
68	0x3c5b1d0d	0.013373625
69	0xbd9d67b8	-0.076857984
70	0xbd2fedf9	-0.042951558
71	0x3d4fc48d	0.050724555
72	0xbdde0f77	-0.108427934
73	0xbddadb58	-0.10686368
74	0x3c8ae1ec	0.016953431
75	0xbd8e8650	-0.06959212
76	0x3da51883	0.08061316
77	0x3d830514	0.06397453
78	0xbd14cff4	-0.036331132
79	0xbe049d52	-0.12950638
80	0xbe07047d	-0.13185306
81	0xbd1668dd	-0.0367211
82	0xbd6b51a0	-0.05745089
83	0xbd044409	-0.032291446
84	0xbda3bc30	-0.07994878
85	0x3de27ea8	0.11059314
86	0xbadf5f66	-0.0017041981
87	0xbd7e1f8f	-0.062041815
88	0xbdcd0131	-0.10009993
89	0xbde4aee8	-0.11166173
90	0xbbab6219	-0.0052302
91	0xbdb2585a	-0.08708258
92	0xbdc4330f	-0.09580051
93	0x3d3d214d	0.046174336
94	0x3c90c512	0.017672095
95	0x3dcfbe5c	0.1014373
96	0x3d182a0b	0.03714947
97	0x3e1ee223	0.15515952
98	0x3d404b7e	0.046946995
99	0xbcdd691d	-0.027027661
100	0x3dc5546f	0.09635245
101	0x3e176b0c	0.14786929
102	0xbe1d5c7f	-0.15367316
103	0x3da78d5c	0.08181259
104	0x3c2947be	0.010332046
105	0xbdb6a672	-0.08918466
106	0xbd8c1419	-0.06839771
107	0xbdfab6ab	-0.122418724
108	0x3bbc3226	0.005743283
109	0x3aa249b1	0.0012381581
110	0x3c1841a3	0.009292993
111	0x3d841c9a	0.06450768
112	0xbcecdffc	-0.028915398
113	0x3d81552d	0.06315074
114	0xbc21daf5	-0.009878864
115	0x3b697ddf	0.0035628004
116	0x3d5f3100	0.05449009
117	0xbce5df42	-0.02806056
118	0x3d5f7a17	0.054559793
119	0xbcee5fd5	-0.02909843
120	0x3daa9240	0.08328676
121	0x3dbacf44	0.09121564
122	0x3d1f468b	0.038885634
123	0xbac976e8	-0.001537052
124	0x3d14be96	0.03631457
125	0xbc1c5fbe	-0.009544311
126	0xbdf2e8ed	-0.11860833
127	0xbd137a89	-0.03600553
128	0x3e04c560	0.12965918
129	0xbdbfc816	-0.09364335
130	0xbdcc06c3	-0.09962227
131	0xbd245da4	-0.040128365
132	0x3d37e120	0.04489243
133	0xbd097105	-0.03355505
134	0x3ce1e510	0.027575046
135	0xbdd6a8a1	-0.10481382
136	0xbe16fe02	-0.14745334
137	0xbe45e340	-0.1932497
138	0x3d5ab2ce	0.053393178
139	0x3dd50e9a	0.10403176
140	0x3bda3ee0	0.0066603273
141	0x3dbc9c4c	0.09209499
142	0x3d335ea5	0.043791432
143	0x3d4b5d30	0.049649417
144	0xbe23f6b2	-0.16012076
145	0xbd44a509	-0.048008952
146	0x3cf6e42c	0.030138098
147	0xbe00b55b	-0.12569182
148	0xbcb7f887	-0.022457374
149	0x3d8a801a	0.06762715
150	0x3a8109bf	0.0009844824
151	0xbcee0534	-0.029055215
152	0x3a92a60a	0.00111884
153	0xbdfd9236	-0.12381403
154	0xbc97bc9c	-0.018522553
155	0x3e13ce60	0.14434195
156	0xbd512364	-0.05105914
157	0x3d971848	0.07377678
158	0x3e2a68de	0.16641566
159	0xbd46535f	-0.048419353
160	0xbd40e907	-0.047097232
161	0xbdc03661	-0.09385372
162	0x3e64ddb2	0.22350195
163	0x3cdcbcbd	0.026945466
164	0xbe28b7bb	-0.16476338
165	0x3c3991b9	0.011326247
166	0xbd55d787	-0.052207496
167	0xbdb0ec37	-0.086388044
168	0x3d8b7722	0.06809832
169	0x3dfa618c	0.12225637
170	0x3cc2f401	0.02379799
171	0xbd4e815b	-0.05041633
172	0xbe0be603	-0.13661961
173	0xbdd589ab	-0.10426649
174	0xbca45ef8	-0.020064816
175	0x3da31429	0.079628296
176	0x3dbe65e0	0.09296775
177	0x3dfb8945	0.122820415
178	0xbb57dab5	-0.0032936756
179	0x3a2cd10e	0.0006592431
180	0xbd97d6ee	-0.074140415
181	0xbe0c42db	-0.13697378
182	0x3da08edb	0.078397475
183	0xbd8a291e	-0.06746124
184	0x3d4b0ab3	0.04957075
185	0x3d6471e2	0.05577267
186	0x3b88211a	0.0041543366
187	0x3dcccc85	0.099999465
188	0x3be6d683	0.0070446148
189	0x3e00a7f3	0.12564068
190	0xbc0b1a62	-0.008490177
191	0xbd6d2134	-0.057892993
192	0xbdb3f156	-0.087862656
193	0xbd1257fc	-0.03572844
194	0xbbb16970	-0.0054141805
195	0x3ba39bd2	0.0049929405
196	0x3e5959d3	0.21225671
197	0xbcf369e0	-0.029713571
198	0xbdc676fd	-0.09690664
199	0x3ce1465c	0.02749937
200	0x3d8b543c	0.06803176
201	0xbde2071f	-0.110365145
202	0xbdccf80d	-0.100082494
203	0xbdb6218e	-0.08893119
204	0xbe13a3f6	-0.14418015
205	0xbd9e090e	-0.07716571
206	0xbd8e36a7	-0.06944018
207	0xbdc2991e	-0.09501861
208	0x3a166beb	0.0005738127
209	0x3d914e11	0.07094968
210	0xbd77bd6b	-0.060483377
211	0x3db84070	0.089966655
212	0x3dd9cc1b	0.10634633
213	0xb90db28b	-0.0001351332
214	0xbde2d0af	-0.110749595
215	0xbdcacaad	-0.099019386
216	0x3dfd3f07	0.12365537
217	0xbd172878	-0.03690383
218	0x3c0a2072	0.008430587
219	0x3da38aeb	0.07985481
220	0xbd2dc120	-0.042420506
221	0xbe0d3300	-0.13788986
222	0xbdf5e548	-0.120066226
223	0xba1e9549	-0.0006049467
224	0x3daacc14	0.08339706
225	0x3c81f041	0.015861632
226	0x3e11de86	0.14245042
227	0x3c7af82b	0.015317957
228	0x3da0b38b	0.07846745
229	0xbbf54934	-0.007485533
230	0xbde876b2	-0.11350764
231	0xbdeeff71	-0.11669815
232	0xbda1b965	-0.07896689
233	0x3bd43c96	0.006476949
234	0xbcd5fdc6	-0.026121985
235	0xbd7114b6	-0.058857642
236	0x3cace44f	0.02110496
237	0x3cebc09f	0.028778372
238	0x3dfd1820	0.12358117
239	0xbd917d42	-0.07103969
240	0xbd51b440	-0.05119729
241	0xbd866b54	-0.0656344
242	0xbd515ddb	-0.0511149
243	0x3cbf51f7	0.023354514
244	0x3dd97468	0.10617906
245	0xbc87850d	-0.016542936
246	0x3e045e92	0.129267
247	0x3d7e3ce9	0.062069807
248	0xbda2923e	-0.0793805
249	0xbd33d68b	-0.043905776
250	0xbd34024b	-0.0439475
251	0xbcbeac17	-0.023275418
252	0x3cd62548	0.026140824
253	0xbde729ab	-0.112872444
254	0xbdf0f1e8	-0.1176489
255	0xbdbd1db6	-0.092341825

7.odefunc.conv1._layer.bias f4 [74]
0	0xbc22aab3	-0.009928393
1	0xbcc3cf66	-0.023902606
2	0xbbf5b0e3	-0.007497893
3	0x3cd10413	0.025514638
4	0x3d0fff60	0.035155654
5	0xbd0a6563	-0.033788096
6	0xbc8ada24	-0.01694972
7	0xbc00a28a	-0.007851252
8	0xbae8b117	-0.0017752972
9	0xbb014867	-0.0019726993
10	0xbcd79643	-0.026316768
11	0xbced941c	-0.029001288
12	0xbbd3244e	-0.006443537
13	0x3b6de10d	0.003629747
14	0xbcb5cf8c	-0.022193693
15	0xbce4e781	-0.02794242
16	0xbd1a8617	-0.037725534
17	0x3ce67a50	0.028134495
18	0x3c889e81	0.016677143
19	0xb942f7f3	-0.0001859365
20	0x3b635222	0.0034686406
21	0x3c9ad5be	0.018900748
22	0xbcdcf482	-0.02697206
23	0xbcffe9f8	-0.031239495
24	0x3bb074bc	0.0053850096
25	0xbc914b28	-0.017736033
26	0x3cb26630	0.021777242
27	0xbce3ca3a	-0.02780639
28	0xbbc44d93	-0.005990693
29	0xbca2d6ac	-0.019877754
30	0xbcbffce6	-0.023436021
31	0x3cb95881	0.02262521
32	0x3d082413	0.033237528
33	0x3c4a8444	0.012360636
34	0xbcbeabda	-0.023275305
35	0x3cba7280	0.022759676
36	0xbb9bd691	-0.004755803
37	0xba52413f	-0.00080205867
38	0xbb165013	-0.0022935912
39	0xbc29ff20	-0.010375768
40	0x3c1f26c8	0.009713836
41	0x3c284ac4	0.010271732
42	0xbba3c706	-0.0049980907
43	0xbb6a3424	-0.0035736645
44	0xbc6c294b	-0.014414142
45	0xbcac4de9	-0.021033244
46	0xbd1957b0	-0.03743714
47	0x3ad9a674	0.0016605393
48	0x3c4ee436	0.012627652
49	0x3d1176db	0.03551374
50	0xbc27e4f5	-0.010247459
51	0xbd11e641	-0.035619978
52	0xbd029cfe	-0.031888
53	0x3c485e3a	0.012229497
54	0x3cc1d960	0.023663223
55	0xbc8ff7c1	-0.017574193
56	0xbc50f08f	-0.012752666
57	0xbc9941cb	-0.01870813
58	0x3b286e5b	0.0025700543
59	0x3cc36183	0.023850208
60	0x3c959cc1	0.018263223
61	0x3d0c86eb	0.034308355
62	0x3d09e7c0	0.03366828
63	0xbce28860	-0.02765292
64	0x3c1f9999	0.00974121
65	0xbcd7ddc4	-0.026350863
66	0xbc98cc12	-0.018651996
67	0xbd17f911	-0.037102763
68	0x3d1c216f	0.038117822
69	0xbc190efa	-0.00934195
70	0x3c0cc1a0	0.008591086
71	0xbbf8eb4d	-0.0075964094
72	0xbc0604c6	-0.008179849
73	0xbb69f4f0	-0.0035698973

7.odefunc.norm2.weight f4 [74]
0	0x3f37d123	0.7180349
1	0x3f8f6c7f	1.1204985
2	0x3f428e5a	0.7599846
3	0x3f877737	1.0583256
4	0x3f61e908	0.882462
5	0x3f80eff8	1.0073233
6	0x3f52f3c4	0.82403207
7	0x3f512f22	0.81712544
8	0x3f2b5ad2	0.66935456
9	0x3f354ed4	0.7082341
10	0x3f83ad3c	1.0287242
11	0x3f4f27cb	0.80920094
12	0x3f7a854a	0.9785963
13	0x3f7c9f08	0.9868016
14	0x3f6b2f31	0.91868883
15	0x3f51139c	0.81670547
16	0x3f6cf084	0.925545
17	0x3f81854b	1.0118803
18	0x3f5d500a	0.86450255
19	0x3f5ec591	0.8702021
20	0x3f44ec01	0.76922613
21	0x3f8043b1	1.0020658
22	0x3f39e87e	0.7262038
23	0x3f45826d	0.7715214
24	0x3f35020a	0.70706236
25	0x3f4724b4	0.7779038
26	0x3f6316fe	0.8870696
27	0x3f5895aa	0.8460337
28	0x3f59614b	0.8491408
29	0x3f73c273	0.9521858
30	0x3f82af93	1.0209831
31	0x3f8ce3d8	1.1007032
32	0x3f7e7a9b	0.9940583
33	0x3f4de1c5	0.8042262
34	0x3f4faeb6	0.8112596
35	0x3f8cb09e	1.0991399
36	0x3f72198e	0.94570243
37	0x3f541e51	0.8285876
38	0x3f73589a	0.9505707
39	0x3f87dbad	1.0613915
40	0x3f6e00f4	0.92970204
41	0x3f341138	0.70338774
42	0x3f506c15	0.8141492
43	0x3f554e7b	0.83322877
44	0x3f1ce5aa	0.6128794
45	0x3f4c3cc4	0.7978022
46	0x3f330d00	0.6994171
47	0x3f941286	1.1568153
48	0x3f80c7a4	1.0060925
49	0x3f746934	0.9547303
50	0x3f836d8a	1.0267804
51	0x3f45fc97	0.77338547
52	0x3f70c038	0.940433
53	0x3f7ebc58	0.9950614
54	0x3f593796	0.8485044
55	0x3f7756a8	0.966166
56	0x3f7ed44f	0.9954271
57	0x3f7aea1e	0.98013484
58	0x3f69f9ea	0.91396964
59	0x3f313e36	0.6923555
60	0x3f5f1919	0.8714767
61	0x3f7d8d6a	0.99043906
62	0x3f55b013	0.8347179
63	0x3f87b353	1.06016
64	0x3f5efb2d	0.87102014
65	0x3f89370a	1.0719922
66	0x3f856f48	1.0424585
67	0x3f89503c	1.072761
68	0x3f3b29aa	0.7311045
69	0x3f721e61	0.94577605
70	0x3f85585c	1.041759
71	0x3f50d045	0.81567794
72	0x3f8eec2a	1.1165822
73	0x3f90e047	1.1318444

7.odefunc.norm2.bias f4 [74]
0	0xbed38566	-0.41312712
1	0xbebcb709	-0.36858395
2	0xbed5202f	-0.41626117
3	0xbeb2e46f	-0.34939906
4	0xbf1b2997	-0.60610336
5	0xbf0a08d3	-0.53919715
6	0xbf22d18f	-0.6360101
7	0xbf20ed5d	-0.6286219
8	0xbf34aefe	-0.70579517
9	0xbf2eb2ed	-0.6824177
10	0xbf1cf311	-0.6130839
11	0xbefbdf4d	-0.49193802
12	0xbf1db914	-0.6161053
13	0xbeffba62	-0.49946886
14	0xbf0fc0bc	-0.56153464
15	0xbf28c6fe	-0.6592864
16	0xbedece9b	-0.43517002
17	0xbedcd18d	-0.43128625
18	0xbefe0aac	-0.49617517
19	0xbf256065	-0.6460021
20	0xbf1e58b1	-0.6185408
21	0xbee6102f	-0.44934222
22	0xbf1ef999	-0.62099606
23	0xbf315711	-0.6927348
24	0xbf14a67a	-0.58066523
25	0xbf00e507	-0.5034947
26	0xbeeb4730	-0.4595275
27	0xbf20ebea	-0.62859976
28	0xbf41efa8	-0.7575631
29	0xbeeba313	-0.46022853
30	0xbe81b5a8	-0.25333905
31	0xbeebea18	-0.46077037
32	0xbf179c6e	-0.5922307
33	0xbf1a7377	-0.60332435
34	0xbf11f176	-0.57009065
35	0xbe8fcc6b	-0.28085646
36	0xbee93a36	-0.45552224
37	0xbf47f659	-0.7811027
38	0xbf0e8135	-0.55665904
39	0xbe7bbfeb	-0.2458493
40	0xbf1a0975	-0.6017068
41	0xbf1ceef8	-0.6130214
42	0xbf1203ef	-0.5703725
43	0xbf255ded	-0.64596444
44	0xbf1e505c	-0.6184137
45	0xbf25a2ad	-0.6470135
46	0xbf1e4707	-0.6182713
47	0xbee4e1a8	-0.44703412
48	0xbf1aab48	-0.60417604
49	0xbf07b977	-0.5301737
50	0xbf0d8045	-0.5527385
51	0xbf0b7362	-0.54472935
52	0xbecc61e8	-0.39918447
53	0xbf19ecc0	-0.60126877
54	0xbf34d3a2	-0.70635426
55	0xbf05e8dd	-0.52308446
56	0xbef017f5	-0.46893278
57	0xbef5ee3e	-0.48033327
58	0xbf1a84ee	-0.60359085
59	0xbf1f084c	-0.62122035
60	0xbf224eac	-0.63401294
61	0xbed25ef7	-0.41088077
62	0xbec93d9c	-0.39304817
63	0xbefafca0	-0.49020863
64	0xbf2d95b5	-0.6780656
65	0xbe8bb32e	-0.2728514
66	0xbf0fa939	-0.5611759
67	0xbeebc55c	-0.4604901
68	0xbefb7ea4	-0.49120057
69	0xbeb76223	-0.3581706
70	0xbeb89353	-0.360499
71	0xbf178e63	-0.5920164
72	0xbf163396	-0.58672464
73	0xbf4163ae	-0.75542724
