experiment_anode10_mnist_v1/model.pth (torch_old, 938007 bytes, 24 tensors)

0.weight f4 [64, 1, 3, 3]
0.17910616 0.26789123 -0.17779273 0.030319607 -0.30401248 -0.32531297 -0.2835588 -0.22292234
0.07247148 0.49895725 -0.28096494 -0.050574236 -0.022750787 -0.112074375 -0.31995013 -0.13473193
-0.42409176 0.27977312 -0.12091718 -0.14465553 -0.20085795 0.11132659 0.063680485 -0.57971644
0.32963228 0.3758996 -0.46180972 -0.6496871 -0.40292376 -0.08029792 0.011494011 0.1322833
-0.29355547 0.5879508 0.36856115 0.24328905 -0.54447615 0.19022442 -0.08273151 0.60393363
0.42113316 0.04918688 -0.23789082 -0.6288831 -0.3661767 0.21742857 -0.3606633 0.6535706
-0.28095976 -0.6887721 0.271901 0.37634116 -0.46177754 -0.22406146 0.28476337 0.19701362
0.4572016 -0.17283607 -0.41658425 -0.5646148 -0.4592069 0.09371675 -0.102618046 -0.67512584
0.16160715 0.20439705 0.09550817 0.45144033 0.21737431 0.064616755 -0.0517592 -0.25100026
0.12044618 0.11436152 0.3562688 0.3002986 0.28086448 0.2455174 -0.30021176 -0.45106092
-0.23469481 0.2660801 0.23603117 -0.04581418 -0.19118547 -0.35994262 0.302953 0.3338478
0.2262403 -0.0047269175 -0.1529847 0.1830676 0.2055012 0.19786379 -0.25078234 0.15203059
0.38967437 -0.05894536 0.33773655 0.16748561 0.53994256 -0.3435649 -0.5118668 0.67505884
0.10932286 -0.48160145 -0.20841116 0.07659979 -0.27222064 -0.11029196 -0.3335481 -0.32928735
0.07501811 0.011218137 -0.18781655 -0.24312922 0.30994374 -0.23958348 -0.019180363 0.07167987
-0.5082625 0.055591613 0.39901724 0.0058318325 0.327212 0.10933432 -0.3275013 0.19674285
-0.27736813 -0.20930438 0.25301746 0.2710552 -0.03225044 0.16658716 0.1861848 -0.08108438
-0.28941226 0.089651406 -0.18590401 -0.17810506 0.25276908 -0.23404385 0.31886083 0.3442215
0.34596348 -0.25705025 -0.6814781 0.4772681 0.30740246 -0.41444907 0.024460325 0.5052552
-0.0064649084 -0.34180534 -0.43097562 0.15235278 0.30411962 0.39026648 0.18767624 0.3361604
0.2379658 -0.31265363 -0.03043542 0.43808737 -0.09282081 -0.363992 0.48340866 0.5294972
-0.6947183 -0.3237454 0.06558175 -0.37370113 0.259188 0.4337174 -0.16399387 -0.05286315
0.32909766 -0.30285826 0.25983664 -0.1593983 0.17699485 0.17257167 -0.31644627 0.018596204
-0.1310652 0.0028762235 0.27793238 0.29016438 0.3444268 0.019835984 -0.20449173 -0.017829964
-0.35480154 0.008769683 -0.06667121 0.11301006 -0.10171296 -0.29866245 0.017514804 -0.28081298
-0.16236056 -0.11053561 0.14516279 -0.25961375 -0.1061363 -0.07592863 -0.23826024 -0.39129674
-0.024966214 0.3336601 -0.501062 0.316526 0.16338702 0.08053602 0.41070852 -0.6128632
-0.284953 -0.35581228 0.1966362 -0.039081514 -0.36813894 0.2367046 -0.44154632 0.11766434
0.057279434 0.23760498 -0.5109276 -0.52387667 0.30420533 0.3344406 -0.4169407 0.40220043
0.23335074 0.4707355 0.1524651 -0.33718467 0.11250335 -0.2636302 -0.2317104 -0.28460333
-0.3195096 -0.30192092 -0.17722176 -0.20048554 0.088747755 -0.24645598 0.15035619 -0.26345026
-0.092481084 0.41199303 -0.15632497 -0.4233629 0.23610751 0.035775788 0.059704307 0.21282272
00000000: 9b67 373e 0a29 893e 4c0f 36be d360 f83c
00000010: 86a7 9bbe 6c8f a6be 9e2e 91be c145 64be
00000020: ed6b 943d 5377 ff3e a3da 8fbe ee26 4fbd
00000030: dc5f babc 4087 e5bd 81d0 a3be 2bf7 09be
00000040: 8e22 d9be 6c3e 8f3e 6da3 f7bd 9420 14be
00000050: b5ad 4dbe 32ff e33d ea6a 823d 4c68 14bf
00000060: 90c5 a83e ea75 c03e 5372 ecbe e551 26bf
00000070: 064c cebe 3c73 a4bd 6051 3c3c 4675 073e
00000080: e74c 96be f283 163f 0cb4 bc3e c420 793e
00000090: ca62 0bbf 31ca 423e 236f a9bd 659b 1a3f
000000a0: c49e d73e 2f78 493d a799 73be 7cfe 20bf
000000b0: 837b bbbe 98a5 5e3e dca8 b8be 6750 273f
000000c0: f5d9 8fbe 5e53 30bf 9c36 8b3e caaf c03e
000000d0: 1b6e ecbe 5e70 65be 81cc 913e f0bd 493e
000000e0: 5416 ea3e f0fb 30be 884a d5be 988a 10bf
000000f0: 2b1d ebbe 91ee bf3d 6929 d2bd 0cd5 2cbf
00000100: 587c 253e 764d 513e ca99 c33d 3023 e73e
00000110: 5f97 5e3e ca55 843d 7401 54bd 1b83 80be
00000120: 7dac f63d 5f36 ea3d dd68 b63e bdc0 993e
00000130: 78cd 8f3e ea68 7b3e 5bb5 99be 75f1 e6be
00000140: d653 70be a73b 883e 28b2 713e a6a7 3bbd
00000150: 20c6 43be 664a b8be a81c 9b3e 19ee aa3e
00000160: 8aab 673e 42e4 9abb 05a8 1cbe 1376 3b3e
00000170: e86e 523e ce9c 4a3e 8b66 80be e8ad 1b3e
00000180: 6683 c73e b170 71bd ceeb ac3e 5981 2b3e
00000190: ad39 0a3f bde7 afbe b409 03bf a8d0 2c3f
000001a0: aae4 df3d 7794 f6be bc69 55be 5ae0 9c3d
000001b0: 8160 8bbe c0e0 e1bd d1c6 aabe 5a98 a8be
000001c0: 18a3 993d 47cc 373c fb52 40be def6 78be
000001d0: f2b0 9e3e 5f55 75be 2320 9dbc e5cc 923d
000001e0: 7e1d 02bf 08b4 633d fd4b cc3e f518 bf3b
000001f0: 5588 a73e acea df3d 40ae a7be f576 493e
00000200: 3203 8ebe e353 56be 818b 813e bfc7 8a3e
00000210: 0a19 04bd d395 2a3e 3aa7 3e3e 910f a6bd
00000220: d82d 94be 289b b73d 9f5d 3ebe 2c61 36be
00000230: f36a 813e 31a9 6fbe ba41 a33e cd3d b03e
00000240: 2022 b13e 179c 83be 5975 2ebf 7c5c f43e
00000250: db63 9d3e ab32 d4be 0561 c83c 6858 013f
00000260: 95d7 d3bb 1c01 afbe d6a8 dcbe 5e02 1c3e
00000270: 91b5 9b3e 02d1 c73e 332e 403e 371d ac3e
00000280: 4fad 733e 2314 a0be b453 f9bc fd4c e03e
00000290: d618 bebd 295d babe 5781 f73e 218d 073f
000002a0: 0fd9 31bf f5c1 a5be b94f 863d c155 bfbe
000002b0: 4ab4 843e 3510 de3e 02ee 27be 0887 58bd
000002c0: 7d7f a83e 3d10 9bbe 4f09 853e 4f39 23be
000002d0: 233e 353e a1b6 303e 3f05 a2be 1157 983c
000002e0: f535 06be 067f 3c3b 274d 8e3e 6d90 943e
000002f0: b658 b03e 137f a23c 4866 51be 2510 92bc
00000300: 8ca8 b5be b7ae 0f3c ea8a 88bd d171 e73d
00000310: e24e d0bd 49ea 98be 357b 8f3c b8c6 8fbe
00000320: d941 26be 7e60 e2bd 8ea5 143e 18ec 84be
00000330: fd5d d9bd 7880 9bbd 7efa 73be 0c58 c8be
00000340: f285 ccbc 7fd5 aa3e 9945 00bf b20f a23e
00000350: ed4e 273e 12f0 a43d 6348 d23e 9ae4 1cbf
00000360: 5ce5 91be 072d b6be 005b 493e f013 20bd
00000370: b57c bcbe b162 723e 5c12 e2be 00fa f03d
00000380: d79d 6a3d b84e 733e 27cc 02bf c81c 06bf
00000390: cdc0 9b3e cc3b ab3e 4079 d5be 37ed cd3e
000003a0: 7ff3 6e3e 3e04 f13e d01f 1c3e 78a3 acbe
000003b0: 2868 e63d 8afa 86be 7e45 6dbe 87b7 91be
000003c0: c396 a3be 6195 9abe 9f79 35be 154c 4dbe
000003d0: 62c1 b53d f55e 7cbe f9f6 193e f4e2 86be
000003e0: b966 bdbd c0f0 d23e a713 20be 06c3 d8be
000003f0: 2bc6 713e a289 123d 818c 743d 33ee 593e

0.bias f4 [64]
-0.2985891 0.25078717 0.04067223 0.31246516 0.27493796 0.025810456 -0.31248885 0.044637352
-0.17083278 -0.09815195 0.024425767 -0.25632784 0.29577735 0.0037292207 -0.13388543 -0.19167548
0.2949126 0.24773656 0.31096342 -0.14853927 -0.004567974 -0.2994175 -0.07633683 0.32805493
0.08714402 0.1542181 -0.15174338 0.31253996 0.20102574 0.09154239 -0.031149479 0.10897263
0.29760286 -0.18782607 0.15293178 0.13826458 -0.12399919 -0.25078368 -0.112131394 -0.32265255
-0.0055318708 0.07914793 -0.1961877 -0.322289 -0.32283962 0.03954126 0.07741707 0.07822332
-0.09258494 -0.021610072 -0.21738961 -0.23295312 0.07353025 0.18160275 0.0030524624 -0.113371246
0.29362097 0.08417675 0.15027602 -0.1206098 -0.3312692 -0.23997092 -0.0708506 0.11760759
00000000: ace0 98be 2d67 803e ed97 263d 6ffb 9f3e
00000010: abc4 8c3e 7370 d33c 8afe 9fbe a8d5 363d
00000020: caee 2ebe e403 c9bd 8c18 c83c 673d 83be
00000030: 2170 973e f165 743b 4319 09be 9446 44be
00000040: c9fe 963e a7ae 7d3e 9936 9f3e ae1a 18be
00000050: f1ae 95bb 404d 99be 7c56 9cbd d1f6 a73e
00000060: 9078 b23d 59eb 1d3e 9e62 1bbe 3d05 a03e
00000070: b1d9 4d3e 947a bb3d 312d ffbc 0b2d df3d
00000080: 675f 983e 7a55 40be 269a 1c3e 3b95 0d3e
00000090: 4af3 fdbd b866 80be 25a5 e5bd b732 a5be
000000a0: b244 b5bb 4f18 a23d 6ee5 48be 1003 a5be
000000b0: 3c4b a5be 04f6 213d d78c 9e3d 8c33 a03d
000000c0: 2c9d bdbd 9b07 b1bc 629b 5ebe 438b 6ebe
000000d0: 0797 963d 12f6 393e d20b 483b 2f2f e8bd
000000e0: 7d55 963e dc64 ac3d f5e1 193e 4502 f7bd
000000f0: 1e9c a9be f0ba 75be 1f1a 91bd 40dc f03d

1.weight f4 [64]
1.0957979 1.1295255 1.0262319 1.0021996 1.1694458 1.3053036 1.2192096 0.888212
0.8024831 0.73644584 0.6816139 1.0440501 1.1719936 0.84037346 0.7504447 0.8758163
1.0275306 0.86768025 1.1369638 0.8370925 0.7052147 1.0472447 1.0302718 1.073434
1.1144656 0.8873409 1.0398141 1.1194211 0.77193606 1.0306057 1.0327446 0.7422718
1.1000952 1.1697217 1.1569847 0.8158072 0.70302695 1.1039002 1.0800885 1.3492475
0.8345572 1.2419953 1.051512 1.2359637 1.136784 1.0020758 0.88633585 1.2442522
1.1064578 0.73435813 0.83539474 0.99468744 0.7112974 0.7134633 1.0763714 0.63291854
1.1974554 1.2104092 0.77439326 0.98556983 1.2146428 1.1390923 0.7406561 1.0464312
00000000: 1b43 8c3f 4b94 903f 915b 833f 1448 803f
00000010: 66b0 953f 3014 a73f 0f0f 9c3f dd61 633f
00000020: 886f 4d3f b787 3c3f 407e 2e3f 6fa3 853f
00000030: e303 963f b722 573f 251d 403f 7f35 603f
00000040: 1f86 833f 4b20 5e3f 0888 913f b24b 563f
00000050: f388 343f 1d0c 863f f2df 833f 4966 893f
00000060: cfa6 8e3f c628 633f a118 853f 3149 8f3f
00000070: 9a9d 453f e3ea 833f fa30 843f 8605 3e3f
00000080: ebcf 8c3f 71b9 953f 1318 943f bed8 503f
00000090: 93f9 333f 9a4c 8d3f 5740 8a3f 24b4 ac3f
000000a0: 8aa5 553f b4f9 9e3f f297 863f 0f34 9e3f
000000b0: 2382 913f 0544 803f e8e6 623f a843 9f3f
000000c0: 69a0 8d3f e5fe 3b3f 6edc 553f d6a3 7e3f
000000d0: 9617 363f 88a5 363f 8ac6 893f f306 223f
000000e0: 3846 993f b0ee 9a3f a33e 463f 4e4e 7c3f
000000f0: 6a79 9b3f c7cd 913f a39b 3d3f 75f1 853f

1.bias f4 [64]
0.16478078 0.10369597 0.044584144 0.08325921 0.08104951 -0.07234647 0.12269776 -0.17062244
0.06650589 -0.20100239 -0.22574556 -0.25519767 0.11023707 -0.07078344 0.024530355 -0.05509337
-0.1648649 -0.10317044 -0.091918334 -0.025926756 -0.22367899 0.02564942 0.067028455 -0.1455401
0.0714175 -0.059114568 0.0509516 -0.016932704 -0.22318435 -0.006502337 0.017531263 -0.17284146
-0.017318174 -0.230188 -0.030455783 -0.34274837 0.03968205 0.1396436 -0.18347171 0.11462636
-0.2143491 -0.19390844 0.06720771 0.17324476 0.08654289 0.0811523 -0.062699266 -0.08690954
0.12883434 -0.16351897 -0.21234243 0.22652797 -0.15211536 -0.032477204 0.11417544 -0.24249493
-0.22290294 0.14376602 -0.22204228 -0.22078471 0.07762362 0.06302766 -0.15669426 0.060578037
00000000: 4bbc 283e 8d5e d43d dd9d 363d ce83 aa3d
00000010: 49fd a53d 632a 94bd f748 fb3d a6b7 2ebe
00000020: 3d34 883d 92d3 4dbe d829 67be 45a9 82be
00000030: f9c3 e13d e8f6 90bd e2f3 c83c 96a9 61bd
00000040: 58d2 28be 064b d3bd ae3f bcbd 5964 d4bc
00000050: 1b0c 65be bc1e d23c 3746 893d 7708 15be
00000060: 5743 923d 1e22 72bd a0b2 503d 74b6 8abc
00000070: 708a 64be 8e11 d5bb b99d 8f3c 5afd 30be
00000080: d8de 8dbc 67b6 6bbe 687e f9bc b77c afbe
00000090: a589 223d bbfe 0e3e 02e0 3bbe 3ac1 ea3d
000000a0: 557e 5bbe ef8f 46be 32a4 893d 1367 313e
000000b0: 663d b13d 2d33 a63d 7968 80bd a1fd b1bd
000000c0: 26ed 033e 8471 27be 4b70 59be f3f6 673e
000000d0: 21c4 1bbe d106 05bd d0d4 e93d 9750 78be
000000e0: ab40 64be 6637 133e 0d5f 63be 6315 62be
000000f0: 22f9 9e3d a514 813d 7674 20be ad20 783d

3.weight f4 [64, 64, 4, 4]
-0.018122315 -0.033812106 -0.033481978 -0.06576093 0.0020445893 -0.03013319 -0.047265284 -0.017009577
-0.04792246 -0.04224825 -0.024311565 -0.017938407 -0.06576129 -0.033444747 0.0007900748 -0.06622497
0.039682798 0.037042893 -0.032186028 -0.047674794 0.016980013 0.012746692 -0.032594867 -0.049622107
-0.030681696 0.013470687 -0.033473276 0.004725144 -0.08745197 -0.014377461 -0.024581032 -0.061016135
-0.010283465 -0.037179567 -0.0322143 -0.01339591 -0.019245338 -0.0014020749 -0.0037052613 0.024217788
0.056517843 0.015695106 -0.016997728 0.02228887 0.071492486 0.06278751 -0.025366273 0.009359051
-0.089040205 -0.0710317 -0.049811136 -0.06156929 -0.10901453 -0.07721229 -0.058181856 -0.030710068
-0.115084484 -0.08636569 -0.027491508 -0.045950953 -0.1230554 -0.083545804 -0.088371865 -0.022416016
-0.01685113 -0.05743835 -0.05820366 -0.048034832 -0.0769605 0.026577303 0.0025302554 -0.0066628307
-0.046870273 -0.0767362 -0.03378848 -0.034718417 -0.054209583 -0.042013086 0.004630086 0.06255014
-0.055084515 -0.0013464916 0.053710163 0.14074817 -0.0038313533 -0.008883297 0.05466248 0.071229875
-0.03034513 0.052362423 0.07288527 0.11394537 -0.044205327 -0.0033182171 0.07691908 0.11961194
0.02240192 0.037256446 -0.017061051 0.006309993 -0.032723125 -0.07365642 -0.112487376 -0.001977789
-0.07805958 -0.013374062 -0.009002302 0.030941004 -0.08291792 -0.060198303 0.013395371 0.049142573
0.008993394 0.01712916 0.0191721 0.06698711 0.053853378 -0.018265622 0.014502964 -0.014201977
-0.015470151 -0.067128 -0.0013513744 -0.026461579 -0.029248094 -0.052625295 -0.02104607 0.0153543865
0.030763572 0.019538995 -0.010737834 0.0026286528 -0.052523203 0.00314565 0.047984302 0.019304808
-0.08162661 -0.05887839 -0.014328623 -0.017895963 -0.08878737 -0.09488144 0.0066264733 -0.0021973567
0.008582949 0.0071517252 0.058983106 0.03600109 0.0045095915 0.01829886 0.005044013 -0.01088817
0.022201313 0.034888357 0.037989922 0.051330313 -0.022673521 -0.023737311 -0.016999973 -0.053769805
0.012176825 0.057134893 0.022083217 -0.008246439 0.009966995 -0.012716463 0.0036722692 -0.009410497
-0.026734153 -0.02261514 0.032289166 -0.048807506 -0.027544327 -0.055748224 0.02281711 -0.040910404
-0.044362962 -0.06340853 -0.058117736 0.039494958 -0.063611865 -0.08281636 -0.025693616 0.062244
-0.040942922 -0.07123226 -0.038830932 0.09195278 0.0022911446 -0.040158488 -0.072442 0.072006285
-0.051944576 -0.025641244 -0.046273638 -0.07421619 -0.000853817 0.014510058 -0.049176306 -0.017645158
-0.027537648 0.0006561001 -0.04636193 -0.049397834 -0.047271907 -0.0139407385 -0.060310233 0.0042341966
0.05314397 -0.015511597 0.025631685 0.02975474 -0.03310268 -0.016610822 -0.018240105 -0.03892776
-0.045156807 -0.025328359 -0.009748241 -0.044249523 -0.0037372021 -0.04520693 -0.088756934 -0.07959367
-0.001405437 -0.011942236 0.06805121 0.026673744 0.026420757 -0.043858077 0.020010332 0.00640655
-0.019509519 -0.07931753 -0.039231688 0.010122445 0.023024227 -0.055747718 -0.08661948 -0.013165017
-0.022420194 -0.0077786623 0.0047480264 0.024119666 -0.03502013 -0.055321716 0.0028125776 -0.019878685
-0.06005188 -0.001118447 -0.055249944 -0.11720563 -0.021184588 -0.068191946 -0.048790403 -0.12466457
00000000: 4075 94bc 907e 0abd 6624 09bd abad 86bd
00000010: 84fe 053b e1d9 f6bc 3e99 41bd ab57 8bbc
00000020: 574a 44bd 800c 2dbd 0c29 c7bc 91f3 92bc
00000030: dbad 86bd 5cfd 08bd 061d 4f3a f5a0 87bd
00000040: 6e8a 223d 4aba 173d 7fd5 03bd a546 43bd
00000050: ab19 8b3c 80d7 503c 3282 05bd 8d40 4bbd
00000060: 2e58 fbbc 28b4 5c3c 461b 09bd 61d5 9a3b
00000070: 051a b3bd 718f 6bbc 295e c9bc 0eec 79bd
00000080: fa7b 28bc 9a49 18bd 24f3 03bd 857a 5bbc
00000090: 66a8 9dbc d4c5 b7ba f8d3 72bb 6264 c63c
000000a0: 417f 673d 0693 803c d23e 8bbc 2697 b63c
000000b0: a76a 923d bd96 803d eecc cfbc b456 193c
000000c0: b65a b6bd 1179 91bd c306 4cbd 1430 7cbd
000000d0: 0343 dfbd 7a21 9ebd 1950 6ebd ae93 fbbc
000000e0: 6ab1 ebbd 7fe0 b0bd df35 e1bc 1137 3cbd
000000f0: 7804 fcbd 101a abbd 4ffc b4bd cba1 b7bc
00000100: 620b 8abc 7a44 6bbd f666 6ebd 2cc0 44bd
00000110: 779d 9dbd a5b8 d93c a4d2 253b e053 dabb
00000120: 0bfb 3fbd de27 9dbd ca65 0abd e634 0ebd
00000130: de0a 5ebd ea15 2cbd fab7 973b 4a1a 803d
00000140: 4da0 61bd c37c b0ba 30ff 5b3d 4a20 103e
00000150: 7117 7bbb 408b 11bc c4e5 5f3d f8e0 913d
00000160: 5a96 f8bc fb79 563d df44 953d 315c e93d
00000170: a510 35bd 7276 59bb c087 9d3d 1bf7 f43d
00000180: 3b84 b73c 379a 183d 9ec3 8bbc 0fc4 ce3b
00000190: af08 06bd 2dd9 96bd c85f e6bd cb9d 01bb
000001a0: b3dd 9fbd e21e 5bbc 647e 13bc fd77 fd3c
000001b0: dfd0 a9bd 7f92 76bd 4278 5b3c b949 493d
000001c0: 0759 133c 7452 8c3c cf0e 9d3c 8a30 893d
000001d0: 5c95 5c3d c9a1 95bc d79d 6d3c 69af 68bc
000001e0: 8476 7dbc 687a 89bd 9a20 b1ba f4c5 d8bc
000001f0: b399 efbc 9f8d 57bd cf68 acbc f790 7b3c
00000200: e303 fc3c 3e10 a03c bded 2fbc 7a45 2c3b
00000210: 9222 57bd 4027 4e3b 308b 443d 1e25 9e3c
00000220: da2b a7bd 772a 71bd 9ac2 6abc 8e9a 92bc
00000230: 27d6 b5bd 3351 c2bd e322 d93b 8701 10bb
00000240: 7f9f 0c3c 0559 ea3b 4598 713d e175 133d
00000250: 32c5 933b 7ee7 953c 3f48 a53b 4c64 32bc
00000260: 87df b53c 18e7 0e3d 529b 1b3d bc3f 523d
00000270: d2bd b9bc c074 c2bc 8743 8bbc ba3d 5cbd
00000280: 4e81 473c 4706 6a3d dde7 b43c 121c 07bc
00000290: 9b4c 233c b658 50bc 74aa 703b 7c2e 1abc
000002a0: 9501 dbbc 6343 b9bc a541 043d 61ea 47bd
000002b0: a4a4 e1bc 4058 64bd f3ea ba3c ab91 27bd
000002c0: f0b5 35bd 55dc 81bd dd0c 6ebd 77c5 213d
000002d0: f046 82bd a09b a9bd 6b7b d2bc 91f3 7e3d
000002e0: c4b3 27bd 38e2 91bd 2f0d 1fbd bd51 bc3d
000002f0: 0727 163b 3a7d 24bd 795c 94bd 0878 933d
00000300: d6c3 54bd 960d d2bc 6d89 3dbd a8fe 97bd
00000310: b0d2 5fba 98bb 6d3c 186d 49bd 948c 90bc
00000320: a296 e1bc 22fe 2b3a 02e6 3dbd 6255 4abd
00000330: 30a0 41bd b267 64bc dd07 77bd 04bf 8a3b
00000340: 7ead 593d 5a24 7ebc 8af9 d13c 36c0 f33c
00000350: ad96 07bd 6b13 88bc 466c 95bc b772 1fbd
00000360: 58f6 38bd 6b7d cfbc 16b7 1fbc fd3e 35bd
00000370: d9eb 74bb e72a 39bd 32c6 b5bd 0202 a3bd
00000380: a436 b8ba 5ea9 43bc 6f5e 8b3d e582 da3c
00000390: 5870 d83c 87a4 33bd b5ec a33c 09ee d13b
000003a0: 6dd2 9fbc 3b71 a2bd 68b1 20bd 9dd8 253c
000003b0: 4e9d bc3c b857 64bd 8e65 b1bd 15b2 57bc
000003c0: 8eaa b7bc 26e4 febb 5595 9b3b 9b96 c53c
000003d0: 4571 0fbd 0699 62bd 3953 383b a0d8 a2bc
000003e0: f6f8 75bd db98 92ba c44d 62bd 8109 f0bd
000003f0: 4d8b adbc 38a8 8bbd 72d8 47bd 2350 ffbd

3.bias f4 [64]
-0.012087639 -0.011350024 -0.0004246249 -0.020202402 -0.021175817 0.0182424 -0.022482697 -0.02080477
0.017997451 0.024154536 -0.015270989 0.016734242 -0.02340484 -0.010343444 -0.008572966 0.02538107
-0.0077677816 0.017285235 -0.023173667 0.008674387 -0.0026536414 0.009010758 -0.023123898 -0.026442327
-0.0020782112 0.01108595 0.030710515 0.001683532 -0.024394535 -0.0007911166 -0.022186585 0.024710502
0.029359356 -0.030309413 -0.012420334 -0.001704292 0.005973243 0.011039626 -0.009010487 -0.024469182
0.027917992 -0.017240856 0.0028869512 0.005878807 0.016122065 -0.01120415 -0.009708174 -0.021989744
0.010425255 -0.01595579 0.030313622 -0.0006465798 -0.025047418 -0.014021217 0.005330626 0.0067200693
-0.025639784 0.022499517 0.016728714 0.027374275 0.0036768236 -0.013924014 -0.026621256 -0.0031204007
00000000: 3c0b 46bc 73f5 39bc 30a0 deb9 827f a5bc
00000010: e878 adbc 1671 953c a22d b8bc c46e aabc
00000020: 646f 933c bcdf c53c 2c33 7abc 4016 893c
00000030: 82bb bfbc 8c77 29bc a075 0cbc f6eb cf3c
00000040: e088 febb c499 8d3c b4d6 bdbc 041f 0e3c
00000050: b7e8 2dbb dca1 133c 546e bdbc 949d d8bc
00000060: 9932 08bb d8a1 353c 9e94 fb3c f6a9 dc3a
00000070: 0cd7 c7bc f062 4fba a4c0 b5bc ae6d ca3c
00000080: 0883 f03c 724b f8bc a87e 4bbc 8d62 dfba
00000090: 32bb c33b 8cdf 343c b9a0 13bc 9873 c8bc
000000a0: 46b4 e43c b23c 8dbc 0133 3d3b 02a3 c03b
000000b0: 6c12 843c 9c91 37bc 080f 1fbc d623 b4bc
000000c0: b0ce 2a3c b8b5 82bc 4654 f83c 3c7f 29ba
000000d0: 3e30 cdbc 3fb9 65bc 88ac ae3b 0734 dc3b
000000e0: 860a d2bc e850 b83c a80a 893c 0440 e03c
000000f0: ddf6 703b 8c21 64bc d214 dabc a37f 4cbb

4.weight f4 [64]
0.5648502 0.6018959 0.6228687 0.725874 0.40449277 0.72193 0.4973542 0.3374733
0.50551957 0.6569017 0.69081384 0.6348231 0.85050386 0.7718868 0.5960586 0.41068944
0.78173614 0.44910663 0.7386306 0.6634177 0.3615461 0.7484738 0.39454857 0.71003467
0.5150153 0.64313406 0.57888836 0.3626244 0.74864215 0.62561554 0.46746856 0.66581905
0.5465194 0.5126643 0.3822687 0.6020088 0.7391386 0.6940619 0.41762882 0.39676344
0.4239335 0.73181075 0.7148954 0.42773908 0.6684435 0.6088235 0.3385764 0.3617814
0.71332854 0.7268446 0.7453611 0.44334984 0.7556693 0.30189458 0.710971 0.7594782
0.62462914 0.6318637 0.7414205 0.56185097 0.6004266 0.61207443 0.43425393 0.7713634
00000000: 069a 103f da15 1a3f 5374 1f3f e1d2 393f
00000010: ad19 cf3e 68d0 383f 36a5 fe3e 4dc9 ac3e
00000020: bb69 013f b62a 283f 2dd9 303f c483 223f
00000030: 9fba 593f 609a 453f 4c97 183f e345 d23e
00000040: dc1f 483f 4ef1 e53e e516 3d3f bed5 293f
00000050: 921c b93e fb9b 3f3f 4502 ca3e d5c4 353f
00000060: 0bd8 033f 6fa4 243f 0732 143f e8a9 b93e
00000070: 03a7 3f3f 5728 203f 0a58 ef3e 1e73 2a3f
00000080: b2e8 0b3f f83d 033f b9b8 c33e 401d 1a3f
00000090: 3038 3d3f 0aae 313f 72d3 d53e 9424 cb3e
000000a0: d00d d93e f357 3b3f 6303 373f 9e00 db3e
000000b0: 1d1f 2b3f dbdb 1b3f e359 ad3e 693b b93e
000000c0: b39c 363f 7d12 3a3f fccf 3e3f c0fe e23e
000000d0: 8b73 413f ed91 9a3e 3202 363f 2a6d 423f
000000e0: b2e7 1f3f d2c1 213f bccd 3d3f 77d5 0f3f
000000f0: 8fb5 193f e9b0 1c3f 8856 de3e 1278 453f

4.bias f4 [64]
-0.3278401 -0.13571231 -0.35520327 -0.3533554 -0.2298644 -0.1941212 -0.106324434 -0.5332368
-0.182588 -0.04000901 -0.2180313 -0.4026183 -0.2132592 -0.26031372 -0.2935787 -0.07168797
-0.3035086 -0.722326 -0.2553675 -0.2241464 -0.5661153 -0.23325086 -0.4309372 -0.21174085
-0.21938807 -0.19617386 -0.29525077 -0.3910909 -0.2496445 -0.28090736 -0.2843095 -0.19162402
-0.39942995 -0.21609245 -0.58774674 -0.25919193 -0.27559668 -0.08556127 -0.2923576 -0.266499
-0.29742584 -0.31949055 -0.14400905 -0.47382373 -0.30673197 -0.38161522 -0.6086261 -0.41643193
-0.32304123 -0.25360283 -0.2682696 -0.8115871 -0.32982254 -0.3934426 -0.37121043 -0.2680626
-0.3099263 -0.25053746 -0.31134835 -0.45529738 -0.27572963 -0.23352088 -0.7586351 -0.12731712
00000000: a8da a7be 2bf8 0abe 34dd b5be 00eb b4be
00000010: 9361 6bbe b5c7 46be a0c0 d9bd 3582 08bf
00000020: 59f8 3abe 7de0 23bd 9943 5fbe fc23 cebe
00000030: 9f60 5abe d747 85be f34f 96be 24d1 92bd
00000040: 7b65 9bbe 5bea 38bf 87bf 82be a286 65be
00000050: efec 10bf 50d9 6ebe cda3 dcbe 98d2 58be
00000060: 44a7 60be cde1 48be 1c2b 97be 113d c8be
00000070: cfa2 7fbe 17d3 8fbe 0491 91be 1639 44be
00000080: 1582 ccbe 5747 5dbe 9276 16bf ceb4 84be
00000090: 021b 8dbe bf3a afbd e5af 95be 8f72 88be
000000a0: 3348 98be 4494 a3be 1c77 13be 0699 f2be
000000b0: f90b 9dbe 1263 c3be ecce 1bbf 9136 d5be
000000c0: a965 a5be 3bd8 81be a25a 89be 2cc4 4fbf
000000d0: 80de a8be 4f71 c9be 4b0f bebe 803f 89be
000000e0: a9ae 9ebe 7246 80be 0d69 9fbe bd1c e9be
000000f0: 6f2c 8dbe 1920 6fbe e935 42bf 6b5f 02be

6.weight f4 [64, 64, 4, 4]
-0.060626842 -0.0607389 0.05600501 0.04055212 -0.0034950739 -0.013729153 0.12751621 0.14834729
-0.02485661 0.074980535 0.14793284 0.13101792 -0.011553113 0.029960383 0.07368474 0.071098946
-0.051593293 -0.024338175 -0.108070895 -0.054608766 -0.07068377 -0.072796434 -0.10454254 -0.09009065
-0.06442999 -0.052427147 -0.054238055 -0.044190492 0.007613595 0.004789624 -0.034967456 -0.07860642
-0.08569664 -0.07911118 -0.033099305 -0.018261367 -0.08115615 -0.036847737 -0.006817397 -0.025117557
0.0057792044 0.009012679 0.02356214 0.03159862 0.031753093 0.013889162 0.01820841 0.04639824
-0.07748847 0.02496534 0.01794552 0.002215236 0.022604592 -0.036758967 -0.0004301479 -0.065089315
-0.019571504 0.04467958 -0.006316772 -0.03970276 -0.028950874 -0.008099705 0.002361895 0.049162842
0.042385146 -0.007300765 0.036185626 0.014002716 0.058701936 0.03604684 0.015967645 0.032311615
-0.02432607 0.0048879366 0.12243914 0.054812104 -0.026583534 -0.049270015 -0.04282908 0.041713636
-0.07331486 -0.036684796 -0.057120554 0.0435864 -0.11065765 -0.029222144 0.0087008765 0.065319344
0.016399173 0.083197415 0.079233244 0.08153061 0.09641306 0.08845458 0.0035811106 0.03433607
0.010794037 0.00055387296 -0.0009749729 0.026468039 -0.07045592 -0.034808837 -0.102688864 0.012297848
-0.003026078 -0.07568248 -0.05369716 -0.025471564 -0.012838783 0.05626856 0.01864018 0.039487865
0.038677856 0.08098455 0.08992208 0.007276189 0.05384478 0.06993102 0.0796791 0.059225805
-0.0117972 0.0023625484 0.065449275 -0.031392545 -0.041662075 -0.07010301 -0.10286301 -0.16668501
-0.01637493 -0.012972186 0.012102966 0.013508216 -0.004107496 0.050135937 0.0754566 0.16950536
-0.088695206 0.012694336 0.22444074 0.20784979 -0.023821743 0.033984926 0.018081129 0.08778732
-0.016493717 -0.011715821 -0.08070758 -0.019703181 -0.08275979 -0.0746516 -0.03865894 -0.08261588
-0.07741959 -0.05220651 -0.026868848 -0.014058994 0.045601025 0.018159283 -0.002161254 -0.09044474
-0.007455323 0.022030216 0.0112662995 -0.06134085 0.038286556 0.012652359 -0.04601293 -0.0815014
0.0003502187 0.0664237 0.050747473 0.053466953 0.014915516 -0.016403882 0.03914412 0.060910344
-0.006834548 -0.034763288 -0.070538394 0.0058542863 0.08306841 -0.07366534 -0.07376766 0.0029206674
0.07183929 -0.0834909 -0.03931891 0.044903163 0.013664306 -0.037401248 -0.025501592 0.0587754
0.0178894 0.016937988 -0.0005005219 -0.030375017 -0.1363332 -0.14647947 -0.035405714 0.0034370427
-0.0036347427 0.043643523 0.0107990075 0.040471796 0.08529688 0.038325693 0.11935118 0.051573917
0.06149349 -0.008255524 0.045491178 0.031417552 -0.020047193 -0.06595192 -0.07604659 -0.026789196
0.017256685 -0.017985083 -0.09701092 -0.047916695 0.04072883 0.11511085 -0.06423053 0.017014768
0.032715093 0.046878945 0.04600487 0.042150993 -0.0061415574 -0.020928983 0.08542843 0.076523416
-0.07479521 -0.06591833 -0.07973403 -0.04468749 0.024024501 -0.006013239 -0.045104142 -0.04187082
-0.038950626 -0.07131249 -0.06038757 -0.021187935 0.13640234 0.061607454 -0.03251924 -0.08380188
0.13461493 0.058775663 0.007155816 -0.044052433 -0.09664383 -0.023108985 -0.08661057 -0.0813807
00000000: da53 78bd 5ac9 78bd 8265 653d fb19 263d
00000010: 9c0d 65bb 3ef0 60bc 9c93 023e 5ae8 173e
00000020: 17a0 cbbc 658f 993d b57b 173e 9029 063e
00000030: 4549 3dbc 7a6f f53c 06e8 963d 539c 913d
00000040: 7d53 53bd da60 c7bc 4654 ddbd 71ad 5fbd
00000050: a7c2 90bd 4c16 95bd 661a d6bd 7281 b8bd
00000060: dff3 83bd d9bd 56bd b928 5ebd 1701 35bd
00000070: 777b f93b 47f2 9c3b 093a 0fbd 67fc a0bd
00000080: b881 afbd 0b05 a2bd 2393 07bd dd98 95bc
00000090: 3235 a6bd a7ed 16bd 7964 dfbb 56c3 cdbc
000000a0: 7b5f bd3b eaa9 133c 6405 c13c 8e6d 013d
000000b0: 880f 023d 5e8f 633c ce29 953c 150c 3e3d
000000c0: 46b2 9ebd 1d84 cc3c 7c02 933c 7e2d 113b
000000d0: 442d b93c 9290 16bd 7985 e1b9 8c4d 85bd
000000e0: 6b54 a0bc ef01 373d edfc cebb 5c9f 22bd
000000f0: 622a edbc a0b4 04bc 06ca 1a3b fa5e 493d
00000100: 0c9c 2d3d 413b efbb 6137 143d a66b 653c
00000110: 7171 703d daa5 133d 94ce 823c 2f59 043d
00000120: 7747 c7bc fc2a a03b 5fc1 fa3d a882 603d
00000130: b6c5 d9bc 5bcf 49bd 8c6d 2fbd ebdb 2a3d
00000140: 1a26 96bd cc42 16bd 3ef7 69bd a787 323d
00000150: 7aa0 e2bd 4763 efbc 1f8e 0e3c 26c6 853d
00000160: 8f57 863c 6863 aa3d 0a45 a23d 85f9 a63d
00000170: 3674 c53d ad27 b53d 11b1 6a3b fba3 0c3d
00000180: 79d9 303c c931 113a 5395 7fba 80d3 d83c
00000190: 324b 90bd b693 0ebd 8a4e d2bd ea7c 493c
000001a0: 2a51 46bb 6bff 9abd 8ef1 5bbd bea9 d0bc
000001b0: c259 52bc dd79 663d 4ab3 983c 07be 213d
000001c0: ac6c 1e3d 3adb a53d 1129 b83d 196d ee3b
000001d0: 588c 5c3d ff37 8f3d cc2e a33d c296 723d
000001e0: 0b49 41bc fcd4 1a3b 450a 863d 7895 00bd
000001f0: daa5 2abd 2b92 8fbd d7a9 d2bd 7aaf 2abe
00000200: b824 86bc 4b89 54bc 854b 463c 9051 5d3c
00000210: 2c98 86bb 575b 4d3d fd88 9a3d d092 2d3e
00000220: d5a5 b5bd e7fb 4f3c cbd3 653e 93d6 543e
00000230: d125 c3bc c733 0b3d e01e 943c d7c9 b33d
00000240: d51d 87bc b7f3 3fbc 044a a5bd 9168 a1bc
00000250: f77d a9bd f0e2 98bd d658 1ebd 8432 a9bd
00000260: 298e 9ebd 7ed6 55bd 0f1c dcbc b257 66bc
00000270: 24c8 3a3d c7c2 943c d3a3 0dbb 183b b9bd
00000280: c84b f4bb b678 b43c 4996 383c 8b40 7bbd
00000290: 5dd2 1c3d d74b 4f3c 0e78 3cbd 35ea a6bd
000002a0: 8f9d b739 2609 883d 95dc 4f3d 2a00 5b3d
000002b0: 3560 743c 6f61 86bc 9655 203d 207d 793d
000002c0: 58f4 dfbb f363 0ebd 6f76 90bd 50d5 bf3b
000002d0: c51f aa3d dbdd 96bd 8013 97bd ab68 3f3b
000002e0: 7a20 933d 47fd aabd de0c 21bd 61ec 373d
000002f0: 41e0 5f3c 0d32 19bd b7e8 d0bc 79be 703d
00000300: ca8c 923c 89c1 8a3c 7535 03ba 07d5 f8bc
00000310: ee9a 0bbe b7fe 15be 9505 11bd 0240 613b
00000320: dd34 6ebb 8dc3 323d 52ee 303c c1c5 253d
00000330: 21b0 ae3d 67fb 1c3d 646e f43d 2c3f 533d
00000340: 99e0 7b3d 2d42 07bc f554 3a3d b1af 003d
00000350: 033a a4bc cd11 87bd 51be 9bbd 0475 dbbc
00000360: e45d 8d3c 7455 93bc a9ad c6bd 4c44 44bd
00000370: 46d3 263d 3dbf eb3d 4c8b 83bd 8e62 8b3c
00000380: 4300 063d 2304 403d 9a6f 3c3d 85a6 2c3d
00000390: 1e3f c9bb 4273 abbc 1af5 ae3d 4fb8 9c3d
000003a0: 3b2e 99bd 3000 87bd 984b a3bd 3b0a 37bd
000003b0: 08cf c43c b40a c5bb 1fbf 38bd bd80 2bbd
000003c0: b18a 1fbd 480c 92bd f558 77bd 5292 adbc
000003d0: 0ead 0b3e 1958 7c3d e532 05bd 52a0 abbd
000003e0: 7fd8 093e c0be 703d 567b ea3b 5370 34bd
000003f0: 33ed c5bd 0e4f bdbc e260 b1bd edaa a6bd

6.bias f4 [64]
-0.00025902776 -0.028286938 -0.015720911 -0.0027141585 0.019958535 0.025217814 0.03083193 -0.014623411
-0.0072271544 0.0014947279 0.0024384938 -0.0065885526 -0.016034056 -0.031047834 0.022537176 -0.018947046
0.002181275 -0.00058686966 -0.01822765 -0.010570501 -0.019284762 -0.02058116 -0.0042044194 -0.00015149328
-0.019107504 0.014749185 0.004199956 -0.0019182964 0.029665262 -0.028058937 -0.02314124 -0.00836226
0.016962804 -0.022876648 0.0109144235 -0.0065731234 -0.027058825 0.020827528 0.016581012 0.0110683385
0.025440473 -0.007907556 -0.008817002 0.028039435 0.010913781 0.022880062 -0.025528962 0.024785182
-0.028309625 0.013358631 -0.029658604 -0.018577626 0.007561881 -0.01135019 -0.028161755 -0.0024473092
0.008137417 -0.0027273253 0.0027933742 -0.026212387 -0.021139171 0.0014529154 -0.026073009 0.031024657
00000000: 1ece 87b9 02ba e7bc 24c9 80bc 06e0 31bb
00000010: 1580 a33c 9795 ce3c 3e93 fc3c 0897 6fbc
00000020: c4d1 ecbb bfea c33a 23cf 1f3b c9e4 d7bb
00000030: da59 83bc 0758 febc e29f b83c d636 9bbc
00000040: b9f3 0e3b 28d8 19ba 2752 95bc e52f 2dbc
00000050: 14fb 9dbc d299 a8bc 3ac5 89bb 2bda 1eb9
00000060: 5787 9cbc 91a6 713c c99f 893b 596f fbba
00000070: 9004 f33c dbdb e5bc b392 bdbc dc01 09bc
00000080: 94f5 8a3c cf67 bbbc 69d2 323c 5b63 d7bb
00000090: 78aa ddbc 7e9e aa3c e7d4 873c fa57 353c
000000a0: 8a68 d03c b28e 01bc 3075 10bc f5b2 e53c
000000b0: b7cf 323c f86e bb3c 1d22 d1bc 4b0a cb3c
000000c0: 96e9 e7bc 29de 5a3c 9af6 f2bc 1b30 98bc
000000d0: a8c9 f73b 26f6 39bc 7bb3 e6bc 0963 20bb
000000e0: cd52 053c edbc 32bb 0b11 373b 5cbb d6bc
000000f0: 0e2c adbc c06f be3a 1097 d5bc 6c27 fe3c

7.odefunc.norm1.weight f4 [74]
0.9875981 0.68864 0.710223 0.9924308 1.0108131 0.597337 1.0847021 1.251779
1.2703798 0.9507677 0.76195073 1.1048818 1.2280303 1.0431597 0.9675348 0.8113178
1.1815773 1.0893495 1.2233431 0.99521464 1.0143719 1.2435904 0.9972982 0.6442342
0.94824415 1.111609 1.237176 0.80609477 1.1023312 0.6667985 1.0598348 1.0978502
1.2851708 0.9254363 1.0123729 0.9613581 0.8721681 0.89843565 1.2118456 1.0481277
0.9918748 1.0061245 0.8706916 1.1278268 0.9957799 1.3301169 0.737629 0.88049215
1.1289464 1.2626834 0.91057205 0.84709185 1.053344 0.83307153 1.1460049 1.1226394
1.1419626 1.1342508 1.1030152 0.8863871 1.1546332 0.9398682 0.82956773 0.8500447
0.8327372 1.2491716 0.82181287 1.2504387 0.89181805 0.747952 1.1370379 0.80803597
0.9725662 0.9794524
00000000: 3bd3 7c3f b64a 303f 2dd1 353f f20f 7e3f
00000010: 5362 813f 14eb 183f 85d7 8a3f 4b3a a03f
00000020: ce9b a23f 8365 733f 340f 433f c46c 8d3f
00000030: 1930 9d3f 4286 853f 5cb0 773f 86b2 4f3f
00000040: ed3d 973f ce6f 8b3f 8296 9c3f 63c6 7e3f
00000050: f0d6 813f f82d 9f3f ef4e 7f3f 88ec 243f
00000060: 21c0 723f 3449 8e3f c85b 9e3f 3a5c 4e3f
00000070: 3019 8d3f 4eb3 2a3f aba8 873f 5b86 8c3f
00000080: 7a80 a43f 65e9 6c3f 6f95 813f 901b 763f
00000090: 6946 5f3f e1ff 653f c21d 9b3f 0c29 863f
000000a0: 82eb 7d3f b0c8 803f a5e5 5e3f a15c 903f
000000b0: 6eeb 7e3f 4541 aa3f 41d5 3c3f ef67 613f
000000c0: 5181 903f 9c9f a13f 401b 693f 03db 583f
000000d0: fad3 863f 2d44 553f 4ab0 923f a6b2 8f3f
000000e0: d52b 923f 212f 913f 9a2f 8d3f 44ea 623f
000000f0: 05cb 933f 349b 703f 8d5e 543f 889c 593f
00000100: 442e 553f dbe4 9f3f 5462 523f 600e a03f
00000110: 304e 643f c879 3f3f 758a 913f 72db 4e3f
00000120: 19fa 783f 64bd 7a3f

7.odefunc.norm1.bias f4 [74]
-0.6497192 -0.34152645 -0.27487096 -0.23914441 -0.30766043 -0.32402062 -0.23481542 -0.4513634
-0.3495857 -0.12468058 -0.19472004 -0.007648777 -0.12400714 -0.2524039 -0.29161263 -0.62174743
-0.0023617705 -0.14228335 -0.4073404 -0.39528066 -0.4206847 -0.24639909 -0.13586892 -0.32682183
-0.24255972 -0.5936552 -0.20901223 -0.43136966 -0.2017902 -0.55701876 -0.22507207 -0.044848792
-0.2513674 -0.29819366 -0.42686394 -0.4320066 -0.7569624 -0.20065175 -0.2655833 -0.07473414
-0.1519175 -0.3875727 -0.64861655 -0.17623843 -0.48746336 -0.17330018 -0.43445566 -0.3466793
-0.18686463 -0.16781886 -0.5524738 -0.36546645 -0.08321374 -0.49614534 -0.21179397 -0.229025
-0.11240275 -0.40047243 -0.2701825 -0.3971695 -0.2027091 -0.3215441 -0.61440516 -0.5205076
-0.5135327 -0.27672943 -0.4864336 -0.110127494 -0.6497463 -0.47333875 -0.38439107 -0.42993057
-0.45636535 -0.36026332
00000000: ff53 26bf 8edc aebe e3bb 8cbe 46e2 74be
00000010: ab85 9dbe 08e6 a5be 7473 70be 1b19 e7be
00000020: e6fc b2be 8858 ffbd b164 47be 98a2 fabb
00000030: 75f7 fdbd 153b 81be 404e 95be d72a 1fbf
00000040: efc7 1abb bab2 11be ec8e d0be 3a62 cabe
00000050: fc63 d7be 0b50 7cbe 3921 0bbe 3155 a7be
00000060: 9361 78be caf9 17bf 4d07 56be 7cdc dcbe
00000070: 17a2 4ebe c898 0ebf 4b79 66be 5eb3 37bd
00000080: 3ab3 80be d7ac 98be e98d dabe f82f ddbe
00000090: 4ac8 41bf a777 4dbe 89fa 87be 360e 99bd
000000a0: 4390 1bbe ee6f c6be bc0b 26bf d977 34be
000000b0: cc94 f9be 9a75 31be f970 debe f37f b1be
000000c0: 7159 3fbe b5d8 2bbe ec6e 0dbf 6b1e bbbe
000000d0: f76b aabd c306 febe 85e0 58be 8885 6abe
000000e0: 6a33 e6bd b90a cdbe 5c55 8abe cd59 cbbe
000000f0: f992 4fbe 6ea1 a4be a849 1dbf fc3f 05bf
00000100: e176 03bf 7baf 8dbe d30d f9be 868a e1bd
00000110: c655 26bf 7559 f2be e8ce c4be dc1f dcbe
00000120: b8a8 e9be 6f74 b8be

7.odefunc.conv1._layer.weight f4 [74, 75, 3, 3]
-0.022124074 -0.012553054 -0.04281097 -0.020640444 0.030188069 -0.008432796 -0.020996045 0.0023575337
-0.022383919 -0.092967294 0.0025573876 0.041353513 0.18827479 0.18283221 0.03467859 0.14599411
0.13182148 -0.035540327 -0.02338151 -0.13094395 -0.106228456 -0.0074640866 -0.010323041 0.0044033797
0.11572554 0.03152216 -0.015758343 0.12331771 -0.035523865 0.070139535 0.005944066 0.077792995
0.07491881 0.071522035 0.028783934 0.010317867 -0.033981215 0.0003793829 -0.059567865 -0.12538092
-0.050903082 0.058466416 -0.05261175 0.13459739 0.17706862 -0.032097798 0.04727137 0.09724224
-0.0027979456 0.23334812 0.12425335 0.046216317 0.04976364 0.08749682 0.04028551 0.015374924
-0.07027033 -0.014007843 0.13393383 0.1325882 0.15347505 -0.0637671 -0.050273918 -0.12012316
0.04700541 0.09230012 0.12660877 -0.09618398 -0.038320128 -0.014444227 0.06104167 0.19015041
-0.0099535 0.09047862 -0.019496886 -0.08782422 -0.05193734 -0.19170518 -0.018184004 -0.06552521
0.08166021 -0.120056316 0.0019426165 -0.054980908 0.034394827 0.030543972 -0.021873668 0.008305424
0.08596408 0.14672448 -0.051594384 0.017076427 -0.03827778 -0.01667092 0.06983868 0.040314402
-0.071059786 -0.043116584 0.0066498443 -0.04694965 -0.09389877 0.064786196 0.07192256 0.08055685
0.18546887 0.1907929 0.02706894 0.013617574 0.06149875 -0.04700911 -0.05810542 0.025386767
-0.022941375 -0.014360286 0.0996141 -0.011475208 -0.114658736 -0.002476873 0.004745411 -0.03297568
-0.037254196 0.10417256 0.096416645 0.15918215 0.0876 -0.054724485 0.007627487 0.07760259
-0.025246684 0.024025686 0.031848844 0.009418698 -0.09871207 -0.09715771 -0.06388304 -0.02223363
-0.07260071 -0.0030495694 0.17098585 -0.004992474 -0.041749265 0.088746406 -0.22985134 -0.06605676
0.018208398 -0.03901134 -0.028751355 0.0008111953 0.24219638 -0.072495535 -0.042920075 -0.073148556
-0.09217906 0.019369973 0.024199108 -0.08411335 0.016844057 0.009063 -0.025308965 -0.005906705
0.05429484 0.059847157 -0.026186273 -0.088061884 0.013056934 -0.010845017 0.012860419 0.012763806
-0.016029166 -0.0010019769 0.11376032 0.19163598 0.051435836 0.010145562 0.10405564 0.14423797
-0.12857269 -0.14855497 -0.19703902 -0.1079532 -0.096032165 -0.0716655 0.055753827 0.08141943
-0.054011215 0.015445722 -0.09852516 -0.024246639 0.038284212 0.11822585 -0.18814184 0.011702219
0.017829167 -0.00914296 -0.036509804 0.18174185 0.02610491 0.022244778 0.06452252 0.009241484
-0.033449035 -0.03192685 0.15432456 0.13999356 -0.0060478766 0.09909117 0.055514075 -0.0027299656
-0.040151197 0.03272307 0.028793428 -0.04864514 0.048709437 -0.15282391 0.03212408 0.025582468
-0.07685346 -0.047680363 0.03317004 0.20146227 -0.06517566 -0.008323436 0.041171443 0.053268988
0.04049741 -0.0024266855 0.09794451 0.0738238 -0.006904012 0.1166626 -0.10911454 -0.016848015
0.072482735 -0.025322268 0.2075953 -0.1118484 -0.09399436 -0.08729679 -0.019318048 0.045297183
-0.12600562 0.046379242 -0.0255558 -0.07160262 -0.09095449 -0.010723029 0.07561309 0.09169358
0.0054619005 0.023251504 0.071810804 -0.07150127 0.020629948 -0.041466072 0.045774385 0.06716831
00000000: 8c3d b5bc 53ab 4dbc 8e5a 2fbd 2616 a9bc
00000010: f84c f73c b629 0abc e6ff abbc da80 1a3b
00000020: 7b5e b7bc a365 bebd d899 273b 4d62 293d
00000030: 1bcb 403e 5e38 3b3e 230b 0e3d 7b7f 153e
00000040: 36fc 063e bc92 11bd 958a bfbc 2c16 06be
00000050: 4e8e d9bd 4c95 f4bb f921 29bc 3a4a 903b
00000060: 8301 ed3d 611d 013d a417 81bc ff8d fc3d
00000070: 7981 11bd 51a5 8f3d 71c6 c23b ef51 9f3d
00000080: 086f 993d 257a 923d 49cc eb3c 450c 293c
00000090: e32f 0bbd e9e7 c639 6ffd 73bd db63 00be
000000a0: c07f 50bd 7b7a 6f3d 6b7f 57bd e6d3 093e
000000b0: 7a51 353e fb78 03bd a09f 413d f126 c73d
000000c0: bd5d 37bb cff2 6e3e 8a78 fe3d 524d 3d3d
000000d0: f5d4 4b3d 8831 b33d 6b02 253d 1be7 7b3c
000000e0: e4e9 8fbd 2781 65bc f325 093e 33c5 073e
000000f0: 9028 1d3e 5398 82bd 06ec 4dbd 2203 f6bd
00000100: bf88 403d d807 bd3d bba5 013e 1bfc c4bd
00000110: 91f5 1cbd 7ba7 6cbc d506 7a3d cab6 423e
00000120: 0114 23bc db4c b93d efb7 9fbc 2fdd b3bd
00000130: 40bc 54bd 5d4e 44be 9ff6 94bc 1532 86bd
00000140: 783d a73d 16e0 f5bd 659f fe3a a933 61bd
00000150: 97e1 0c3d 5a37 fa3c 6830 b3bc 7913 083c
00000160: f00d b03d f13e 163e a254 53bd dde3 8b3c
00000170: 29c9 1cbd 7491 88bc 9507 8f3d b720 253d
00000180: cb87 91bd 049b 30bd f0e6 d93b 474e 40bd
00000190: 004e c0bd a0ae 843d 234c 933d fdfa a43d
000001a0: 8deb 3d3e 375f 433e afbf dd3c 3f1c 5f3c
000001b0: 1de6 7b3d a08c 40bd f3ff 6dbd e9f7 cf3c
000001c0: 8def bbbc 6847 6bbc 7a02 cc3d 8302 3cbc
000001d0: 33d2 eabd 0953 22bb 657f 9b3b 8211 07bd
000001e0: db97 18bd 6c58 d53d 1776 c53d a500 233e
000001f0: a167 b33d c826 60bd 00f0 f93b 1bee 9e3d
00000200: 22d2 cebc 84d1 c43c ef73 023d e250 1a3c
00000210: 8e29 cabd 9ffa c6bd 1cd5 82bd 4d23 b6bc
00000220: aeaf 94bd 49db 47bb ea16 2f3e e897 a3bb
00000230: 4701 2bbd adc0 b53d 265e 6bbe c448 87bd
00000240: c729 953c 5bca 1fbd f687 ebbc 65a6 543a
00000250: 5402 783e 8a78 94bd f6cc 2fbd e9ce 95bd
00000260: 60c8 bcbd c7ad 9e3c 353d c63c 9f43 acbd
00000270: 8cfc 893c fa7c 143c bf54 cfbc 088d c1bb
00000280: 4464 5e3d 4b22 753d 9884 d6bc ca59 b4bd
00000290: c0ec 553c 4caf 31bc 82b4 523c 481f 513c
000002a0: 994f 83bc c454 83ba 2cfb e83d 393c 443e
000002b0: 62ae 523d 9239 263c 201b d53d 1eb3 133e
000002c0: 8fa8 03be cb1e 18be 99c4 49be 9116 ddbd
000002d0: 83ac c4bd 5dc5 92bd 205e 643d 3bbf a63d
000002e0: dd3a 5dbd 0e10 7d3c 8fc7 c9bd e3a0 c6bc
000002f0: e8cf 1c3d 6520 f23d 41a8 40be aaba 3f3c
00000300: 790e 923c 5bcc 15bc 4e8b 15bd 891a 3a3e
00000310: f7d9 d53c ae3a b63c 6224 843d 9869 173c
00000320: db01 09bd bbc5 02bd 4207 1e3e 795a 0f3e
00000330: 442d c6bb 50f0 ca3d ba62 633d 39e9 32bb
00000340: 9575 24bd a008 063d 32e0 eb3c 2040 47bd
00000350: 8c83 473d df7d 1cbe 8a94 033d 5392 d13c
00000360: 5965 9dbd 7c4c 43bd 4fdd 073d 204c 4e3e
00000370: d17a 85bd 055f 08bc 63a3 283d 9530 5a3d
00000380: 9de0 253d 0709 1fbb 2297 c83d ef30 973d
00000390: 0d3b e2bb cdec ee3d 7277 dfbd d904 8abc
000003a0: d471 943d a570 cfbc dd93 543e c610 e5bd
000003b0: 1d80 c0bd a9c8 b2bd e240 9ebc 8a89 393d
000003c0: 9e07 01be 29f8 3d3d 665a d1bc 65a4 92bd
000003d0: 5946 babd a5af 2fbc 09db 9a3d d8c9 bb3d
000003e0: bef9 b23b f079 be3c 8b11 933d 426f 92bd
000003f0: 2300 a93c 54d8 29bd ec7d 3b3d 8a8f 893d

7.odefunc.conv1._layer.bias f4 [74]
-0.02356555 0.02983012 -0.03549985 0.03537102 0.02405452 0.037305944 -0.016559148 -0.014036927
-0.028403305 0.03262969 0.0028626095 -0.023502156 -0.026867785 0.01528253 0.010557674 -0.012487203
0.015871026 0.0105662085 -0.028352588 0.021651685 -0.021238714 -0.02841653 -0.023475466 0.0020423834
0.019567296 -0.009365033 -0.013712576 0.030450702 -0.0063017644 -0.023274083 0.0067528673 0.00015110616
-0.0016407553 -0.00061301835 0.01083209 0.034109093 -0.037976902 -0.015003147 -0.0020089825 -0.015792785
-0.021938855 -0.036142394 -0.030105691 -0.036815595 -0.023780745 0.03307516 -0.0050095287 0.03793066
-0.03731158 0.0040143207 -0.020588117 0.02776707 -0.0024088365 -0.028476393 -0.030625097 -0.0048505925
-0.031119734 0.021049954 0.025369667 0.029262803 -0.014329717 -0.033611014 -0.03239463 0.018220536
-0.0127459355 0.024219781 0.035856873 -0.008572737 -0.03792265 0.016473416 0.01866861 -0.013808079
0.029822417 0.025941215
00000000: 8a0c c1bc 4c5e f43c 4a68 11bd 34e1 103d
00000010: fc0d c53c 1ece 183d 0da7 87bc 24fb 65bc
00000020: 0cae e8bc b6a6 053d 9e9a 3b3b 9887 c0bc
00000030: d419 dcbc 9463 7a3c 18fa 2c3c 2097 4cbc
00000040: f403 823c e41d 2d3c b043 e8bc e05e b13c
00000050: d0fc adbc c8c9 e8bc 9f4f c0bc 82d9 053b
00000060: 984b a03c cc6f 19bc b6aa 60bc c073 f93c
00000070: 087f cebb 4aa9 bebc 2847 dd3b 4072 1e39
00000080: 9d0e d7ba f7b2 20ba 1479 313c fab5 0b3d
00000090: ab8d 1bbd c2cf 75bc 22a9 03bb df5f 81bc
000000a0: 1db9 b3bc 0c0a 14bd 36a0 f6bc f3cb 16bd
000000b0: d6cf c2bc d279 073d f926 a4bb 2e5d 1b3d
000000c0: 07d4 18bd 908a 833b 69a8 a8bc c477 e33c
000000d0: 92dd 1dbb 5347 e9bc 7ce1 fabc b8f1 9ebb
000000e0: d0ee febc f470 ac3c 0cd4 cf3c 8cb8 ef3c
000000f0: 30c7 6abc b4ab 09bd 3bb0 04bd 3c43 953c
00000100: 54d4 50bc 9068 c63c a8de 123d aa74 0cbc
00000110: c854 1bbd 42f3 863c eaee 983c 483b 62bc
00000120: 244e f43c ac82 d43c

7.odefunc.norm2.weight f4 [74]
0.7389538 0.91326064 0.8487796 0.8458846 0.89267814 0.7560041 0.9906538 0.7642466
0.95485425 0.9790481 0.88589275 1.0010253 0.9440277 1.0125331 1.0410157 1.0089686
1.0593929 0.7910479 1.0478485 0.92024004 0.9938737 0.90178305 0.8349499 0.886106
0.77791584 0.91546065 0.8347321 1.0745769 0.9109276 0.86789125 0.86760414 0.84299827
0.91682106 0.9246103 0.97457445 0.8956899 1.0276837 0.9017649 0.9539992 0.87846386
1.0331349 0.7529489 1.0649945 0.88484806 0.90361774 0.9196661 1.0845006 1.0044128
1.0346833 0.8347516 1.1170729 0.9974967 0.7545486 0.7337107 0.79975164 0.91044855
0.87689453 0.78041005 0.8692956 0.7958536 0.7616364 0.93798786 0.85068434 0.7696946
0.8496575 0.6618158 0.79785246 1.0845118 0.79333293 0.89256746 0.90349257 0.8152497
0.8895216 0.78564197
00000000: 142c 3d3f 73cb 693f 9f49 593f e58b 583f
00000010: 8e86 643f 7c89 413f 7d9b 7d3f aaa5 433f
00000020: 5471 743f e5a2 7a3f dec9 623f 9921 803f
00000030: cdab 713f af9a 813f 0140 853f e225 813f
00000040: 309a 873f 1d82 4a3f e61f 863f da94 6b3f
00000050: 826e 7e3f 41db 663f 47bf 553f d8d7 623f
00000060: 7e25 473f a15b 6a3f 01b1 553f bc8b 893f
00000070: 8d32 693f 1f2e 5e3f 4e1b 5e3f bcce 573f
00000080: c9b4 6a3f 43b3 6c3f b67d 793f ef4b 653f
00000090: 248b 833f 11da 663f 4b39 743f 02e3 603f
000000a0: c43d 843f 42c1 403f bd51 883f 6785 623f
000000b0: 7e53 673f 3d6f 6b3f ead0 8a3f 9990 803f
000000c0: 8170 843f 48b2 553f 3ffc 8e3f f25b 7f3f
000000d0: 192a 413f 77d4 3b3f 86bc 4c3f 2813 693f
000000e0: 297c 603f f4c8 473f 288a 5e3f 10bd 4b3f
000000f0: 9afa 423f f91f 703f 73c6 593f b50a 453f
00000100: 2783 593f c36c 293f 0f40 4c3f 48d1 8a3f
00000110: de17 4b3f 4d7f 643f 4a4b 673f 34b4 503f
00000120: b0b7 633f d51f 493f

7.odefunc.norm2.bias f4 [74]
-0.72302496 -0.2843454 -0.6714695 -0.62287325 -0.56337935 -0.55218023 -0.5369404 -0.57705295
-0.53242713 -0.5589958 -0.42759994 -0.74096084 -0.48962787 -0.36285532 -0.3079857 -0.52259785
-0.48448318 -0.46187004 -0.39619535 -0.4961258 -0.5960035 -0.62727153 -0.32742983 -0.56528366
-0.5413752 -0.539744 -0.665134 -0.3723051 -0.6065234 -0.60623777 -0.6028754 -0.7700513
-0.6909149 -0.45318374 -0.50292295 -0.5276191 -0.5301586 -0.5677943 -0.5644532 -0.46894822
-0.50210476 -0.40668112 -0.55785394 -0.5545853 -0.6410316 -0.5906562 -0.32738435 -0.6859092
-0.49590528 -0.5439532 -0.4459559 -0.5935928 -0.6003309 -0.5574119 -0.60104764 -0.52589345
-0.6567407 -0.53562486 -0.5154334 -0.65147513 -0.45260862 -0.3426003 -0.5383485 -0.5564252
-0.6342658 -0.5348434 -0.7417929 -0.3792056 -0.4745328 -0.5017509 -0.67280334 -0.44757485
-0.6905663 -0.5057844
00000000: 2a18 39bf b895 91be 6de5 2bbf 9f74 1fbf
00000010: a139 10bf af5b 0dbf ed74 09bf beb9 13bf
00000020: 254d 08bf 591a 0fbf 61ee dabe 9caf 3dbf
00000030: 81b0 fabe 2cc8 b9be 4db0 9dbe f9c8 05bf
00000040: 2e0e f8be 3b7a ecbe 1eda cabe 3304 febe
00000050: af93 18bf de94 20bf e2a4 a7be 6eb6 10bf
00000060: 9197 0abf aa2c 0abf 3946 2abf c69e bebe
00000070: 1e45 1bbf 6632 1bbf 0b56 1abf 1522 45bf
00000080: cddf 30bf b307 e8be 8fbf 00bf 0c12 07bf
00000090: 79b8 07bf f85a 11bf 0180 10bf fb19 f0be
000000a0: f089 00bf 8238 d0be 84cf 0ebf 4df9 0dbf
000000b0: a61a 24bf 3f35 17bf ec9e a7be bf97 2fbf
000000c0: 4ce7 fdbe 8440 0bbf 5554 e4be b3f5 17bf
000000d0: 49af 19bf 8cb2 0ebf 42de 19bf f4a0 06bf
000000e0: 2920 28bf b61e 09bf 71f3 03bf 13c7 26bf
000000f0: 51bc e7be 4e69 afbe 35d1 09bf e271 0ebf
00000100: 3e5f 22bf 7feb 08bf 24e6 3dbf 3d27 c2be
00000110: f7f5 f2be bf72 00bf d73c 2cbf 8828 e5be
00000120: f4c8 30bf 167b 01bf
