experiment_node_mnist_v2/model.pth (torch, 839593 bytes, 24 tensors)

0.weight f4 [64, 1, 3, 3]
000000 61 e4 7a be 7d 57 86 bb f4 ca 42 bd 24 29 87 be
       -0.24501182 -0.004099785 -0.047556832 -0.26398575
000010 b7 35 7f bd df f2 9d bd 69 52 c1 be c6 40 47 bd
       -0.062307086 -0.077123396 -0.37758186 -0.048645757
000020 f5 4a bc be 7c 70 a3 3e b0 55 55 3d 7d 92 34 be
       -0.36775938 0.31921756 0.05208367 -0.17634006
000030 47 ce 19 3f 5d 2a 0d be d7 9b ca be 24 63 c6 3e
       0.6008038 -0.13785692 -0.3957202 0.38747513
000040 31 f1 31 bf cd e3 07 bf 05 4a 6d 3e 13 b0 2c 3e
       -0.69508654 -0.5308197 0.23172767 0.16864042
000050 9f 86 76 3e b1 97 b0 3e 46 af a8 3e a3 21 03 3e
       0.24074791 0.3449073 0.32946223 0.128058
000060 bf 94 a8 be ca 4c f9 be 8a b2 d3 be d6 ba 36 3d
       -0.32925984 -0.48691398 -0.41347152 0.044611774
000070 fb f6 3e 3e 40 71 9c be 8c c5 02 3e a8 74 42 3e
       0.18648903 -0.30555153 0.1277067 0.18989813
000080 2a e0 bb 3e 35 ee 9e 3e 37 07 15 3e 96 75 36 be
       0.3669446 0.31041113 0.14553533 -0.17818293
000090 ae e0 ef 3e 8d 32 bb bd 78 e3 33 bd c5 e5 44 be
       0.46851104 -0.09140501 -0.043918103 -0.19228275
0000a0 6b 1b b7 be 31 68 e0 3d 53 a4 95 3e bd 2f 6b 3e
       -0.35763106 0.10957373 0.29226932 0.2296743
0000b0 6d 05 eb 3e b0 01 81 3b 43 fd 83 be b8 c0 53 be
       0.45902577 0.0039369687 -0.2577916 -0.20678985
0000c0 2a 6d 4a 3d 03 d6 a5 bb dc bd 43 be e9 7a 86 be
       0.049420513 -0.0050609126 -0.19115394 -0.26265648
0000d0 f7 ee 67 be f5 c3 98 be d6 fa d3 be a2 8e c6 be
       -0.22649752 -0.29837003 -0.4140231 -0.38780695
0000e0 19 6a a8 bc 21 8f 35 be ac 49 b1 be a2 17 f4 3e
       -0.020558404 -0.1773038 -0.3462652 0.4767428
0000f0 c3 a1 69 bd 96 54 eb 3e 01 7d 31 3f 87 18 c8 3e
       -0.057039034 0.4596297 0.69331366 0.39081213
000100 02 67 a5 3e 22 a2 4e 3e 09 2e 27 bf 44 17 37 bf
       0.3230515 0.20179036 -0.6530462 -0.71519876
000110 c6 7b dc be 65 a7 b7 3e 98 50 cc 3e 03 79 22 3e
       -0.43063182 0.358699 0.39905238 0.15866475
000120 62 85 84 bd ca f3 09 3f b4 32 81 bf 2b a0 23 3e
       -0.06470753 0.5388762 -1.0093598 0.15979068
000130 06 68 25 3f 93 e2 49 be 2d 5a 9e be d8 2e d7 3e
       0.6461185 -0.19715337 -0.30928174 0.42027926
000140 01 f4 59 3e bc 15 89 3e 72 5e c9 3d f2 21 6b 3e
       0.21284486 0.26774395 0.09832467 0.22962168
000150 b5 6f ff be 29 1a 63 bf 15 14 01 bf bb f0 2e 3f
       -0.49889913 -0.8871179 -0.5042127 0.68336076
000160 d3 31 fc 3e 63 31 58 3e b5 5e 79 3d 54 df 98 be
       0.49256763 0.2111259 0.060881335 -0.29857886
000170 aa 63 b5 be 7c ae 0c 3e da 2e b7 be bd b8 19 3e
       -0.354276 0.13738436 -0.35777932 0.15011878
000180 1b 0e cf be 02 69 1e be 0d aa cc 3e 1c b2 b9 3e
       -0.4044045 -0.15469745 0.39973488 0.362687
000190 69 77 87 bc dd 5a 4b 3e 73 c5 bb 3d be 78 1e be
       -0.016536431 0.1985888 0.0916852 -0.15475747
0001a0 77 27 3a 3e d7 d8 15 3c ef c3 a2 3e 96 08 79 3e
       0.18179117 0.009145937 0.3179011 0.24319682
0001b0 bc 93 61 3e d1 8b c1 be 7b e4 81 be 76 79 09 bd
       0.22029012 -0.37801984 -0.2536963 -0.0335631
0001c0 31 93 25 3e ee 9a da be 47 0f 8f 3e ff 53 65 3e
       0.1616943 -0.42696327 0.27941343 0.22395323
0001d0 d0 7e a2 3d 58 bd ae 3e 7a cb 43 3e 4a 03 00 bf
       0.07934344 0.34128833 0.19120589 -0.5000502
0001e0 5f 1a 88 3e d9 c7 92 3d 2c 88 83 3e 5d 45 8c 3e
       0.2658262 0.07167024 0.25689828 0.2739667
0001f0 82 06 a8 3e 45 b2 53 3e b2 0a e9 bb 45 de 6d be
       0.32817465 0.20673473 -0.0071118707 -0.2322932
000200 d8 c9 39 3e 76 93 87 be a3 35 bc bd 12 2e 17 3e
       0.18143404 -0.2647969 -0.09189918 0.14763668
000210 93 fe 1b be 76 30 3b be 6d 23 bc be ac 03 f3 be
       -0.15233831 -0.18280205 -0.36745778 -0.4746374
000220 cb f7 d2 bc b9 15 8e 3d a3 08 a5 3e 76 ab 92 bc
       -0.025752923 0.06937737 0.32233152 -0.017904025
000230 32 52 94 3e 50 17 9f 3e 0a e2 e2 3d 3a 84 5b be
       0.2896896 0.31072474 0.1107827 -0.21437159
000240 90 7b 29 bd 18 ee 32 bf e4 43 2a 3e 8d 64 09 be
       -0.041377604 -0.6989455 0.1662746 -0.13417263
000250 93 c7 c8 3d a8 d3 18 3f be 2b 45 3e bc 01 e0 be
       0.09803691 0.5969796 0.19254968 -0.43751323
000260 5f fd e7 bb 27 72 4c 3e 69 71 5a 3d 07 25 86 bf
       -0.0070797647 0.1996542 0.053330813 -1.048005
000270 81 ce b6 3e ac 0b 22 3f a5 7c 7b 3e e7 e3 b7 be
       0.35704425 0.6329906 0.24559267 -0.35916063
000280 88 4c a3 3e e2 95 2c 3d 74 c7 91 3d 77 d2 61 be
       0.31894326 0.042135127 0.07118121 -0.22052942
000290 7b fc 8e bc 69 c0 d0 3d 3d f9 0c 3e 70 2d 53 3e
       -0.017454376 0.10192949 0.13766952 0.20622802
0002a0 5b 5d 94 3e f3 e5 8d 3e 95 35 9f 3e 57 fe 84 be
       0.28977475 0.277145 0.31095567 -0.25975296
0002b0 20 12 9e ba a7 96 b1 3e a1 d4 5e be 2f c8 6f be
       -0.0012059845 0.3468525 -0.21760799 -0.23416208
0002c0 95 8b ce 3e b2 18 dd 3d 48 be 9a be d4 de 4d 3e
       0.40340868 0.10795726 -0.30223298 0.20104533
0002d0 63 70 aa bd 8b cc 85 3e 7c f8 57 bb 76 06 59 be
       -0.08322217 0.26132616 -0.0032954505 -0.21193871
0002e0 36 4c 29 3e e7 8e d2 3e b6 00 8e 3e 7b be f3 be
       0.16532978 0.4112465 0.27734917 -0.47606263
0002f0 cd 09 fc bd 31 1c 49 bd c8 c1 c4 be 8a 5a c5 bd
       -0.12306557 -0.04909915 -0.38429093 -0.096364096
000300 55 0e aa 3e 00 90 9d be 75 1b 91 be a1 0a ee 3e
       0.3321406 -0.30773926 -0.2834126 0.46492484
000310 af 86 9f be c6 0d d1 be 71 88 e5 3d 90 5e 9f 3e
       -0.31157443 -0.4083082 0.11207665 0.31126833
000320 33 1f 64 3e 08 82 e3 3e 12 c4 b5 3e 79 18 dc bd
       0.22277527 0.44435143 0.35501152 -0.10746855
000330 d4 43 8f 3e 88 69 09 bf c4 8f 25 bf e1 f4 06 bf
       0.27981436 -0.5367665 -0.64672494 -0.52717406
000340 0a 91 a6 be c2 75 cf 3e ac 1d b9 3e d6 0f 55 3f
       -0.3253253 0.4051953 0.3615545 0.8322729
000350 ef 14 16 3e 56 bb b5 bc be 0c bc bd b6 8d 2c bf
       0.14656423 -0.022184055 -0.09182118 -0.67403734
000360 7b f7 0b bf 44 11 ff bd 4f 71 9f bc 29 1d c3 bd
       -0.546745 -0.12454465 -0.01946321 -0.09527046
000370 98 7c 22 3e 76 07 96 3e 49 4c 61 3e 5c ca a9 3e
       0.15867841 0.29302567 0.22001757 0.331622
000380 e6 e2 39 3e 8c bb a4 3e 3c e2 d5 3e 2a 21 e0 3e
       0.18152961 0.32174337 0.41774166 0.43775302
000390 c5 99 18 bf 0b 5e 25 bf 67 d2 1e 3e 4a ea d9 3c
       -0.59609634 -0.64596623 0.1550995 0.026600976
0003a0 45 47 93 be e2 a3 0f bf a4 1b e4 3b f2 4e 33 3e
       -0.28765312 -0.5610944 0.006961303 0.17510584
0003b0 7c a6 ba be 1c 52 83 be e6 8c 47 be ee 96 5d 3e
       -0.36455142 -0.25648582 -0.19487342 0.21639606
0003c0 67 e5 a9 3e 84 e4 eb 3e 7e b3 0c 3f 8d 2a c0 bd
       0.33182833 0.4607278 0.54961383 -0.09383116
0003d0 3f 7d 5d be b6 c8 10 be f9 07 9b be c3 f0 b1 bd
       -0.21629809 -0.14139065 -0.3027952 -0.086885
0003e0 ee bd 9e be ef 86 42 3e be 52 b4 be e0 2d 03 be
       -0.3100428 0.18996786 -0.35219377 -0.12810469
0003f0 a8 0e cc 3d 74 23 e2 3e 32 9c 2c 3f ac 4c 97 be
       0.09963733 0.44167674 0.67425835 -0.29550683

0.bias f4 [64]
000000 eb a8 43 3e 24 70 bf 3d 06 32 f2 3e 3e c8 7d be
       0.19107406 0.09347561 0.4730379 -0.24783418
000010 fd 46 fd 3d dd 4f 45 3d 79 50 1d 3d 29 fb 07 be
       0.123670556 0.048171867 0.038406823 -0.13279404
000020 2e b5 3e 3e c4 d3 ea 3d 85 0e c4 3c e7 ad 30 3e
       0.18623802 0.11466172 0.023932705 0.17253838
000030 49 fc 05 3f fd 1e 12 bf 45 e7 95 bc 91 76 15 3e
       0.5233808 -0.57078534 -0.018298754 0.1459601
000040 59 75 80 3e 21 a7 4e 3e 9b 1c b2 3d 79 51 8b be
       0.2508953 0.20180942 0.08696862 -0.27210596
000050 24 22 9b bd 68 9a 94 3b d4 e4 b7 3d 06 f3 09 3e
       -0.07574871 0.004535008 0.089791924 0.13471612
000060 ae 4c 4d 3e 34 da 64 3e 66 19 24 be 7b d0 82 be
       0.20048782 0.22348863 -0.16025314 -0.25549683
000070 94 06 60 be e3 6d a9 be 32 44 d6 bd 5d 89 cc bc
       -0.2187751 -0.3309165 -0.10462226 -0.024967844
000080 2d 8c 3f be 83 f0 7e be 8e 2e c8 be 3d 44 b7 3e
       -0.18705817 -0.24896435 -0.39098018 0.3579425
000090 eb 7b 79 3e ba 79 93 3d ad 1a cb bd cd 61 29 3d
       0.24363677 0.07200952 -0.099171974 0.041353036
0000a0 0b d6 02 ba 9d 01 36 3e 92 dc 21 3e b2 d8 96 3c
       -0.00049910013 0.17774053 0.15806797 0.018413875
0000b0 4d d6 63 be 1c 73 93 be 79 59 84 be a4 7c 5e 3d
       -0.22249718 -0.2879876 -0.25849512 0.054318085
0000c0 66 ea de bc 64 e3 99 3d b4 9a 7b 3e 70 e5 8b 3e
       -0.02721138 0.075140744 0.24570733 0.27323484
0000d0 57 6e 44 3d 36 73 09 3e 82 f4 ab 3e 8b 61 0a 3e
       0.04795679 0.13422856 0.33584982 0.13513772
0000e0 00 f4 ee bc 6b 9c 16 3e a7 e3 5a 3e 6d e2 1d 3e
       -0.029169083 0.14708106 0.21375905 0.15418406
0000f0 94 50 b4 3e 30 70 e4 3d 59 2c 75 be 58 1a 03 3e
       0.35217726 0.111542106 -0.23942699 0.12803018

1.weight f4 [64]
000000 d2 90 70 3f 33 76 a7 3f 2b 59 60 3f 47 7f 85 3f
       0.9397098 1.3082947 0.8763606 1.0429467
000010 00 7a 40 3f d7 7e 7e 3f 11 a8 30 3f b0 e2 ac 3f
       0.7518616 0.9941229 0.6900645 1.350668
000020 18 44 56 3f c4 22 98 3f af f2 87 3f f4 5e 0d 3f
       0.8369765 1.188561 1.0620936 0.5522301
000030 16 c9 55 3f 7c db 90 3f 24 2f 80 3f 04 50 2b 3f
       0.8350996 1.1316981 1.0014386 0.6691897
000040 7d e1 8e 3f 25 dc 55 3f ea 1d 10 3f a5 66 86 3f
       1.1162564 0.8353904 0.56295645 1.0500075
000050 ea 37 72 3f 54 ce 96 3f e1 30 67 3f 9c 52 95 3f
       0.9461657 1.1781716 0.9030896 1.1665835
000060 fb 47 3a 3f be 83 b1 3f a0 d9 42 3f be 1b 7d 3f
       0.72766083 1.386833 0.7611332 0.98870456
000070 59 fd 7a 3f 30 7c 85 3f 0a 18 2f 3f 6f a2 6f 3f
       0.9804283 1.0428524 0.68396056 0.9360723
000080 17 99 5e 3f bf 78 8c 3f f4 2f 8a 3f 71 3c 36 3f
       0.86952347 1.0974349 1.0795884 0.71185976
000090 01 ba 76 3f 66 5c 92 3f 71 0c a6 3f a5 e0 a4 3f
       0.9637757 1.1434448 1.2972547 1.2881056
0000a0 5f 5f 9d 3f f9 e9 51 3f 14 84 55 3f 57 d4 9a 3f
       1.229473 0.8199764 0.8340466 1.2096051
0000b0 92 d1 ad 3f 95 04 8c 3f 97 a4 9d 3f 97 10 77 3f
       1.3579581 1.0938898 1.2315854 0.9650969
0000c0 72 f7 6a 3f 39 ae 93 3f 0c 3c b8 3f f3 2b 25 3f
       0.9178382 1.1537544 1.4393325 0.64520186
0000d0 38 2d 55 3f 3f a5 a0 3f 94 bf 9f 3f 81 fe 90 3f
       0.83272123 1.2550429 1.248034 1.1327668
0000e0 dd 84 7d 3f 22 c4 1d 3f 3e 32 75 3f d7 93 8b 3f
       0.9903086 0.616274 0.9577979 1.0904492
0000f0 3a 97 bb 3f fc aa 86 3f 0c 6d 87 3f d6 96 83 3f
       1.4655526 1.052093 1.0580153 1.0280406

1.bias f4 [64]
000000 1b 2f 1b be fe d8 18 3d dd 49 58 be 32 cc b9 bd
       -0.15154688 0.037316315 -0.21121927 -0.0907215
000010 c3 1b 29 be 67 5d 0f bb ac 1a c7 3b b6 00 6d 3d
       -0.16514497 -0.002187574 0.0060761776 0.057862006
000020 99 49 cf be 56 e3 e4 bd 1a 0f 46 3d df 5c 3e be
       -0.40485838 -0.111761734 0.048354246 -0.18590115
000030 9e bc 75 be 45 a0 e6 bd 21 33 73 ba ed 37 ab be
       -0.23997733 -0.11261038 -0.0009277333 -0.33441105
000040 a4 7a 81 bb d7 ff 45 be 4f 6b 98 be a7 ab 53 bc
       -0.0039513875 -0.19335876 -0.2976937 -0.012919343
000050 30 ba d8 bc 9d 0d 37 bd 29 d7 96 be 4b 9a 81 be
       -0.026455969 -0.044690717 -0.2946103 -0.2531303
000060 cb 01 9c bd dc 4d 5d bd c5 0b 2e be bc c4 a9 bc
       -0.076175295 -0.05402933 -0.16996677 -0.020723693
000070 59 41 6f be b3 74 97 be c7 72 50 bc 27 81 21 be
       -0.23364772 -0.29581222 -0.012722678 -0.15771924
000080 4f cb 52 be 47 c3 0c 3d d9 d1 c4 bd 49 52 9b be
       -0.20585369 0.03436592 -0.09610338 -0.30336216
000090 20 19 60 be 86 c5 b3 bd cb 45 e5 bd b6 d4 90 be
       -0.21884584 -0.08777909 -0.111949526 -0.28287286
0000a0 f7 05 80 3d 24 4e ed bd ca 0f 2f be b3 14 fa bc
       0.06251138 -0.1158717 -0.17095867 -0.030527448
0000b0 52 c6 5f 3d ae 79 c4 bc c7 86 52 3d 90 72 87 be
       0.054632492 -0.023983803 0.051398065 -0.26454592
0000c0 c7 92 86 be 8f dc 09 3e 3f 14 a6 3c 59 25 f0 bd
       -0.26283857 0.13463043 0.020273326 -0.117258735
0000d0 4b 89 b8 bc cb 32 14 bd 5f 56 87 be 7f 73 b0 3c
       -0.022526404 -0.036181252 -0.26433083 0.021539448
0000e0 dc 4a 44 bd 55 70 f4 bd 39 4c 74 be 7c fd 7c 3d
       -0.047922954 -0.11935488 -0.23857202 0.06176518
0000f0 00 c9 f2 bd 5d 3a a4 bd 55 24 71 be b2 0b 88 be
       -0.11854744 -0.080189444 -0.23549016 -0.26571423

3.weight f4 [64, 64, 4, 4]
000000 7e 33 1d bd 93 ef 88 bc 8f 88 2b bb 10 34 57 3d
       -0.038379185 -0.0167158 -0.0026173925 0.052539885
000010 45 70 b9 bd 0b cd 9f bb 7e b6 34 bc a0 94 83 3c
       -0.09054617 -0.004876738 -0.011029838 0.01606208
000020 95 79 7d bd 5c c1 90 bc 27 a5 58 bc e6 a0 d2 3c
       -0.061883528 -0.017670326 -0.013222969 0.025711488
000030 50 a9 98 bd dc 40 22 bd 53 1b 34 3c 71 0a 15 bd
       -0.07454169 -0.039612636 0.010992843 -0.03638691
000040 55 05 0e bd 2d 81 0f be cd 96 5a be d0 09 0f be
       -0.034673054 -0.1401412 -0.21346588 -0.13968587
000050 73 b4 3c 3e 9b ce 2f bc 32 4a 32 bc 63 53 14 3d
       0.18428211 -0.010730411 -0.010881947 0.036212336
000060 08 ef 85 3e 4d 02 6a 3d 65 7d 0a 3c fc 5b 15 3c
       0.2615893 0.0571311 0.008452748 0.009116169
000070 58 56 30 3e 08 65 6a bd f6 df c5 bd 78 8b 7d bc
       0.17220438 -0.057225257 -0.09661858 -0.0154751465
000080 7c f6 b2 bd 73 02 a0 bd 1c 07 ab bd c6 05 3e bd
       -0.087384194 -0.07812967 -0.083509654 -0.046392225
000090 38 16 64 bb f5 44 b5 bc 4c b3 60 3c 12 f8 4e bc
       -0.0034803282 -0.022127608 0.013714623 -0.012632387
0000a0 32 cc ae bc f2 dc 82 bb 49 d9 8f ba 62 59 af bd
       -0.021337602 -0.003993624 -0.001097479 -0.0856197
0000b0 90 2d 37 3d db 58 4a 3b b7 32 4c bd 05 ef f0 bd
       0.044721186 0.0030875716 -0.049853053 -0.11764339
0000c0 cb 55 56 bb a9 72 98 3b c5 fc 5d 3d 4e d6 71 bc
       -0.0032704945 0.0046523404 0.054196138 -0.014760567
0000d0 3a 18 8a bc 63 78 90 3d 6e 7c 84 3d 85 d9 73 bd
       -0.016857255 0.07054212 0.064690456 -0.059533615
0000e0 cc 1b 67 3c f3 c3 bd 3d 36 65 08 3d 46 20 95 bd
       0.014105748 0.0926589 0.033299647 -0.07281546
0000f0 9e e9 0f 3d f0 a5 ae 3c 6e eb 79 3d f0 1e e9 bc
       0.035134904 0.02131936 0.06101554 -0.028457135
000100 f6 2b 76 3d d0 81 af 3b 8d f5 61 bd 6a 25 14 be
       0.06010052 0.005356051 -0.055165816 -0.14467397
000110 0e d8 c4 3d 09 5e 90 3d d8 ab 83 bd dc 07 f0 bd
       0.09611522 0.07049186 -0.06429261 -0.11720249
000120 0f 30 28 3e 34 d5 a9 3c 9a 03 bc bd 2d 30 b2 bd
       0.16424583 0.020731546 -0.091803744 -0.08700595
000130 75 88 97 bc 0c 53 97 bd 8e 53 7e bd e9 c0 c8 bc
       -0.018497685 -0.07388887 -0.062091403 -0.02450605
000140 ba 79 41 3c 80 07 39 3b b0 b0 ee bc da e0 85 bb
       0.011808807 0.002823323 -0.029136986 -0.0040856423
000150 66 37 f5 bb d9 b3 8f 3c 2e be bb 3a ca c3 0c bd
       -0.0074834106 0.017541813 0.0014323646 -0.034366407
000160 e7 6a e9 3c 1b d6 a9 3c 82 80 d4 39 ca 85 24 3b
       0.028493358 0.020731976 0.00040531537 0.0025104159
000170 65 af 04 3c 4f 1f 09 3d 1b 36 a7 3c 83 c2 55 3c
       0.008098458 0.033477124 0.020411542 0.0130468635
000180 bc 3f db bd 93 a8 5c be fd d4 35 be e6 14 c0 bd
       -0.10705516 -0.21548681 -0.1775703 -0.09378986
000190 e9 a4 3d 3d 27 12 d6 bd 7d aa 3a be 63 6a f5 bd
       0.04629985 -0.10452681 -0.18229099 -0.11983182
0001a0 c7 5d d2 3c ef 41 07 be 79 e8 54 be 53 ee 82 bd
       0.025679482 -0.13208745 -0.20791806 -0.06393113
0001b0 05 24 ca 3c 7e a6 ee bd cb f9 cf bd 13 0c 6a 3d
       0.024675379 -0.116528496 -0.10155066 0.05714042
0001c0 52 3c b9 bc b9 ab 86 bc 80 65 7e bd 6e 92 9b bd
       -0.02261177 -0.016439306 -0.062108517 -0.075962886
0001d0 2e 4b 0f be 20 dd 18 be 8f 86 fe bd d0 0a ca bd
       -0.13993523 -0.14928102 -0.12428009 -0.098653436
0001e0 f1 1d 89 bd 74 44 b8 bd 05 86 e1 bd ff 76 45 bd
       -0.06695164 -0.089974314 -0.1101189 -0.048209187
0001f0 fa df 5e be 3f ca 86 be 8f 15 dc bd 77 00 0f bd
       -0.21765128 -0.26326177 -0.107462995 -0.034912553
000200 5d 80 a5 3d 4d c6 05 3e 0b 40 e9 3d 46 c4 00 3c
       0.08081124 0.13063927 0.11389168 0.007859295
000210 22 1f 2f 3e e8 9d c1 3d 06 a5 31 3d 0a 47 5b 3d
       0.1710172 0.09453946 0.04337027 0.053534545
000220 22 d4 14 3e a0 7d 85 3c 2d ef c4 3c 38 e3 61 bd
       0.14534047 0.016295254 0.02403983 -0.055148333
000230 49 56 fa bc e2 26 2c bd d7 9e 29 3d b4 a8 78 bd
       -0.030558722 -0.04202927 0.041411247 -0.060707763
000240 8d 32 2a 3e 7e 71 81 3d f5 15 33 bd 9b 03 a5 bd
       0.16620846 0.06320475 -0.04372211 -0.08057328
000250 b8 ad a1 bd a5 e2 d4 bd 1d 4a ef bd 7b c2 94 bd
       -0.07894462 -0.103947915 -0.11684058 -0.07263657
000260 f0 d2 6c bd a1 67 0c be b4 ba 22 be d2 9b 97 bc
       -0.057818353 -0.13711406 -0.15891534 -0.018506918
000270 c5 80 7f be fa 7c 9a be 7d 80 00 be 05 50 35 bc
       -0.24951465 -0.30173475 -0.12549014 -0.011066441
000280 78 24 11 3d e3 c7 63 bc de a9 01 bd 4e 0f f9 bb
       0.03543517 -0.013902637 -0.03165614 -0.0076007014
000290 1e 45 12 3d 80 c2 c0 bc b6 b8 5b 3c 40 4d 1b bc
       0.035710447 -0.023530245 0.013410738 -0.009478867
0002a0 1a 73 f8 3c 0e 98 9e bb 71 b0 82 3b b8 ce 2b bc
       0.030328322 -0.0048399037 0.0039883186 -0.010486297
0002b0 2c ea 8b bc 32 5b b0 3c d4 3a 8f bb 5b 4e 5e 3c
       -0.017079435 0.02152786 -0.0043710265 0.013568486
0002c0 18 a7 c4 bb cf a5 6d 3b 5a 41 7e bd 3c 2c 07 be
       -0.0060013644 0.003626216 -0.062074043 -0.13200468
0002d0 c0 41 09 3e 33 06 a2 3d c7 5c 6c bd ed 0b b9 bd
       0.13403988 0.07911339 -0.057705667 -0.09035478
0002e0 12 60 36 3e 2e 38 e0 3c 16 6f 46 bd 95 1a d2 bd
       0.17810085 0.027370539 -0.048445784 -0.10258976
0002f0 ac 2b 8c bc 0f a8 f4 bb be 8b b6 bd 0d bc b6 bd
       -0.017110668 -0.007466323 -0.089133725 -0.089225866
000300 6a 26 48 bb 6f 5c 1e bd c3 29 81 bc 05 03 72 3b
       -0.0030540475 -0.03866237 -0.015766984 0.003692807
000310 f4 98 9e bc 23 78 58 bd 23 0d 19 bd f5 93 7c bc
       -0.019360043 -0.052848946 -0.037366044 -0.015416135
000320 6e 62 b3 3c 37 a9 ae bc bf 82 7c 3c 34 49 f3 bc
       0.02189752 -0.021320922 0.015412032 -0.029697992
000330 0c 33 a4 bc 0a 34 c3 bd 42 0c 5c bd 24 44 28 bd
       -0.020043872 -0.0953141 -0.053722627 -0.04108061
000340 c5 b6 1f 3c a6 62 b8 3d 46 30 9f 3d 4a 79 8b bd
       0.0097481655 0.09003191 0.07772879 -0.068102434
000350 70 c3 8b 3d f8 ba 9d 3d a4 32 8d 3c ca a8 a1 bd
       0.06824386 0.07701677 0.017236061 -0.07893522
000360 1d 35 31 3d ab 20 c2 3d b2 fc 58 bc a9 e9 d5 bd
       0.043263543 0.09478887 -0.013243841 -0.10444958
000370 ac d6 df bb 22 02 91 bc 37 ef 23 bd e5 d5 ce bd
       -0.006831011 -0.017701212 -0.040023055 -0.10099391
000380 a5 cd 02 3b 92 11 9d 3c 42 7e df 3c 55 ee d9 bc
       0.0019959 0.019173417 0.027281884 -0.026602903
000390 29 7b ae bb 2d dd e1 3c 5a 98 e2 bc 83 22 96 bc
       -0.0053247404 0.027571285 -0.027660538 -0.018327003
0003a0 37 89 73 3b 0b 35 47 bc d7 70 fb bc 6c ac bf 3a
       0.0037160644 -0.0121586425 -0.030693455 0.0014623529
0003b0 f3 47 c0 3c d9 31 d4 3c 6e 67 e6 bc 95 46 00 3b
       0.023471808 0.025902675 -0.028125491 0.001957332
0003c0 ba 53 51 3d ce 9f c9 bb b7 59 98 bd 6a fe 6e bd
       0.05110524 -0.0061530834 -0.07438987 -0.058348097
0003d0 c4 05 a6 3d 20 bf 8c 3d c9 8c c1 bc 2f bb ba bd
       0.081065685 0.06872392 -0.023626702 -0.09117734
0003e0 5f 71 8c 3d e2 44 4a bc 1d 4c c4 bd 6d 61 0a be
       0.06857561 -0.0123455245 -0.0958483 -0.13513727
0003f0 7d 3d 0a 3d c2 44 ab bd 49 77 d7 bd e7 9b ca bd
       0.033750046 -0.08362724 -0.10520799 -0.09893017

3.bias f4 [64]
000000 33 0d 13 be 9e 15 ee 3d bc f9 a6 3c 0f 9a 23 bd
       -0.14360504 0.11625217 0.020382755 -0.039941844
000010 0a 3c 48 3d 1d d4 44 bd f5 0b 06 3c 90 fc 34 bc
       0.048885383 -0.04805385 0.008181562 -0.011046544
000020 46 c4 03 3e fb be c1 bd 4d 40 44 bc 3e fa 44 3d
       0.12867841 -0.09460255 -0.011978221 0.048090212
000030 8e ce 12 bd 9d ec 58 3d c0 1c 04 3d 06 cf 57 bc
       -0.035841517 0.052960027 0.03225398 -0.013171917
000040 60 f9 9c bc 3c e9 f1 3b 04 e3 2f bd 83 34 ad 3d
       -0.01916188 0.00738254 -0.04294111 0.084572814
000050 d4 74 e0 3d 00 1c a3 bd eb 4a 14 3d 81 c8 87 bd
       0.10959783 -0.07964325 0.03620426 -0.0663004
000060 4e ca 40 3d 92 4f 8a bd a1 36 de bb 1b d9 f2 3b
       0.047067933 -0.06753458 -0.0067814146 0.007411135
000070 f2 00 c8 3d 47 a2 a4 bd 2f a1 d9 bb ea 7d e4 bc
       0.09765805 -0.080387644 -0.006641529 -0.027892072
000080 5a 73 08 3e a0 a5 df bd 7f 62 f3 bc c0 28 87 3d
       0.13325253 -0.10920262 -0.029710053 0.06599569
000090 6b 8a bf 3c 55 5b 5b bd 4a cd dc 3a bc 7b 47 bc
       0.023381433 -0.053553898 0.0016845849 -0.012175497
0000a0 6c 99 e5 3c c4 c1 9c bb 5f c3 74 bd c7 b3 db 3c
       0.028027259 -0.004783841 -0.059756633 0.026819123
0000b0 9a f2 31 3d f2 b8 91 bd a3 1b 58 3d d7 7f 43 bd
       0.043444254 -0.07115354 0.05276073 -0.04772934
0000c0 7e c6 96 3c d5 17 35 bd 53 24 b3 bc c4 53 05 3c
       0.018405195 -0.04421218 -0.021867907 0.008137647
0000d0 20 b6 d5 3d ff cb fb bd 82 de 7f 3d c6 4f 55 bd
       0.10435128 -0.122947685 0.06246806 -0.05207803
0000e0 9d 96 78 bd 48 14 91 3d ef 31 f7 3c 6a b2 25 bd
       -0.06069051 0.070839465 0.030175177 -0.040453352
0000f0 30 01 6d 3d 93 58 04 bd b0 c9 9b 3b da 50 91 bc
       0.05786246 -0.032311033 0.0047542676 -0.017738748

4.weight f4 [64]
000000 72 67 5e 3f 67 c3 2d 3f e0 f3 49 3f 7e 0c 55 3f
       0.86876595 0.67876285 0.7888775 0.83222187
000010 0c 6b 79 3f 7f e7 52 3f a9 0a 2c 3f d5 b3 79 3f
       0.97428966 0.82384485 0.67203766 0.97540027
000020 0e f7 67 3f ac 49 93 3f cc a1 62 3f b2 9b 39 3f
       0.9061135 1.1506858 0.8852813 0.725032
000030 54 0f 4e 3f 1a a5 55 3f f9 d8 cb 3e fe a9 7c 3f
       0.8049214 0.8345505 0.39813974 0.9869689
000040 17 b7 57 3f 36 65 53 3f 88 6d 60 3f c9 9a c8 3e
       0.8426375 0.8257631 0.8766713 0.39180592
000050 ad 94 20 3f ec 59 7a 3f cb 16 eb 3e d5 a1 7a 3f
       0.6272686 0.9779346 0.45915827 0.97903186
000060 a8 40 e6 3e 18 ec 7b 3f 50 45 65 3f ce a5 15 3f
       0.44971204 0.98407125 0.8955889 0.5845612
000070 87 23 40 3f a5 05 68 3f b4 92 7d 3f 00 2e 60 3f
       0.7505421 0.9063361 0.99051976 0.8757019
000080 13 e0 8f 3f 5f 72 05 3f 62 03 47 3f 80 b0 30 3f
       1.1240257 0.5212764 0.77739537 0.6901932
000090 66 8a 65 3f 6c fd 3a 3f f9 5b 46 3f cc f8 5b 3f
       0.89664304 0.7304294 0.7748409 0.8592651
0000a0 a0 fa 45 3f e6 34 5b 3f 31 5c 6d 3f cf 10 c8 3e
       0.7733555 0.8562759 0.927188 0.39075324
0000b0 e8 e9 7f 3f 82 15 5f 3f 46 16 e2 3e 61 9a 5b 3f
       0.9996629 0.87142193 0.44157618 0.8578244
0000c0 47 f5 e2 3e 52 ef 7c 3f 83 84 66 3f c3 6b 2e 3f
       0.44327757 0.98802674 0.90045947 0.6813318
0000d0 78 aa 30 3f b1 16 93 3f f8 30 c9 3e e1 f1 7a 3f
       0.69010115 1.14913 0.39295173 0.9802533
0000e0 08 41 32 3f 74 2f fa 3e 66 b7 6c 3f f9 af 4f 3f
       0.6963048 0.4886433 0.92467344 0.8112789
0000f0 9b 05 20 3e c9 d4 7a 3f e8 9d 41 3f e2 d3 83 3f
       0.15627138 0.97980934 0.7563157 1.0299037

4.bias f4 [64]
000000 c7 72 e9 bd e9 c9 0a bf fb bf ff be e7 77 f7 be
       -0.11398845 -0.5421434 -0.49951157 -0.48333666
000010 38 73 15 bf 12 1b e1 be f3 ec 38 bf d8 b0 4c be
       -0.58378935 -0.43965966 -0.72236556 -0.19989336
000020 47 15 32 bf 3d ff 66 bd c8 54 ba be 3a 14 c5 be
       -0.69563717 -0.056395758 -0.36392808 -0.38491994
000030 32 65 ea be e2 6a fd be 30 e1 56 bf 22 28 77 bc
       -0.4578033 -0.49495608 -0.8393736 -0.015085252
000040 45 20 84 bf 89 7e 06 bf f4 a8 b4 be 6e 49 af be
       -1.0322348 -0.5253683 -0.3528515 -0.3423571
000050 ca e1 c0 be 05 94 9f be 3f 3f 11 bf ec d0 b6 bd
       -0.37672263 -0.31167617 -0.5673713 -0.089265674
000060 dd dd fa be 5d 78 e3 bd 09 da af be a5 6a f1 be
       -0.48997393 -0.11106942 -0.34346035 -0.47151676
000070 c6 9f be be 2f f4 cf be e6 da 09 bf 9b c3 bc be
       -0.37231272 -0.40615985 -0.5384964 -0.36867985
000080 50 9d 9d bf 2d 38 04 3c 68 83 00 bf fb 76 91 be
       -1.2313633 0.008070034 -0.5020051 -0.28411087
000090 60 db e9 be 92 30 fa be 78 91 18 bf 6a 52 1c be
       -0.45675182 -0.4886518 -0.5959697 -0.15265813
0000a0 bc e7 f8 be e9 aa ba be cc 3b 9b be 51 5f 64 be
       -0.486143 -0.3645852 -0.3031906 -0.22301985
0000b0 a8 09 0e bf d8 0e 49 bf eb ae f5 be 57 97 a9 be
       -0.55483484 -0.78538275 -0.47985014 -0.33123276
0000c0 98 ec 3d bf 38 fd af bc 5f 49 a2 be c7 14 16 bf
       -0.7418914 -0.021483049 -0.31696603 -0.58625454
0000d0 e7 cb a7 bf 44 63 42 3e c2 e9 98 be 3e 0c 71 bd
       -1.3109101 0.1898318 -0.29865843 -0.058849566
0000e0 0f 2e e1 be 59 7f 7d bf 60 ef 0c bf 20 1e 0c bf
       -0.43980452 -0.9902244 -0.5505276 -0.5473347
0000f0 57 47 1d bf 39 02 a2 bc 56 97 bc be 03 96 ee bf
       -0.6143698 -0.01977645 -0.3683421 -1.863953

6.weight f4 [64, 64, 4, 4]
000000 89 e0 bf 3c 67 18 ae bc 51 21 90 3d 75 ca 52 3d
       0.023422496 -0.02125187 0.070376046 0.05146261
000010 0e 4d bc bc 69 3d 0a bd b4 cb d1 3d 2d 06 1a 3e
       -0.022985961 -0.03374997 0.102439314 0.15041418
000020 6c f9 8b bd 2d 4c e3 bd ee d7 88 3b d4 d9 90 bb
       -0.06834683 -0.11098514 0.0041761314 -0.0044204984
000030 09 e9 d1 bd b8 8f 23 be 07 be 53 be 34 d2 19 be
       -0.10249526 -0.15972793 -0.20677958 -0.15021592
000040 b4 49 52 bb c7 1f e5 bc c9 91 88 bd 79 8e 72 bd
       -0.0032087388 -0.027969254 -0.06668431 -0.059217904
000050 31 bb 94 bd 7a d5 ef 3c f4 f3 cd bd 2d d3 3a bd
       -0.072622664 0.029276598 -0.10056296 -0.04561155
000060 48 13 d3 bc 47 fa 01 bb 20 da 17 bd fc 3c 2e bd
       -0.02576603 -0.0019833015 -0.037073255 -0.042538628
000070 bc ea 2f bd 42 1b 3a 3c 49 cc 9e bc 5e 4e e8 3d
       -0.04294847 0.011359038 -0.01938452 0.11343072
000080 45 d9 a2 3b 32 58 a3 3b 1e df 07 bc ad ee 53 bd
       0.004969748 0.004984879 -0.008292941 -0.05174129
000090 ca 7e 9c 3d c6 e7 f1 3d ef 9c bb 3d fd fc 7d 3d
       0.076413706 0.118117854 0.09160792 0.062008847
0000a0 c7 f8 95 3d 9f 5f 04 3e a0 dc 92 3d 71 78 d3 3d
       0.07322841 0.12927102 0.07170987 0.10325707
0000b0 f2 7e 2c 3d 0b f8 2d 3d d5 32 f7 3d 56 cc a8 3d
       0.042113252 0.04247288 0.12070242 0.08242099
0000c0 b8 4d 0b bb ef b8 3e 3c 88 17 40 3d c3 e4 7d 3d
       -0.002125604 0.011640771 0.04689744 0.061985742
0000d0 a1 41 a7 3b 44 11 24 3d 82 cf a7 ba 72 e9 a0 3c
       0.005104259 0.04005553 -0.0012802931 0.019642565
0000e0 98 58 60 bc a8 a8 f2 3c 61 8f 03 bd 58 b6 84 3a
       -0.013692997 0.029621437 -0.03211916 0.0010125143
0000f0 5d 45 25 bd f8 b9 66 bd 59 b3 67 3c 9a de 23 3c
       -0.040349353 -0.056329697 0.014141881 0.010001803
000100 0b 6a 1f 3d 61 f8 29 3d d7 08 a5 3d da e8 0b 3d
       0.03891949 0.04149664 0.08058327 0.03415761
000110 70 dd 92 bd 03 b0 15 3e b8 f9 4d 3d a0 3e d7 bc
       -0.07171142 0.14617924 0.05028698 -0.02627498
000120 b3 27 44 3d 09 20 ef bb 6d 38 57 bd 6d 77 ab bd
       0.047889423 -0.00729752 -0.052544046 -0.08372388
000130 5a 51 8e bd ac eb 6a bd 56 ad 27 be e2 a0 ff bd
       -0.0694911 -0.05735366 -0.16374716 -0.12481858
000140 79 9c 1a 3c 94 8d 6d 3c 94 22 29 3d 37 07 8c 3d
       0.00943672 0.014499087 0.041292742 0.068373136
000150 3e 75 5e bd 2c ba 89 bc fe 0a 1e bb d9 93 aa 3c
       -0.05431103 -0.016812406 -0.0024115439 0.020822452
000160 e2 13 53 bd a9 cd 53 bd 92 fc 58 bd 22 75 d2 bc
       -0.051532634 -0.051709805 -0.052975245 -0.025690619
000170 f6 64 d4 bc 1c 53 34 bc 28 8b 10 bb 8b 30 0a bc
       -0.025927048 -0.011006143 -0.00220556 -0.008434425
000180 d9 8f ba 3d c9 ce ca 3c ac 8a 17 bd 6c 00 1d bd
       0.09109468 0.024756806 -0.036997482 -0.03833048
000190 6d b5 fa 38 85 99 29 bd 42 67 bc 3c 27 50 ab bc
       0.00011954722 -0.041406173 0.022998456 -0.020912243
0001a0 10 d6 0c be 74 da 96 bd 2f cb 75 bd e7 ea f8 bc
       -0.13753533 -0.073658854 -0.060008224 -0.030385448
0001b0 d7 e8 06 bd b2 68 72 bd 87 9e 91 bb 50 08 cb ba
       -0.032936897 -0.059181876 -0.0044439468 -0.0015490148
0001c0 01 89 12 3c 06 68 e9 3b be 86 18 3d 2c 33 90 3c
       0.008943797 0.0071229963 0.037237875 0.017602526
0001d0 d3 a3 ec bc 2e a5 bb 3b da 2e 28 3c 28 ff ad bc
       -0.028886711 0.005726478 0.0102650765 -0.021239832
0001e0 7d c4 51 bb ee 38 35 bd 98 72 1a bd 12 fe 87 bc
       -0.0032007985 -0.044243746 -0.03770694 -0.016600642
0001f0 4f 3d f0 bc 43 00 1f bb 9f 90 c0 3c 65 2c b3 b9
       -0.02932611 -0.002426163 0.02350646 -0.00034174617
000200 b8 cd 3c bd 17 e5 e3 bc 91 cb 37 bc 11 ec a8 bc
       -0.046094626 -0.0278192 -0.011217968 -0.020620378
000210 ed 51 a4 3c 6a 2d b6 3b 6f 29 4b 3c 0f f5 2c bb
       0.020058597 0.005559613 0.012400015 -0.0026391183
000220 41 30 41 3d 58 c5 6a bc 94 22 c7 3c 98 f6 22 3c
       0.04716516 -0.014329277 0.02430848 0.009946488
000230 60 5e 14 3d f6 84 5f 3c e4 c8 77 3c ed d9 cd 3c
       0.036222816 0.01364254 0.01512358 0.02512833
000240 ef 7c 05 bd 30 01 71 3d 2d 29 2f 3e 44 f9 aa 3d
       -0.03258985 0.058839023 0.17105551 0.08348325
000250 68 15 4d bb 16 98 99 3d 43 9a b2 3c cb db 75 bc
       -0.0031293277 0.07499711 0.021802073 -0.015006016
000260 8b 66 d3 3d 26 90 29 3d 5f 9e f7 bc 1c 2d 9c bd
       0.10322293 0.041397236 -0.030226884 -0.076257914
000270 36 b9 da 3d f4 c6 74 bd 85 f5 9f bd 52 38 1f bd
       0.106798574 -0.05976005 -0.07810501 -0.03887207
000280 72 23 07 bd 4c 68 19 3d b5 f6 3f bb c2 62 19 3d
       -0.032992788 0.03745298 -0.0029291336 0.0374477
000290 a7 25 8b bc 2e f2 77 bd 51 36 44 bd 5f 37 2b bc
       -0.016985727 -0.060533695 -0.047903363 -0.010450213
0002a0 d1 43 81 bd 67 89 1e bd a9 c6 3d bd c2 c7 09 bd
       -0.06311763 -0.038705256 -0.046332035 -0.03363777
0002b0 14 0f 8d bc 76 b0 2b bd 10 d7 7f bc 4f 01 3c bb
       -0.017219104 -0.041916333 -0.01561524 -0.0028687303
0002c0 5e 12 36 bd b3 8c 1a 3d 40 7a 06 bd f6 d0 25 bd
       -0.04445111 0.037731837 -0.03283143 -0.040482484
0002d0 9e 6d ca 3d 87 94 5c 3b da d6 07 3e 73 41 d3 3d
       0.09884189 0.0033657865 0.13265553 0.10315218
0002e0 8b 6f 0a bd f6 42 9e bd 8c cc 19 3e 0e cb b9 3d
       -0.033797782 -0.077276155 0.15019435 0.09071933
0002f0 08 15 85 bd b2 ab cb bd ab b2 cc 3d a8 1a 06 3e
       -0.06498152 -0.09944858 0.09995016 0.13096106
000300 4f 29 57 bc 64 6f 14 3b c8 29 e7 3b 41 b1 6c 3c
       -0.013132407 0.0022649402 0.0070545413 0.0144465575
000310 be b8 2f 3c b7 bb 1b bd b3 34 2a 3c a9 fb 26 bc
       0.010725198 -0.038020816 0.010388541 -0.010191836
000320 8c 0a c0 bc 59 05 27 bc 1d 41 e1 bc 60 8b 68 bc
       -0.02344253 -0.010194146 -0.027496869 -0.014193386
000330 4a 52 c4 bc 16 bb 29 bd af 2b f0 bc 93 f2 28 3c
       -0.02396502 -0.041438185 -0.029317705 0.01031174
000340 c4 cb 77 bd a1 01 4c bd c2 fb 70 bd 1a 5a 09 3d
       -0.06049706 -0.04980624 -0.058833845 0.033533193
000350 53 ed a5 3d d8 b0 08 3d e9 a8 9b 3d 82 d0 8c 3d
       0.081019066 0.033371776 0.076005764 0.06875707
000360 56 70 61 bb d7 49 6e 3d 50 a0 31 3d 4a e6 fc 3c
       -0.0034399233 0.058175888 0.043365777 0.03087153
000370 ec e8 5c 3c 70 32 4d 3e 40 e4 b9 3d f9 d6 96 3d
       0.013483267 0.20038772 0.09076738 0.073652215
000380 10 b3 94 3d 38 e0 6d 3d 9f 04 80 3d 59 f7 80 bd
       0.07260716 0.05807516 0.062508814 -0.06297178
000390 e5 7c 95 ba fc 6b f5 3b 93 18 23 bb 2f 55 08 bd
       -0.0011405019 0.0074896794 -0.0024886474 -0.033284362
0003a0 0c e7 64 bd cf fc 66 bd 75 d8 3d bd 2c 2c f5 bc
       -0.055884406 -0.05639344 -0.046349008 -0.02992829
0003b0 21 87 b0 bd ad 88 01 bd e7 e3 ae bd 35 26 5b bd
       -0.08619524 -0.031624485 -0.08539563 -0.053503234
0003c0 89 7c b4 39 40 39 6d bc ba 92 07 3d ec 3a 9d bc
       0.0003442506 -0.0144789815 0.033098914 -0.019193135
0003d0 00 62 d9 3a 44 ab e9 39 18 a2 57 bc b5 ca df 3c
       0.0016584992 0.00044568826 -0.013161205 0.027318338
0003e0 f5 1e c1 bc 16 23 ad 3b 4c b4 c1 bc 93 f9 66 3b
       -0.023574332 0.0052837236 -0.023645543 0.0035243973
0003f0 b1 f8 ab bc 82 b5 bc 3c 84 d4 21 bb d9 b0 e7 3c
       -0.020992609 0.023035768 -0.002469332 0.02828257

6.bias f4 [64]
000000 af 41 85 3e da ab 8f be 9b 50 cd 3d 85 e5 13 be
       0.26026675 -0.280608 0.1002514 -0.14443024
000010 a9 f9 27 bd 3b eb 07 3d b3 c9 aa 3d 6d 44 df bd
       -0.04100958 0.033183318 0.08339252 -0.10901723
000020 32 e4 11 3e 47 ab 0f be 71 1e e6 bd 95 75 c9 3d
       0.14247206 -0.14030181 -0.11236275 0.0983688
000030 d1 9a 57 3e bd 09 82 be e1 6c 1d bd 91 3e 85 3d
       0.21055152 -0.25398055 -0.038433913 0.06506074
000040 03 62 76 be 10 89 82 3e 3b 76 25 3d 86 59 33 3c
       -0.24060826 0.25495195 0.040395956 0.010946637
000050 9b 3b 76 3d 50 7e a7 bd 1b cc 40 bd 44 f4 af 3d
       0.060115438 -0.08178389 -0.04706965 0.08591512
000060 3e 15 44 3e 17 5b 4a be a1 f7 7e bb f3 c5 1a 3c
       0.19148728 -0.1976131 -0.0038904923 0.009446609
000070 f9 a6 a0 be 2c b2 88 3e fc d2 86 bd 85 9b b1 3d
       -0.3137739 0.26698434 -0.06583211 0.08672241
000080 fe b2 b6 bc 5d f4 4f 3b 09 2d df 3d 9a d7 00 be
       -0.022302147 0.0031731345 0.10897262 -0.12582245
000090 a8 3f 04 3e ad 9e 14 be 6d 7d 5e bc 93 f6 80 3d
       0.12914908 -0.14513655 -0.0135797085 0.0629703
0000a0 b7 0c 73 be 29 62 60 3e bc 57 58 3e f1 60 25 be
       -0.23735319 0.21912445 0.21127218 -0.16150261
0000b0 4e be 4c 3d 49 47 c6 bc 97 58 2d 3d b1 e6 c5 bc
       0.049986176 -0.024203913 0.042320814 -0.024157854
0000c0 a8 87 bd bc f9 c5 26 3d 53 43 de bd 23 ab d2 3d
       -0.023135975 0.040716145 -0.10852685 0.10286548
0000d0 b6 4b 28 be 1f ae 19 3e 70 19 6c 3e ad d1 6a be
       -0.16435131 0.15007828 0.23056579 -0.22931547
0000e0 81 ac 1f be 9d af 3e 3e d5 c3 c9 be 07 28 dc 3e
       -0.15593149 0.18621679 -0.3940722 0.42999288
0000f0 16 27 75 3e 32 51 5a be 49 e3 f3 39 fd ad 8a bc
       0.23940691 -0.21320036 0.00046517912 -0.016928667

7.odefunc.norm1.weight f4 [64]
000000 2f 7c 80 3f 17 72 af 3f ed be 81 3f fc 95 a0 3f
       1.0037898 1.3706692 1.0136391 1.2545772
000010 ec 95 a2 3f 9f 12 95 3f 96 ab 7b 3f 49 ad 0c 3f
       1.2702003 1.1646308 0.98308694 0.5495191
000020 9f ef 7d 3f 0a 4b bd 3f c7 9d 6b 3f 18 28 8b 3f
       0.9919376 1.4788525 0.92037624 1.0871611
000030 9d ca 52 3f 83 7a 87 3f a4 09 9c 3f 4c b0 af 3f
       0.82340413 1.0584263 1.2190442 1.3725677
000040 75 d1 9a 3f 72 8b 45 3f f3 86 7b 3f af e9 1b 3f
       1.2095171 0.771659 0.9825279 0.6090345
000050 1e bb aa 3f e4 c7 5e 3f b3 f6 aa 3f 00 40 7b 3f
       1.3338354 0.8702376 1.3356537 0.9814453
000060 94 64 64 3f 3e 6d b0 3f e8 88 d4 3e 21 73 7c 3f
       0.8921597 1.3783338 0.415107 0.9861317
000070 18 e7 c4 3f fd 60 96 3f 51 f9 a2 3f cd 3f 5f 3f
       1.5383024 1.1748348 1.2732335 0.8720673
000080 16 85 78 3f 8f 0a 93 3f 79 8c 52 3f 6a 34 a2 3f
       0.97078073 1.1487597 0.82245594 1.2672246
000090 2c b1 82 3f b3 4c b1 3f a7 f2 e5 3e 10 50 7e 3f
       1.0210319 1.3851532 0.44911692 0.99340916
0000a0 43 ad 9c 3f 85 7d 50 3f 49 75 59 3f bc 70 8e 3f
       1.2240375 0.8144153 0.8494459 1.1128154
0000b0 3c fe b4 3f e2 14 19 3f 22 8e 05 3f 91 a7 88 3f
       1.4140086 0.5979749 0.5217 1.0676137
0000c0 ff 69 67 3f 0e 34 93 3f d3 40 b5 3f 01 e7 70 3f
       0.9039611 1.1500261 1.4160408 0.94102484
0000d0 d6 e4 c9 3f 3e 25 95 3f f7 0f 9d 3f 1e 0a bb 3f
       1.577296 1.165199 1.2270497 1.4612463
0000e0 b8 b3 9d 3f 8c 4b 59 3f a6 1d b3 3f 36 4f 7e 3f
       1.2320471 0.848809 1.3993423 0.99339616
0000f0 84 3d a3 3f c5 56 9e 3f f8 3c a1 3f 98 d0 ae 3f
       1.2753148 1.237023 1.2596731 1.3657408

7.odefunc.norm1.bias f4 [64]
000000 9a 9d f1 be ed 78 35 bd 92 35 df be b4 71 f8 be
       -0.47190553 -0.044304777 -0.43595558 -0.4852425
000010 e6 37 f1 be 35 3c 16 bf 64 cd 04 bd 50 09 1d bf
       -0.4711296 -0.5868562 -0.03242244 -0.61342335
000020 24 05 32 bf 46 0d 89 3d 72 42 34 bf b0 e8 86 be
       -0.69539094 0.06691985 -0.7041389 -0.263494
000030 c9 d9 00 bf 83 01 a1 be f8 9e f0 be 7f 2a 9f be
       -0.50332314 -0.31446466 -0.46996284 -0.3108711
000040 f3 92 18 bf ad f4 32 bf ac 34 97 bd a9 e1 28 bf
       -0.59599227 -0.69904596 -0.07383093 -0.6596933
000050 a9 a7 51 be 45 49 0f bf c3 5c 7a be ee b8 28 bf
       -0.20474114 -0.55971175 -0.24449448 -0.6590718
000060 a7 03 1c bf 9d a7 f0 be c0 42 d5 be e0 a4 be bc
       -0.60943073 -0.4700288 -0.4165249 -0.023271978
000070 c9 3b 24 be 92 94 38 bf b8 42 b2 be de d1 c7 be
       -0.16038431 -0.721017 -0.34816527 -0.39027303
000080 2d 49 15 bf d9 2b 09 bf 5d dd 2f bf 1f 68 38 be
       -0.5831478 -0.5358253 -0.6869715 -0.18008469
000090 cd c8 32 bf 7e 6f aa bd 75 77 fd be 90 e2 0b bc
       -0.6983765 -0.08322047 -0.495052 -0.008537903
0000a0 28 91 b7 be 4f e0 16 bf e8 3f 28 bf 14 0b 33 be
       -0.35852933 -0.5893602 -0.65722513 -0.17484695
0000b0 7c c8 92 3d bf bb 23 bf 91 9e 07 bf e1 85 b2 3c
       0.071671456 -0.6395835 -0.5297633 0.021792354
0000c0 7a 21 55 bf 2a 95 f2 be a2 80 78 be 25 89 eb be
       -0.83254206 -0.47379428 -0.2426782 -0.4600307
0000d0 70 e0 84 bc cc 4d 39 bf 95 15 ea be 58 61 f5 be
       -0.016220301 -0.72384334 -0.4571959 -0.4792583
0000e0 d1 2d cf be ed 35 0f bf 39 ba 42 3e 5e 31 48 bf
       -0.40464643 -0.5594166 0.19016351 -0.7820033
0000f0 56 03 c8 be ba 3f b9 be 9c bb 09 bf df ce 23 bf
       -0.39065045 -0.36181432 -0.53801894 -0.63987535

7.odefunc.conv1._layer.weight f4 [64, 65, 3, 3]
000000 73 fd 00 bd 7b 83 8e bd b8 c7 93 3c 6a b2 ad bd
       -0.031491708 -0.06958672 0.01803957 -0.084812954
000010 c7 66 34 bd 47 b5 0b 3c 8f a9 48 bd 9a 73 9c 3c
       -0.04404333 0.008527107 -0.04898983 0.019098092
000020 02 d6 40 3d 18 06 a7 3b 01 b4 6a bd c5 2e 06 be
       0.047079094 0.005097162 -0.05730057 -0.13103779
000030 cc 36 42 bd fc 90 25 be 8d 42 66 be 9a a6 b9 3c
       -0.04741554 -0.16168588 -0.22486325 0.02266245
000040 e7 23 1f be 28 79 18 bc 4f 23 02 bc 95 97 dc bd
       -0.1554104 -0.00930623 -0.007942989 -0.107710995
000050 11 69 28 bd 9f 12 f7 bb c4 c7 e9 bd 7a 6b b4 bd
       -0.041115824 -0.0075400616 -0.114150554 -0.08809562
000060 12 48 9e 3d a5 f3 ab bd ef 56 fa bd a5 d2 77 bc
       0.0772859 -0.08396081 -0.122236125 -0.015125905
000070 e2 5e f7 3d 0f f6 d4 3d 0a 8c da 3d f4 44 1b bd
       0.12078644 0.103984945 0.106712416 -0.037907556
000080 a2 ae ff bd f7 39 41 be 40 18 64 be ee 8d cd bd
       -0.124844804 -0.18869768 -0.22274876 -0.100368366
000090 01 c8 46 3e 99 f6 4d 3e df 9f c5 3b be 79 9d bd
       0.19412233 0.20113601 0.006031021 -0.07689236
0000a0 48 bb 04 be f6 66 bc bd a6 20 a5 bc ac 93 f8 3c
       -0.12962067 -0.09199326 -0.02015717 0.030343853
0000b0 02 81 4d bb 11 29 38 be d2 f9 f0 3c 1d 6c 6e 3d
       -0.0031357412 -0.17984416 0.029415999 0.058208574
0000c0 3b c0 73 be 1b 7e 8d be 68 4f 78 be 05 5a 8a be
       -0.23803799 -0.27635273 -0.24249041 -0.27021804
0000d0 02 8e 91 bd 4f 93 83 3d 04 a3 6c be 8a e9 89 be
       -0.07107164 0.06424581 -0.2310906 -0.2693599
0000e0 fb 06 11 3d 1b d8 01 be b0 5e 27 be af 57 95 bd
       0.035407048 -0.12680094 -0.16344714 -0.07292115
0000f0 26 ab 13 3d 73 1e c7 bc 9b 66 06 be 4b 61 cd 3c
       0.03605189 -0.024306512 -0.13125078 0.025070807
000100 c5 93 4e bc e8 ba cb bb 67 a6 3b 3d 99 fb 68 bd
       -0.012608473 -0.0062173493 0.04581299 -0.056880567
000110 ac e1 00 3b 2e a7 86 3c f4 9d 3d bd bb 25 f0 bb
       0.001966576 0.01643714 -0.046293214 -0.0073287166
000120 62 96 3d be ca 41 9b bd b5 2e 39 3e 7e c0 49 bd
       -0.18514398 -0.07580908 0.18084224 -0.04925584
000130 5b 17 0b bd d6 cb f6 3c 5e b7 f1 3c 56 6b e1 bc
       -0.03395782 0.030126493 0.029506382 -0.027517002
000140 49 c7 aa bd ab 1b 14 bd bc 4c f7 bd fd d2 c2 bd
       -0.08338792 -0.0361592 -0.12075183 -0.09512899
000150 40 a8 94 bd e0 ed 6d be 14 a9 61 be b5 f8 41 be
       -0.07258654 -0.23235273 -0.22037154 -0.1894253
000160 2b 43 9d be 85 e0 82 be 32 c0 73 3e f2 d8 2d 3e
       -0.30715308 -0.2556192 0.23803785 0.1697729
000170 f7 2b 28 3d bf ca 49 3b ab a1 0d 3d 49 51 86 3d
       0.041057553 0.0030791012 0.034578007 0.06558473
000180 09 3a 6c bd 64 76 0e 3d 07 2a 49 3e 50 85 ce bd
       -0.057672534 0.034780875 0.19644938 -0.10084021
000190 66 e9 48 3d ae 3a 95 bb 85 d2 2d b9 6b 2e 70 bc
       0.04905071 -0.0045541143 -0.0001657699 -0.014659504
0001a0 ce 7e e2 bb d2 56 0f 3e fb 7b c1 3d 02 66 82 bc
       -0.006912089 0.13997963 0.094474755 -0.015917782
0001b0 f7 96 1d bc 2b 87 33 bd b1 d6 5c bd 9d 09 79 3c
       -0.009618512 -0.043830078 -0.053915683 0.015200046
0001c0 a9 1f 5d bd d0 a6 37 be 43 75 f1 3d e7 53 5d bd
       -0.05398527 -0.17934728 0.11789944 -0.054035094
0001d0 26 55 13 be c8 00 44 be 63 5b 95 bd a8 1a 56 3d
       -0.1438795 -0.19140923 -0.07292821 0.052271515
0001e0 2c de 08 be 8a ce e1 bd be 9d 00 3e 18 11 85 bd
       -0.13366002 -0.11025722 0.12560174 -0.06497401
0001f0 4d ed 93 be 27 5c 35 be 0b 06 91 3c 28 ee 8a bc
       -0.28891984 -0.17710935 0.017703077 -0.016959265
000200 a6 3e ef bc e6 fb 87 bd c0 4a cf bd f7 13 75 3a
       -0.029204678 -0.06639843 -0.10121679 0.00093489833
000210 22 df 6d 3c ad 8e cd bd b2 e0 95 bd b8 2f c6 3d
       0.014518531 -0.10036979 -0.07318248 0.096770704
000220 11 71 c0 3d e2 05 af bd 1a 83 76 be 1a 79 4a be
       0.09396566 -0.08546044 -0.24073449 -0.19772759
000230 37 ac da bd 4d 5f a7 bd e6 27 ed 3d 51 56 53 3d
       -0.106773786 -0.08172474 0.11579876 0.05159599
000240 a8 96 53 3e 18 75 ba 3d e2 dd 84 3d 86 06 db bd
       0.2066294 0.09104365 0.06487633 -0.106946036
000250 9f f5 fa bd 07 81 91 bd 73 19 ae 3d 23 f2 0a 3e
       -0.1225388 -0.07104688 0.08500948 0.1356893
000260 7c 0e 42 3e cb 02 5c be 1e 4f 6c be 33 f9 83 bd
       0.18950838 -0.2148544 -0.23077056 -0.06444015
000270 8e c5 c4 bc 32 1b ba bd c9 7b c7 3d 32 cc 86 3d
       -0.024019983 -0.09087218 0.09740407 0.06581916
000280 0f 83 81 3c 8a ca 53 be 8a 9f ba bd d8 12 53 bd
       0.015809564 -0.20682731 -0.09112461 -0.051531643
000290 dc 2a bc bd cc 0f 01 bd 54 ad 98 3d 3e ac 8a 3c
       -0.09187862 -0.031509206 0.07454935 0.016927835
0002a0 54 6d ac 3b fa 4f f2 3c a3 17 30 bc b1 fb 5b bd
       0.0052620564 0.029579151 -0.010747823 -0.05370683
0002b0 07 aa 05 3c 86 16 76 3c 61 ba e6 3c 0e e0 4c bd
       0.008158213 0.015020018 0.028165044 -0.050018363
0002c0 e4 ae 17 bd 9a 93 fd bc 34 5c a7 b9 1e f4 11 bd
       -0.037032023 -0.030954171 -0.0003192142 -0.0356332
0002d0 96 43 07 be c1 92 0f bd e5 38 16 3d 2f 86 de bd
       -0.13209376 -0.035052065 0.036675353 -0.10865437
0002e0 1c dc af 3c 6f 44 f4 3c ae a5 4e 3d 56 ba 7c bc
       0.021467261 0.029817788 0.050450973 -0.015425285
0002f0 68 94 26 bd 0a c6 f3 bd 3c 25 fb bd ef 73 35 bd
       -0.040668875 -0.11903007 -0.12262961 -0.044300016
000300 89 6e 7e bd ea 67 29 3e a2 7f a6 3d 38 89 ec 3d
       -0.062117133 0.16543546 0.08129813 0.1154961
000310 c0 64 4f 3d 1e 2a e2 bd f8 c1 09 3d 99 f3 ff bd
       0.050633192 -0.110431895 0.03363225 -0.124976344
000320 ba 2a 31 be f7 ff 56 bd 75 be 1e 3d b6 25 4b 3c
       -0.17301455 -0.0524902 0.038755853 0.012399128
000330 ce 3c 7d 3d 85 c7 1e be fc f9 03 bd 5c e0 58 bd
       0.061825566 -0.15505798 -0.032220826 -0.05294834
000340 7d fc b5 3c e9 77 11 bd c8 f1 8c 37 7f 42 42 3c
       0.022215122 -0.035514746 1.6801889e-05 0.011856674
000350 49 99 88 bd 72 09 9f 3d 62 04 15 3d 2b e3 bb bc
       -0.06669862 0.077654734 0.036381133 -0.02293547
000360 76 28 8e 3d be 31 e5 3d 38 35 e6 3d 83 d0 0f be
       0.06941311 0.11191128 0.112406194 -0.14044385
000370 b0 62 1c 3e 4c 86 a4 3e cf a2 a7 be 42 81 2a 3d
       0.15272021 0.3213371 -0.327414 0.041627176
000380 1b 5e 05 3e 95 9d 79 be f0 30 22 be 7b 86 ad bc
       0.1302418 -0.24376519 -0.1583898 -0.02118229
000390 d1 3e 2f 3c 16 c3 58 be 6f 20 5f be 90 32 4d be
       0.010696129 -0.2116817 -0.21789716 -0.2003882
0003a0 c9 66 1e be b5 d7 eb bc 8b c7 b1 bc 27 f0 3e 3e
       -0.15468897 -0.02878938 -0.021701595 0.18646298
0003b0 bd b9 83 3d 0e ee 11 3d fb 2d ef 3d c7 d1 72 bd
       0.06431911 0.035627417 0.11678692 -0.05928209
0003c0 06 b6 b1 bb ac dd 9d 3d 71 12 30 bd 14 f5 90 bd
       -0.00542331 0.07708296 -0.042986337 -0.07077995
0003d0 e6 06 af bd 60 b9 9e bb 83 56 88 bd 87 3a 35 3d
       -0.08546238 -0.0048438758 -0.06657126 0.04424527
0003e0 9d ad 85 3d f5 5c 0c 3d 8d 8d 16 3d 66 78 02 bd
       0.06527255 0.03426834 0.036756087 -0.031853102
0003f0 b5 91 f9 bc e3 d1 12 3d 57 3b 0f bc 42 95 a0 3c
       -0.030464986 0.035844695 -0.008742175 0.019602422

7.odefunc.conv1._layer.bias f4 [64]
000000 e2 74 bd bd 5b 28 cb 3d e8 9c 6b 3d 8d 78 98 bc
       -0.09250809 0.099198066 0.057522684 -0.01861217
000010 2e 87 d8 bd 5b 84 70 3d 32 c1 87 bc 54 45 1b bb
       -0.105726585 0.058719974 -0.016571615 -0.0023692446
000020 d0 a0 19 be 11 b1 b7 3d be 84 a3 bc c6 16 0c bd
       -0.15002751 0.089693196 -0.019960757 -0.034201406
000030 1f 95 b3 3d b2 3a b7 bd 73 6e 75 3d 88 43 82 bd
       0.08768677 -0.08946742 0.059919786 -0.06360537
000040 ab 42 14 bd d6 2b 4d bc 6c 00 ce bd cc 8f ca 3d
       -0.036196392 -0.012522658 -0.10058674 0.09890708
000050 10 43 21 bd 14 c7 40 3c d1 8c a8 3d 71 5a 9b bc
       -0.039370596 0.011766214 0.082299836 -0.018964024
000060 28 38 0f bd 4d c5 0f bd 06 94 b2 bc a4 8d 25 3d
       -0.034965664 -0.03510027 -0.021799099 0.040418282
000070 0a 8d 7a 3d ec 7e 60 bd 34 8e 8f bb fe e2 fc 3c
       0.06116966 -0.054808542 -0.0043809656 0.030869957
000080 3c b3 2f bc 08 39 14 3d 1b 78 33 3d 17 cb c9 bd
       -0.010723885 0.0361872 0.043815713 -0.098531894
000090 d0 02 df 3c 57 34 0a bc d6 8e f3 3d 01 51 ef bd
       0.02722302 -0.00843533 0.11892478 -0.11685372
0000a0 d1 a4 bb bc a6 34 cf bb 00 ef fd bc f2 6a c6 3d
       -0.022905739 -0.006323415 -0.030997753 0.09688367
0000b0 9d f5 81 3d 9f 37 84 bd 34 44 a7 bc 21 06 c9 bc
       0.06345675 -0.064559214 -0.020418264 -0.024539055
0000c0 e2 d9 5d 3d 55 2b 47 bc 8c 07 ed bc 5c 8e b4 bb
       0.054162867 -0.012156327 -0.028934263 -0.0055101346
0000d0 71 74 34 bd b2 04 b6 3b 83 62 01 3e af 05 91 bd
       -0.04405636 0.005554759 0.12635235 -0.07081162
0000e0 07 fc 8a bd 2d 79 a5 3d a5 5b b3 3b 43 65 20 3a
       -0.06786352 0.08079753 0.0054735714 0.0006118605
0000f0 05 33 98 3d 69 44 ca bc 3c 79 06 3d 8e 1c 2c 3c
       0.07431606 -0.024690824 0.03283046 0.010504855

7.odefunc.norm2.weight f4 [64]
000000 c6 21 8c 3f 00 a2 a3 3f 9b dc 82 3f eb 8c ca 3f
       1.0947807 1.2783813 1.0223573 1.5824255
000010 b4 fa a5 3f fb 2a 6d 3f 30 5d 68 3f 05 2d 91 3f
       1.2967134 0.9264371 0.9076719 1.1341864
000020 ff 09 8e 3f a8 fc a2 3f 41 41 87 3f 2b 40 8c 3f
       1.10968 1.2733355 1.0566789 1.0957083
000030 db 50 39 3f 29 09 b7 3f d4 8b 3a 3f b6 2e 89 3f
       0.72389 1.429967 0.7286961 1.071738
000040 24 ec 77 3f 20 aa 10 3f 10 c5 88 3f 3d ad a2 3f
       0.96844697 0.5650959 1.0685139 1.2709118
000050 39 ae 89 3f 02 ad aa 3f b4 35 96 3f 7c 21 70 3f
       1.0756294 1.3334048 1.1735139 0.93801093
000060 02 ba 7a 3f 7c 29 8a 3f 80 43 96 3f b4 a9 61 3f
       0.97940075 1.079391 1.1739349 0.8814957
000070 0c 08 af 3f 34 52 8e 3f 5f 3d a4 3f 5c 29 96 3f
       1.3674331 1.1118836 1.2831229 1.1731372
000080 b7 6b 83 3f 60 4d 4d 3f 7d 78 87 3f fc b9 85 3f
       1.0267247 0.8019619 1.0583645 1.0447383
000090 d9 65 42 3f f3 00 8a 3f fc 7c 71 3f 7a 7a 85 3f
       0.7593666 1.078154 0.94331336 1.0428002
0000a0 94 6d a3 3f 52 2b 67 3f b1 d8 9d 3f 78 1c 43 3f
       1.2767816 0.90300477 1.2331754 0.76215315
0000b0 6a bb 79 3f 42 f2 93 3f e1 23 8f 3f e4 5a ab 3f
       0.97551596 1.1558306 1.1182824 1.3387113
0000c0 24 f4 d7 3f 5c 5e 89 3f 7f 2d 9f 3f 99 3d 63 3f
       1.6871381 1.0731921 1.2435759 0.88765866
0000d0 44 bb 81 3f 1c 1c 53 3f 2a 88 81 3f 97 d1 91 3f
       1.0135274 0.82464767 1.0119679 1.1392087
0000e0 85 5d 67 3f 3f ab ab 3f 58 0a 50 3f 52 84 97 3f
       0.90377074 1.3411635 0.81265783 1.1837256
0000f0 d9 65 a0 3f b3 b6 43 3f 3c 45 2e 3f bd 39 71 3f
       1.2531081 0.7645065 0.68074393 0.94228727

7.odefunc.norm2.bias f4 [64]
000000 4b fb 1f bf 5f fe 65 bf dc fd 03 bf 11 8c 8a bf
       -0.6249282 -0.89841264 -0.51559234 -1.0823995
000010 89 22 b3 be 1f 1f 8c bf 28 2f 8c bf 89 67 b8 be
       -0.34987286 -1.0946997 -1.0951891 -0.3601649
000020 73 0b 28 bf 15 59 8e bf bb 2b 07 bf dd f4 30 bf
       -0.6564247 -1.1120936 -0.528011 -0.6912363
000030 56 af 56 bf 02 00 81 be a5 b8 34 bf f6 83 62 be
       -0.8386129 -0.25195318 -0.70594245 -0.22120652
000040 45 0f 1b be a8 60 51 bf 84 39 6d bf 03 74 71 bf
       -0.15142544 -0.8178811 -0.92665887 -0.94317645
000050 07 7b 03 bf 36 6a 44 bf 19 41 50 bf 41 0a 4d bf
       -0.513596 -0.76724565 -0.8134933 -0.8009377
000060 e0 89 48 bf 9e 28 49 bf 74 5d 1b bf 2c d7 6a bf
       -0.7833538 -0.785776 -0.60689473 -0.91734576
000070 25 b2 75 bf ea 0b cb bf 32 7b 08 bf 10 a6 8c bf
       -0.9597495 -1.5863011 -0.5331298 -1.0988178
000080 e5 83 11 bf 7e 81 50 bf ab 9c 59 bf 1d bc 1f bf
       -0.5684188 -0.8144759 -0.8500468 -0.62396413
000090 61 73 4d bf ee 86 42 be f6 98 20 bf 6c 67 3a bf
       -0.8025418 -0.18996784 -0.627334 -0.7281406
0000a0 ab 9d a7 be 33 b4 48 bf b0 47 d3 be a9 10 64 bf
       -0.3273748 -0.7839996 -0.4126563 -0.8908792
0000b0 a5 c0 74 bf a8 d5 09 bf 24 e0 85 bf 17 6b 87 be
       -0.9560645 -0.5384164 -1.0459027 -0.2644889
0000c0 d4 39 a9 bf 43 40 57 be a7 0a aa be f1 00 82 bf
       -1.3220773 -0.21020608 -0.33211252 -1.0156537
0000d0 35 65 e7 be fb 88 54 bf ba 7d 50 bf b2 76 18 bf
       -0.45194402 -0.83021516 -0.81441844 -0.59556115
0000e0 dd bc 77 bf e2 8e a1 bf dd 6d 09 bf 9e 80 3b bf
       -0.9677256 -1.2621729 -0.53683263 -0.7324313
0000f0 61 79 6f bf 6b 49 0c bf 0a 4d 55 bf 5b 82 84 be
       -0.93544585 -0.54799527 -0.8332068 -0.25880703
