experiment_anode_cifar_v3/model.pth (torch, 854377 bytes, 24 tensors)

0.weight f4 [64, 3, 3, 3]
0	0x3ef4599b	0.47724614
1	0x3f35bd79	0.7099224
2	0x3e817298	0.2528274
3	0xbe89acee	-0.26889747
4	0xbdc4c0a9	-0.096070595
5	0x3d13616a	0.035981573
6	0xbf3b842d	-0.7324856
7	0xbf2a9a83	-0.66642016
8	0xbd9ead63	-0.07747915
9	0x3f4971b8	0.78689146
10	0x3f0e6374	0.55620503
11	0x3e97b9bc	0.29633892
12	0x3de3cd79	0.11123175
13	0x3d5f3261	0.054491404
14	0xbd7eea45	-0.062235136
15	0xbe305dad	-0.17223234
16	0xbee51add	-0.44747058
17	0x3d543041	0.05180383
18	0x3f46a543	0.7759592
19	0x3f1c84f2	0.6114036
20	0x3e49bd30	0.19701076
21	0xbd9472ae	-0.07248436
22	0x3e12271a	0.14272729
23	0xbc540a50	-0.012941912
24	0xbe665cac	-0.22496289
25	0xbe090bca	-0.13383403
26	0xbd63670e	-0.055518202
27	0xbe040f64	-0.12896496
28	0xbe5bee53	-0.21477632
29	0xbec30567	-0.3809006
30	0xbf11601f	-0.56787294
31	0xbed5cfbd	-0.41760054
32	0xbf233eff	-0.63768
33	0xbf1f4565	-0.6221526
34	0xbec68faa	-0.38781482
35	0xbee3a69e	-0.44463056
36	0xbe032e20	-0.12810564
37	0xbe579575	-0.21053107
38	0xbd94ce19	-0.072658725
39	0xbe8fd5dd	-0.28092852
40	0xbe24738b	-0.16059701
41	0xbd983640	-0.07432222
42	0xbed4b1c3	-0.4154187
43	0xbe62b0e9	-0.22137798
44	0xbea6a80f	-0.32550094
45	0x3ec91dda	0.39280587
46	0x3ece0410	0.40237474
47	0x3f1d3c6a	0.6142031
48	0x3f52814f	0.8222856
49	0x3f136166	0.57570493
50	0x3f3f9e25	0.74850684
51	0x3f959264	1.16853
52	0x3f57987c	0.8421705
53	0x3f717ab3	0.9432785
54	0x3f068843	0.5255167
55	0x3f007e6f	0.5019292
56	0xbe3df59e	-0.18550727
57	0xbf9052c9	-1.1275264
58	0xbf136d85	-0.5758899
59	0xbf3661f0	-0.7124319
60	0xbf0643df	-0.52447313
61	0x3f8dec70	1.108778
62	0xbd9be3f1	-0.07611836
63	0x3ed053a5	0.40688816
64	0x3f00e972	0.5035621
65	0xbe854b68	-0.26034093
66	0xbf85c31d	-1.0450169
67	0xbed748b0	-0.42047644
68	0xbef526d8	-0.47881198
69	0xbeb97a1b	-0.36225972
70	0x3f4e1ef5	0.80515987
71	0x3dbbe72c	0.09174952
72	0xbb04806d	-0.002021815
73	0x3eaed5c1	0.34147456
74	0xbe84e3fd	-0.2595519
75	0xbf4cd093	-0.8000576
76	0xbf0f7f0a	-0.5605322
77	0xbef0ae26	-0.47007865
78	0xbc070681	-0.008241297
79	0x3f9598b4	1.1687226
80	0x3ee057f0	0.4381709
81	0x3e73559d	0.23763128
82	0x3e4e93e1	0.20173599
83	0xbe89e82c	-0.26934946
84	0x3ef8870c	0.48540533
85	0x3f8c651f	1.096836
86	0x3e3440c7	0.17602836
87	0xbf1bd94c	-0.60878444
88	0x3c0592a7	0.00815264
89	0x3ea389f7	0.31941196
90	0xbf07b74c	-0.53014064
91	0xbee1934f	-0.440577
92	0xbeb3728c	-0.3504833
93	0xbd8fae7d	-0.07015703
94	0x3f0e90f0	0.5568991
95	0xbeaf053e	-0.34183687
96	0xbf09508c	-0.5363853
97	0xbea70fe8	-0.32629323
98	0xbeb07177	-0.34461567
99	0x3e6a8985	0.22904022
100	0x3de0dd4d	0.1097971
101	0xbeaab902	-0.33344275
102	0x3f42df2e	0.76121795
103	0x3fa0bbd8	1.2557325
104	0x3eb97154	0.36219275
105	0xbf124adc	-0.57145476
106	0x3e4a4943	0.1975451
107	0x3eae4cd0	0.34042978
108	0xbe4c96af	-0.19979356
109	0xbdf56c04	-0.11983493
110	0xbdb3b1b0	-0.087741256
111	0xbe812fe7	-0.2523186
112	0xbe96c416	-0.29446477
113	0xbee05ded	-0.4382166
114	0xbe13864f	-0.14406703
115	0xbe8bd4b1	-0.27310708
116	0xbe3df4df	-0.18550442
117	0xbebe252f	-0.37137744
118	0xbea7bcc7	-0.32761213
119	0xbe36ef78	-0.17864788
120	0xbe643207	-0.22284709
121	0xbe8f8815	-0.2803351
122	0xbdc405ec	-0.09571442
123	0xbe4c6b41	-0.19962789
124	0xbe4ce531	-0.20009305
125	0xbe2af2fc	-0.16694254
126	0x3f47a3d5	0.7798436
127	0x3f4201bc	0.75783896
128	0x3efb8548	0.49125123
129	0x3f4fe314	0.8120587
130	0x3f8819de	1.0632894
131	0x3f6ebdd3	0.932584
132	0x3f405b7f	0.7513961
133	0x3f4b15e6	0.7933029
134	0x3f1f5ce2	0.622511
135	0xbf407876	-0.7518381
136	0xbfd465f1	-1.659361
137	0xbf02d462	-0.5110532
138	0xbe71fb1d	-0.23630948
139	0xbfa7525f	-1.3072013
140	0xbebc15f5	-0.36735502
141	0x3edb4b5b	0.4283093
142	0xbf17caa7	-0.592936
143	0xbdc1ef47	-0.09469467
144	0x3e70509b	0.23468249
145	0xbf0b51fd	-0.5442198
146	0x3f1f47c5	0.62218887
147	0x3f1ad77b	0.6048505
148	0xbea4662f	-0.3210921
149	0x3f21dc47	0.6322674
150	0x3f0655e8	0.5247483
151	0xbe4a0397	-0.19727932
152	0x3eb7adf6	0.3587491
153	0x3f784fb8	0.9699664
154	0x3e307474	0.17231923
155	0x3f1b1c7c	0.6059034
156	0x3ecfdc5c	0.40597808
157	0xbcbc30c4	-0.022972472
158	0x3f1cab42	0.6119882
159	0x3f0af58e	0.54280937
160	0xbd11b089	-0.035568748
161	0x3efb75a1	0.4911318
162	0xbd8c7256	-0.06857745
163	0xbfa37925	-1.2771345
164	0xbfa7ea5c	-1.3118396
165	0x3fbe7ca2	1.4881785
166	0x3f7d9ff9	0.99072224
167	0xbf974b24	-1.1819806
168	0x3ea7141b	0.32632527
169	0x400067fd	2.006347
170	0x3f237ec3	0.638653
171	0x3e78a01b	0.24279825
172	0xbf8c33b9	-1.0953285
173	0xbd10a94f	-0.035317715
174	0x3f17b5c4	0.5926173
175	0xbe8fed43	-0.28110704
176	0xbfb621d3	-1.4229072
177	0xbecdf959	-0.402293
178	0x3f1ca83d	0.6119421
179	0xbeaa4705	-0.3325731
180	0x3eaeb615	0.34123293
181	0x3eb1a208	0.34693933
182	0x4008b020	2.1357498
183	0xbe61f537	-0.22066198
184	0x3de78849	0.11305291
185	0x3e654c93	0.22392492
186	0xbffdacb4	-1.981833
187	0xbe5bd339	-0.21467294
188	0x3e18b342	0.14912131
189	0x3eb6681a	0.35626298
190	0x3f031c0c	0.5121467
191	0xbf2120e2	-0.629408
192	0x3fc66fd2	1.5502875
193	0x3f47d053	0.7805225
194	0xbe36998d	-0.17832012
195	0x3f8badfd	1.0912472
196	0x3f8232d9	1.0171767
197	0x3f40d3e7	0.7532334
198	0xbf46e86b	-0.7769839
199	0xbede39b1	-0.4340339
200	0xbf4542e2	-0.7705518
201	0xbf6d01c6	-0.9258083
202	0xbfcd0773	-1.6017898
203	0xbf8ee4ae	-1.1163538
204	0xbfafeb44	-1.3743672
205	0xbfcd7d6c	-1.6053901
206	0xbf05a34c	-0.52202296
207	0x3e8fcb30	0.28084707
208	0x3f55d51b	0.835283
209	0x3f5bf8a6	0.8592628
210	0x3ea6e560	0.32596874
211	0xbe704d2a	-0.23466936
212	0x3f3cb63d	0.73715574
213	0xbf0c3a6c	-0.54776645
214	0xbeae331b	-0.34023365
215	0x3f53a6b8	0.8267627
216	0x3e6f97bf	0.2339773
217	0xbaac8a59	-0.0013163789
218	0x3db13783	0.08653166
219	0x3f0f948d	0.56086046
220	0x3e8807ad	0.26568356
221	0x3deddc13	0.116142415
222	0x3ea962c6	0.3308317
223	0x3e6e3a92	0.2326453
224	0x3eb548b7	0.3540704
225	0xbed0348f	-0.406651
226	0xbf42b293	-0.7605373
227	0xbf42f849	-0.76160103
228	0x3ccaadfe	0.024741169
229	0xbe557e8e	-0.20849058
230	0xbe37410d	-0.17895909
231	0xbe1f1053	-0.15533571
232	0xbeb0adb0	-0.34507513
233	0x3e369ad6	0.17832503
234	0xbefcb04b	-0.4935325
235	0xbf4ec7ab	-0.8077342
236	0xbf30e98d	-0.6910637
237	0x3d64b8cf	0.05584031
238	0xbeac80af	-0.33691928
239	0xbeb7b1ac	-0.3587774
240	0x3e0b2a47	0.13590346
241	0xbe5bb738	-0.21456611
242	0xbdf30650	-0.118664384
243	0x3cde56be	0.027140971
244	0x3e1aed25	0.15129526
245	0x3f313d4c	0.69234157
246	0xbeaf8423	-0.342805
247	0x3f003c3d	0.50091916
248	0x3f77319b	0.96560067
249	0xbd1d3415	-0.038379747
250	0x3f11fedd	0.57029516
251	0x3ed2cdfa	0.41172773
252	0xbdbe31ab	-0.09286817
253	0x3e730441	0.23732091
254	0x3e8a585e	0.27020544
255	0xbebf264e	-0.37333912

0.bias f4 [64]
0	0xbdc14dba	-0.09438653
1	0xbe1c7374	-0.15278417
2	0xbe132378	-0.14368999
3	0x3d8c393c	0.06846854
4	0xbe3d291b	-0.18472712
5	0xbcda0566	-0.026613902
6	0x3bae88e0	0.0053263754
7	0x3e2832c7	0.1642562
8	0xbd753b5e	-0.05987107
9	0xbdf68ec8	-0.12038952
10	0xbcae976e	-0.021312442
11	0x3da8b6c4	0.08237985
12	0xbde9d071	-0.1141671
13	0x3d8043c2	0.06262924
14	0xbc4313c8	-0.011906572
15	0x3e3d4997	0.18485104
16	0x3cbc0f2c	0.022956453
17	0xbdc15815	-0.094406284
18	0xbdb458c7	-0.088059954
19	0x3daeb891	0.08531297
20	0xbd89ed89	-0.06734759
21	0xbd2891bb	-0.041154604
22	0xbd3f1734	-0.046652988
23	0x3e318a37	0.17337881
24	0xbe30776a	-0.17233053
25	0x3d1d32f2	0.038378663
26	0x3e21ec7e	0.15812871
27	0x3d4f6bf9	0.05064008
28	0x3d74aa97	0.059733
29	0xbddf8211	-0.1091348
30	0x3d00287a	0.0312886
31	0xbcde90d5	-0.02716867
32	0x3daa9f13	0.08331122
33	0x3b7509a6	0.0037389784
34	0x3db6ab16	0.08919351
35	0xbdddc1fb	-0.108280145
36	0x3e1e9ba2	0.15489057
37	0xb96c9788	-0.00022563164
38	0x3e432463	0.19056849
39	0x3e134e84	0.1438542
40	0xbcf54e8a	-0.029944677
41	0x38c91370	9.5880474e-05
42	0x3dbf4e24	0.09341076
43	0x3e19da92	0.15024784
44	0xbe015f8e	-0.12634107
45	0x3c914570	0.017733306
46	0xbdaecd80	-0.0853529
47	0x3dd61e5b	0.104550086
48	0xbdb89d38	-0.09014362
49	0xbc0941aa	-0.008377472
50	0xbe16a57d	-0.14711566
51	0x3e222189	0.15833105
52	0xbd459c18	-0.048244566
53	0x3dd310e4	0.10305956
54	0xbe40b8c5	-0.18820484
55	0x3d59a73e	0.05313801
56	0x3c91f2bf	0.017815946
57	0x3cd39889	0.02582957
58	0xbb359f94	-0.0027713524
59	0xbd921d99	-0.071345516
60	0x3d6e2dfa	0.058149315
61	0x3e290dd5	0.16509183
62	0xbdfcaf82	-0.12338163
63	0xbd8b1a66	-0.067921445

1.weight f4 [64]
0	0x3f74698d	0.9547356
1	0x3f9775fa	1.1832879
2	0x3fe598d4	1.7937264
3	0x3f841a3e	1.0320508
4	0x3fa9df27	1.3271226
5	0x3faa22a8	1.3291826
6	0x3fde3c0c	1.7362075
7	0x3fa85cc1	1.3153306
8	0x3fd46616	1.6593654
9	0x400011ec	2.0010939
10	0x3f52f972	0.82411873
11	0x3fb40f51	1.4067174
12	0x3ff6b130	1.9272823
13	0x3fa38f4d	1.2778107
14	0x3fbadec4	1.4599233
15	0x3f7ad8dd	0.9798716
16	0x3feb6972	1.8391554
17	0x3fe4cf71	1.7875806
18	0x3fed8bf1	1.8558332
19	0x3f89930b	1.0747999
20	0x401b8585	2.4300244
21	0x3f63b472	0.8894721
22	0x3f8a173f	1.0788344
23	0x3fd554be	1.6666486
24	0x3fddca61	1.7327386
25	0x3fd3a6ea	1.6535313
26	0x3f88d1ba	1.0689003
27	0x4063b19c	3.5577154
28	0x401d6c4d	2.4597352
29	0x40155751	2.3334544
30	0x3febfa7b	1.8435816
31	0x3f848544	1.035317
32	0x3fbe16e9	1.4850742
33	0x3fe1179c	1.758533
34	0x3fbb263b	1.4621042
35	0x3fbef0ce	1.4917238
36	0x4017b56b	2.3704479
37	0x3fcb0799	1.5861694
38	0x3fbf39e7	1.4939545
39	0x3fb0a035	1.3798891
40	0x3f93cd8c	1.1547103
41	0x3fa96a61	1.3235589
42	0x3f5879d5	0.845609
43	0x3fdd5c7f	1.7293853
44	0x3fd237c3	1.6423267
45	0x3fe097f5	1.7546374
46	0x3fdde30a	1.7334912
47	0x3fbedf4c	1.4911895
48	0x3f8eebac	1.1165671
49	0x3fc1e22e	1.514715
50	0x3fa848c8	1.3147211
51	0x3fc65cab	1.549703
52	0x3f66af85	0.9011157
53	0x3fa32e5f	1.2748526
54	0x3fb90656	1.4455059
55	0x3fe677da	1.8005326
56	0x3f91d8a8	1.1394243
57	0x3fbd7383	1.4800876
58	0x3fd096de	1.6296041
59	0x3f84af19	1.0365936
60	0x3f6f2265	0.93411857
61	0x3fd01b6e	1.6258371
62	0x3fc84730	1.5646725
63	0x3fd094e6	1.629544

1.bias f4 [64]
0	0x3eb67981	0.35639575
1	0xbf057182	-0.52126324
2	0xbf397eac	-0.7245891
3	0x3d3a2f3d	0.045455206
4	0xbf2c2991	-0.67250925
5	0xbe6aa916	-0.22916064
6	0xbdf9efa9	-0.12203915
7	0x3ec3e175	0.38257948
8	0xbf707013	-0.9392101
9	0xbfa0d2ae	-1.2564294
10	0x3f1ca89c	0.6119478
11	0xbe9bdb3b	-0.30440697
12	0xbebb3d2d	-0.3657011
13	0xbf908447	-1.1290368
14	0x3dee7186	0.116427466
15	0xb9ea9d44	-0.0004474913
16	0xbf5566f7	-0.83360237
17	0xbf3cda60	-0.73770714
18	0xbf349f5c	-0.70555663
19	0x3f105d97	0.56392807
20	0x3d9da3b8	0.076972425
21	0x3ee6e48e	0.45096248
22	0x3e6b6d3c	0.22990888
23	0xbf271ab8	-0.65275145
24	0xbe57c4fe	-0.2107124
25	0x3f7addd5	0.9799474
26	0x3f424a0d	0.7589424
27	0xbe9a2066	-0.30102843
28	0x3fba1968	1.4539003
29	0xbf105d78	-0.5639262
30	0xbf24b37f	-0.6433639
31	0x3f21d942	0.63222134
32	0xbec21186	-0.37903994
33	0xbd1c79f9	-0.03820226
34	0xbe42f97e	-0.19040486
35	0x3f54d18a	0.8313223
36	0xbd02736b	-0.031848352
37	0xbdd16829	-0.10224945
38	0x3f9de1e1	1.2334558
39	0xbf20f4c0	-0.6287346
40	0x3ec1b77e	0.37835306
41	0xbd6c3793	-0.057670187
42	0xbd911cc6	-0.07085566
43	0xbef3d95c	-0.4762677
44	0xbe058f5a	-0.13042966
45	0xbf20187b	-0.62537354
46	0x3d1dd7e9	0.038535986
47	0xbf236b7a	-0.6383587
48	0xbdff5fdd	-0.12469456
49	0xbf11501b	-0.56762856
50	0xbf213bd9	-0.62981945
51	0x3f20f38d	0.6287163
52	0x3f14a08a	0.58057463
53	0xbe8a3854	-0.269961
54	0xbeb654a0	-0.3561144
55	0xbf1fe7a7	-0.6246285
56	0xbcf515ed	-0.029917682
57	0xbf3be8bf	-0.7340202
58	0xbe664de6	-0.22490653
59	0x3eedca09	0.46443203
60	0x3f90f4ea	1.1324742
61	0xbe9c99be	-0.30586046
62	0x3f17ee01	0.5934754
63	0x3f9931e1	1.1968347

3.weight f4 [64, 64, 4, 4]
0	0xbe3adf96	-0.18249354
1	0xbd8ad4c3	-0.06778862
2	0xbd3b6074	-0.04574628
3	0xbd201600	-0.03908348
4	0xbe34503a	-0.17608729
5	0xbe2e843d	-0.17042632
6	0xbdf0e7a2	-0.117629305
7	0xbdca79ac	-0.09886488
8	0xbe3deff2	-0.18548563
9	0xbdb40e9d	-0.0879185
10	0xbdb40e01	-0.087917335
11	0xbe02c159	-0.12769069
12	0xbcf6f70a	-0.030147094
13	0xbd3dd067	-0.046341326
14	0xbcbebf1a	-0.023284484
15	0xbd053c9c	-0.032528505
16	0x3bd753c2	0.006571264
17	0x3c98b4f0	0.018640965
18	0x3dee6656	0.11640613
19	0x3dfdbc51	0.12389434
20	0xbd8239eb	-0.06358703
21	0xbd9fb7b2	-0.07798709
22	0xbd19a23b	-0.03750823
23	0x3cbf72d4	0.023370184
24	0xbd708768	-0.058722883
25	0xbdb2fed2	-0.08740009
26	0xbd4b2214	-0.049593046
27	0xbbb71f5a	-0.005588454
28	0x3cb4a0fc	0.02204942
29	0xbd4cf569	-0.05003873
30	0xbcfd43f2	-0.030916188
31	0x3cf9a473	0.030473923
32	0xbe6c557f	-0.23079489
33	0xbe8a3bfe	-0.26998895
34	0xbe4f7d09	-0.20262541
35	0xbe0e720a	-0.1391069
36	0xbe80d90c	-0.25165594
37	0xbea1395a	-0.31489068
38	0xbe9a8775	-0.3018147
39	0xbe1d0eb6	-0.15337643
40	0xbdd74b21	-0.105123766
41	0xbdc95a90	-0.098317266
42	0xbda11e1f	-0.07867073
43	0x3ad7a6af	0.0016452874
44	0xbdd237b1	-0.102645285
45	0xbe3250c0	-0.17413616
46	0x3d039c38	0.032131404
47	0x3e054f01	0.13018419
48	0xbe0e1ad3	-0.1387742
49	0xbdf86443	-0.121284984
50	0xbe05b244	-0.13056284
51	0xbe01425c	-0.1262297
52	0xbddd24aa	-0.10798009
53	0xbd314e07	-0.043287303
54	0xbd0b169c	-0.03395711
55	0xbda5cc53	-0.080956124
56	0x3e1cf20f	0.15326713
57	0x3e0d9353	0.13825731
58	0x3e0618e5	0.13095434
59	0x3d9bcd0b	0.07607468
60	0x3e7c2d1c	0.24626583
61	0x3de5ab48	0.1121431
62	0x3dbabf93	0.09118571
63	0x3da81c5d	0.08208535
64	0xbbd95e9a	-0.006633592
65	0x3d8f1cca	0.06987913
66	0x3df7a591	0.12092126
67	0x3da2d9fb	0.07951733
68	0xbd8fbc63	-0.07018354
69	0x3c0caf6c	0.008586746
70	0xbc1cbbaa	-0.009566227
71	0xbd851b42	-0.0649934
72	0xbd8ac5fb	-0.06776043
73	0x3cb07617	0.021540685
74	0x3cd33a25	0.025784561
75	0xbd99905a	-0.07498236
76	0xbda579a3	-0.08079841
77	0xbdc7f18a	-0.09762867
78	0xbdb35811	-0.08757032
79	0xbdbde9d1	-0.092731126
80	0x3e124c9e	0.1428704
81	0xbd870597	-0.06592863
82	0xbde2049e	-0.11036037
83	0xbd3916dd	-0.04518782
84	0xbd8dd86f	-0.06926047
85	0xbe4316dc	-0.19051689
86	0xbe133f3c	-0.14379591
87	0xbc953fe7	-0.018218948
88	0xbcdc0fe7	-0.026863052
89	0xbe0aba72	-0.13547686
90	0x3d2f43ce	0.042789273
91	0x3db4a366	0.08820228
92	0xbd841830	-0.06449926
93	0xbddd18d9	-0.10795755
94	0x3dcee343	0.101019405
95	0x3e0ffe3b	0.14061825
96	0xbe0501e3	-0.12989001
97	0x3d78d883	0.060753357
98	0xbc44bb08	-0.012007482
99	0x3cdd69c9	0.027027981
100	0xbe3f5fc8	-0.18688881
101	0xbd8fbf51	-0.070189126
102	0xbd8ba62e	-0.06818806
103	0x3d1900cc	0.037354276
104	0x3e41ead5	0.18937238
105	0x3e093173	0.1339777
106	0x3e18b889	0.14914145
107	0x3e0b3640	0.13594913
108	0x3e2549ec	0.1614148
109	0x3e9cc790	0.30621004
110	0x3de26217	0.110538654
111	0x3ab3d292	0.0013719371
112	0xbe8641fa	-0.2622221
113	0xbe008758	-0.1255163
114	0x3d2f0f1b	0.042739015
115	0x3e62e08e	0.22155973
116	0xbe779c64	-0.24180752
117	0xbe2d6159	-0.16931666
118	0xbdae6101	-0.08514596
119	0x3d911091	0.07083238
120	0xbdaea724	-0.08527973
121	0x3bc913fa	0.0061364146
122	0xbda7957d	-0.081828095
123	0xbc3074df	-0.010770052
124	0x3e1ef73e	0.15524003
125	0x3db8de66	0.09026794
126	0xbd2305f8	-0.039800614
127	0xbda2cbae	-0.07949005
128	0xbe86ca53	-0.26326236
129	0xbe8a92f1	-0.27065232
130	0xbe0d6e50	-0.13811612
131	0xbc9d38c4	-0.019192107
132	0xbedb2a9a	-0.4280594
133	0xbedcfc9f	-0.43161485
134	0xbe55091a	-0.20804253
135	0xbc2e2a5a	-0.010630215
136	0xbe10b458	-0.14131296
137	0xbe600ebc	-0.2188062
138	0xbdafc44f	-0.08582365
139	0x3db27a45	0.08714727
140	0xbda9fbb7	-0.08299964
141	0xbdc19ac8	-0.0945335
142	0x3d2b0cf1	0.04176039
143	0x3d966b0a	0.07344635
144	0xbe5f56d3	-0.21810465
145	0xbda7340b	-0.08164223
146	0x3db3374a	0.0875078
147	0x3d03097a	0.03199146
148	0xbdc41380	-0.09574032
149	0xbd2eb7f8	-0.042655915
150	0x3dbc858e	0.09205161
151	0x3de9b3ce	0.11411248
152	0x3ddf9857	0.109177284
153	0x3d1b59e7	0.037927534
154	0x3e1c9c13	0.15293913
155	0x3e4b54f1	0.19856621
156	0x3d866c18	0.06563586
157	0xbd738167	-0.05944958
158	0x3a3788ae	0.0007001263
159	0xbd184447	-0.03717449
160	0xbd04f070	-0.03245586
161	0xbdb59e74	-0.08868113
162	0xbddb5866	-0.1071022
163	0xbde1b9ec	-0.1102179
164	0xbde760fd	-0.11297796
165	0xbe3eb76e	-0.1862466
166	0xbe516966	-0.20450363
167	0xbe27dae6	-0.16392097
168	0xbdbd9f0a	-0.0925885
169	0xbe09fe7c	-0.13475984
170	0xbdc6bbbb	-0.097037755
171	0xbc6aaf16	-0.01432397
172	0xbe3452fa	-0.17609778
173	0xbe3de310	-0.18543649
174	0xbdac4e25	-0.084133424
175	0x3d8d0333	0.06885376
176	0x3c1a3c79	0.009413832
177	0xbcc326cc	-0.02382221
178	0x3cc7d4c7	0.024393452
179	0x3de7f503	0.11326029
180	0xbe17189b	-0.1475548
181	0xbe451d2d	-0.19249411
182	0xbdfb13dd	-0.12259648
183	0xbd0fb3f3	-0.035083722
184	0xbda3bd01	-0.07995034
185	0xbe71b14c	-0.2360279
186	0xbe62b5a5	-0.22139604
187	0xbdeb58e4	-0.11491564
188	0x3e2a7ed5	0.16649945
189	0xbd2fe7cf	-0.04294568
190	0xbe141889	-0.14462484
191	0xbdadb317	-0.08481424
192	0x3e579580	0.21053123
193	0x3d36abbf	0.044597384
194	0x3dcbbba8	0.09947902
195	0x3b4114fc	0.002946197
196	0x3d80706e	0.06271444
197	0xbe7e2408	-0.24818432
198	0xbdfb3af9	-0.122671075
199	0x3b93e5a7	0.0045134607
200	0xbdbedcda	-0.09319468
201	0xbe40739f	-0.18794106
202	0x3d2b16ee	0.041769914
203	0xbd22b4f6	-0.03972336
204	0xbbc01467	-0.005861807
205	0x3d305f81	0.04305983
206	0xbde11ed1	-0.10992206
207	0x3dd39ec7	0.10333019
208	0xbc090707	-0.008363492
209	0x3d7f2ddb	0.06229959
210	0x3df0db13	0.11760535
211	0x3d92d0b2	0.07168712
212	0x3d5389c8	0.05164507
213	0x3d46c0e3	0.048523795
214	0x3db11ebc	0.0864844
215	0x3d89ff89	0.067381926
216	0x3e0b5dbd	0.13609977
217	0x3de5a49d	0.11213038
218	0x3ddaf27c	0.106907815
219	0x3de034a0	0.109475374
220	0x3ca8b9eb	0.020596465
221	0x3d0c5015	0.03425606
222	0x3d1a4980	0.03766775
223	0x3cbe5a35	0.023236373
224	0xbd6d609a	-0.057953455
225	0xbbefd25e	-0.007318779
226	0xbdd4a3f3	-0.10382833
227	0xbda0e9c6	-0.07857089
228	0xbdea222d	-0.114323
229	0xbca9eba9	-0.020742254
230	0xbd207ca1	-0.039181355
231	0xbd80ab2a	-0.06282647
232	0xba4d7f9c	-0.00078391447
233	0xbdb9df0f	-0.09075748
234	0xbd14ab6c	-0.036296293
235	0xbde03576	-0.10947697
236	0xbce44d03	-0.027868753
237	0x3bd3b0a1	0.006460265
238	0x3d1a2ccc	0.037640378
239	0xbd2a8612	-0.041631766
240	0xbe1922e6	-0.14954719
241	0xbd63d3d4	-0.055621937
242	0xbd554e4c	-0.052076623
243	0xbd8f494a	-0.06996401
244	0xbdf1748a	-0.11789806
245	0xbdb9a34b	-0.09064349
246	0xbda49a37	-0.08037227
247	0xbdc93975	-0.09825412
248	0x3d91faa1	0.07127882
249	0x3d940bf9	0.07228846
250	0x3dafad56	0.08577983
251	0xbca17c46	-0.019712579
252	0x3e5cc0fe	0.21557996
253	0x3ddb4ea0	0.10708356
254	0x3d886934	0.06660691
255	0x3d8e68d3	0.069535874

3.bias f4 [64]
0	0x3c68cb40	0.014208615
1	0xbcff5e48	-0.031172886
2	0x3c9fc6aa	0.01950391
3	0xbcc4dc92	-0.024030957
4	0xbcad5676	-0.021159392
5	0x3bffaca1	0.0078025614
6	0xbca3da9a	-0.020001698
7	0x3c5d3ab6	0.013502767
8	0xbcad644e	-0.021165993
9	0x3cb35d44	0.021895058
10	0x3c8b6814	0.017017402
11	0xbc82fb28	-0.015988901
12	0x3ca16678	0.019702181
13	0x3cc84ad2	0.02444974
14	0x3cecd938	0.028912172
15	0x3cb03334	0.02150879
16	0xb9ed23fe	-0.0004523098
17	0xbc8571c6	-0.016289603
18	0x3bdd51a0	0.006754115
19	0x3b1311e4	0.0022441084
20	0x3ccb1db0	0.02479443
21	0xbbb8d511	-0.005640634
22	0xbcb6d34e	-0.022317555
23	0xbcb80eae	-0.022467937
24	0xbcf56fd4	-0.02996055
25	0x3bc27eb2	0.0059355134
26	0xbcfba80e	-0.030719783
27	0xbc9c576c	-0.019084655
28	0x3ceec8c6	0.02914847
29	0x3cbe7ba2	0.023252312
30	0xbb4a1796	-0.0030836812
31	0xbcc806b8	-0.024417266
32	0x3cad5aca	0.021161456
33	0x3cd7d66a	0.026347358
34	0x3ce09bfc	0.02741813
35	0xbcb5b09c	-0.02217894
36	0x3ca7612c	0.020432077
37	0x3c21db24	0.009878907
38	0xbca7f95e	-0.02050465
39	0x3ca912dc	0.020638876
40	0x3bcd37c3	0.006262751
41	0xbc859552	-0.016306553
42	0xbc549402	-0.012974741
43	0x3b9ac19a	0.004722786
44	0xbb923403	-0.0044617667
45	0x3c26cb0c	0.010180246
46	0x3c242015	0.010017415
47	0xbc510830	-0.0127583
48	0xbbddf9a4	-0.0067741442
49	0xbcd2acec	-0.025717221
50	0x3c6357ac	0.013875883
51	0xbc2cecfc	-0.010554548
52	0x3b099d23	0.0020998202
53	0x3c69943c	0.014256533
54	0xbbe5342f	-0.006994746
55	0x3cd56d3c	0.026053064
56	0xbc8f4224	-0.017487593
57	0x3c839b7e	0.016065355
58	0x39cd3abe	0.00039144413
59	0x3cc5a0e6	0.024124574
60	0x3c985c14	0.018598594
61	0xbc8ffd18	-0.01757674
62	0xbc9629ba	-0.018330444
63	0x3b88c2c6	0.0041736094

4.weight f4 [64]
0	0x3f7c9739	0.9866825
1	0x3f4a4de5	0.7902511
2	0x3f35a979	0.7096172
3	0x3f444e63	0.7668211
4	0x3f98d01a	1.1938508
5	0x3f27e48a	0.655831
6	0x3d665dae	0.056241684
7	0x3f88eac7	1.0696648
8	0x3f217f4c	0.63084865
9	0x3f836c9f	1.0267524
10	0x3f5b4aac	0.85660815
11	0x3fb73e1b	1.4315828
12	0x3f3c3bd8	0.73528814
13	0x3f4219d6	0.7582067
14	0x3f957d6b	1.16789
15	0x3f615eb7	0.8803515
16	0x3f74d2e6	0.95634305
17	0x3f9a4689	1.2052776
18	0x3f972b27	1.1810044
19	0x3f6c8a42	0.92398465
20	0x3ddc2331	0.107489
21	0x3f6a0399	0.9141174
22	0x3f7537aa	0.9578806
23	0x3f3aec29	0.730166
24	0x3f6ca249	0.9243513
25	0x3f8eb39c	1.1148562
26	0x3f5f8848	0.87317324
27	0x3f2d923d	0.67801267
28	0x3f1bf3e4	0.6091902
29	0x3f6164c6	0.88044393
30	0x3fbac8b1	1.4592496
31	0x3f833099	1.0249206
32	0x3faf7e23	1.3710369
33	0x3f5c3594	0.86019254
34	0x3fbb12c3	1.4615101
35	0x3fd01997	1.6257809
36	0x3f3005dc	0.6875894
37	0x3eb5209f	0.3537645
38	0x3f93c304	1.1543889
39	0x3f587dcb	0.84566945
40	0x3f83622c	1.0264335
41	0x3f9843df	1.1895713
42	0x3f833532	1.0250609
43	0x3fccc8d8	1.5998793
44	0x3f2f2462	0.6841489
45	0x3f77073f	0.9649543
46	0x3f6ced90	0.9254999
47	0x3f5aa459	0.85407025
48	0x3f2dbeec	0.6786945
49	0x3f7d69ae	0.9898938
50	0x3f2860b6	0.6577257
51	0x3f1a9df4	0.6039727
52	0x3f5cd73b	0.86265916
53	0x3f07a7ce	0.52990425
54	0x3f27353f	0.6531562
55	0x3f890799	1.0705444
56	0x3f887c50	1.0662937
57	0x3f292958	0.6607871
58	0x3f36e3ef	0.7144155
59	0x3f834b4f	1.0257357
60	0x3d89a62b	0.06721147
61	0x3f619613	0.8811962
62	0x3f2c560a	0.67318785
63	0x3f268940	0.65053177

4.bias f4 [64]
0	0xbf761f10	-0.9614115
1	0xbf094efb	-0.5363614
2	0xbed0a9c0	-0.4075451
3	0xbf4a8cc8	-0.79121065
4	0xbfcc85ee	-1.5978372
5	0xbe89eb1c	-0.26937187
6	0xbf0337ed	-0.5125721
7	0xbf5d4a6c	-0.86441684
8	0xbe666a08	-0.22501385
9	0xbf13b917	-0.577043
10	0xbeac14b2	-0.3360954
11	0xbfd52b65	-1.6653868
12	0xbf07f2dd	-0.53104955
13	0xbe6d87d6	-0.23196349
14	0xbf831d98	-1.0243406
15	0xbea99f7d	-0.33129492
16	0xbeefb067	-0.46814272
17	0xbf685c4b	-0.9076583
18	0xbf8e2a19	-1.1106597
19	0xbed4e3a7	-0.41579935
20	0xbf53c27a	-0.8271862
21	0xbe4aa027	-0.19787656
22	0xbf23f19e	-0.64040554
23	0xbf08a0d8	-0.5337043
24	0xbf14d755	-0.5814107
25	0xbfc0e009	-1.506837
26	0xbf75b1b3	-0.9597427
27	0xbeb8a25d	-0.36061373
28	0xbd5a9408	-0.05336383
29	0xbe828797	-0.25494072
30	0xc0294abc	-2.6451864
31	0xbf4420b8	-0.76612425
32	0xbf86f1f7	-1.0542592
33	0xbf2bcc57	-0.6710867
34	0xbfb63611	-1.423525
35	0xbfd19114	-1.6372399
36	0xbdad57bc	-0.08464
37	0x3db9deb5	0.09075681
38	0xbfa26fa4	-1.269032
39	0xbf5bd3e3	-0.8587019
40	0xbf4727b5	-0.77794963
41	0xbf4dfa82	-0.8046037
42	0xbef67cab	-0.4814199
43	0xbfd624b2	-1.6729949
44	0xbe59f150	-0.2128346
45	0xbf906be6	-1.1282928
46	0xbf8429a4	-1.0325208
47	0xbf3689d9	-0.7130409
48	0xbeca59c5	-0.39521614
49	0xbf7e3695	-0.99302036
50	0xbe368b02	-0.17826465
51	0xbe6eb6fe	-0.23311993
52	0xbf01ead2	-0.5074893
53	0x3cf75bf7	0.03019522
54	0xbe8714c7	-0.2638304
55	0xbf5834f8	-0.84455824
56	0xbf6fe67e	-0.9371108
57	0xbefed4dc	-0.49771774
58	0xbed7abdb	-0.42123303
59	0xbf2c9ff2	-0.6743156
60	0xbea6ea28	-0.32600522
61	0xbf990667	-1.1955079
62	0x3dd327be	0.103103146
63	0xbe501d14	-0.20323592

6.weight f4 [64, 64, 4, 4]
0	0xbd4569bb	-0.048196536
1	0xbde08f33	-0.10964813
2	0xbe52b02b	-0.20575015
3	0xbe798abd	-0.2436933
4	0xbe819d6e	-0.25315422
5	0xbe86ec72	-0.26352268
6	0xbe3401a7	-0.17578755
7	0xbe4cd905	-0.20004661
8	0xbe885ca1	-0.2663317
9	0xbeb82d40	-0.35972023
10	0xbe86c7ee	-0.2632441
11	0xbda97410	-0.0827409
12	0xbe27de8b	-0.16393487
13	0xbe614d6b	-0.22002189
14	0xbdd1e0e0	-0.102479696
15	0xbdf6dfa1	-0.120543726
16	0x3e36fa85	0.17869003
17	0xbd968157	-0.07348888
18	0xbe36ec4a	-0.17863575
19	0x3d18073e	0.03711628
20	0x3e440316	0.19141802
21	0xbd51ec49	-0.05125073
22	0xbe213411	-0.15742518
23	0x3df2f85c	0.11863777
24	0x3dd9eca0	0.10640836
25	0xbc48068f	-0.012208595
26	0xbdb15d4d	-0.08660374
27	0xbd73b4c1	-0.059498552
28	0x3cfde3fd	0.030992502
29	0x3d61b23e	0.055101626
30	0xbd362f9e	-0.044479005
31	0x3e4ef9cc	0.20212477
32	0x3d9d8824	0.076919824
33	0xbd5ac1f7	-0.053407636
34	0xbdda1d1b	-0.10650083
35	0x3d507687	0.050894286
36	0xbd2ca118	-0.04214582
37	0xbe0ffd1c	-0.14061397
38	0xbe00732a	-0.12543932
39	0xbe1b2aba	-0.15153018
40	0x3d5ddaaa	0.054163612
41	0xbd51dbcf	-0.051235016
42	0x3d56dc95	0.052456457
43	0x3d0fe7ce	0.035133176
44	0x3e4f17d1	0.20223929
45	0x3e39e01b	0.18151896
46	0x3debf336	0.11520998
47	0x3d4402f7	0.04785439
48	0xbda18d11	-0.078882344
49	0xbd431042	-0.047622927
50	0x3d20cfaa	0.039260544
51	0x3e8907aa	0.2676366
52	0xbe625915	-0.22104295
53	0xbea38940	-0.3194065
54	0xbe0ddff7	-0.13854967
55	0x3d83d0f7	0.06436341
56	0xbe72f8ec	-0.23727769
57	0xbe1b3120	-0.15155458
58	0xbe00cada	-0.12577382
59	0x3cb5112f	0.02210292
60	0xbdcf6aa1	-0.1012776
61	0x3c92bea7	0.017913176
62	0x3dc9e7ee	0.0985869
63	0x3e168893	0.14700536
64	0x3deb052b	0.11475595
65	0x3d7e463b	0.062078696
66	0xbe9a1c28	-0.30099607
67	0xbea1b348	-0.31582093
68	0xbe5fc266	-0.21851501
69	0x3bedc91b	0.0072566397
70	0xbe287b05	-0.16453178
71	0xbe368c01	-0.17826845
72	0xbe611162	-0.21979287
73	0xbe014b91	-0.12626483
74	0xbdcb3ade	-0.099233374
75	0xbed23f8f	-0.41064116
76	0xbdddce78	-0.108303964
77	0xbe08d30e	-0.13361761
78	0xbe2e56da	-0.17025319
79	0xbe66fca4	-0.22557312
80	0xbdddba45	-0.10826544
81	0xbde6e48e	-0.11274062
82	0xbe1c9d15	-0.15294297
83	0xbd84d55b	-0.06486007
84	0xbdb7bb96	-0.08971326
85	0xbdf547ff	-0.11976623
86	0xbe3aee18	-0.18254888
87	0xbe01fe9c	-0.12694782
88	0xbe34bb04	-0.17649466
89	0xbe17db01	-0.14829637
90	0xbe444623	-0.1916738
91	0x3e1905b0	0.14943576
92	0xbd85421f	-0.06506752
93	0x3dda00ff	0.10644721
94	0x3dd8d7d7	0.10588043
95	0x3e7bc6ca	0.24587551
96	0x3c5b45a9	0.0133833075
97	0x3d07f911	0.033196513
98	0x3c42a905	0.011881118
99	0x3d4f4b03	0.050608646
100	0xbd708580	-0.058721066
101	0xbd4ba890	-0.0497213
102	0xbd262d7d	-0.040570725
103	0xbcb246b8	-0.021762237
104	0x3d067c28	0.03283325
105	0xbd33b99f	-0.043878194
106	0xbc573161	-0.013134331
107	0x3b2b2f95	0.002612089
108	0x3c28f8f8	0.010313265
109	0x3ca3fd0c	0.020018123
110	0x3c7d640e	0.015465749
111	0x3cbcb212	0.02303413
112	0x3e7fe9d3	0.2499154
113	0xbdb58eff	-0.08865165
114	0x3d22636b	0.039645594
115	0xbcfa4467	-0.030550195
116	0x3e6f8c35	0.23393328
117	0x3e037f02	0.12841418
118	0x3e419a98	0.18906629
119	0xbde0cd83	-0.10976698
120	0x3ebcc07a	0.36865598
121	0x3e9690a2	0.2940722
122	0x3e2bc1be	0.16773126
123	0x3e138892	0.14407566
124	0x3e2a8bfa	0.1665496
125	0x3dc3f84b	0.095688425
126	0xbcdd4ed0	-0.02701512
127	0xbe05b050	-0.13055539
128	0xbdc06339	-0.09393925
129	0xbe0a53b3	-0.13508491
130	0xbe37d606	-0.17952737
131	0xbca0c7a5	-0.019626448
132	0x3d6d791b	0.057976823
133	0xbbf85101	-0.007578016
134	0xbdf2d4cf	-0.11856996
135	0xbbefb785	-0.0073155784
136	0x3ddef2f5	0.10886184
137	0xbdb3d8ce	-0.087815866
138	0xbe3e0f3f	-0.18560503
139	0xbd707f9f	-0.05871546
140	0x3d842450	0.064522386
141	0x3c97dd81	0.018538238
142	0xbda79f76	-0.08184712
143	0x3e450718	0.19240987
144	0x3e8491b3	0.2589241
145	0x3cea8646	0.02862848
146	0xbe872b81	-0.26400378
147	0xbda7f5ad	-0.08201156
148	0x3d4e8cff	0.050427433
149	0xbd868339	-0.065679975
150	0xbed52803	-0.4163209
151	0xbe997f2d	-0.2997984
152	0x3e946380	0.28982162
153	0x3d8e69ec	0.06953797
154	0xbe44fb54	-0.19236499
155	0xbd2d0dd2	-0.04224951
156	0x3e2e5785	0.17025574
157	0x3e2252a3	0.15851836
158	0x3d5638dc	0.05230032
159	0x3db83e40	0.08996248
160	0xbd697a9a	-0.057001688
161	0x3e5757f1	0.2102964
162	0x3d038b22	0.03211511
163	0xbe4133aa	-0.18867365
164	0xbd1c6416	-0.038181387
165	0x3ea2a3ca	0.31765586
166	0xbc452d85	-0.0120347785
167	0xbe3eb839	-0.18624963
168	0xbe729e5c	-0.23693222
169	0xbd16c6e9	-0.03681079
170	0xbdf4bc92	-0.119500294
171	0xbe49982c	-0.19686955
172	0xbeafd478	-0.34341788
173	0xbe65df04	-0.22448355
174	0xbdcdfd90	-0.10058129
175	0xbe040250	-0.12891507
176	0x3e4d7aa1	0.2006631
177	0x3df2a147	0.118471675
178	0xbd85d561	-0.065348394
179	0xbda8057c	-0.08204171
180	0x3e3210a6	0.17389163
181	0x3cf86a87	0.030324234
182	0xbd756d78	-0.05991885
183	0x3ca573bb	0.020196786
184	0x3d8c95b3	0.0686449
185	0x3dd1e033	0.10247841
186	0x3b665132	0.003514361
187	0x3ceb1cc6	0.028700244
188	0x3e9a52cd	0.30141297
189	0x3e9fa84c	0.31183088
190	0x3ea16ddf	0.31529137
191	0x3f1bbba9	0.6083322
192	0xbd3c0c8f	-0.045910414
193	0xbdcb82bf	-0.09937047
194	0xbc96235c	-0.018327408
195	0xbe233bac	-0.15940732
196	0x3d1f7a7f	0.03893518
197	0xbe5aec69	-0.21379246
198	0xbdf533f6	-0.119728014
199	0xbdedbe66	-0.11608581
200	0x3b0ab3fb	0.0021164406
201	0xbdd2ab99	-0.10286636
202	0xbdc64156	-0.096804306
203	0xbeb4b469	-0.35293892
204	0x3da3ea4f	0.08003675
205	0xbdcfc2bb	-0.10144564
206	0xbe129718	-0.1431545
207	0xbdf31662	-0.118695036
208	0xbd427e2a	-0.0474836
209	0x3b8b1ff4	0.0042457525
210	0xbdd5812a	-0.10425027
211	0x3d994e12	0.07485594
212	0xbe09f3a4	-0.13471848
213	0xbd3ac187	-0.04559472
214	0xbd3963bf	-0.04526114
215	0x3e32e65b	0.17470686
216	0xbe3e6c11	-0.18595912
217	0xbe5b3f05	-0.21410759
218	0x3e9aac88	0.30209756
219	0x3dc086db	0.09400722
220	0xbe447092	-0.19183567
221	0xbe1ccc9c	-0.15312427
222	0xbc13bb3a	-0.009016806
223	0x3db98fa2	0.09060599
224	0x3c54cc9d	0.012988237
225	0x3cd3ec69	0.025869565
226	0x3d9994cf	0.07499086
227	0x3d9ebef7	0.077512674
228	0xbe3c7047	-0.18402205
229	0xbe437b3a	-0.19089976
230	0xbdd90b89	-0.10597903
231	0xbd8372d5	-0.06418387
232	0x3d1807fc	0.03711699
233	0xbcae54f6	-0.021280747
234	0xbe371bfc	-0.17881769
235	0xbe1068ec	-0.14102525
236	0xbe1bae67	-0.15203248
237	0x3ca2e021	0.019882264
238	0xbe445a89	-0.19175161
239	0xbe6ee0bf	-0.23327921
240	0xbd7298e0	-0.059227824
241	0x3daeba63	0.08531644
242	0xbd8f2a34	-0.069904715
243	0xbe4b7c15	-0.19871552
244	0xbdeca138	-0.115541875
245	0xbdd1a734	-0.102369696
246	0xbdf7bcf1	-0.120965846
247	0xbe1c0660	-0.15236807
248	0x3d04af2f	0.03239363
249	0x3dff0ab2	0.12453212
250	0xbe202e8d	-0.15642758
251	0xbcf9761a	-0.030451823
252	0x3def1128	0.11673194
253	0x3eae4597	0.34037468
254	0x3e4d5288	0.20051014
255	0x3e22e741	0.15908529

6.bias f4 [64]
0	0x391c0061	0.0001487746
1	0xbbaf0faa	-0.0053424435
2	0xb96534d5	-0.00021858823
3	0xbcbfc5c8	-0.02340974
4	0x3ceb274d	0.028705264
5	0xbca30ac3	-0.019902593
6	0x3cfd939d	0.030954177
7	0xbc4eea08	-0.01262904
8	0x3cea2539	0.028582202
9	0xbc053ee0	-0.008132666
10	0xbbf04054	-0.0073318873
11	0x3cc7421c	0.024323516
12	0xbce179f2	-0.027523968
13	0xbce74861	-0.028232755
14	0xbcb1b85d	-0.021694357
15	0xbbcf0de4	-0.0063187946
16	0xbc9d28af	-0.019184439
17	0xbcf820bf	-0.030289052
18	0xbba7ca9d	-0.005120589
19	0x3cd0d963	0.025494283
20	0x3ce7c63f	0.028292773
21	0x3c563c78	0.01307594
22	0x3bd5d3e0	0.0065255016
23	0xbcc979fa	-0.024594296
24	0x3cc3c415	0.02389721
25	0xbc38541e	-0.011250524
26	0xba7964f1	-0.00095136376
27	0x3b9cd853	0.00478653
28	0x3cb25782	0.021770243
29	0xbc6e031d	-0.014527109
30	0x3c89aa9f	0.016804991
31	0xbcab1aff	-0.020886896
32	0xbcbab43b	-0.022791019
33	0xbcab58b2	-0.020916317
34	0xbc41ab33	-0.011820602
35	0x3c970f1f	0.018439827
36	0x3bb6b745	0.0055760466
37	0x3ca0168e	0.019542005
38	0x3c159719	0.009130263
39	0xbc69d3c4	-0.01427168
40	0xbb1a27d6	-0.002352228
41	0x3bcac074	0.006187493
42	0x3cdbdd2c	0.026838861
43	0xbbec628f	-0.0072138975
44	0x3c37f852	0.011228638
45	0x3cf56f20	0.029960215
46	0xbbc5f61d	-0.006041302
47	0xbc404a6c	-0.011736494
48	0x3c99bbd8	0.018766329
49	0xb7f6d791	-2.9425866e-05
50	0xbc5017fc	-0.012701031
51	0x3c3dabc9	0.011576601
52	0xbca6e44c	-0.020372532
53	0xbc900051	-0.017578276
54	0x3cd7e97c	0.026356451
55	0xb910ce8e	-0.00013809858
56	0xbc2bd5c5	-0.010487978
57	0x3c9e6926	0.019337248
58	0x39e50135	0.00043679183
59	0xbcd4e79e	-0.02598935
60	0xbc533e8c	-0.01289333
61	0x3ce586bc	0.028018348
62	0x396e2bf8	0.00022713828
63	0x3c7b0cfe	0.015322922

7.odefunc.norm1.weight f4 [65]
0	0x3ff41993	1.9070305
1	0x4002d47d	2.0442193
2	0x3ffa1f00	1.954071
3	0x3fef16b9	1.867881
4	0x3ff289f3	1.8948349
5	0x3fe87a35	1.8162295
6	0x3fe4fba8	1.7889299
7	0x3fe9dc72	1.82704
8	0x3ff6330a	1.9234326
9	0x3fff6b90	1.99547
10	0x402b71ce	2.678821
11	0x3ff657db	1.9245561
12	0x3fdb3198	1.712451
13	0x3ff973db	1.9488481
14	0x400dd5b8	2.2161694
15	0x3fe5a2dc	1.7940326
16	0x40096431	2.1467402
17	0x3fe76ff7	1.8081044
18	0x4011c38c	2.2775602
19	0x3feb0f10	1.8363972
20	0x4022683e	2.5376124
21	0x4004155d	2.063804
22	0x3fcd7f7d	1.6054531
23	0x402f810a	2.742251
24	0x400012fc	2.0011587
25	0x3fc8bb72	1.5682204
26	0x402051c4	2.5049906
27	0x3fca0286	1.578202
28	0x3fd68e91	1.6762258
29	0x4002d3e3	2.0441825
30	0x401469e6	2.3189635
31	0x4009876b	2.1488903
32	0x3faed165	1.3657652
33	0x400f4e16	2.239141
34	0x4013c1be	2.3087
35	0x4006c322	2.10566
36	0x3fd22364	1.641705
37	0x4002f9cf	2.046497
38	0x3feedb0a	1.8660595
39	0x40122df7	2.2840555
40	0x400f788e	2.241733
41	0x3ffed22b	1.9907888
42	0x3fae0c3c	1.3597484
43	0x3ffad700	1.9596863
44	0x400f3039	2.2373183
45	0x3fc0babb	1.5056986
46	0x3fedd8cc	1.8581786
47	0x4004e0bb	2.0762165
48	0x40098450	2.1487007
49	0x400295c5	2.0403912
50	0x3fe2d848	1.7722254
51	0x3fb6a5c7	1.4269341
52	0x400d9f35	2.2128422
53	0x3fc6d5b2	1.5533965
54	0x3fc15e42	1.510689
55	0x400a404c	2.1601744
56	0x3ff54ad5	1.9163462
57	0x3ff38eaf	1.9027919
58	0x401baaf8	2.43231
59	0x40114289	2.269686
60	0x3fd863b5	1.6905428
61	0x3ffebebc	1.9901958
62	0x3ffdafd5	1.9819285
63	0x3feb764f	1.839548
64	0x3fdc88ec	1.7229285

7.odefunc.norm1.bias f4 [65]
0	0xbe1e8827	-0.15481625
1	0xbf03129a	-0.5120026
2	0xbf29ba33	-0.6629974
3	0xbf69ab08	-0.912766
4	0x3effc224	0.49952805
5	0xbee6b4b1	-0.45059732
6	0xbb1b680c	-0.002371314
7	0x3ede0e69	0.4337037
8	0xbe9682cc	-0.29396665
9	0xbce4cbbc	-0.02792918
10	0xbf8aa5e0	-1.0831871
11	0xbefda3c9	-0.4953902
12	0x3e58a988	0.21158421
13	0xbf25b3e7	-0.64727634
14	0xbe934979	-0.28766993
15	0x3e96cd9e	0.29453748
16	0xbf396500	-0.7241974
17	0x3de5822a	0.112064674
18	0xbf8958ca	-1.0730221
19	0xbed73497	-0.4203231
20	0xbf70717c	-0.93923163
21	0x3c9a8f85	0.018867264
22	0xbed58e2b	-0.41710028
23	0xbf75091f	-0.9571704
24	0xbeaf8554	-0.3428141
25	0x3ec5a3e5	0.38601604
26	0x3f288860	0.6583309
27	0x3e31e06e	0.1737077
28	0x3e756153	0.23962907
29	0xbe9fbfef	-0.3120112
30	0xbfc062ff	-1.5030211
31	0x3ed8927d	0.42299262
32	0x3f62008a	0.8828207
33	0xbf861d9e	-1.0477788
34	0xbf3d9d9a	-0.74068606
35	0xbf51b2cd	-0.81913453
36	0xbe2def29	-0.16985764
37	0xbf0e6213	-0.556184
38	0x3d0ff7cf	0.035148438
39	0xbf8efd33	-1.117102
40	0xbf57dfd6	-0.8432592
41	0xbf275491	-0.65363413
42	0xbedc1ddf	-0.4299154
43	0xbf3701c5	-0.71487075
44	0xbf18744e	-0.59552467
45	0x3f10bd17	0.5653853
46	0xbfa6ca67	-1.3030518
47	0xbee9b829	-0.45648316
48	0xbfd70016	-1.6796901
49	0x3e09c208	0.13452923
50	0x3e0af9d3	0.13571863
51	0xbf0f75e5	-0.5603927
52	0xbfcb3e28	-1.5878344
53	0x3e535b07	0.20640193
54	0x3eb3910e	0.35071605
55	0xbef2f361	-0.47451308
56	0x3e6e56b4	0.23275262
57	0x3b560a3f	0.0032659916
58	0xbf29881e	-0.66223323
59	0xbfc4305d	-1.5327259
60	0xbd7bbb71	-0.061458055
61	0x3eab5be9	0.3346856
62	0x3c380b5e	0.011233179
63	0xbefd28be	-0.49445146
64	0xbf546b9b	-0.8297669

7.odefunc.conv1._layer.weight f4 [65, 66, 3, 3]
0	0x3d975304	0.07388881
1	0x3d426f46	0.0474694
2	0x3d4fc326	0.050723217
3	0x3b599553	0.0033200576
4	0x3ab1eacb	0.0013574002
5	0x3c5bcf6e	0.013416154
6	0xbd6f10aa	-0.0583655
7	0xbd569031	-0.052383605
8	0xbce26cec	-0.027639829
9	0x3e3533cc	0.1769554
10	0xbda83c77	-0.08214658
11	0x3e752c06	0.23942575
12	0xbd9d3f54	-0.076780945
13	0x3e227da1	0.15868236
14	0x3c2ef5f5	0.010678758
15	0xbc19bbc5	-0.009383147
16	0x3e06c47b	0.13160889
17	0x3d8525fb	0.06501385
18	0xbe67b2c3	-0.22626786
19	0xbd18af71	-0.03727669
20	0xbec90f62	-0.3926955
21	0xbd309984	-0.043115154
22	0xbde2567c	-0.11051652
23	0x3e3d6504	0.18495566
24	0xbcbae054	-0.022812046
25	0xbd28c09e	-0.04119932
26	0x3ec2b836	0.38031167
27	0x3dc5af0f	0.096525304
28	0x3e9fea33	0.31233367
29	0x3ee344ac	0.4438833
30	0xbe084f5e	-0.13311526
31	0xbdb42765	-0.087965764
32	0x3eb9cce0	0.3628912
33	0xbe7f036d	-0.2490365
34	0xbe89d441	-0.2691975
35	0xbd45789b	-0.04821072
36	0xbe3c2ac2	-0.18375686
37	0xbea0564a	-0.31315833
38	0xbdf258e8	-0.11833364
39	0xbeb5ef5e	-0.35534185
40	0xbe1f046d	-0.15529032
41	0xbdab137d	-0.083533265
42	0xbeac02ee	-0.33595985
43	0x3e840787	0.25786993
44	0xbe623e18	-0.22094
45	0x3f1acf0d	0.60472184
46	0xbe0a237d	-0.134901
47	0xbd9978bc	-0.074937314
48	0x3ed82305	0.42214218
49	0xbce2dbb3	-0.027692651
50	0xbe82df32	-0.2556091
51	0x3e590b7b	0.21195786
52	0x3e31c1bf	0.17359065
53	0x3e4539b1	0.19260289
54	0x3d8dc309	0.06921966
55	0x3e9f373e	0.31096834
56	0x3eb2680b	0.34845003
57	0xbdd540d2	-0.10412754
58	0x3d883a4e	0.06651746
59	0xbe021fc2	-0.12707427
60	0xbd9afec6	-0.075681254
61	0xbe8c0ff8	-0.27355933
62	0xbe946bdf	-0.2898855
63	0xbe6e8a69	-0.23294987
64	0xbea68f78	-0.32531333
65	0xbe9dca4f	-0.30818412
66	0x3ddcad8b	0.10775288
67	0xbe281d20	-0.1641736
68	0x3dcfda5e	0.10149072
69	0x3d7c3957	0.06157812
70	0x3d8683ec	0.06568131
71	0xbd65540f	-0.055988368
72	0x3e229d7a	0.15880385
73	0x3e3644f7	0.17799746
74	0xbd4b3e9a	-0.04962025
75	0x3e98f744	0.2987615
76	0xbdd0e49d	-0.101998545
77	0xbe048b54	-0.12943774
78	0x3deba07b	0.115052186
79	0x3e7bdb13	0.24595289
80	0xbe449a6a	-0.1919953
81	0xbe32f9c5	-0.17478092
82	0xbe72cc24	-0.23710686
83	0xbdb21cec	-0.08696923
84	0x3c9ab51b	0.018885186
85	0x3d2f56a9	0.042807255
86	0x3cc6e596	0.024279397
87	0x3f19c639	0.6006809
88	0x3cc2b667	0.023768617
89	0x3e2783fc	0.16358942
90	0x3d4ef2e4	0.050524607
91	0x3e4a6aba	0.19767275
92	0xbca9e224	-0.020737715
93	0x3da01010	0.07815564
94	0x3f0f0bdd	0.55877477
95	0x3e2ba928	0.16763747
96	0xbd9bbf9b	-0.07604905
97	0xbe170dfd	-0.1475143
98	0x3e672b70	0.22575164
99	0x3d831ad9	0.06401605
100	0x3eca0a43	0.39460954
101	0x3c92ab16	0.017903846
102	0x3dcde5ea	0.10053618
103	0x3dbb3d5b	0.09142562
104	0x3e661222	0.22467855
105	0xbe248d28	-0.16069472
106	0xbe40a4cd	-0.18812867
107	0x3e64cbdf	0.22343396
108	0x3e41663d	0.18886657
109	0x3ed43319	0.41445234
110	0x3e789ae5	0.24277838
111	0x3d9fbe1c	0.07799932
112	0xbeafece8	-0.34360433
113	0xbe9b307a	-0.30310422
114	0xbd2b23f0	-0.04178232
115	0xbe16d90a	-0.14731231
116	0x3edd863e	0.4326648
117	0xbec5930d	-0.38588753
118	0xbdeac4fc	-0.11463353
119	0xbdb47632	-0.088116065
120	0xbe1564bf	-0.14589213
121	0x3d158aa8	0.036509186
122	0x3e8d0973	0.27546272
123	0x3ca08ca7	0.019598318
124	0x3d2d8b9b	0.042369466
125	0xbde103c0	-0.109870434
126	0x3c15efb0	0.009151384
127	0x3ea452e8	0.32094502
128	0x3e858067	0.26074526
129	0x3c4db13b	0.012554462
130	0x3e544e3b	0.20732968
131	0x3d33dc32	0.043911166
132	0xbc953800	-0.01821518
133	0x3cfae3ea	0.030626256
134	0x3e7c82e3	0.24659304
135	0xbe9e5daa	-0.30930835
136	0xbd8ee834	-0.06977883
137	0xbc2ce3d6	-0.010552367
138	0xbedbe87e	-0.42950815
139	0xbe13bba8	-0.14427054
140	0xbdf9ee01	-0.12203599
141	0xbe0bbd35	-0.13646396
142	0xbdc2c6af	-0.09510552
143	0x3e648a41	0.22318365
144	0xbdb2b13f	-0.08725213
145	0x3e5466c7	0.20742331
146	0x3e887ff3	0.26660118
147	0x3ef475d0	0.47746134
148	0x3e92b0c4	0.28650486
149	0x3ea9af19	0.331414
150	0x3d7922a7	0.060824063
151	0x3e56f71e	0.20992705
152	0xbde7900a	-0.1130677
153	0xbe412387	-0.18861209
154	0xbeafd56b	-0.34342512
155	0x3e0f34c4	0.13984972
156	0x3d225e5a	0.039640762
157	0xbe822e12	-0.25425774
158	0x3eae3ad8	0.3402927
159	0x3d931229	0.07181198
160	0xbe7dcbf6	-0.24784836
161	0xbe931dfe	-0.2873382
162	0xbd8dde4d	-0.06927166
163	0x3ec026b5	0.3752953
164	0x3e9bbd23	0.30417737
165	0x3f08ca2d	0.53433496
166	0x3f4137e4	0.7547591
167	0x3e2e5dda	0.17027989
168	0x3db7991b	0.089647494
169	0xbdcbaf8b	-0.099455915
170	0xbf21cf80	-0.63207245
171	0xbe8fe60a	-0.28105193
172	0x3dbdc918	0.09266871
173	0x3d8eb3d0	0.0696789
174	0xbf2abb1f	-0.66691774
175	0xbf061c49	-0.5238691
176	0x3deba6c8	0.115064204
177	0xbee990c0	-0.45618248
178	0xbe4e3269	-0.20136417
179	0x3db0e22c	0.08636889
180	0xbe828906	-0.25495166
181	0xbe717f25	-0.23583658
182	0x3ea5b13b	0.3236178
183	0xbe9135a6	-0.28361243
184	0xbef100ad	-0.47070828
185	0x3e34e25f	0.17664479
186	0xbe86efed	-0.26354924
187	0xbdcda61c	-0.100414485
188	0xbdfada35	-0.12248651
189	0x3dd6cb3e	0.10487984
190	0x3ef2fc3d	0.47458068
191	0xbdeece56	-0.11660449
192	0xbe83f504	-0.2577287
193	0x3eade2cf	0.33962104
194	0x3d2f1704	0.04274656
195	0xbe9c41c2	-0.3051892
196	0x3ea42c0b	0.32064852
197	0x3df2fe79	0.11864943
198	0xbebc8975	-0.3682362
199	0xbc47ca5e	-0.012194244
200	0xbe026d34	-0.1273697
201	0xbe8a20d6	-0.26978177
202	0xbf0d38e3	-0.5516493
203	0xbe85951c	-0.26090324
204	0xbd039293	-0.032122206
205	0xbd8c0333	-0.06836548
206	0xbe3b1880	-0.18271065
207	0xbe3dea85	-0.18546493
208	0xbe80c4ea	-0.25150234
209	0xbdca8d0c	-0.09890184
210	0xbebd5313	-0.36977443
211	0xbe2213f5	-0.15827926
212	0x3e54b4cf	0.20772098
213	0xbcc2eac0	-0.023793578
214	0xbdec6e6a	-0.11544497
215	0xbda26120	-0.079286814
216	0x3ed2c1b5	0.41163412
217	0xbe6ee54a	-0.23329654
218	0xbe0d4b63	-0.13798289
219	0x3f1cbd7e	0.6122664
220	0xbe35cf43	-0.17754845
221	0xbf6e0755	-0.9297994
222	0x3e9043dd	0.28176776
223	0x3e8a1113	0.26966152
224	0xbef0cf5e	-0.4703321
225	0xbd2a0b3f	-0.04151463
226	0xbe94d9a9	-0.29072312
227	0xbeb737e6	-0.35784835
228	0x3c3c018e	0.01147498
229	0xbe82088c	-0.25397146
230	0xbeadbef3	-0.33934745
231	0x3d5bd0a3	0.05366577
232	0x3c4bb024	0.012432132
233	0xbeab1c62	-0.33420092
234	0xbebf7f32	-0.3740173
235	0xbdfa4f12	-0.12222113
236	0xbe07d275	-0.13263877
237	0x3da43abc	0.08019015
238	0xbe906199	-0.2819946
239	0xbe9883df	-0.2978811
240	0xbd6d81ab	-0.05798499
241	0xbe9034be	-0.2816524
242	0xbe4cf1d6	-0.20014128
243	0xbe628275	-0.22120078
244	0xbe9faded	-0.31187382
245	0xbe7343da	-0.23756352
246	0xbe10d373	-0.14143161
247	0x3ea7cc78	0.32773185
248	0x3d9c2513	0.07624259
249	0x3d9546d0	0.07288897
250	0x3df4f58f	0.11960899
251	0xbdf307a8	-0.11866695
252	0xbd4a4c5e	-0.049389236
253	0x3ed375cd	0.41300812
254	0x3d966c4f	0.07344877
255	0xbe10f268	-0.1415497

7.odefunc.conv1._layer.bias f4 [65]
0	0x3c5b8ff2	0.013401018
1	0xba90719d	-0.0011020188
2	0xbce7c6f3	-0.028293109
3	0x3c8855d3	0.016642487
4	0x3c25d75d	0.010122147
5	0xbccca6d6	-0.024981897
6	0x3d07fa46	0.033197664
7	0x39f32d71	0.00046382428
8	0x3cdca96f	0.026936261
9	0xbc5f9e4d	-0.013648582
10	0x3cb1a65e	0.021685775
11	0xbc42d66a	-0.011891941
12	0x3bb4ef42	0.005521686
13	0x3c43f909	0.01196123
14	0xbc2437de	-0.010023085
15	0x3bf48689	0.007462327
16	0xbcd112d1	-0.025521668
17	0x3c4e918a	0.012607941
18	0x3c482f5b	0.012218322
19	0x3c7a63a2	0.015282543
20	0x3cd27747	0.025691641
21	0xbc139184	-0.009006862
22	0xbb4ceea1	-0.0031270164
23	0x3ceac580	0.028658628
24	0x3badf4ba	0.0053087147
25	0x3c1a6208	0.0094227865
26	0x3cf94a6a	0.030430991
27	0x3c97bdbf	0.018523095
28	0x3cff003f	0.031128047
29	0x3b3100c0	0.0027008504
30	0xbbe28777	-0.0069131213
31	0xbcda3586	-0.02663685
32	0x39b86768	0.00035172259
33	0xbcc495e2	-0.023997251
34	0xbd111f60	-0.035430312
35	0xbce84a86	-0.028355848
36	0x3cb88ada	0.022527147
37	0x3d0115af	0.03151482
38	0xbcde701d	-0.02715307
39	0x3c82ef67	0.015983297
40	0xbc58bb58	-0.01322826
41	0x3c977fff	0.01849365
42	0x3d25976c	0.04042761
43	0x3ce8cb9b	0.0284174
44	0xbbe3b73d	-0.006949334
45	0xbb8e475a	-0.004342002
46	0x3b035e0e	0.0020045075
47	0x3d0c2733	0.03421707
48	0x3ce7d7b1	0.028301092
49	0x3ca8a4e2	0.020586435
50	0x3d0c20dc	0.034211025
51	0xbcf6afbb	-0.030113092
52	0x3d1fa6dd	0.038977493
53	0x3d1d39f4	0.038385347
54	0xb83432a8	-4.296252e-05
55	0xbce84bd6	-0.028356474
56	0x3c1d43b8	0.009598665
57	0xbc9ab58f	-0.018885402
58	0xbd0d2f72	-0.034469076
59	0x3a47781a	0.0007609144
60	0x3cb61dd3	0.022231018
61	0x3c9c159f	0.019053278
62	0x3d13dd9a	0.036100008
63	0xbcfe57f1	-0.031047793
64	0x3ce53a03	0.027981764

7.odefunc.norm2.weight f4 [65]
0	0x40033aa9	2.0504553
1	0x4009f114	2.1553392
2	0x3fce6762	1.61253
3	0x3fd9149c	1.6959414
4	0x4007e24b	2.1231868
5	0x4004fc6e	2.077907
6	0x3fe9c192	1.8262198
7	0x400302f6	2.0470557
8	0x4000b03e	2.010757
9	0x3ff81fd6	1.9384716
10	0x3fec4d8c	1.8461165
11	0x4009006c	2.1406507
12	0x40180e4a	2.3758721
13	0x3fbdcb11	1.4827596
14	0x3fec585b	1.8464464
15	0x3ff815f9	1.9381706
16	0x3fd78ff1	1.6840802
17	0x40025ea8	2.0370274
18	0x3fdee473	1.7413467
19	0x4004d6e1	2.0756152
20	0x3fe1aca9	1.7630817
21	0x3fe4261c	1.782413
22	0x4000c5f6	2.0120826
23	0x3fed6029	1.8544971
24	0x3ffb0fec	1.9614234
25	0x3ff1ecef	1.8900431
26	0x3fd91d69	1.69621
27	0x3ff25d91	1.8934804
28	0x3ffec08d	1.9902512
29	0x4008b6dd	2.136161
30	0x3fcc8b2d	1.5979973
31	0x3fef6253	1.8701881
32	0x4010878f	2.2582738
33	0x40079048	2.1181812
34	0x3ffd396b	1.9783148
35	0x3ff7293e	1.9309461
36	0x3fc1b5b9	1.5133582
37	0x40032305	2.0490124
38	0x4009e2a0	2.154457
39	0x400218ef	2.0327718
40	0x4015b09f	2.338905
41	0x400b340a	2.1750512
42	0x3ff8266c	1.9386725
43	0x3ffe1bc2	1.9852221
44	0x401e2d50	2.4715157
45	0x3fee7f34	1.8632569
46	0x3ff35ae4	1.9012113
47	0x3fcaf185	1.5854956
48	0x400387bc	2.0551596
49	0x3fe870ac	1.8159385
50	0x3ff1315c	1.8843188
51	0x4006000a	2.0937524
52	0x3ff10b4b	1.8831571
53	0x3fe738d1	1.8064214
54	0x3fd3cdda	1.6547196
55	0x3fd54854	1.6662698
56	0x3fff209d	1.9931828
57	0x3fff4dd0	1.9945621
58	0x4008f722	2.1400838
59	0x3ff0fb68	1.8826723
60	0x3ff82b26	1.9388168
61	0x4009b4a5	2.1516507
62	0x4001bfab	2.0273235
63	0x3ff4819c	1.9102054
64	0x4007733d	2.1164086

7.odefunc.norm2.bias f4 [65]
0	0xbfc499c4	-1.5359426
1	0xbfd76bd7	-1.6829785
2	0xbef89295	-0.48549333
3	0xbf67c0a7	-0.9052834
4	0xbfac5296	-1.3462703
5	0xbfb3a5d4	-1.4034982
6	0xbeb3d9db	-0.35127148
7	0xbfb3b08e	-1.4038255
8	0xbf8a05ff	-1.078308
9	0xbf72f476	-0.9490427
10	0xbf454d9b	-0.7707154
11	0xbfab04b6	-1.3360813
12	0xbfbf6453	-1.4952492
13	0xbf4325a4	-0.7622931
14	0xbfc43064	-1.5327268
15	0xbf8a3439	-1.0797187
16	0xbfee4d5b	-1.8617357
17	0xbf798963	-0.9747526
18	0xbf8f055b	-1.1173509
19	0xbf77607f	-0.96631616
20	0xbf1a8113	-0.603532
21	0xbfe28331	-1.7696286
22	0xbf9f6fa7	-1.2455949
23	0xbf538bb5	-0.8263505
24	0xbfabfbba	-1.3436196
25	0xbfd5de3b	-1.6708444
26	0xbf231512	-0.63704026
27	0xbf5ef0ea	-0.87086356
28	0xbf950d19	-1.1644622
29	0xbf593e38	-0.84860563
30	0xbfd9a569	-1.7003604
31	0xbf188789	-0.5958181
32	0xc0161329	-2.3449194
33	0xbfbae3b1	-1.4600736
34	0xbfc25158	-1.5181074
35	0xbf4ef605	-0.80844146
36	0xbeff348b	-0.49844775
37	0xbf947aa5	-1.1599928
38	0xbf887760	-1.066143
39	0xbfc8fc64	-1.5702024
40	0xbfded3df	-1.7408408
41	0xbfe62a03	-1.7981571
42	0xbf503257	-0.8132681
43	0xbf0e7169	-0.556418
44	0xbfef9c59	-1.8719589
45	0xbf3c20bd	-0.73487455
46	0xbfa06648	-1.2531214
47	0xbf860707	-1.0470895
48	0xbfc4a599	-1.5363036
49	0xbf3c373e	-0.7352179
50	0xbf426ba8	-0.7594552
51	0xbf99e3cc	-1.2022643
52	0xbfba7921	-1.4568216
53	0xbf7f48a3	-0.9972021
54	0xbf0331a1	-0.512476
55	0xbf8183de	-1.0118368
56	0xbf4515d5	-0.7698644
57	0xbfd97461	-1.6988641
58	0xbfd09c57	-1.6297711
59	0xbfcba7b4	-1.5910554
60	0xbeb035d8	-0.3441608
61	0xbff7de8b	-1.936479
62	0xbf90f67c	-1.1325221
63	0xbf303b0d	-0.68840104
64	0xbf6c4c95	-0.92304355
