experiment_node_cifar_v1/model.pth (torch, 844201 bytes, 24 tensors)

0.weight f4 [64, 3, 3, 3]
-1.1983042 -1.867249 -0.6113142 0.59425974 1.2359717 -0.29406512 0.08776819 1.273802
0.08875338 0.09376276 -0.69221216 -0.5845108 1.373289 1.471234 -1.0819376 0.09278158
0.76116186 -0.98630774 0.37678787 -0.8926797 -0.50637966 1.331447 1.1829575 -1.0407537
-0.12309092 0.08753349 -1.3398951 0.08145179 -0.07649086 0.19995527 -0.5701515 -0.29396674
0.2173127 -0.802168 -0.7284295 -0.15556315 -0.0749875 0.17504369 0.24299783 -0.30788955
-0.19036707 0.02103982 -0.5024456 -0.6694825 -0.036365207 0.14488421 0.009133587 0.65652853
-0.08580001 -0.204848 0.44672075 -0.68604964 -0.39735982 0.24230894 -0.825424 -0.88029146
-0.5798654 -0.58149374 -1.0066366 -0.7759485 -0.523293 -0.92995757 -0.61767477 -0.20174964
-0.32047036 -0.69862646 0.1326521 -0.06941351 -0.23767374 -0.24262987 -0.27442434 -0.1858264
1.5071417 1.3369733 0.7682385 1.740255 1.4372532 1.1521665 1.6067767 1.3367987
1.345994 0.2125771 0.30782723 0.52503455 0.31818593 0.84400064 0.7232729 0.09368169
0.8354638 0.7508056 0.869167 0.6538636 0.69339144 0.4843313 0.7987156 0.8978445
0.20680818 0.3039652 0.44469494 -0.40282413 -1.2537459 -1.1052204 -1.0895805 -1.142556
-1.2734998 -1.0507793 -1.1775368 -1.4593303 0.78849864 1.0917828 0.7418571 0.72719485
1.3421819 1.0493325 0.20776035 0.46559054 0.52488333 0.67135787 0.20347132 0.077227205
0.07188635 0.36134434 0.28122813 -0.21239477 -0.10710863 0.042590857 -0.52150184 -0.6124993
-0.5907555 -1.038246 -0.7660878 -0.7176737 -0.8468372 -0.7682058 -0.91366845 -0.4496802
-0.14397848 -0.13612632 0.07361812 0.12168243 0.03682503 -0.23478486 0.036106545 -0.19510654
-0.604877 -0.3412585 -0.4372977 -0.023537071 0.34714776 0.12817368 0.05969098 0.13781245
-0.4677539 0.15282354 0.32810837 0.3692981 0.794418 1.1921319 0.98332906 0.8218857
0.68701017 0.5383179 -0.2846576 -0.06593707 0.038317654 -0.2797161 0.8231891 -0.14452474
-0.38195515 0.8537292 -0.433726 -0.004102082 0.3441617 0.28230262 -0.018861726 1.2889367
-0.082535915 0.14798164 0.9723443 -0.14833082 -0.6131384 -0.55830556 -0.044625826 -0.8971733
0.101150595 -0.31183267 -0.62126976 0.14709704 -0.38969046 0.14016436 0.24440327 0.21638814
-0.4120009 -0.2914793 -0.3693601 -0.17040709 -0.060248706 -0.013989244 -0.05534951 0.16919918
0.2578366 -0.5531705 -0.5117765 -0.6312392 -0.06418033 -0.10896992 -0.3543255 0.06278384
0.2367422 0.08729636 -0.4369072 -0.15584183 -0.44971803 0.10231204 0.46333942 0.13699809
0.42917627 0.44512945 0.34774718 0.23749529 0.3838252 0.11295344 0.14042577 0.20304245
0.05968766 -0.46354675 -0.2696075 -0.46772408 -1.2251598 -0.98977804 -1.1477436 -1.0170329
-0.88834125 -0.53309715 0.38560334 0.8074365 0.6320751 -0.058786035 0.30015388 0.09667709
0.25922498 0.68941104 0.3336371 -1.0188314 -1.1839547 -0.20568158 -0.04680482 -0.8754002
-1.0887742 -0.18660307 -0.15512276 -0.041544117 0.45759478 0.682262 1.2089407 1.2908952
00000000: 0862 99bf 0402 efbf 167f 1cbf 6821 183f
00000010: 5234 9e3f b48f 96be cfbf b33d f20b a33f
00000020: 55c4 b53d b106 c03d d134 31bf 80a2 15bf
00000030: efc7 af3f 6551 bc3f ee7c 8abf 4504 be3d
00000040: 81db 423f aa7e 7cbf 57ea c03e a886 64bf
00000050: 19a2 01bf db6c aa3f 276b 973f 6b37 85bf
00000060: 1817 fcbd c244 b33d af81 abbf 32d0 a63d
00000070: 3da7 9cbd 13c1 4c3e 73f5 11bf cf82 96be
00000080: 3887 5e3e e25a 4dbf 5b7a 3abf f24b 1fbe
00000090: 0c93 99bd a73e 333e 6cd4 783e b3a3 9dbe
000000a0: 96ef 42be b35b ac3c 46a0 00bf 3563 2bbf
000000b0: aff3 14bd 875c 143e 0aa5 153c 4112 283f
000000c0: eab7 afbd adc3 51be 95b8 e43e f3a0 2fbf
000000d0: bf72 cbbe d61f 783e fd4e 53bf c85a 61bf
000000e0: 0f72 14bf c6dc 14bf 78d9 80bf 90a4 46bf
000000f0: 88f6 05bf b311 6ebf ef1f 1ebf 7597 4ebe
00000100: b114 a4be 2fd9 32bf f4d5 073e ac28 8ebd
00000110: bf60 73be f773 78be 5981 8cbe 4749 3ebe
00000120: 05ea c03f f121 ab3f 47ab 443f adc0 de3f
00000130: eaf7 b73f 317a 933f dcaa cd3f 381c ab3f
00000140: 8849 ac3f d0ad 593e 889b 9d3e aa68 063f
00000150: 44e9 a23e 6d10 583f 6a28 393f 30dc bf3d
00000160: f5e0 553f cc34 403f ba81 5e3f 9b63 273f
00000170: 1a82 313f 46fa f73e a078 4c3f 23d9 653f
00000180: 86c5 533e 54a1 9b3e 0eaf e33e f73e cebe
00000190: bf7a a0bf dd77 8dbf 6077 8bbf 463f 92bf
000001a0: 0b02 a3bf f07f 86bf 87b9 96bf 56cb babf
000001b0: 0cdb 493f 8abf 8b3f 59ea 3d3f 7129 3a3f
000001c0: 9ecc ab3f 8750 863f 21bf 543e e261 ee3e
000001d0: c15e 063f 1cde 2b3f c95a 503e 4c29 9e3d
000001e0: 2739 933d 2002 b93e 22fd 8f3e 047e 59be
000001f0: c55b dbbd c073 2e3d 2581 05bf c1cc 1cbf
00000200: c13b 17bf 3fe5 84bf 541e 44bf 77b9 37bf
00000210: 53ca 58bf 23a9 44bf 2de6 69bf 7c3c e6be
00000220: 186f 13be b364 0bbe 19c5 963d a334 f93d
00000230: d8d5 163d 716b 70be 75e4 133d 02ca 47be
00000240: 38d9 1abf 6fb9 aebe 7ce5 dfbe d1d0 c0bc
00000250: 5abd b13e f63f 033e 877e 743d b51e 0d3e
00000260: 707d efbe c67d 1c3e d2fd a73e a414 bd3e
00000270: fa5e 4b3f c797 983f 74bb 7b3f 1a67 523f
00000280: e6df 2f3f 34cf 093f a4be 91be 040a 87bd
00000290: f9f2 1c3d f336 8fbe 85bc 523f 4bfe 13be
000002a0: a08f c3be ff8d 5a3f 5611 debe c26a 86bb
000002b0: f635 b03e f889 903e e883 9abc e1fb a43f
000002c0: 9708 a9bd 8088 173e 8eeb 783f 09e4 17be
000002d0: a3f6 1cbf 1ded 0ebf 92c9 36bd 26ad 65bf
000002e0: 0b28 cf3d 88a8 9fbe 890b 1fbf 9ba0 163e
000002f0: 8285 c7be 3f87 0f3e da44 7a3e da94 5d3e
00000300: c8f1 d2be c63c 95be c41c bdbe 327f 2ebe
00000310: 59c7 76bd 2433 65bc 2bb6 62bd 8d42 2d3e
00000320: 2903 843e 959c 0dbf c903 03bf e498 21bf
00000330: fa70 83bd 9f2b dfbd 276a b5be d094 803d
00000340: 8c6c 723e 6fc8 b23d 4db2 dfbe 0095 1fbe
00000350: 7141 e6be fa88 d13d d33a ed3e 3a49 0c3e
00000360: febc db3e 02e8 e33e eb0b b23e f731 733e
00000370: bd84 c43e 2254 e73d c6cb 0f3e 5cea 4f3e
00000380: 0c7b 743d 0056 edbe ff09 8abe 8879 efbe
00000390: 09d2 9cbf 1862 7dbf 43e9 92bf 222e 82bf
000003a0: 556a 63bf 0e79 08bf cd6d c53e 29b4 4e3f
000003b0: accf 213f a0c9 70bd c5ad 993e a3fe c53d
000003c0: 23b9 843e 3e7d 303f 7bd2 aa3e 1169 82bf
000003d0: d48b 97bf 319e 52be 69b6 3fbd 3a1a 60bf
000003e0: f45c 8bbf e014 3fbe 80d8 1ebe 2a2a 2abd
000003f0: dd49 ea3e b9a8 2e3f 92be 9a3f 0e3c a53f

0.bias f4 [64]
0.012901886 -0.06288873 -1.2234491 1.3464714 1.5972215 -1.4905883 0.062727235 0.10338511
-0.22695568 0.43597013 0.21364284 0.003158473 -0.8220958 0.5965871 0.6410818 -0.69846404
0.13560866 0.041814923 -0.78886676 1.0213474 -0.3894928 0.29131916 -0.15416658 0.04988323
-0.4982616 0.15345907 -0.30828792 0.28142342 -0.63155633 0.6093733 0.59716594 -0.5998937
0.26664785 -0.107670724 0.1941667 -0.33422855 -0.25801986 0.2548041 -0.29076222 0.23175347
-2.4068227 2.3868594 0.21709883 -0.035707563 0.06209046 -0.303557 -1.9904172 2.0665987
-0.3727458 0.56864774 -0.34558475 0.23214601 -0.8536428 0.81616724 0.5361642 -0.56230253
0.062286932 -0.22666351 -1.0655828 0.9477598 -0.53983974 0.79959834 0.9739447 -0.78225726
00000000: 6f62 533c cecb 80bd fb99 9cbf 2d59 ac3f
00000010: c171 cc3f 99cb bebf 2377 803d 93bb d33d
00000020: 1267 68be 7a37 df3e 30c5 5a3e 62fe 4e3b
00000030: df74 52bf efb9 183f f01d 243f 8ace 32bf
00000040: ffdc 0a3e 2046 2b3d 2cf3 49bf 83bb 823f
00000050: 9a6b c7be c927 953e d8dd 1dbe 5c52 4c3d
00000060: 251c ffbe 6024 1d3e ead7 9dbe bb16 903e
00000070: adad 21bf e3ff 1b3f dedf 183f a292 19bf
00000080: 1186 883e 7882 dcbd a3d3 463e 0120 abbe
00000090: 2e1b 84be af75 823e c9de 94be c850 6d3e
000000a0: 6209 1ac0 4ec2 1840 284f 5e3e 1842 12bd
000000b0: 9152 7e3d d36b 9bbe fec5 febf 2743 0440
000000c0: 8ad8 bebe e692 113f 7cf0 b0be afb7 6d3e
000000d0: 5688 5abf 56f0 503f 0f42 093f 0ff3 0fbf
000000e0: 9520 7f3d 7b1a 68be 0465 88bf 63a0 723f
000000f0: f032 0abf 7ab2 4c3f 7154 793f 0342 48bf

1.weight f4 [64]
1.4311799 2.0604923 1.1972132 1.6969718 1.3320656 1.6414764 1.3539026 2.380077
1.71567 1.3231368 2.003851 1.2829762 1.5876164 2.0106628 2.6337903 1.3715421
1.4148993 1.2278984 0.8519941 2.1306412 3.0501912 1.6912334 2.5350113 1.9574554
1.3875813 1.8131417 2.684327 2.2195358 1.4227693 1.4872218 1.8891424 1.8395562
1.5681156 1.733612 1.1322893 1.0465322 1.8712074 2.279988 2.7501693 1.4010812
1.8667128 2.215038 0.66536313 1.0393082 1.31388 1.6804702 1.1894698 2.1184165
2.8343983 2.671385 1.3033872 1.4193119 1.0586978 1.4729562 1.374201 3.4841394
1.6097901 2.3540719 1.9479951 0.99835545 1.0279347 1.3766859 1.5335261 2.7937958
00000000: e730 b73f 1bdf 0340 483e 993f 5f36 d93f
00000010: 2081 aa3f e61b d23f ae4c ad3f 2e53 1840
00000020: 139b db3f 8c5c a93f 183f 0040 9038 a43f
00000030: 0437 cb3f b3ae 0040 0590 2840 b18e af3f
00000040: 6c1b b53f c62b 9d3f 491c 5a3f 6d5c 0840
00000050: 5536 4340 567a d83f a03d 2240 e68d fa3f
00000060: 449c b13f 0715 e83f 03cc 2b40 e00c 0e40
00000070: 4e1d b63f 495d be3f 6bcf f13f 9476 eb3f
00000080: 03b8 c83f ffe6 dd3f dbee 903f c4f4 853f
00000090: b983 ef3f 53eb 1140 c602 3040 a156 b33f
000000a0: 72f0 ee3f 2fc3 0d40 3d55 2a3f 0d08 853f
000000b0: 382d a83f a619 d73f 8c40 983f 2394 0740
000000c0: c866 3540 f9f7 2a40 64d5 a63f 03ac b53f
000000d0: 6983 873f d489 bc3f d2e5 af3f 24fc 5e40
000000e0: 9a0d ce3f 1da9 1640 e757 f93f 3994 7f3f
000000f0: 5d93 833f 3e37 b03f 954a c43f 8dcd 3240

1.bias f4 [64]
0.011767741 -0.52482164 0.33778268 -0.9547765 -0.53417856 0.6770881 -0.4773507 -0.40479028
-0.11614597 -0.56384474 -0.5837736 0.041666064 0.46929145 -0.8931736 -0.26020774 -0.36231667
1.1943636 -0.56701016 -0.13415729 -0.79727113 -1.4098086 -1.1697645 -0.6957121 -1.0254059
-0.8051783 -0.59231997 -0.86932683 0.09389961 -0.83672416 -0.42225757 0.0026138793 -0.5266759
0.6456084 -0.5691464 0.24679917 -0.19089398 1.0492864 -0.88795966 -0.35929662 -0.5230078
-0.90285325 -0.97657603 -0.36460435 -0.041491155 -0.9066553 -0.77939695 0.15216322 -1.0007114
-0.4598117 -0.63905555 0.58867174 -0.39847022 0.26176858 -0.71185136 -0.6468538 -0.39705995
-0.7184042 -0.3571086 0.20656961 -0.38948524 0.68416756 -0.4952354 -1.0187333 1.2160401
00000000: 7ccd 403c b65a 06bf daf1 ac3e 3c6c 74bf
00000010: edbf 08bf a555 2d3f 5067 f4be ac40 cfbe
00000020: f0dd edbd 2158 10bf 3072 15bf 09aa 2a3d
00000030: f846 f03e 06a7 64bf f339 85be 9281 b9be
00000040: e8e0 983f 9427 11bf 8760 09be f619 4cbf
00000050: 9c74 b4bf d8ba 95bf 301a 32bf 8040 83bf
00000060: 2a20 4ebf 48a2 17bf 348c 5ebf 704e c03d
00000070: 8e33 56bf 2532 d8be 9e4d 2b3b 3bd4 06bf
00000080: 9846 253f 94b3 11bf ecb8 7c3e b679 43be
00000090: 044f 863f 5351 63bf baf5 b7be d7e3 05bf
000000a0: 6421 67bf e300 7abf 6cad babe a1f2 29bd
000000b0: 901a 68bf 8f86 47bf add0 1b3e 5017 80bf
000000c0: 706c ebbe 2599 23bf 31b3 163f 4a04 ccbe
000000d0: 8806 863e e43b 36bf 3698 25bf 714b cbbe
000000e0: 56e9 37bf f0d6 b6be fc86 533e 9c6a c7be
000000f0: 9b25 2f3f 7f8f fdbe da65 82bf 34a7 9b3f

3.weight f4 [64, 64, 4, 4]
-0.2655522 -0.124669254 -0.087354146 -0.1416675 -0.19032496 -0.08776504 -0.07045141 -0.06117868
-0.12592846 -0.077581175 -0.02379366 -0.03282484 -0.16022313 -0.017014394 0.034289334 0.056969464
-0.078469 -0.055555385 -0.09735666 -0.09818711 -0.071295455 -0.08411807 -0.040584553 -0.093666136
-0.09934317 -0.030091017 -0.06729347 -0.09728843 -0.08696708 -0.049993075 -0.10266533 -0.113255896
-0.28278327 -0.15727904 -0.14238302 -0.24085197 -0.06242499 0.20785104 0.25584373 0.10692398
-0.034548193 0.2809236 0.3558874 0.1900469 -0.040516574 0.26383603 0.29162738 0.21868545
-0.1172362 -0.08364031 -0.13863291 -0.10240547 -0.11237564 -0.10651377 -0.11276811 -0.16715112
-0.11137311 -0.11447688 -0.15028241 -0.1886161 -0.087332204 -0.10442272 -0.09182515 -0.12774229
0.02814549 -0.009158666 -0.0028158263 -0.011095091 -0.031544365 -0.028015217 -0.06913992 -0.0403676
-0.01621935 -0.044587936 -0.022473393 -0.041332748 0.03809092 -0.027383754 -0.044126622 -0.012704026
0.051682945 0.04402063 0.028644199 -0.007941668 0.10494389 0.1708645 0.21670829 0.09986438
0.11587038 0.22940575 0.25269845 0.17923954 0.091897994 0.13128088 0.18060504 0.14795607
-0.052507866 -0.030847088 -0.071581304 -0.021696657 -0.04770013 -0.06578523 -0.08750956 -0.107396685
-0.038065545 -0.1109972 -0.13090053 -0.11151269 0.0030399007 -0.062206164 -0.10655903 -0.073346354
-0.10630649 -0.06943359 -0.06845823 -0.097153805 -0.0561231 -0.056364328 -0.025607122 -0.03792063
-0.09063974 -0.04252016 -0.041593697 -0.06258751 -0.11358101 -0.053292014 -0.09104763 -0.08044709
-0.04844127 -0.02265702 -0.028093964 0.0016120662 -0.015168262 0.058794208 0.031768396 0.021036142
-0.022428786 0.038902428 0.007732934 0.006384286 -0.015914764 0.0011062716 0.047427386 0.004406869
-0.12235247 -0.075107336 -0.07444111 -0.11662247 -0.053722005 0.011393085 0.03690932 -0.04301135
-0.033440612 0.048087988 0.059329376 0.025588986 -0.02801333 0.05828284 0.088587165 0.04254487
-0.075280525 -0.061741304 -0.023183709 -0.009148439 -0.05230777 -0.014459698 -0.010263534 -0.05871335
-0.06951106 -0.048555814 -0.03744624 -0.0291575 -0.09244918 -0.0378898 -0.0075639933 -0.0667829
-0.08230156 -0.04657472 -0.051861256 -0.26591483 -0.12383044 -0.061628327 -0.08035895 -0.16478243
-0.09888783 -0.07275205 0.0109884 -0.079799876 -0.058563344 0.018730791 0.04893631 -0.032802653
-0.14503874 -0.11239131 -0.07662875 -0.07830052 -0.14382814 -0.10707623 -0.10393437 -0.05184287
-0.036079515 -0.010243216 0.04400189 0.028308362 -0.029343933 -0.004874466 0.028252639 0.031555273
0.0035265014 -0.052168988 -0.015303199 -0.13663715 0.0026665502 -0.05633887 -0.02635877 -0.10692218
-0.01438481 -0.051681302 -0.027565103 -0.103784606 -0.043936502 -0.024089657 -0.056406964 -0.09599603
0.030967949 0.07704067 0.014863335 0.0006804873 0.08334191 0.07398525 0.025408925 0.03547397
0.0124027 0.072575346 -0.018255226 -0.007836304 0.032229483 0.023701048 -0.041001767 -0.060805243
-0.20653267 -0.19101968 -0.16390967 -0.20719689 -0.170982 -0.109467775 -0.124363266 -0.14551456
-0.09424306 -0.08108224 -0.031336706 -0.09465478 -0.1681906 -0.1121958 -0.1016135 -0.086475894
00000000: 75f6 87be 9852 ffbd bbe6 b2bd 4911 11be
00000010: 8ce4 42be 28be b3bd d448 90bd 7f96 7abd
00000020: 64f3 00be e1e2 9ebd ecea c2bc 5773 06bd
00000030: 8811 24be c561 8bbc f972 0c3d d058 693d
00000040: 5bb4 a0bd 0b8e 63bd ee62 c7bd 5316 c9bd
00000050: 5a03 92bd 1846 acbd fd3b 26bd 08d4 bfbd
00000060: 6f74 cbbd 7081 f6bc 29d1 89bd 283f c7bd
00000070: cc1b b2bd 8ac5 4cbd 3342 d2bd b5f2 e7bd
00000080: f8c8 90be c20d 21be dbcc 11be e6a1 76be
00000090: 59b1 7fbd e7d6 543e f3fd 823e f6fa da3d
000000a0: 6882 0dbd 38d5 8f3e e036 b63e a89b 423e
000000b0: b5f4 25bd 8415 873e 2f50 953e 14ef 5f3e
000000c0: 8819 f0bd 9c4b abbd c9f5 0dbe f6b9 d1bd
000000d0: 3325 e6bd e423 dabd f8f2 e6bd aa29 2bbe
000000e0: 9617 e4bd db72 eabd a2e3 19be 9424 41be
000000f0: 3adb b2bd 94db d5bd d30e bcbd e0ce 02be
00000100: 5f91 e63c 3b0e 16bc ba89 38bb 2fc8 35bc
00000110: aa34 01bd 2b80 e5bc 3b99 8dbd 7f58 25bd
00000120: 71de 84bc d7a1 36bd 1f1a b8bc 874c 29bd
00000130: 3905 1c3d e553 e0bc 1ebe 34bd 8c24 50bc
00000140: 7fb1 533d fa4e 343d 3da7 ea3c c51d 02bc
00000150: d2ec d63d 1af7 2e3e c7e8 5d3e b285 cc3d
00000160: 734d ed3d 57e9 6a3e b161 813e 928a 373e
00000170: 0435 bc3d 7f6e 063e 87f0 383e cc81 173e
00000180: 7d12 57bd 08b3 fcbc 3899 92bd 30bd b1bc
00000190: 3661 43bd 68ba 86bd 3638 b3bd cbf2 dbbd
000001a0: 9eea 1bbd 8052 e3bd ca0a 06be c460 e4bd
000001b0: 1239 473b e4cb 7ebd 9f3b dabd 9d36 96bd
000001c0: 38b7 d9bd 3333 8ebd d433 8cbd 93f8 c6bd
000001d0: 56e1 65bd 48de 66bd 07c6 d1bc aa52 1bbd
000001e0: 54a1 b9bd 9f29 2ebd 275e 2abd e12d 80bd
000001f0: 299d e8bd ba48 5abd 2e77 babd 72c1 a4bd
00000200: 5a6a 46bd 379b b9bc 5025 e6bc f74b d33a
00000210: 4d84 78bc 32d2 703d 941f 023d fd53 ac3c
00000220: 93bc b7bc 2758 1f3d 8d64 fd3b 4633 d13b
00000230: ae5f 82bc 5100 913a 3843 423d 7f67 903b
00000240: ef93 fabd e0d1 99bd 9574 98bd c3d7 eebd
00000250: 9b0b 5cbd 10aa 3a3c 3a2e 173d ab2c 30bd
00000260: 06f9 08bd e9f7 443d 5c03 733d fe9f d13c
00000270: 367c e5bc fdb9 6e3d 306d b53d 8843 2e3d
00000280: ad2c 9abd 73e4 7cbd c3eb bdbc 56e3 15bc
00000290: ac40 56bd 5fe8 6cbc 6228 28bc 697d 70bd
000002a0: d15b 8ebd 76e2 46bd 3b61 19bd b6db eebc
000002b0: ff55 bdbd 5632 1bbd 60db f7bb 79c5 88bd
000002c0: b88d a8bd 22c5 3ebd 786c 54bd fd25 88be
000002d0: d09a fdbd fc6d 7cbd 3c93 a4bd babc 28be
000002e0: b485 cabd 07ff 94bd b108 343c 1e6e a3bd
000002f0: 1ee0 6fbd 5171 993c 7171 483d 135c 06bd
00000300: 0985 14be 6a2d e6bd 89ef 9cbd 065c a0bd
00000310: af47 13be c84a dbbd 8bdb d4bd 3059 54bd
00000320: 1dc8 13bd 29d3 27bc 533b 343d f0e6 e73c
00000330: b062 f0bc fcb9 9fbb 1472 e73c 1a40 013d
00000340: e01c 673b 26af 55bd 45ba 7abc 9cea 0bbe
00000350: 4ac1 2e3b 96c3 66bd 59ee d7bc 04fa dabd
00000360: 44ae 6bbc c6af 53bd 36d0 e1bc 068d d4bd
00000370: c3f6 33bd ac57 c5bc fd0a 67bd 9199 c4bd
00000380: 7fb0 fd3c 80c7 9d3d 5885 733c bb62 323a
00000390: 2aaf aa3d 9485 973d 6126 d03c 274d 113d
000003a0: b234 4b3c 62a2 943d fc8b 95bc d763 00bc
000003b0: 1003 043d b328 c23c 78f1 27bd eb0e 79bd
000003c0: 4d7d 53be aa9a 43be f0d7 27be 6c2b 54be
000003d0: e815 2fbe a430 e0bd 2bb2 febd c501 15be
000003e0: 8102 c1bd 720e a6bd eb5a 00bd 5eda c1bd
000003f0: 283a 2cbe e9c6 e5bd bd1a d0bd 461a b1bd

3.bias f4 [64]
-0.05450688 0.08373697 -0.4258782 0.3808514 0.022088345 -0.04511667 0.4335077 -0.42282793
-0.30475256 0.3122761 0.1275575 -0.11885611 0.13734415 -0.14924301 -0.3106979 0.3274922
-0.08545756 0.062561035 -0.28143018 0.22280377 0.009676703 -0.026795335 -0.6426101 0.66265213
-0.3457132 0.34130168 0.33282667 -0.31135938 -0.044113327 0.0016495081 -0.2333581 0.20916095
0.04955889 -0.037855543 0.04932085 -0.040218 -0.52002525 0.49943238 -0.017071234 0.002012289
0.25627458 -0.26727107 -0.019000122 0.022324745 -0.3064629 0.2852863 0.026368009 -0.057416316
-0.14003526 0.17686436 0.26140463 -0.26090005 0.2288471 -0.25647855 -0.55578387 0.57731545
0.19497302 -0.19564472 -0.090891555 0.08813126 -0.0022157005 0.030064058 0.13428846 -0.12864141
00000000: 9b42 5fbd 4a7e ab3d b50c dabe f4fe c23e
00000010: 9ef2 b43c 42cc 38bd b9f4 dd3e e77c d8be
00000020: 8708 9cbe a7e2 9f3e 6f9e 023e d56a f3bd
00000030: f2a3 0c3e 29d3 18be cc13 9fbe 0fad a73e
00000040: 6004 afbd 0020 803d 9e17 90be ac26 643e
00000050: 098b 1e3c e481 dbbc 1882 24bf 92a3 293f
00000060: 5201 b1be 18bf ae3e 4268 aa3e 7f6a 9fbe
00000070: 2db0 34bd 4f34 d83a 6df5 6ebe 4a2e 563e
00000080: 43fe 4a3d 6a0e 1bbd a904 4a3d a1bb 24bd
00000090: 6020 05bf 9ab5 ff3e f9d8 8bbc 9be0 033b
000000a0: 6c36 833e c1d7 88be 25a6 9bbc 62e2 b63c
000000b0: b5e8 9cbe 0c11 923e b901 d83c 5f2d 6bbd
000000c0: 6765 0fbe ee1b 353e d4d6 853e b194 85be
000000d0: e556 6a3e 2851 83be da47 0ebf f2ca 133f
000000e0: 02a7 473e 1757 48be 5a25 babd 297e b43d
000000f0: 4935 11bb e648 f63c ea82 093e 93ba 03be

4.weight f4 [64]
1.4285954 1.2857633 1.3413374 2.0597506 1.4136832 1.5684783 1.3612089 1.4910908
1.7348696 2.5239224 1.20244 1.7315763 1.6123022 1.4414275 1.3437817 1.5724608
1.2071784 1.4908978 1.574812 2.0484893 1.0605857 1.6153132 1.4758407 1.4322807
1.4200168 1.8418751 1.601741 1.0990276 1.1055995 1.4563946 1.9074947 1.758374
1.7921442 1.2913675 1.1758302 1.0535449 1.3544067 1.8668728 1.2885869 1.314412
1.1820376 1.086808 1.0084984 1.3120487 2.2628496 1.394949 1.5827092 0.7431321
1.692978 1.5493015 1.940132 1.7626562 2.1185968 1.1374615 1.2522098 1.4176512
1.3508583 1.0020151 1.2033837 1.3596926 1.0469738 1.0222269 1.2997161 1.2134807
00000000: 37dc b63f e493 a43f f2b0 ab3f f4d2 0340
00000010: 92f3 b43f e6c3 c83f 183c ae3f 10dc be3f
00000020: 3510 de3f f287 2140 8ee9 993f 4ba4 dd3f
00000030: eb5f ce3f b280 b83f 0a01 ac3f 6546 c93f
00000040: d284 9a3f bdd5 be3f 7193 c93f 731a 0340
00000050: 46c1 873f 95c2 ce3f 59e8 bc3f f954 b73f
00000060: 1cc3 b53f 90c2 eb3f d905 cd3f f0ac 8c3f
00000070: 4984 8d3f 236b ba3f c928 f43f 6612 e13f
00000080: fb64 e53f 884b a53f 9b81 963f 8fda 863f
00000090: 335d ad3f b0f5 ee3f 6af0 a43f a73e a83f
000000a0: 024d 973f 861c 8b3f 7a16 813f 36f1 a73f
000000b0: 87d2 1040 b08d b23f 3796 ca3f e83d 3e3f
000000c0: 81b3 d83f 834f c63f 3f56 f83f b89e e13f
000000d0: 1797 0740 5798 913f 6948 a03f 9875 b53f
000000e0: ede8 ac3f 0842 803f 7a08 9a3f 680a ae3f
000000f0: 3d03 863f 55d8 823f 195d a63f 5653 9b3f

4.bias f4 [64]
-0.7503184 -1.5790313 -0.045485053 -2.1511476 -2.04999 -0.2505092 -1.5906689 0.0796607
0.6616082 -2.8217375 -1.3214985 -0.08205171 -1.6489177 -0.1732271 0.7491886 -1.7802886
-0.14547527 -1.5134597 -0.058263052 -2.0773187 -0.50507504 -1.6694499 0.6296549 -1.5001823
0.16633767 -1.7996631 -1.1675756 -0.15791757 -0.6586501 -1.7981187 0.49328983 -1.959365
-1.5212622 -0.07214469 -0.12782645 -1.0714326 0.49844432 -2.4570787 -1.6242111 -0.12997876
-1.3395402 -0.38150424 -0.5398771 -1.2880862 0.87815475 -1.5310981 -1.5852274 -0.20504448
-1.8751389 -1.9747424 -2.0018456 0.83922476 -2.0821362 0.16490431 0.37395522 -1.8526706
-1.2063825 -1.1428185 -0.20894076 -1.4615293 -0.80063 -0.9080041 -0.7770314 -1.1218497
00000000: de14 40bf b31d cabf 894e 3abd 67ac 09c0
00000010: 0933 03c0 be42 80be 0a9b cbbf 2625 a33d
00000020: 285f 293f 5997 34c0 dd26 a9bf ba0a a8bd
00000030: bc0f d3bf 7262 31be d3ca 3f3f 7fe0 e3bf
00000040: 78f7 14be 0cb9 c1bf 3da5 6ebd caf2 04c0
00000050: 994c 01bf 89b0 d5bf 1031 213f f905 c0bf
00000060: 6c54 2a3e 5c5b e6bf 1e73 95bf 25b5 21be
00000070: 4b9d 28bf c128 e6bf 7c90 fc3e 79cc fabf
00000080: b8b8 c2bf 98c0 93bd f0e4 02be b424 89bf
00000090: 1834 ff3e c740 1dc0 26e6 cfbf 2719 05be
000000a0: 0e76 abbf 8654 c3be 6335 0abf 02e0 a4bf
000000b0: c0ce 603f 06fb c3bf bbe8 cabf 2ef7 51be
000000c0: 8d04 f0bf 5cc4 fcbf 3d1e 00c0 6fd7 563f
000000d0: b841 05c0 addc 283e 0f77 bf3e 4f24 edbf
000000e0: be6a 9abf e047 92bf 91f4 55be 6413 bbbf
000000f0: 16f6 4cbf f572 68bf 88eb 46bf c598 8fbf

6.weight f4 [64, 64, 4, 4]
-0.1269944 -0.33878466 -0.26220357 -0.18949139 0.14042598 -0.01565949 0.11416972 0.03336608
0.2065072 0.27996212 0.38402632 0.1541915 0.106822416 0.18872117 0.2791124 0.08670814
-0.016381182 0.23364519 0.14646254 0.20302819 0.1285092 0.20455758 0.121436164 0.18302995
0.18722993 -0.030270148 -0.11460267 -0.051052403 0.07350291 -0.052256066 -0.10734511 -0.1370719
0.009811583 -0.11756221 0.007889952 -0.010195647 0.14141372 0.010844728 -0.02241343 0.051436972
-0.013699218 -0.011085562 -0.043703657 0.033950444 -0.035499703 -0.021743864 0.09593938 0.19487168
-0.1904137 -0.44345298 -0.42197505 -0.41290754 -0.17465587 -0.36137763 -0.4276651 -0.40244243
-0.10708161 -0.18019678 -0.3179454 -0.19516486 -0.12722617 -0.24543379 -0.2509299 0.20214698
0.030770991 0.017820397 -0.016119638 0.081619576 0.09932366 0.013572417 -0.01846204 -0.04791557
0.2734676 0.17311497 0.09728669 0.060184505 0.1819079 0.09487681 0.0427981 0.02691158
0.0064889747 0.05450344 0.051333442 0.092957556 0.068318844 0.12826532 0.09415276 0.0759556
-0.022801787 -0.028607614 -0.0073211747 0.009552932 0.05588693 0.17281896 0.21232551 0.26947728
-0.030061742 0.06276669 0.02839702 0.04881199 -0.027778957 -0.06347087 -0.14726788 0.16403012
0.1269968 -0.15017879 -0.26225853 0.11991976 0.4028733 0.16198789 -0.074408375 0.07810861
-0.23511258 -0.3951378 -0.34428382 -0.39729807 -0.0516003 -0.17652102 -0.05420887 -0.17411068
-0.16818297 -0.1630522 -0.033144996 -0.085131034 -0.105829366 -0.13586769 0.044619784 0.18055211
-0.01916109 -0.089202434 -0.14804372 -0.052829914 0.06287526 -0.043169778 -0.040438086 -0.065400824
0.040084273 -0.057188667 -0.040387034 -0.09465543 -0.005722857 -0.025275482 -0.05910117 -0.20656867
0.048885603 0.105207875 -0.01460888 -0.12356851 0.40129668 0.546592 0.4543395 0.20913662
0.2682269 0.31934172 0.32853895 0.39186826 0.12764889 -0.15585871 -0.27543432 -0.054057922
0.04460133 0.18044366 0.13325648 0.16202287 0.0024580583 0.0033391127 -0.009152379 0.14446032
0.03432994 -7.5167605e-05 -0.01250944 -0.035766684 -0.033279743 -0.044252917 0.014687116 -0.08517615
0.17343289 0.17201763 0.13942681 0.10537661 0.020355206 -0.053274177 -0.10937272 -0.08854801
0.07389782 -0.077097744 -0.09521493 -0.14344011 0.13826333 -0.00859963 0.03553729 0.07200637
-0.04203009 0.05893621 0.07603978 0.059203584 0.057771668 -0.21316494 -0.19639131 -0.06723138
0.24628845 -0.18124163 -0.2117863 0.038551174 0.19413558 0.03385995 -0.025075981 0.06922492
0.09426063 -0.16509256 -0.13005693 -0.05872043 0.13503909 -0.06378479 -0.0362191 0.083170295
0.15404037 0.19589862 0.23719768 0.11445552 0.13267097 0.19547321 0.23340578 0.13145079
-0.010414223 -0.02204204 -0.22391295 -0.12326058 0.12371134 0.2782704 0.21368577 0.061135042
0.17924221 0.4958961 0.39285544 0.12943341 -0.023257025 -0.15189427 -0.15334935 -0.26944458
-0.07835183 -0.040201027 0.03110597 0.018089946 -0.018249424 0.013115864 0.07126868 0.1460135
0.011390948 -0.07104763 -0.06638068 -0.019673392 -0.0057501965 -0.10337525 -0.1322535 -0.093295
00000000: d20a 02be 2f75 adbe 8c3f 86be 080a 42be
00000010: d4cb 0f3e 5548 80bc d0d1 e93d dfaa 083d
00000020: a076 533e 3257 8f3e 199f c43e 60e4 1d3e
00000030: b6c5 da3d 1f40 413e d2e7 8e3e 0a94 b13d
00000040: d431 86bc af40 6f3e 47fa 153e 9fe6 4f3e
00000050: ea97 033e 8b77 513e 86b3 f83d 346c 3b3e
00000060: 34b9 3f3e 1af9 f7bc ceb4 eabd 531c 51bd
00000070: b288 963d 750a 56bd c1d7 dbbd 935c 0cbe
00000080: c3c0 203c 75c4 f0bd db44 013c a50b 27bc
00000090: c2ce 103e 16ae 313c 5f9c b7bc 93af 523d
000000a0: af72 60bc 38a0 35bc 9b02 33bd 9f0f 0b3d
000000b0: 2368 11bd 3020 b2bc de7b c43d 718c 473e
000000c0: cffb 42be 450c e3be 1d0d d8be 9e68 d3be
000000d0: fdd8 32be 7d06 b9be ecf6 dabe ef0c cebe
000000e0: 9a4d dbbd 8185 38be bdc9 a2be 4cd9 47be
000000f0: 9447 02be ff52 7bbe e279 80be 9eff 4e3e
00000100: 7213 fc3c 15fc 913c 550d 84bc 2a28 a73d
00000110: 346a cb3d d85e 5e3c b43d 97bc 1e43 44bd
00000120: f203 8c3e 0d45 313e 3e3e c73d 0784 763d
00000130: 1146 3a3e c64e c23d 0f4d 2f3d ac75 dc3c
00000140: 77a1 d43b 003f 5f3d 0443 523d 8860 be3d
00000150: c0ea 8b3d fc57 033e 2ad3 c03d 9c8e 9b3d
00000160: d0ca babc 845a eabc 77e6 efbb e783 1c3c
00000170: b2e9 643d 74f7 303e dc6b 593e edf8 893e
00000180: 0b44 f6bc d38b 803d dea0 e83c 15ef 473d
00000190: b290 e3bc 04fd 81bd 64cd 16be 83f7 273e
000001a0: 730b 023e 78c8 19be c046 86be 7e98 f53d
000001b0: 6945 ce3e 27e0 253e 6b63 98bd 68f7 9f3d
000001c0: 5ac1 70be 804f cabe f845 b0be a76a cbbe
000001d0: d65a 53bd edc1 34be 1f0a 5ebd 124a 32be
000001e0: 2838 2cbe 28f7 26be 0cc3 07bd 2e59 aebd
000001f0: 11bd d8bd e620 0bbe 3cc3 363d a7e2 383e
00000200: b8f7 9cbc c4af b6bd c698 17be 2e64 58bd
00000210: bfc4 803d cbd2 30bd 68a2 25bd def0 85bd
00000220: 682f 243d aa3e 6abd e06c 25bd b5da c1bd
00000230: ce86 bbbb 870e cfbc 1214 72bd bd86 53be
00000240: 453c 483d 3a77 d73d 155a 6fbc 7d11 fdbd
00000250: c276 cd3e 74ed 0b3f 309f e83e e927 563e
00000260: 0955 893e c280 a33e 4236 a83e f5a2 c83e
00000270: 64b6 023e 6d99 1fbe ba05 8dbe d76b 5dbd
00000280: e2af 363d 39c6 383e 6374 083e 53e9 253e
00000290: 6017 213b 04d5 5a3b dcf3 15bc 68ed 133e
000002a0: 8d9d 0c3d 4da3 9db8 65f4 4cbc 1680 12bd
000002b0: 5750 08bd 8c42 35bd 3ba2 703c d570 aebd
000002c0: 6498 313e 6425 303e e7c5 0e3e b1cf d73d
000002d0: f6bf a63c 0636 5abd cefe dfbd a958 b5bd
000002e0: be57 973d 6ce5 9dbd 0c00 c3bd f7e1 12be
000002f0: e794 0d3e 76e5 0cbc 8d8f 113d 1378 933d
00000300: be27 2cbd 1867 713d bfba 9b3d 757f 723d
00000310: fca1 6c3d e947 5abe ce1a 49be 9bb0 89bd
00000320: 0a33 7c3e 6897 39be 82de 58be d6e7 1d3d
00000330: 7acb 463e bbb0 0a3d 256c cdbc cbc5 8d3d
00000340: b80b c13d 060e 29be a52d 05be d584 70bd
00000350: b047 0a3e 9aa1 82bd 7b5a 14bd 3055 aa3d
00000360: c2bc 1d3e a699 483e f3e3 723e a867 ea3d
00000370: e6da 073e 212a 483e ed01 6f3e 099b 063e
00000380: 6ba0 2abc 8291 b4bc 7049 65be 0b70 fcbd
00000390: 5f5c fd3d 7579 8e3e 71d0 5a3e bd68 7a3d
000003a0: 458b 373e 18e6 fd3e 5924 c93e 318a 043e
000003b0: 8485 bebc 2c8a 1bbe 9d07 1dbe a4f4 89be
000003c0: ed76 a0bd d5a9 24bd f2d1 fe3c 5e31 943c
000003d0: d17f 95bc ece3 563c 50f5 913d 9084 153e
000003e0: 19a1 3a3c 6b81 91bd 98f2 87bd 182a a1bc
000003f0: 256c bcbb 67b6 d3bd 766d 07be 7311 bfbd

6.bias f4 [64]
0.0026839129 -0.004492125 -0.088471055 0.064174585 0.36452723 -0.35797158 -0.27464414 0.29929122
0.23237036 -0.20073973 0.45289662 -0.42549118 0.07065318 -0.036604486 -0.3044058 0.32254285
-0.17363925 0.16618033 0.76158184 -0.7557887 0.18932186 -0.18533728 -0.22876774 0.234363
0.27778828 -0.30107868 -0.7482423 0.73388815 0.8958473 -0.9182066 0.6429861 -0.6877888
0.8091752 -0.8215136 0.5829774 -0.54648226 1.0764419 -1.0400598 -0.028822308 0.03505503
-0.8189582 0.8169666 0.12515722 -0.1639424 0.336132 -0.31199914 0.11286603 -0.115226716
0.13906357 -0.17543326 -0.16948569 0.20286179 0.24812554 -0.2492625 0.21109286 -0.20940512
0.11452876 -0.11210597 -0.33326426 0.32293534 0.20250872 -0.23754495 -0.21844494 0.17032248
00000000: 96e4 2f3b ad32 93bb 5030 b5bd f76d 833d
00000010: 50a3 ba3e 0d48 b7be 289e 8cbe b33c 993e
00000020: 7ff2 6d3e b78e 4dbe 11e2 e73e fbd9 d9be
00000030: 9db2 903d 96ee 15bd 14db 9bbe 5624 a53e
00000040: 7dce 31be 2d2b 2a3e 07f7 423f 5e7b 41bf
00000050: 97dd 413e 0ec9 3dbe 1742 6abe dbfc 6f3e
00000060: 443a 8e3e fc26 9abe cf8c 3fbf 18e0 3b3f
00000070: 4056 653f 960f 6bbf bd9a 243f ed12 30bf
00000080: 1b26 4f3f b74e 52bf 023e 153f 43e6 0bbf
00000090: d9c8 893f ae20 85bf c31c ecbc dd95 0f3d
000000a0: 3fa7 51bf b924 513f 3729 003e 84e0 27be
000000b0: 7e19 ac3e 5abe 9fbe 4e26 e73d fcfb ebbd
000000c0: ae66 0e3e c7a4 33be a88d 2dbe 00bb 4f3e
000000d0: 9f14 7e3e ab3e 7fbe ba28 583e 4c6e 56be
000000e0: 0e8e ea3d d197 e5bd 9da1 aabe c857 a53e
000000f0: 725e 4f3e fc3e 73be 08b0 5fbe 0469 2e3e

7.odefunc.norm1.weight f4 [64]
1.3834326 2.1462896 1.9388177 1.9955232 1.9713433 1.4456108 1.9103422 1.7084147
1.3545213 2.0146554 2.4430668 1.5172508 1.7600611 2.3661819 1.3142968 2.0127811
1.6914033 2.0453231 2.07827 1.8535562 2.0901914 1.6609578 1.7552214 1.9917068
2.0896754 2.3938305 2.4001372 2.12587 2.0080435 1.8700904 1.4609567 2.1209152
1.8712349 1.8492867 2.545485 1.5606762 1.6761118 2.0387444 2.0231118 2.4034016
2.0552373 1.8013362 1.2249308 2.3764722 2.0610292 2.144539 1.9101686 2.2622795
1.8853174 2.4226482 1.6201576 2.0188997 2.3001308 1.8298101 1.5147343 2.1901724
1.9279338 1.8594458 1.7103325 2.2997408 1.7025622 2.2791588 1.9632124 2.05711
00000000: 5214 b13f cf5c 0940 2e2b f83f 4e6d ff3f
00000010: fa54 fc3f c609 b93f 1886 f43f 55ad da3f
00000020: f460 ad3f 1df0 0040 355b 1c40 4635 c23f
00000030: af49 e13f 866f 1740 e13a a83f 68d1 0040
00000040: e77f d83f 93e6 0240 6002 0540 5441 ed3f
00000050: b2c5 0540 449a d43f 18ab e03f 40f0 fe3f
00000060: 3ebd 0540 8534 1940 d99b 1940 410e 0840
00000070: c983 0040 1f5f ef3f a100 bb3f 13bd 0740
00000080: a084 ef3f 6db5 ec3f 3ae9 2240 3dc4 c73f
00000090: d58a d63f ca7a 0240 aa7a 0140 55d1 1940
000000a0: 0289 0340 2f92 e63f 88ca 9c3f 1f18 1840
000000b0: e7e7 0340 2140 0940 6880 f43f 30c9 1040
000000c0: 1552 f13f ab0c 1b40 5361 cf3f a735 0140
000000d0: 5835 1340 3837 ea3f d0e2 c13f c92b 0c40
000000e0: 89c6 f63f 5202 ee3f 2dec da3f f42e 1340
000000f0: 8fed d93f bddd 1140 8b4a fb3f b1a7 0340

7.odefunc.norm1.bias f4 [64]
-0.2485301 -2.0453832 -1.4486582 -0.22752208 -1.5783769 -0.3288089 -0.09222968 -0.59305507
-0.4863406 -0.724827 -0.32995042 -0.8346297 -1.309061 -0.68723434 0.3434849 -0.95239764
-0.5908231 -0.839283 -0.83949965 -0.6997787 -1.2509682 -0.4315223 -0.31612608 -0.70672786
-2.1859593 0.48526955 0.28331998 -1.8966701 -1.116357 -0.2906078 -0.1903139 -1.3211085
-1.2203388 0.49227726 0.1649866 -0.8839547 -1.1764286 0.23314042 -0.06691736 -1.8026637
0.1128689 -0.8741219 0.23068346 -0.291591 0.24418323 -1.5222611 -1.109083 0.02635659
-0.8770007 0.32492825 -0.38940004 -1.1136824 -0.052415445 -0.9408564 0.0074971714 -1.6042695
-0.7275516 -0.82578844 -1.0995783 -0.24015507 -1.2186863 -0.79085827 -0.1588546 -2.1385574
00000000: ad7e 7ebe 8fe7 02c0 a26d b9bf 8cfb 68be
00000010: 4108 cabf a459 a8be eae2 bcbd 75d2 17bf
00000020: a301 f9be 438e 39bf 43ef a8be 4baa 55bf
00000030: 508f a7bf 97ee 2fbf 41dd af3e 55d0 73bf
00000040: 2f40 17bf 40db 56bf 73e9 56bf b224 33bf
00000050: ba1f a0bf 7ef0 dcbe 47db a1be 1eec 34bf
00000060: c2e6 0bc0 4075 f83e 510f 913e 16c6 f2bf
00000070: c9e4 8ebf 8cca 94be a6e1 42be 151a a9bf
00000080: 1034 9cbf c40b fc3e 3ff2 283e db4a 62bf
00000090: 3695 96bf 5dbc 6e3e f80b 89bd afbd e6bf
000000a0: cf27 e73d 74c6 5fbf 4938 6c3e 6a4b 95be
000000b0: 2b0b 7a3e 74d9 c2bf 6ff6 8dbf c7e9 d73c
000000c0: 1e83 60bf ff5c a63e 715f c7be 258d 8ebf
000000d0: 94b1 56bd f7db 70bf d5aa f53b b458 cdbf
000000e0: d240 3abf df66 53bf fbbe 8cbf 36eb 75be
000000f0: eafd 9bbf b075 4abf c8aa 22be 20de 08c0

7.odefunc.conv1._layer.weight f4 [64, 65, 3, 3]
-0.24997461 0.0081511 -0.020716453 -0.18178342 0.07635885 0.01839593 -0.22094716 0.0137615325
0.0029103751 -0.13673505 0.008169794 -0.1516767 -0.073053874 -0.04937014 -0.15280114 -0.011008849
0.19581445 0.10531283 -0.08125985 -0.18189546 -0.25167823 0.106920876 -0.04413652 0.17129256
0.11274387 0.071750164 0.160299 0.025819652 -0.19706123 0.14850171 0.26611695 0.52282804
0.17295334 -0.16356522 0.10243002 -0.1309987 -0.7837444 -0.14358892 -0.049205367 -0.07663818
0.34961298 -0.1468699 0.5345087 0.32738855 -0.38607302 0.08813263 0.13463715 -0.18533316
0.10765363 0.21720561 0.20539469 -0.04095317 -0.4288959 -0.1774962 0.25525042 -0.1955338
0.28246558 0.038673382 -0.23041262 0.39357197 -0.07592917 -0.21342468 0.5232027 -0.057053383
0.1157352 -0.08127541 -0.031658266 0.014954682 -0.41743845 -0.03786421 0.07483348 -0.14923833
-0.2242278 -0.15697749 0.048121747 0.12267587 0.24866526 0.15851082 0.06326379 -0.05177158
0.101851605 -0.15347718 -0.03846291 -0.0021019175 -0.13516186 0.09638554 -0.013959242 -0.42326087
-0.03955367 0.13383287 0.25399324 -0.020586938 0.329807 -0.36346504 -0.4908582 0.5259256
-0.09078856 -0.26444548 0.10133018 -0.52057356 -0.05502246 -0.11272924 0.0640441 -0.01028009
-0.22927046 0.2796985 -0.023716327 -0.17067233 -0.55878544 -0.3605474 0.25412714 -0.3922316
-0.33420274 0.1856437 -0.6115603 -0.6294906 -0.0863975 0.2218967 -0.03168477 -0.05026255
-0.120218314 -0.107899584 -0.44285977 0.043476596 0.07051028 -0.53733027 0.011942545 -0.1405961
0.4334002 0.019065762 0.2891044 0.43329644 -0.069330595 0.12761645 0.24433392 -0.42598087
-0.14055975 0.6567003 0.12525927 -0.08665323 -0.1599891 -0.09415401 -0.39770707 -0.023741223
0.15678327 0.20803382 0.34138402 0.14715023 0.033362973 0.055541407 -0.03464496 -0.003750188
0.009912018 -0.047303777 0.100427054 0.09217498 0.07932953 0.053971305 -0.022613902 -0.16174366
-0.05461882 -0.18662749 -0.06575047 -0.008230949 -0.0390621 0.20453803 0.051025566 -0.017833866
-0.16224155 -0.12039229 -0.20391302 -0.3894516 -0.101061225 0.5557947 -0.07163229 -0.058030047
0.19743279 -0.14424492 -0.14860623 -0.5492877 -0.3590248 0.232058 -0.20399013 -0.06469468
0.2375823 0.11263595 -0.3774614 0.12488331 0.16107714 0.053637743 0.20390661 0.033006847
-0.08193672 0.311085 -0.3188508 0.08529184 0.069732666 -0.29632905 -0.08159598 -0.15145735
0.3655359 -0.57468534 -0.25406352 0.38017598 -0.4825112 -0.26068932 0.28043368 0.12879436
0.35596618 -0.04199759 0.0074834414 0.49097654 0.18020101 0.28078282 0.281591 0.09879387
0.03969098 0.025622396 -0.099720895 -0.064594194 -0.022419527 0.15450947 0.24213754 0.023120403
-0.1986983 0.13574533 0.034781586 0.064603105 -0.033112045 -0.39550266 0.15106726 -0.009602347
-0.5906429 -0.35025704 0.12533413 0.38546374 0.1140725 0.51914454 0.4142397 0.11319699
0.56503475 0.0073028393 -0.18723032 0.2666557 0.075855546 0.026751112 -0.10786419 -0.06779913
0.15894295 -0.26121566 -0.22602497 0.17743829 0.12852769 0.5158206 -0.048347134 0.39526936
00000000: 58f9 7fbe 318c 053c 8db5 a9bc 6f25 3abe
00000010: 0762 9c3d 10b3 963c f93f 62be 0d78 613c
00000020: febb 3e3b 4604 0cbe 9ada 053c 2351 1bbe
00000030: 459d 95bd 5838 4abd e777 1cbe 765e 34bc
00000040: 9583 483e 41ae d73d 906b a6bd ce42 3abe
00000050: f8db 80be 55f9 da3d 7fc8 34bd 5167 2f3e
00000060: 42e6 e63d c0f1 923d 6c25 243e bc83 d33c
00000070: 6bca 49be d510 183e 7b40 883e 0fd8 053f
00000080: ae1a 313e a47d 27be d5c6 d13d 8624 06be
00000090: 79a3 48bf f908 13be 918b 49bd 7af4 9cbd
000000a0: 7900 b33e 1065 16be 90d5 083f 799f a73e
000000b0: 5dab c5be e17e b43d 52de 093e fac7 3dbe
000000c0: 8279 dc3d 266b 5e3e fc52 523e 83be 27bd
000000d0: 3e98 dbbe 90c1 35be 2fb0 823e 033a 48be
000000e0: 549f 903e fb67 1e3d 49f1 6bbe 4482 c93e
000000f0: c180 9bbd 008c 5abe 9df0 053f cfb0 69bd
00000100: 9406 ed3d b973 a6bd 19ac 01bd 7c04 753c
00000110: 7eba d5be 8017 1bbd 4c42 993d efd1 18be
00000120: f99b 65be b5be 20be 4f1b 453d 7d3d fb3d
00000130: 1ba2 7e3e a950 223e 7290 813d 700e 54bd
00000140: 9397 d03d 1f29 1dbe 498b 1dbd 53c0 09bb
00000150: df67 0abe c865 c53d 4eb5 64bc a6b5 d8be
00000160: 0703 22bd 7c0b 093e 670b 823e f0a5 a8bc
00000170: 77dc a83e 1718 babe c451 fbbe 0fa3 063f
00000180: 5aef b9bd 6665 87be 3386 cf3d 4f44 05bf
00000190: 3b5f 61bd 96de e6bd 8e29 833d d36d 28bc
000001a0: e0c5 6abe a434 8f3e be48 c2bc bac4 2ebe
000001b0: 900c 0fbf ab99 b8be f41c 823e 95d2 c8be
000001c0: 9f1c abbe 6219 3e3e 378f 1cbf 4c26 21bf
000001d0: 2cf1 b0bd e338 633e e4c7 01bd 1be0 4dbd
000001e0: 0535 f6bd 75fa dcbd 84be e2be 8414 323d
000001f0: b267 903d 7a8e 09bf aaaa 433c 6df8 0fbe
00000200: a2e6 dd3e cd2f 9c3c 7e05 943e 08d9 dd3e
00000210: 33fd 8dbd e3ad 023e ac32 7a3e 2a1a dabe
00000220: e5ee 0fbe 831d 283f f743 003e 4077 b1bd
00000230: 2fd4 23be d1d3 c0bd 43a0 cbbe f47c c2bc
00000240: cb8b 203e d106 553e e3c9 ae3e 8dae 163e
00000250: 9da7 083d 637f 633d e0e7 0dbd b7c5 75bb
00000260: 0466 223c 9bc1 41bd b3ac cd3d 3cc6 bc3d
00000270: 8577 a23d 0411 5d3d ca40 b9bc 21a0 25be
00000280: fcb7 5fbd 471b 3fbe 2fa8 86bd 1adb 06bc
00000290: 95ff 1fbd 6b72 513e 2f00 513d 5418 92bc
000002a0: a622 26be 3c90 f6bd 93ce 50be 3366 c7be
000002b0: 30f9 cebd 9048 0e3f f3b3 92bd eab0 6dbd
000002c0: d22b 4a3e f1b4 13be 3b2c 18be 1e9e 0cbf
000002d0: 19d2 b7be 9da0 6d3e cae2 50be a57e 84bd
000002e0: c648 733e adad e63d 9f42 c1be d2c2 ff3d
000002f0: 68f1 243e 40b3 5b3d e5cc 503e 3032 073d
00000300: 70ce a7bd 8846 9f3e 6940 a3be 7dad ae3d
00000310: 00d0 8e3d 71b8 97be cb1b a7bd a317 1bbe
00000320: 8627 bb3e 941e 13bf 9d14 82be 6da6 c23e
00000330: b50b f7be 1279 85be 0195 8f3e abe2 033e
00000340: 3341 b63e aa05 2cbd a837 f53b 4761 fb3e
00000350: 9d86 383e c4c2 8f3e b22c 903e 7154 ca3d
00000360: 0293 223d 0fe6 d13c 783a ccbd f649 84bd
00000370: 28a9 b7bc bb37 1e3e e7f2 773e 0067 bd3c
00000380: 9177 4bbe d300 0b3e 2377 0e3d a24e 843d
00000390: 7fa0 07bd 537f cabe 60b1 1a3e 2a53 1dbc
000003a0: 6034 17bf e454 b3be 9757 003e 815b c53e
000003b0: d89e e93d a8e6 043f 3a17 d43e d3d3 e73d
000003c0: 1ea6 103f a84c ef3b 4eb9 3fbe 1987 883e
000003d0: 275a 9b3d 2625 db3c e7e7 dcbd 45da 8abd
000003e0: f1c1 223e 0fbe 85be 1773 67be 62b2 353e
000003f0: c39c 033e d20c 043f a507 46bd bf60 ca3e

7.odefunc.conv1._layer.bias f4 [64]
0.020586576 -0.049206324 0.007188352 -0.021999765 0.09159291 -0.11398001 0.24160504 -0.3069316
0.17767605 -0.16596238 -0.16737914 0.15924375 -0.28830805 0.21085618 -0.42482942 0.41797766
0.37650684 -0.40513727 0.15038495 -0.16905755 -0.31536645 0.32171348 -0.07056564 0.042842396
-0.20048948 0.19805905 -0.32055297 0.31206736 0.004082858 -0.066408955 -0.10704844 0.10490392
0.41816518 -0.43719178 0.20751816 -0.19488995 0.152901 -0.09360148 -0.11983332 0.12825575
-0.16507532 0.1233079 0.08077762 -0.13753583 -0.31868842 0.26085964 0.09873091 -0.12070565
-0.02262271 0.087454066 0.25209552 -0.21931122 0.018208064 -0.03271834 -0.29094398 0.32107443
0.343531 -0.30284503 -0.16827089 0.16709524 0.16022225 -0.12885888 0.30496636 -0.32957584
00000000: 2ea5 a83c 928c 49bd 448c eb3b da38 b4bc
00000010: 1095 bb3d 5a6e e9bd 5067 773e 2426 9dbe
00000020: b6f0 353e 0bf2 29be 7065 2bbe cb10 233e
00000030: 1d9d 93be afea 573e 3e83 d9be 2b01 d63e
00000040: 81c5 c03e 276e cfbe 83fe 193e 6c1d 2dbe
00000050: b677 a1be a1b7 a43e b884 90bd 827b 2f3d
00000060: 1d4d 4dbe fecf 4a3e 851f a4be 4bc7 9f3e
00000070: 7fc9 853b 6b01 88bd 363c dbbd ded7 d63d
00000080: bf19 d63e 9ad7 dfbe a47f 543e 3b91 47be
00000090: 1492 1c3e 22b2 bfbd 2c6b f5bd 7a55 033e
000000a0: 8109 29be da88 fc3d bd6e a53d 31d6 0cbe
000000b0: 212b a3be 658f 853e 6e33 ca3d 8634 f7bd
000000c0: 4353 b9bc 1e1b b33d aa12 813e 1f93 60be
000000d0: 1429 953c ab03 06bd 9cf6 94be de63 a43e
000000e0: 4ce3 af3e 810e 9bbe 344f 2cbe 041b 2b3e
000000f0: 4d11 243e 95f3 03be 8d24 9c3e 2abe a8be

7.odefunc.norm2.weight f4 [64]
1.6447679 1.833042 1.7914311 1.7070905 1.8242198 1.894715 1.600067 2.2198365
2.1343424 2.0000546 1.7297369 1.7929913 1.9443172 1.9856342 1.5734655 2.2022185
2.4001415 2.8547084 1.8089863 2.27914 2.3382695 2.10101 1.9808701 1.6939343
2.1759813 2.1175015 2.2511914 2.3127263 1.8237506 1.9581876 2.2753463 1.7188418
2.9448168 1.6161102 1.8546618 2.1093056 1.9433467 2.1507857 2.0091887 1.9643608
1.6956149 2.1983635 2.1734457 2.1668365 1.9782864 2.2252173 2.4662962 2.345868
2.3687773 1.9772167 2.136725 1.562357 2.2409306 2.074604 3.1497588 1.9205384
2.2099264 1.9559625 2.2339427 1.7890394 2.1123073 2.0426948 1.7835593 2.014424
00000000: c187 d23f 1fa1 ea3f 9d4d e53f f181 da3f
00000010: 0980 e93f 0586 f23f ffce cc3f cd11 0e40
00000020: 1199 0840 e500 0040 0568 dd3f bd80 e53f
00000030: 63df f83f 4329 fe3f 5167 c93f 26f1 0c40
00000040: eb9b 1940 8bb3 3640 dd8c e73f 6edd 1140
00000050: 35a6 1540 f376 0640 278d fd3f d7d2 d83f
00000060: 4743 0b40 2585 0740 8513 1040 b503 1440
00000070: a970 e93f e4a5 fa3f 469f 1140 0203 dc3f
00000080: e177 3c40 b3dc ce3f 8f65 ed3f ddfe 0640
00000090: 96bf f83f 79a6 0940 8c96 0040 2d70 fb3f
000000a0: e909 d93f fdb1 0c40 bc19 0b40 73ad 0a40
000000b0: 7d38 fd3f f669 0e40 ccd7 1d40 b422 1640
000000c0: 0c9a 1740 7015 fd3f 1ac0 0840 50fb c73f
000000d0: 686b 0f40 50c6 0440 a695 4940 34d4 f53f
000000e0: 6f6f 0d40 fb5c fa3f ebf8 0e40 3eff e43f
000000f0: 0b30 0740 83bb 0240 ac4b e43f 53ec 0040

7.odefunc.norm2.bias f4 [64]
-1.6145977 -1.012085 -1.2231954 -1.9372762 -1.1332165 -1.3764892 -2.1594648 -1.287506
-2.678414 -0.84232605 -2.0647438 -1.2511544 -0.88040394 -1.7545037 -1.6698911 -1.9868153
-2.7247076 -0.90418655 -2.031558 -1.0380492 -1.0114006 -2.365144 -1.8879914 -1.5530356
-0.47978613 -2.3977406 -0.7439084 -3.254453 -0.6465733 -1.8339971 -3.2484975 -1.2803822
-3.0901875 -2.1316729 -1.4027536 -1.979631 -1.7545303 -0.22529992 -1.6577682 -0.66561043
-1.7617949 -2.25314 -0.30666915 -2.5949914 -0.8539085 -2.9689202 -2.6145575 0.07027124
-2.125692 -1.4235059 -2.347333 -1.0515271 -2.6595268 -0.84673756 -1.1902871 -2.3608484
-2.5197868 -0.8695781 -1.627065 -1.0997549 -2.6656442 -1.3728706 -1.9454925 -1.9425967
00000000: 23ab cebf 008c 81bf ab91 9cbf abf8 f7bf
00000010: 3d0d 91bf cc30 b0bf ac34 0ac0 ffcc a4bf
00000020: 236b 2bc0 aea2 57bf c324 04c0 d425 a0bf
00000030: 2762 61bf 9493 e0bf febe d5bf f74f febf
00000040: 9c61 2ec0 c578 67bf 0c05 02c0 ccde 84bf
00000050: 9375 81bf 855e 17c0 b4a9 f1bf dfc9 c6bf
00000060: 87a6 f5be 9574 19c0 c870 3ebf f548 50c0
00000070: d485 25bf 6bc0 eabf 62e7 4fc0 90e3 a3bf
00000080: a2c5 45c0 546d 08c0 6e8d b3bf 8c64 fdbf
00000090: 7394 e0bf 06b5 66be c031 d4bf 7265 2abf
000000a0: 7f82 e1bf 7233 10c0 bd03 9dbe 5714 26c0
000000b0: bf99 5abf ca02 3ec0 e954 27c0 5eea 8f3d
000000c0: 560b 08c0 7135 b6bf b43a 16c0 7198 86bf
000000d0: b035 2ac0 cbc3 58bf 545b 98bf 2418 17c0
000000e0: 3044 21c0 ac9c 5ebf aa43 d0bf c5c4 8cbf
000000f0: ea99 2ac0 39ba afbf e605 f9bf 02a7 f8bf

7.odefunc.conv2._layer.weight f4 [64, 65, 3, 3]
0.08011473 -0.0066186204 0.1353418 0.03532011 -0.0043306313 0.045545522 0.08078929 -0.004955574
0.12858908 -0.363619 -0.1500759 -0.29939398 -0.503184 -0.25576404 -0.3204024 -0.37127274
-0.32353765 -0.21307188 -0.0015325323 -0.03486423 -0.08442312 0.16783518 0.21219708 -0.15051612
-0.30918178 -0.1611514 -0.14300941 -0.07999848 -0.29593533 -0.15111624 0.31921437 0.3390711
0.17858532 0.0043907077 0.007434211 0.035913132 0.012225916 0.09099917 0.09114717 0.07448956
-0.076363645 -0.0008829844 -0.14145333 -0.41645396 -0.25345296 0.119080536 0.008934123 -0.191639
-0.09289176 -0.029715978 0.12861955 0.050380968 0.067447625 0.16204926 0.07946093 -0.1333463
-0.12682393 -0.27248 -0.70265806 -0.42818698 0.03360751 -0.39071974 -0.21114916 -0.11292523
0.26578912 0.42470154 -0.006948614 0.19845755 0.38142073 0.20629051 0.064857736 -0.07559346
-0.10434734 -0.018062985 -0.08529929 0.18060972 -0.15437613 0.33601123 -0.034975793 -0.06353337
-0.20372796 0.21474072 0.39146176 0.44154802 0.68538964 0.3157917 0.018840713 0.20885615
0.089323476 0.30086702 -0.23151493 -0.18954754 -0.1596414 -0.08902842 0.048893336 -0.26522774
-0.32912222 -0.17966853 -0.020365348 0.061378665 -0.1639253 -0.13311692 0.31235608 -0.15593362
-0.21826227 0.011336181 0.40654927 0.1274865 -0.30459994 -0.31286883 -0.178101 -0.11080865
-0.0064784153 0.1544019 0.13027456 0.28782183 0.3264943 -0.20992969 -0.22915372 -0.16066124
-0.2934615 -0.16590573 -0.0062863887 0.13850717 -0.11833917 -0.14085202 0.094557896 -0.18150586
-0.15529267 0.037809256 0.23567441 0.23815294 -0.0447622 0.037108522 -0.037181318 -0.24201258
-0.3518779 -0.1158834 0.046291057 -0.02811978 -0.041579854 -0.3442603 0.0032231768 0.2867197
0.0092658615 -0.0713248 0.050428282 -0.103051536 -0.10211515 0.12871242 -0.22062333 -0.13730118
-0.20749494 0.0826196 -0.12651946 0.031481 -0.14125158 -0.13945438 -0.1069843 -0.22910854
-0.4875401 -0.1581893 -0.16375388 0.19980592 0.46222124 0.10595048 0.051467087 0.23527938
0.46834257 0.39367008 0.30594307 -0.13490282 0.070744075 -0.0930832 -0.08736712 0.057099164
-0.14357725 0.23031676 0.20671092 0.41123468 0.29861096 0.39640418 0.41639465 0.13439177
0.35878867 0.7026467 -0.008022362 -0.15411124 -0.34403446 -0.09762396 -0.17003043 -0.021914886
-0.077868566 -0.081966504 0.040644463 0.14136818 0.06537278 0.1636114 0.18850817 0.19508028
0.04352314 0.35486647 0.1357335 0.018975759 -0.061260495 -0.3683164 -0.43067768 -0.30071416
-0.4402287 -0.10430839 -0.056202363 0.16109115 -0.12724541 -0.23954993 -0.22820048 0.010458325
0.19204794 0.13049023 0.20765197 -0.25530136 -0.11438413 -0.11073712 0.017112225 0.23144351
0.06623652 0.18339272 0.24222398 -0.29235607 -0.12906967 0.16911915 0.109613806 -0.21495964
0.14476815 0.106627084 -0.104327306 -0.15902121 -0.02984976 0.034460243 -0.046904374 0.02093726
0.27922046 0.07646741 -0.16765141 0.3031481 0.17315012 -0.014396359 0.20075327 0.22651082
0.28043985 0.1784434 0.19035621 0.28655684 -0.36742035 -0.21183805 -0.20900545 -0.27423927
00000000: 3113 a43d 03e1 d8bb 0a97 0a3e d2ab 103d
00000010: f8e7 8dbb f18d 3a3d db74 a53d 5e62 a2bb
00000020: dbac 033e 452c babe 7fad 19be 2b4a 99be
00000030: abd0 00bf 81f3 82be c90b a4be 7617 bebe
00000040: baa6 a5be 842f 5abe 40df c8ba cbcd 0ebd
00000050: 07e6 acbd fcdc 2b3e 314a 593e e620 1abe
00000060: 134d 9ebe df04 25be 0f71 12be 3ed6 a3bd
00000070: d684 97be 37be 1abe 1170 a33e ba9a ad3e
00000080: 12df 363e eddf 8f3b af9a f33b a619 133d
00000090: 354f 483c c65d ba3d 5eab ba3d fc8d 983d
000000a0: 8b64 9cbd 1478 67ba 24d9 10be 7439 d5be
000000b0: 96c4 81be 7fe0 f33d 6e60 123c 043d 44be
000000c0: 093e bebd ec6e f3bc d8b4 033e 465c 4e3d
000000d0: fb21 8a3d 3ef0 253e 69bc a23d ef8b 08be
000000e0: 22de 01be 8082 8bbe 66e1 33bf 533b dbbe
000000f0: 07a8 093d 6b0c c8be 7c37 58be 5845 e7bd
00000100: 8315 883e 7b72 d93e 33b1 e3bb 7538 4b3e
00000110: 9449 c33e d23d 533e 22d4 843d bed0 9abd
00000120: 0fb4 d5bd d3f8 93bc 65b1 aebd c1f1 383e
00000130: c714 1ebe aa09 ac3e c742 0fbd c91d 82bd
00000140: 109e 50be fee4 5b3e ad6d c83e 9512 e23e
00000150: b275 2f3f 73af a13e d757 9a3c 63de 553e
00000160: 3aef b63d 3e0b 9a3e 4012 6dbe c018 42be
00000170: 0979 23be 8854 b6bd 6144 483d eecb 87be
00000180: b582 a8be 07fb 37be 3bd5 a6bc 3268 7b3d
00000190: 09dc 27be cd4f 08be 23ed 9f3e 10ad 1fbe
000001a0: 2580 5fbe 64bb 393c 3a27 d03e d28b 023e
000001b0: 86f4 9bbe 5830 a0be 1c60 36be a5ef e2bd
000001c0: e348 d4bb 881b 1e3e b266 053e 625d 933e
000001d0: 432a a73e cff7 56be 46a7 6abe 6184 24be
000001e0: 9640 96be 31e3 29be 0dfe cdbb d3d4 0d3e
000001f0: cf5b f2bd 833b 10be 92a7 c13d acdc 39be
00000200: 0b05 1fbe e1dd 1a3d a254 713e 5dde 733e
00000210: 9258 37bd 1bff 173d 704b 18bd 25d2 77be
00000220: 5729 b4be 4754 edbd b19b 3d3d 745b e6bc
00000230: a34f 2abd e342 b0be ef3b 533b edcc 923e
00000240: d7cf 173c bd12 92bd e38d 4e3d af0c d3bd
00000250: bf21 d1bd 30cd 033e 15eb 61be ae98 0cbe
00000260: 8e79 54be 7734 a93d 518e 01be 39f2 003d
00000270: 41a4 10be 21cd 0ebe 961a dbbd 6e9b 6abe
00000280: db9e f9be 60fc 21be 19af 27be ec99 4c3e
00000290: 43a8 ec3e 91fc d83d 27cf 523d 14ed 703e
000002a0: 99ca ef3e 208f c93e 92a4 9c3e f723 0abe
000002b0: 45e2 903d 68a2 bebd 88ed b2bd d0e0 693d
000002c0: ea05 13be 28d8 6b3e 07ac 533e 5a8d d23e
000002d0: 89e3 983e 7df5 ca3e ae31 d53e ff9d 093e
000002e0: 26b3 b73e a7e0 333f 3a70 03bc 56cf 1dbe
000002f0: 4925 b0be 12ef c7bd 751c 2ebe d986 b3bc
00000300: 8e79 9fbd 0ede a7bd cf7a 263d d2c2 103e
00000310: 2ae2 853d bf89 273e 4908 413e 20c3 473e
00000320: 5245 323d 0fb1 b53e b9fd 0a3e 0d73 9b3c
00000330: 49ec 7abd f893 bcbe c981 dcbe 35f7 99be
00000340: a865 e1be a39f d5bd 7334 66bd 14f5 243e
00000350: 9f4c 02be 944c 75be 63ad 69be 6559 2b3c
00000360: 37a8 443e 3b9f 053e b8a2 543e dcb6 82be
00000370: 3a42 eabd 25ca e2bd f02e 8c3c 87ff 6c3e
00000380: 03a7 873d 4dcb 3b3e 9009 783e b2af 95be
00000390: d72a 04be 922d 2d3e 347d e03d 611e 5cbe
000003a0: 1a3e 143e 4d5f da3d 8ea9 d5bd 75d6 22be
000003b0: 7c87 f4bc 2f26 0d3d cd1e 40bd 9e84 ab3c
000003c0: fcf5 8e3e f29a 9c3d d0ac 2bbe 3a36 9b3e
000003d0: 444e 313e b5de 6bbc 4492 4d3e 74f2 673e
000003e0: d095 8f3e deb9 363e bdec 423e 94b7 923e
000003f0: 851e bcbe 13ec 58be 8605 56be 1769 8cbe
