experiment_anode10_cifar_v1/model.pth (torch_old, 942619 bytes, 24 tensors)

0.weight f4 [64, 3, 3, 3]
00000000: 55d5 8d3f 51d4 353f 4fb3 8dbc 085b 7a3f
00000010: adfe 973f 7b46 4c3e beee 453f 343d 273f
00000020: a39d 013f 74f4 50bf 5502 4dbf aeb2 d9be
00000030: 20ac 78bf 5333 f4be 6788 02bf e56c 3dbf
00000040: 01ff 58bf 4f49 bebe a6aa 013d 280c a83c
00000050: bde8 a33e 70a2 1bbe 70ce 443e 345f 943e
00000060: f4e2 44be b2e3 9abe fdee d43e 239e 55bf
00000070: c636 71bf e4b1 9cbf 7730 7bbe 2e46 c0be
00000080: 1dd4 abbf d50b f93e cb33 1540 d78a be3f
00000090: 4438 8d3d d060 203d 8f3e a6bd 4c73 fbbd
000000a0: 39bd 2abe f483 9ebf 5128 60be f92e 673f
000000b0: 2830 223e 54e7 e73e 115d 093f c243 753f
000000c0: 5b20 053d 39f2 c1be bff8 58bf 6d27 30bf
000000d0: e433 ff3e 09ba 7f3e eac3 dc3e da4e bf3f
000000e0: 7969 2a3f 0963 7b3f f0ee 273f cb4d a5be
000000f0: 55fe 043f ae25 adbe 2e06 acbe 8b89 62be
00000100: 9d45 193f 193f 97be 4020 963e c816 cebe
00000110: e608 8cbf 557d 1fbe ccac 03bf eb0d 3bbe
00000120: 7432 dbbe 7130 0e3f 4f62 b43e b7a6 be3e
00000130: 9ed3 8bbe 0b1f 31bf 2285 5b3d df53 99be
00000140: 3552 333e 1113 b43e 9160 be3d 3f8c 4e3e
00000150: 9a66 fb3d 8f5d 473e 8470 9a3e 7d46 df3d
00000160: 7fe5 843e 7327 5c3e 7816 50be 42cd aabe
00000170: be37 8cbe 4c29 cbbd 9d72 bbbd 8bdf c6be
00000180: f360 30be d1f2 4a3e 7896 22be 7b12 e13e
00000190: 7e07 45bc 9682 8a3d a14e 8c3d b587 24bd
000001a0: 9ea1 d93c 8e9a 463e 714a de3e c56b a93e
000001b0: 1730 0abe 5542 493f 79eb 273e b8d4 173f
000001c0: 799f aa3e 3b24 b9be 0c2d 663e 3ff7 02bf
000001d0: cf1b 48bf d551 47be 1829 363e 365c 95be
000001e0: 7652 013d be01 eabc b23b 33bf 5dd5 a1be
000001f0: 1e2c ebbe ffa7 31bf 2117 6e3e 7a41 353e
00000200: 766c d5bc 35ea 3d3f febc c93b 975d 44bf
00000210: 08cc 963e f8a1 0dbf a907 f4be 0c46 23be
00000220: ba57 2dbe 6d5b a33c bd7c 5ebe 14fc ce3d
00000230: 5c07 a53e d91b febd 0c92 43be e33e b73d
00000240: a24d f2be a57c 87be 59a8 c7be 27f4 98be
00000250: c21f 8abe 7054 4ebe 4ed3 9fbe fbf2 22be
00000260: 4035 013c 6e03 a1be 7a91 dd3d 2af2 993b
00000270: 42fe 983d 5051 503e 3e80 363d 0597 6bbd
00000280: 86fe 103e 2b17 b83d 5843 c53f 550d f03e
00000290: bf8a ca3e 3484 6b3e 3e18 a83e a0ec 17be
000002a0: b0f3 783e 1c6f 8e3d e044 c6bf c8ba d73e
000002b0: c336 65bf 7c58 71bd 31ba 06bf a150 063d
000002c0: 0b6d 213f 0887 97bd 62b2 ad3e 0833 07bf
000002d0: dea2 56bf 3df5 c9bf bf6e 81be 5884 aebf
000002e0: ec29 9abb dc15 a93f 23e9 d13e df08 b83f
000002f0: 5a0e 4c3f 7e2b d4be 7bd6 743f 8d23 cbbe
00000300: 1bbb 15bf 7121 44bf b062 bf3f c341 d63f
00000310: 54a0 63bf 69a7 69bf 9e9d 4abe f56e 053f
00000320: c787 413d 0102 1abf 6b0e cebf 68ab de3f
00000330: 3694 e13f cff8 b8bf 38fe 6dbe bce9 0fbf
00000340: 2d73 403f e514 613e f537 90bf 336a 77bf
00000350: 9136 0040 41c1 9f3f 8afb afbf de7e 24be
00000360: a61e 713e 4425 f93e f300 cf3e 77b8 7d3f
00000370: 8478 2f3f 3f81 bf3e 4616 cd3f ed9c 9e3f
00000380: ade8 013f 4695 81be 1400 32bb 586b 863d
00000390: b017 06be ff58 f5bd 0757 3dbe 56ac 903d
000003a0: 222e 21bf fe48 adbe f7de 2ebf 99a7 ddbe
000003b0: 31a2 21be 17a5 9bbe a8b4 37bf 41e1 5fbf
000003c0: 38df 8abf 5ea4 d0bf e2a4 c6bf bb96 8bbe
000003d0: c0c7 373f 2827 20bf ae0d d5be 64df b13f
000003e0: 45f6 74bf f7c7 eabe 7b2a 853f 4ee4 b4be
000003f0: 0c00 86be 8c5f 853f c876 60bf cdca 34bf
1.1080729 0.71027094 -0.017297415 0.9779515 1.1874596 0.19948761 0.77317417 0.65327764
0.5063116 -0.81623006 -0.80081683 -0.42519134 -0.9713764 -0.47695407 -0.50989383 -0.73994285
-0.84764105 -0.37165305 0.031656884 0.020513609 0.32013503 -0.15198684 0.19219375 0.28978884
-0.19227201 -0.30251843 0.41588584 -0.8344442 -0.942242 -1.2241788 -0.24530207 -0.37553543
-1.3424107 0.4864184 2.3312862 1.488612 0.068954974 0.039154828 -0.08117401 -0.122778505
-0.16673745 -1.2384019 -0.2189038 0.9030605 0.15838683 0.45293677 0.53657633 0.95806515
0.03250156 -0.37880114 -0.84754556 -0.6881016 0.49844277 0.2497331 0.4311822 1.4945939
0.6656719 0.9819799 0.65598965 -0.32285914 0.5195058 -0.3381781 -0.33598465 -0.22122781
0.59871846 -0.29540327 0.2932148 -0.40251756 -1.0940216 -0.15575154 -0.5143554 -0.18267028
-0.4281193 0.55542666 0.35231254 0.37236568 -0.2730989 -0.6918799 0.053593762 -0.299468
0.17511828 0.35170797 0.09295762 0.20170687 0.12275429 0.19469284 0.30163968 0.109021164
0.25956342 0.21499424 -0.20321071 -0.33359724 -0.27386278 -0.09919986 -0.0915272 -0.38842425
-0.17224483 0.1981919 -0.15877712 0.43959412 -0.012025712 0.067631885 0.06850935 -0.040168483
0.026566323 0.19394895 0.4341617 0.33090034 -0.13494907 0.7861684 0.1639842 0.5930896
0.33324793 -0.36160454 0.22478122 -0.5115852 -0.7816743 -0.1946481 0.17789114 -0.29171914
0.03157278 -0.028565284 -0.7001296 -0.31608096 -0.45932096 -0.69396967 0.2325101 0.17700759
-0.026052695 0.74185497 0.006156563 -0.76705307 0.29452538 -0.5532527 -0.47662094 -0.1594469
-0.16927996 0.019941056 -0.21727271 0.10106674 0.32232177 -0.12407655 -0.19098681 0.089475416
-0.47324854 -0.26462284 -0.38995627 -0.29873773 -0.26977354 -0.20149398 -0.312159 -0.15913002
0.007886231 -0.3144793 0.10818763 0.0046980577 0.07470371 0.20343518 0.044555895 -0.05751707
0.14159593 0.08988794 1.5411177 0.46885172 0.3955898 0.2299965 0.32830995 -0.14836359
0.2431171 0.06954786 -1.5489769 0.4213469 -0.89536685 -0.058922276 -0.52627856 0.032791737
0.6305701 -0.07398802 0.33925158 -0.5281224 -0.83842266 -1.5777966 -0.25279805 -1.3634138
-0.0047047045 1.3209796 0.40998182 1.4377707 0.797094 -0.41439432 0.9563977 -0.3967556
-0.58488625 -0.7661353 1.4951992 1.6738819 -0.88916516 -0.9127107 -0.19786689 0.5212243
0.047248628 -0.6015931 -1.609815 1.7396059 1.7623355 -1.445093 -0.23241508 -0.56216025
0.75175744 0.21980627 -1.1267077 -0.9664642 2.0033305 1.2480851 -1.3748639 -0.16064021
0.23546848 0.48661244 0.40430412 0.99109596 0.6854327 0.37403294 1.6022422 1.239164
0.5074566 -0.253092 -0.002716069 0.06563443 -0.13094974 -0.11979865 -0.1849023 0.070641205
-0.6296102 -0.3384475 -0.6830897 -0.4329193 -0.15784527 -0.3039939 -0.71760035 -0.87453085
-1.0849371 -1.6300161 -1.5519068 -0.27263436 0.7178917 -0.6255975 -0.41612 1.3896298
-0.9568828 -0.45855686 1.0403589 -0.35330433 -0.2617191 1.0419784 -0.87681246 -0.7062195

0.bias f4 [64]
00000000: 6870 c53d 5377 233e 41fc ffbd 121d d5bd
00000010: 5c1a 0cbe 7faa 9f3d 7d0f 22be 87ab ae3d
00000020: 2a7f 2dbd 0b70 47bc 9d21 37be 8140 4d3d
00000030: 1d7b c3bc 61f6 d5bd d2c6 0ebe 1182 06be
00000040: 1278 a23d b714 0ebe be46 1abe 42c3 ee3d
00000050: bf75 b2bd 468f 41bd bf26 293e e5c2 0a3e
00000060: b539 573d 2e81 7e3c 422c e1bd 88d5 a23d
00000070: a60b 613d de86 443e 523e f7bd df13 0bbd
00000080: 9ae0 133d 0f6a a7bd 89d4 253e 07f9 b33d
00000090: bc90 3bbe 3999 09be fbf0 6e3d 483f 273e
000000a0: 508f 0fbc 8658 24be 43e0 9cbd a25e 3bbd
000000b0: 21f8 2b3e b682 f1bd 20bf ba3d 79e5 c7bd
000000c0: f5f2 b9bd a168 1fbe 73e5 2fbe ddc5 89bb
000000d0: 9b84 0f3e 0ae6 79bd 24e5 163c 3cf9 f0bc
000000e0: 18a4 9abd 51dc e3bd 4971 efbd d1a1 013e
000000f0: 9388 c8bd 0e77 2f3e a3ec 80bd 327e 74b8
0.096405804 0.15963487 -0.124992855 -0.10405935 -0.1368193 0.077961914 -0.15826221 0.0852881
-0.0423576 -0.012172709 -0.17883916 0.050110344 -0.023862416 -0.10447384 -0.13943031 -0.13135554
0.07933058 -0.1387509 -0.15066049 0.11658336 -0.087138645 -0.047255777 0.16518687 0.13550909
0.052545268 0.0155337285 -0.1099477 0.07950884 0.05494275 0.19192073 -0.120724335 -0.033954497
0.03610287 -0.08174526 0.16194357 0.087877326 -0.1831693 -0.13437356 0.058335286 0.16332734
-0.008762196 -0.16049394 -0.07659962 -0.045744546 0.16793872 -0.11792509 0.091184855 -0.09760565
-0.090795435 -0.15567257 -0.17177372 -0.0042044953 0.14015429 -0.061010398 0.009209905 -0.02941572
-0.0755083 -0.111260064 -0.11691529 0.12659384 -0.097916745 0.1713526 -0.06295135 -5.8291662e-05

1.weight f4 [64]
00000000: 8182 9c3f ad75 0040 b773 8f3f d64e b03f
00000010: 3add eb3f 99fa b63f 3104 e53f d5e6 fe3f
00000020: e64b 0440 248c f03f 1925 e93f 59e2 9b3f
00000030: f382 a23f 45f0 d73f f766 9a3f 2cce bb3f
00000040: 6747 b63f 4d8c d33f 09eb bd3f 4ce1 883f
00000050: 4d83 ed3f 6a36 ca3f b727 8e3f beea b93f
00000060: dcfb 3e3f a23b aa3f d477 b23f 3ae3 d53f
00000070: 4208 d43f 3f00 ad3f 218b 803f b7e2 b73f
00000080: 2070 dc3f 34ca 3840 5038 903f b920 8e3f
00000090: 5279 c23f 1bed aa3f 4f5e d83f ade1 8e3f
000000a0: e982 823f 4258 cc3f 9594 d93f 76d1 fe3f
000000b0: b322 903f 140a c93f 941e 9e3f e990 863f
000000c0: d8e6 b33f 80ac e93f ba45 b73f c40f 9c3f
000000d0: 13c0 bc3f 1cd0 b33f 127d dc3f 315f 1d40
000000e0: f4ad cb3f db03 f73f f241 c03f 4522 c73f
000000f0: bc34 bd3f e7f1 e93f af14 a33f c137 a73f
1.2227327 2.0071824 1.1207188 1.3774059 1.8426888 1.4295226 1.7891904 1.9914194
2.0671325 1.8792768 1.8214446 1.2178451 1.2696213 1.68702 1.2062672 1.4672294
1.424054 1.6527191 1.4837352 1.0693755 1.8555695 1.5797856 1.110587 1.4524763
0.74603057 1.3299448 1.3942819 1.6709969 1.656502 1.35157 1.0042459 1.4366063
1.7221718 2.8873415 1.1267185 1.1103736 1.5193274 1.3353609 1.6903781 1.1162621
1.0196201 1.5964434 1.6998469 1.9907672 1.1260589 1.5706201 1.2353082 1.0512973
1.4054823 1.8255768 1.4318154 1.2192311 1.4746116 1.4047885 1.7225668 2.458935
1.5912461 1.9298052 1.5020125 1.5557333 1.4781718 1.8276948 1.2740687 1.306389

1.bias f4 [64]
00000000: eabd a3be fcde cbbe 8876 c43e 5929 93bf
00000010: 8943 97bf 09be 74bf 5ffb 4fbf 8397 b53f
00000020: baf1 93bf 7416 32bd aaed 603f 2665 25be
00000030: a619 2bbe 797b 00bf 0e91 0f3e 1278 04bf
00000040: f0b0 78be a516 2e3f 290d c03e d75c 0fbf
00000050: c1f6 6dbe 8d1b 76be 5dbd 333f 354d edbe
00000060: 0ba2 733f e055 143e f305 813e a421 b2be
00000070: 6fb1 6abf 4b9f 823f 35ee 463f 9d23 0fbf
00000080: 134d e2be e08c c1be cd12 edbd c84e 5ebf
00000090: 1830 7bbe 3816 c93e 204d c6be fc79 353f
000000a0: 63d4 413f ec4b 4cbd 8e2c 43bf 08a4 14be
000000b0: 1f46 513f 7642 f8be 0085 61bf 9b55 693f
000000c0: 02bf 0abf 92d6 b5be ba11 b63f e65c c83e
000000d0: 9e96 49bf 77da 6e3f 4142 a0be f244 20be
000000e0: 2367 98be fe14 08be 2515 17bf 2bf7 b23f
000000f0: bdfe d5be 9326 75bf b718 6abd 5f63 a83e
-0.3198083 -0.3981856 0.38371682 -1.1496993 -1.1817485 -0.9560247 -0.81242937 1.4186863
-1.1558144 -0.043478444 0.87862647 -0.16151866 -0.16709003 -0.50188404 0.14020178 -0.5174571
-0.24286246 0.680033 0.3751004 -0.5600104 -0.2323866 -0.24033947 0.7021082 -0.46347967
0.9516913 0.14485884 0.2519985 -0.3479129 -0.9167699 1.0204862 0.77707225 -0.55913717
-0.44199428 -0.37802792 -0.115758516 -0.8683896 -0.24530065 0.39274764 -0.38730717 0.7088926
0.757147 -0.049877092 -0.7623986 -0.14515698 0.8174762 -0.48488206 -0.88093567 0.9114625
-0.54197705 -0.35515267 1.422416 0.39133376 -0.7874545 0.933021 -0.31300548 -0.156513
-0.29766187 -0.13289258 -0.5901664 1.398168 -0.41795912 -0.95761985 -0.057152476 0.32888314

3.weight f4 [64, 64, 4, 4]
00000000: 6f5b dabd 3652 07be b134 64bd 0909 18bd
00000010: 3914 07be b0e6 17bd a078 943c 0968 b73d
00000020: b143 d9bd 7f59 3dbd 94f7 a8bb feb4 5dbd
00000030: 1e43 17bd a2e7 973b 61c9 3d3b 8b7d bf3c
00000040: 492d 343b b3ee 913d 8c41 c03d 35fd 7b3d
00000050: daa6 99bd 475f f5bc 8956 99bc 9abc 16be
00000060: e14a eebd 378d c3bd e6a5 aabc 7f7c 0ebe
00000070: 6644 123d 2455 b83c d3f9 383d acf0 34bd
00000080: 0a5e 70be 13f2 033e 0e3a a13e d579 7d3e
00000090: c1a8 833e 5f14 d43e 54d6 cf3e 5b4f 8d3e
000000a0: f2a0 553e 8255 393e df29 733e 5d2d 583a
000000b0: a24b d73d 5d4c 0c3e 1e27 1e3e e6a9 03be
000000c0: 8e0d 2dbd a3a2 4ebd ead2 adbd 7513 01be
000000d0: 21b0 483d eab1 383d 18f8 b23c 4ac8 c53c
000000e0: 9dfa 54bc e59f ddbc 5ee0 49bd 90a6 cd3c
000000f0: e83f bcbd ddc1 f2bd 67ae 00be 18a6 efbc
00000100: e650 18be 3303 e2bd f21d fdbd ba77 a3bd
00000110: bf4a 183d 34df f7ba c2c7 cd3c ab5c 333d
00000120: d045 563d 4b05 863d 14a4 353e be00 f43d
00000130: 65ac 043e c75b 163e d251 693e 3dc1 4c3d
00000140: 641b e13d 9f58 df3d d6ba 6a3d 3dfd 6cbd
00000150: 6428 963d 30e7 e33d 880c 21bd 2d83 abbd
00000160: 3121 f93c 62f6 a83d 4788 323d dea9 1abd
00000170: f207 d03d 6f4c 0f3e f0da 753d f0cf a53d
00000180: b9b0 143e 69ca 003e 5140 873d f023 923c
00000190: 51bf ee3d ff3e 82bd 813c 1b3d e1d1 223d
000001a0: 932d a4bd 835a 5dbd 021f cdbd 854f b5bb
000001b0: 4897 0dbe bbcd 3abe 9de6 4dbd fff6 65bd
000001c0: 2ffb 013e 8310 393e b3d5 e1bd c116 8dbe
000001d0: 6dd2 423e 2da9 bfbd 8b99 08bd e472 4bbe
000001e0: 3858 6ebe 24d3 b0be 9fa8 2ebe a7e7 ffbd
000001f0: ed4d 33bd e284 89be 92b1 f43a 5ebf 773c
00000200: 4f3c 063e 0720 f33d 2970 053e 1224 0e3e
00000210: 5dab 2d3e 9dfd 2f3e ffef 783e cf0a 603e
00000220: d940 073e 34ee 4f3e bd88 893e 2a63 0e3e
00000230: aa37 003e 3b2f 183e be93 133e 0c0c 73bd
00000240: cdc4 92bc 4a42 b9bd d4da 86be 1248 b2be
00000250: eb04 0a3e 05d1 20be 64a4 99be fbf4 c8be
00000260: 6596 babb 1f9c 5fbe e831 80be dfe5 5cbe
00000270: acf8 2ebe 6dee 38be 608e 3dbe ee7f ecbd
00000280: e407 84be ea1c 863d 9c11 723e 7faa 843e
00000290: 6397 5d3e 8681 9c3e 2d1c b63e 3c13 653e
000002a0: 04fe ca3e 5675 b53e a96e 513e 6c89 85be
000002b0: a464 a43e f3ab 323e c27f 4fbe 7b16 0dbf
000002c0: f491 8abe a3c7 87be 6055 05be d532 c8bd
000002d0: 0745 ecbc 1549 8fbc d38b 15be 6ed4 6fbe
000002e0: 1211 3d3d 8bd9 90bd 466d 8bbe 486d 64be
000002f0: 2289 9ebd b5b0 27be 2ba1 b6bd 7070 e6bd
00000300: 524a d2bd b832 86bc cae7 403e 6deb 9f3e
00000310: 0d81 e5bd 6fdd ed3d 23e9 253d f68a c33c
00000320: 8ea5 11be 336a fa3b 9186 63bd 2fd8 07be
00000330: 26f8 493d 7c8a 873d 063e 1a3d 5c9e d1bd
00000340: 07cb 95be 845a 76be 2cc9 50be 1ee0 3fbe
00000350: 9eb5 c7bd b0c7 2e3d 2c79 aebc d725 9b3c
00000360: ddfc 93bd caa4 70bc a6e4 20be e1c3 4dbd
00000370: 03ad c639 9183 3fbd b252 d3bd e80e b1bd
00000380: 2d77 023e 8163 53bc 0cbc 43be 5ab4 a8be
00000390: 4faa a7bd e54d 12be 79b6 44be af71 26be
000003a0: 8d29 9cbd eb6d dabd 72df 063c f7b8 c33b
000003b0: 0c5a 29be 1e77 45bd c353 de3d ffd3 e53d
000003c0: 0ed1 b43c 630a fa3d 18e4 963d 6448 b9bc
000003d0: 6171 b53d d8ea 8c3d 90b5 74bd 565f 9dbd
000003e0: 5302 03bd 49f1 c2bd b698 1dbe 50c4 20be
000003f0: 7028 71bc 70fd 0ebd 88dc 7abd 2f16 ccbc
-0.10661971 -0.13214955 -0.055714313 -0.03711799 -0.13191308 -0.037085235 0.018123925 0.0895539
-0.10608614 -0.04622793 -0.0051564667 -0.054127686 -0.036929242 0.004635767 0.0028959143 0.023375293
0.0027492812 0.071256064 0.09387502 0.061520774 -0.075025275 -0.029952658 -0.018718021 -0.14720383
-0.11635376 -0.09548419 -0.02083106 -0.13914679 0.03570976 0.022501536 0.045160126 -0.044174835
-0.23473373 0.12885313 0.31489605 0.24753506 0.25714687 0.41421792 0.40593207 0.27599606
0.20862177 0.18099025 0.23746441 0.0008246506 0.10512473 0.13701005 0.1544461 -0.1285778
-0.042249255 -0.05044807 -0.08487494 -0.12605079 0.048996095 0.045091547 0.021846816 0.024143357
-0.012999204 -0.027053783 -0.04928624 0.025103837 -0.09191877 -0.11853383 -0.12566529 -0.029254004
-0.1487461 -0.110357665 -0.12359227 -0.079818204 0.03718066 -0.0018911124 0.025119666 0.043789547
0.052312672 0.06543978 0.17738372 0.11914204 0.12956388 0.14683448 0.22785118 0.049988974
0.109915525 0.10905575 0.057307087 -0.057858694 0.07331923 0.1112808 -0.03931859 -0.08374629
0.030411335 0.08250119 0.043586995 -0.037759654 0.101577654 0.13994001 0.06002325 0.080963016
0.1452054 0.12577213 0.06604064 0.017839402 0.116575845 -0.06359672 0.037899498 0.039750937
-0.08016505 -0.054041397 -0.1001568 -0.005533161 -0.1382724 -0.18242542 -0.050268758 -0.056143757
0.12693475 0.18072705 -0.11027088 -0.27556422 0.19025584 -0.093584396 -0.033349555 -0.19868046
-0.2327584 -0.34536088 -0.17056511 -0.12495356 -0.043775488 -0.26859194 0.0018668643 0.015121309
0.13108943 0.11871343 0.13031067 0.13880947 0.16959901 0.1718659 0.24310301 0.21879123
0.13208331 0.20305711 0.26862136 0.13905016 0.12521234 0.14861767 0.14411828 -0.05933766
-0.017916108 -0.09045847 -0.26338828 -0.3482061 0.13478439 -0.15704735 -0.30008233 -0.39249405
-0.005694198 -0.21836899 -0.25038075 -0.21572064 -0.17087048 -0.18059702 -0.18511343 -0.11547838
-0.2578727 0.06548484 0.2363953 0.25911328 0.2163978 0.3056757 0.3556837 0.22370619
0.39646924 0.35441083 0.2045237 -0.26081407 0.32108033 0.17448406 -0.2026358 -0.5511243
-0.27064478 -0.26519498 -0.13020849 -0.097753204 -0.028841509 -0.017490903 -0.1460412 -0.23420879
0.046158858 -0.07072743 -0.27231807 -0.22307312 -0.07741 -0.16376002 -0.08917459 -0.112519145
-0.10268082 -0.016381606 0.1883842 0.31234303 -0.11206255 0.11614501 0.04050554 0.023869973
-0.1422331 0.0076420545 -0.055548254 -0.13266061 0.04930892 0.06618211 0.037656806 -0.10235283
-0.2925646 -0.24057966 -0.20389241 -0.18737838 -0.097514376 0.042670906 -0.021298014 0.018938942
-0.07225964 -0.014687726 -0.15712222 -0.050235633 0.00037894407 -0.04675633 -0.10318507 -0.08645421
0.12740774 -0.012902142 -0.19114703 -0.32950097 -0.08186781 -0.14287527 -0.19210233 -0.16254304
-0.07625113 -0.106654964 0.008231984 0.0059729773 -0.16538256 -0.048209302 0.1085582 0.11222076
0.022072341 0.12209012 0.07367724 -0.022617526 0.08859516 0.068807304 -0.059743464 -0.076841995
-0.03198464 -0.09518678 -0.15390286 -0.15699887 -0.014719114 -0.034909666 -0.06124547 -0.024912922

3.bias f4 [64]
00000000: 49df 65bc 7b27 543c 1f05 bcbc 115f 8abb
00000010: 1d56 f539 4671 67bc 7942 4e3c 9446 f9bc
00000020: a246 3a3b f3ae d33c 76e9 f5bc 47ae a23c
00000030: d22a 873c d8fc d8bc f250 a13c f400 ac3c
00000040: 96d6 f43c 5869 dcbc 020d ef3c c425 fdbb
00000050: 5bae c2bc e5ca dcbc 8edc b7bc 3f7f ebbc
00000060: 874f e73b 889d fb3b a1d3 253c 36bf 773c
00000070: c0ef da3c 0238 fd3c a607 c9bc a82b 893b
00000080: 5b18 df3c 8b7d babc 726b 893b 6ddc 933c
00000090: e282 debc 5591 f2bb 76c9 57bc ceae a3bc
000000a0: de20 953c 2152 54ba 108e 97bc a0a9 bb3c
000000b0: 8e5e b83c ad3c b23a 9c53 b03c ad3e c53c
000000c0: c2e0 28bc 1634 1d3c ae8a 683c 06e1 eabc
000000d0: 5194 a83c 6572 20bc 3976 233c 93cb 803c
000000e0: 52a2 e13c 0bbd e5bc 4132 61bc 5aa5 283b
000000f0: 67cd 373b 4f2c a23b d51d 243c 7dd0 b03c
-0.014030286 0.012948866 -0.02295166 -0.0042227586 0.000467942 -0.014126128 0.0125890905 -0.030429162
0.0028423448 0.025840258 -0.03001855 0.019858493 0.01649991 -0.026487753 0.019691918 0.020996548
0.029887479 -0.0269057 0.029181007 -0.0077254493 -0.02376478 -0.026952216 -0.022444036 -0.0287472
0.007059041 0.0076786913 0.010121257 0.015121272 0.02672565 0.030910496 -0.02453978 0.0041861124
0.027233293 -0.022764942 0.0041937167 0.018049443 -0.02716202 -0.007402579 -0.013170591 -0.019980814
0.018204149 -0.00080993964 -0.018500358 0.022908032 0.022506025 0.0013598405 0.021524243 0.024077738
-0.010307493 0.009594938 0.01419322 -0.028671753 0.020578535 -0.009792899 0.009976917 0.015722072
0.02754322 -0.028044244 -0.013744892 0.0025733323 0.0028046013 0.0049491297 0.010016878 0.02158379

4.weight f4 [64]
00000000: 86ff 723f c2be 4c3f d5ac 973f 1628 623f
00000010: b024 533f 72a6 803f 81df a23f e857 3b3f
00000020: a75b 3f3f ec9a 563f 7e08 853f 5272 a93f
00000030: c955 103f 0aa8 833f eddc 223f 0d70 623f
00000040: b7e7 8b3f f3c0 623f c9a7 323f 52c9 a53f
00000050: 44f9 483f 2d5e 2a3f abac 8b3f 7cd3 853f
00000060: 4f69 353f 5d55 133f a2be 703f f74e 343f
00000070: 7bea 843f b411 633f 9e5f a33f 3818 1b3f
00000080: 31c0 2c3f 576d 623f 2c77 843f b780 963e
00000090: f02b 8a3f 3914 543f b740 683f 1b50 a23f
000000a0: 7e25 4a3f 2d13 6d3f 8789 413f b639 3f3f
000000b0: 77ab 943f e77c 8c3f e5c0 483f 6e7f 773f
000000c0: 1158 903f 8eff 9f3f c290 343f 6f78 6e3f
000000d0: 2cd6 9e3f 017e 3f3f 299b 853f 847e 643f
000000e0: aeb7 423f c817 b33f 7ee9 a33f b7ff 0e3f
000000f0: 2e50 233f c39c d43f 56dd 473f bac4 2c3f
0.9492115 0.79978573 1.1849619 0.88342416 0.82477856 1.0050795 1.2724458 0.7318101
0.74749225 0.8383014 1.0393217 1.3238013 0.563809 1.0285656 0.63618356 0.88452226
1.0930089 0.8857567 0.6978727 1.2952063 0.7850535 0.6654995 1.0912069 1.0455165
0.70863813 0.5755213 0.9404088 0.7043299 1.0384058 0.8869889 1.2763555 0.6058383
0.6748076 0.8844809 1.0348868 0.29395077 1.0794659 0.8284336 0.90723747 1.2680696
0.7896346 0.92607385 0.75600475 0.74697435 1.1614827 1.0975617 0.78419334 0.9667882
1.1276876 1.2499864 0.7053338 0.9315252 1.240911 0.7480164 1.0437976 0.8925555
0.7606152 1.3991632 1.2805631 0.5585894 0.6379422 1.661034 0.78072107 0.6748768

4.bias f4 [64]
00000000: 03c9 58bf 8bc4 0abf 4f2b 47bf 5a16 aabf
00000010: 8033 32bf 75a6 76bf badc 79bf 3c97 a2be
00000020: ed68 44be 2a26 02bf 81df ffbe ebaa 92bf
00000030: 2457 07be 89a6 95bf 04d9 1cbe 46af 56be
00000040: 00a2 4cbf 96e9 b2be 4a3e 1bbe cb19 55bf
00000050: c98a 9bbe 3550 76be feaa 81bf 7fe4 41bf
00000060: 6bd8 aabe c407 e5bd f288 19bf 733b 62be
00000070: dfe7 11bf 596e 1abf 3708 43bf 2020 e6be
00000080: 17ea a1be 8d49 04bf 4d1b 8dbf 3ec2 d8bf
00000090: f526 58bf e5d4 fbbc 096e 10bf e2db 9ebf
000000a0: 3112 aabe 845b 7abf 1675 babe 498a 03bf
000000b0: ec39 8bbf b619 6ebf 97cd 94be e995 f7be
000000c0: aa5f 10bf 0216 40bf b707 d8be 619a 1abf
000000d0: 5f0f 56bf cfda 31be f6f7 80bf 45b0 40bf
000000e0: e9f1 aebd ae97 9dbf e18a 8dbf 499f 92be
000000f0: 8510 84bd 3089 d5bf b995 26be 9583 ffbd
-0.8468172 -0.5420615 -0.7780046 -1.3288071 -0.6960983 -0.96347743 -0.97602427 -0.31756008
-0.19180651 -0.50839484 -0.49975207 -1.145841 -0.13216835 -1.1691447 -0.1531716 -0.20965299
-0.7993469 -0.34943837 -0.1516048 -0.8324248 -0.30379322 -0.24054034 -1.0130308 -0.7573928
-0.3336824 -0.11183122 -0.59974587 -0.2209299 -0.5699443 -0.6032463 -0.7618441 -0.44946384
-0.3162391 -0.5167473 -1.1023957 -1.6934278 -0.84434444 -0.030741164 -0.564179 -1.2410853
-0.33217004 -0.9779589 -0.36417454 -0.5138288 -1.0877051 -0.9300798 -0.29063103 -0.4835656
-0.5639597 -0.7503358 -0.42193386 -0.60391814 -0.83617204 -0.17368625 -1.0075672 -0.75268966
-0.085422345 -1.2311914 -1.1058007 -0.2863715 -0.06448463 -1.6682491 -0.16268052 -0.12476269

6.weight f4 [64, 64, 4, 4]
00000000: 84aa 45bd 5e54 23be 19a5 c3bc 7f07 003d
00000010: 37bb a83b ecee 10be dfae 31be 791f 2d3e
00000020: 7431 193d 873a 95bd 2126 5abe a11e d1bd
00000030: c9c2 0c3d aa77 8bbc 888f 3b3c 4a15 03be
00000040: 8430 003e 7a2f a43e b28f d83d da46 a93c
00000050: c608 7f3e 3028 e93d 1ce9 153e 227f 36bd
00000060: d5da cf3d 3193 6c3b 91f2 f4bd 25a7 73be
00000070: d951 84be 823a 32be bc76 87be cb20 6ebe
00000080: 4afd 60be 0ab9 e8bd c586 4b3c d7c6 c63d
00000090: b6b1 d53b ba61 33be 8b7a 57be 54ba 5dbd
000000a0: 77c1 e7bc eace e8bd 0f3a 39be 3cfd 3cbe
000000b0: 7057 f03d fa23 df3d 46df 34bd 5692 30be
000000c0: eb72 15be b958 66be 50b2 c8bd 0331 2ebb
000000d0: a9fb 77be 6a1e c2be efdc a8be 0d6f 07be
000000e0: 1900 46be cbc3 fdbe 0e05 cdbe 9b25 7dbe
000000f0: e03e 64bd 5db5 1bbe 9c54 85bd 5330 eb3c
00000100: 142d 993d d705 073e 36ec ca3d 9f6c eb3d
00000110: f67e 93be d1c2 22be 73e5 a8bb da87 063e
00000120: 18ef a1be 88bb 9bbe 97a7 f8bd f551 47bd
00000130: 46f5 42be 1620 37be d354 8abe 767f 313d
00000140: 49a1 aabe 8c08 cebc 4688 573d f4e4 5f3d
00000150: 010d 14be 2343 273e b6db 0cbe b8a1 c23c
00000160: 59b0 65bd 2c12 85bd cc7f 79be f6f7 1abe
00000170: b24a 393d f69f 22be 3eb1 dfbd 7573 73bd
00000180: 489f 43ba 1b24 5fbe e6f4 b6bd f727 3dbe
00000190: cb0c 7f3b 321a abbd 5cef a93d 9f62 d7ba
000001a0: 3fe3 af3c cdcf 03bb 6374 8a3e e230 0a3e
000001b0: 4d54 f23c ce94 adbd d899 113e ed11 773d
000001c0: 141e 9bbc 8088 43be 80fe a2bd 193f 9a3b
000001d0: 65fb debd 6748 ffbd 9bf3 6dbe 2572 b8be
000001e0: 7f0b 943e f3de 94bd acb5 f5be bcdf 22bf
000001f0: a965 7a3a feb9 4ebe 0f44 99be 3f7b 5fbe
00000200: 9d34 633d 561f 0abe 2fae a7be 17cd c8be
00000210: 27ef 123d 1021 96bd dc92 76be eaa5 4ebe
00000220: c24c a03d ce53 99bd 5638 60be 1597 50be
00000230: a498 d3be ef77 e8be 1536 04bf 7a48 88be
00000240: 006c be3d 1921 903d 448a 9c3e eb18 853e
00000250: 9e31 ec3d c55d 76bc 8e5f ba3d fa1e 213e
00000260: 7730 713d e6bb 13be 1e47 bebd e53d c9bc
00000270: 3c8a d13d 964f 87bd dd7e d8bd f749 a9bd
00000280: 424d 67bd d816 07be 9571 bfbd 8f0a 373d
00000290: 0611 d1bd 6a7a 59be 8656 87be 25e5 9ebc
000002a0: da5e c43d 9a5c e7bd 2078 9dbe 5eac 3ebe
000002b0: cf3a c43d 7345 ba3c 7bff 07be 96e2 c8be
000002c0: 5b0d 12bd ff42 6d3d 6b93 043e 5bd8 153e
000002d0: 5b56 3dbd 8c2f 76bd 37fe 2fbe 9bed 6dbe
000002e0: 1bec 23be 3a0c 30be 36c5 25be 9ef0 0ebe
000002f0: c4bd 08bd ef85 16be 935f c5bd 3f7a a23d
00000300: ea51 343e adda 5e3d dcea 01be 9f92 87be
00000310: 7bae 2a3e 9773 923d d231 98bd a5ff e4bc
00000320: ed6a 613c ec56 dc3b 3ba3 0d3d 1d9e 123e
00000330: 1021 723c 8f93 2fbe ad77 0ebe 254b 113e
00000340: 6678 48be 5386 a5be c044 6dbe 222a 21be
00000350: 94b5 d3bd 4f0d 1cbe b2c5 29be 4a20 83bd
00000360: bd98 713a 190e 30be dee6 8abe d36f 44be
00000370: 8957 123d c01b 68be 99b9 64be 5ff3 92bc
00000380: 1673 033d 8f7c bb3d 0c10 5abc 9bcd 853d
00000390: 5859 113d 5e9c 163e 2c87 a33d e28a c2bd
000003a0: 4601 d13d 4151 e43e 79ad 8e3e 17e1 c23d
000003b0: dd1b 993d 5207 973e d0d8 d23e 1c4a 103f
000003c0: 8dd2 343e c142 213e 4187 0abe 37a1 1bbb
000003d0: 27f8 133e 5740 2b3f 544e a53e 3fac 233e
000003e0: 2172 2a3c 07d7 8d3e bca3 453f 0d80 273f
000003f0: 442c 6abd c327 323d fd9d 083f f587 273f
-0.04825832 -0.15950152 -0.023882436 0.03125715 0.005149271 -0.14153641 -0.17351864 0.16906537
0.037400678 -0.07286554 -0.21303608 -0.1021092 0.03436545 -0.017024834 0.011447795 -0.1280109
0.12518507 0.32067472 0.10574283 0.020663667 0.2490569 0.11384618 0.14639705 -0.044554837
0.10149161 0.0036098475 -0.11960328 -0.2379423 -0.25843695 -0.17405131 -0.26457775 -0.23254697
-0.21971622 -0.113634184 0.012422268 0.097058944 0.006521429 -0.17517748 -0.2104284 -0.054132774
-0.028290493 -0.11367591 -0.18088554 -0.18455976 0.117354274 0.10895534 -0.044158243 -0.17243323
-0.14594619 -0.22494783 -0.097996354 -0.0026579506 -0.24217094 -0.3791383 -0.3298106 -0.13225956
-0.19335975 -0.4956344 -0.4004292 -0.24721377 -0.055724025 -0.15205903 -0.065102786 0.028709566
0.07479301 0.13185821 0.09908335 0.11495327 -0.288078 -0.15894629 -0.0051543056 0.13137761
-0.31627727 -0.30416512 -0.1214134 -0.048662145 -0.19038877 -0.17883334 -0.2701784 0.043334447
-0.33326176 -0.02515056 0.052620195 0.054661706 -0.14458086 0.16334204 -0.13755688 0.023758754
-0.05607638 -0.06497607 -0.24365157 -0.15133652 0.04523725 -0.15881333 -0.10922478 -0.05943628
-0.00074623944 -0.21791117 -0.089334294 -0.18472277 0.0038917537 -0.08354606 0.08297607 -0.001643259
0.021470664 -0.0020112873 0.2704192 0.1349521 0.029581213 -0.08475648 0.14218843 0.06031983
-0.01893524 -0.1909504 -0.07958698 0.004707229 -0.108877935 -0.124649815 -0.2323746 -0.36024585
0.2891502 -0.07269087 -0.47990167 -0.6362264 0.00095518917 -0.20188138 -0.29934737 -0.21824358
0.055470098 -0.13488516 -0.3275008 -0.3921897 0.035872605 -0.07330525 -0.2407946 -0.20180479
0.078271404 -0.074866876 -0.2189649 -0.20370133 -0.41327393 -0.45404002 -0.5164502 -0.26617795
0.09297943 0.07037563 0.30574238 0.25995573 0.11532901 -0.015037005 0.09100257 0.15734473
0.05888411 -0.14427146 -0.09290908 -0.024565646 0.10231444 -0.06606977 -0.10571072 -0.08266061
-0.056470163 -0.13192308 -0.09347836 0.044687804 -0.10208325 -0.21238104 -0.264332 -0.019396374
0.09588404 -0.11296959 -0.3075571 -0.1862044 0.09581529 0.022738194 -0.13281052 -0.3923537
-0.035657268 0.05792522 0.1294686 0.14633314 -0.046224933 -0.060103938 -0.17186819 -0.2323517
-0.16008036 -0.17192164 -0.16188511 -0.13958976 -0.0333841 -0.14699529 -0.0963737 0.07933473
0.17609373 0.054407764 -0.12687248 -0.2647905 0.16668122 0.07150953 -0.074313775 -0.027953932
0.013758403 0.006724229 0.034579497 0.14318128 0.0147783905 -0.17146133 -0.1391284 0.14188822
-0.19577178 -0.32329044 -0.23170757 -0.15738729 -0.10337368 -0.15239452 -0.16579321 -0.06402643
0.000921618 -0.17192878 -0.27129263 -0.19183283 0.03572801 -0.22666836 -0.22336425 -0.017938314
0.032092176 0.09154617 -0.01330949 0.06533357 0.035485595 0.14708087 0.07984766 -0.09499146
0.10205321 0.44593242 0.27866724 0.09515589 0.074760176 0.29497772 0.4118104 0.5636308
0.17658444 0.15748121 -0.13528158 -0.0023747215 0.14450131 0.6689505 0.32286322 0.15983675
0.010403187 0.27703115 0.77202964 0.65429765 -0.05717112 0.04349495 0.5336607 0.6544183

6.bias f4 [64]
00000000: cef5 84bc c182 b33a 4fbc c83c 7c4c 033c
00000010: 4fe5 9ebc d196 443c 7b62 a5bb 5bdc 583c
00000020: 6c2c 0b3c 73d5 283b 4f08 933c 9ab2 babc
00000030: 2864 de3c bfba 13bc 9c04 91bc db52 8b3c
00000040: 3d69 a039 d6bc 733b 0f43 b5bc d9ed 303c
00000050: eb04 67bc bd48 1b3c 52eb ff3c 4d76 0b3c
00000060: 69d7 af3c 5f2e 31bc 45b2 dd3c 84d6 053d
00000070: b0f6 653c 36ae 5b3c c098 823b 7ad1 91bc
00000080: 98f5 61bc f787 d33c 17f4 ef3c 0887 503c
00000090: 96a5 0c3b 72a9 e63b 14ed 5abb 1d7c b0bc
000000a0: 81d2 833c 328f 123c 2755 743c 1f00 c33c
000000b0: a546 24b8 c201 eabc 2067 743b 8d71 fc3c
000000c0: ef85 a73c dd94 313b e6cd 9abb fdd2 a83c
000000d0: 9e26 653c c99e a0bc 8b42 b23c 796f f9bc
000000e0: 96f4 b5bc 8d08 ee39 6a6e ae3b 5898 97bc
000000f0: a7f8 f73c 9739 1fbc 91bc e83b 85b2 82bc
-0.01623049 0.0013695584 0.024503855 0.008013841 -0.019396452 0.011998848 -0.00504714 0.013236131
0.008494478 0.0025761991 0.017948298 -0.022790242 0.027147368 -0.009016692 -0.017702393 0.017007282
0.00030595987 0.0037191412 -0.022126703 0.010798895 -0.014100294 0.009477791 0.03124014 0.008512092
0.02146502 -0.010814278 0.027062545 0.03267528 0.014035866 0.013408234 0.0039854944 -0.017800082
-0.013791464 0.025821669 0.029291196 0.012727506 0.0021461002 0.0070392424 -0.003340547 -0.021543557
0.016091587 0.008945273 0.01491288 0.023803769 -3.916644e-05 -0.028565291 0.0037292913 0.030815864
0.020449607 0.0027096786 -0.004724252 0.02060842 0.013986258 -0.019606965 0.021760246 -0.030448662
-0.022211354 0.00045401268 0.005323221 -0.01850526 0.030269934 -0.00971832 0.007102557 -0.015954265

7.odefunc.norm1.weight f4 [74]
00000000: 7b69 fd3f 2ad0 0440 39ae f43f 95e4 c93f
00000010: f2a5 f83f 89d8 0b40 055f e23f 81d4 e23f
00000020: db39 fe3f 3ab4 de3f 2fba f73f 40d2 e33f
00000030: fad4 fc3f a401 d93f 7b4d 0940 8362 f93f
00000040: 3238 0f40 e9e3 0340 27f1 fb3f 39ee b13f
00000050: e606 e13f a809 0a40 37d7 dd3f 4d5b 0f40
00000060: 3772 e33f d424 0a40 abe9 e73f 4da7 0b40
00000070: a982 0840 d71d dc3f c6de d53f 288b 0240
00000080: aaaa f03f 861b 1140 8a17 e73f c456 d93f
00000090: 3fd6 c93f d9cb e33f 7987 ed3f 3cba f33f
000000a0: 293f e83f 7782 fc3f 972e da3f 6def bb3f
000000b0: 44be e03f 36af 0e40 27e4 dd3f e539 c73f
000000c0: 86c0 0940 7078 f03f e3b2 e73f 295a fc3f
000000d0: 918b f13f fdb1 0840 3f34 c53f ed8d f23f
000000e0: cb67 e83f 54aa dd3f bb04 1c40 3225 1740
000000f0: 0d09 1b40 5d1e 0b40 07e8 0540 fd3f fd3f
00000100: 91e7 d83f 08f8 ef3f 9ba8 fd3f 2fbe d93f
00000110: 2c57 f53f 62fd e83f 9e27 0940 3d80 2940
00000120: e5c6 bb3f 49e8 dc3f
1.9797815 2.0752053 1.9115669 1.5772883 1.9425642 2.1850913 1.7685248 1.7721101
1.9861406 1.7398751 1.9353694 1.7798538 1.9752495 1.6953626 2.145354 1.9483188
2.237805 2.0607855 1.9682969 1.3900825 1.758023 2.1568394 1.7331303 2.2399476
1.7769231 2.1584978 1.8118185 2.1820862 2.1329749 1.7196606 1.670861 2.0397434
1.8802083 2.267305 1.8054059 1.6979604 1.5768508 1.7796584 1.8556968 1.9041209
1.8144275 1.9727315 1.7045468 1.4682442 1.7558064 2.229444 1.7335252 1.5564543
2.1523757 1.8786755 1.8101467 1.9715015 1.8870717 2.1358635 1.5406569 1.8949562
1.8156675 1.7317605 2.4377887 2.3616452 2.4224274 2.1737282 2.0922868 1.9785153
1.6945668 1.8747568 1.9817079 1.7011164 1.9167228 1.8202326 2.143043 2.648452
1.4670073 1.7258388

7.odefunc.norm1.bias f4 [74]
00000000: 79e9 4c3d 70e0 72bf 1f03 19bf b58e 06bf
00000010: cba5 ed3d 986f bfbe c84c a4be 7c2d d63c
00000020: e000 9cbe d8ef 73be 9e18 c0be 1053 ffbd
00000030: 716d 38bc 18c3 273c e0d4 4bbf 53eb 77be
00000040: 76e5 3bbf bc89 23bf 13c2 3dbf 0aa7 8bbd
00000050: 1b93 a5be 9f62 29bf e44c e63e 39ba 71bf
00000060: b319 043b 124c 6fbf 2c82 9ebd 1488 7dbf
00000070: ad39 39bf 75e2 a6be c93b aebe 51f8 4dbf
00000080: 2123 ad3c a8c0 43bf 331e 0abf 73c9 bd3d
00000090: 1be5 cd3d 0795 06be 3679 773d 66e4 ccbe
000000a0: f204 00bf 43b6 9bbe cf58 c1be ace6 013e
000000b0: ee9a acbd 0c64 3b3e 8ecb 5e3d 510c 67be
000000c0: bb68 86bf 5f43 24bf 87f5 f4be 4ee8 10bf
000000d0: 77f3 afbd 5565 0dbf d491 023e 5822 d8bc
000000e0: 6032 afbd ee02 f7bd 1082 93bf ec61 90be
000000f0: 307f a7bc c8a8 6a3e 0dff 1ebf 4bf3 86be
00000100: 931b a33d 5002 63bf 1304 1dbe 6d6d 2bbf
00000110: 0227 873d a681 4ebf 99a4 d73e de85 40be
00000120: 8f49 00bf 491c 06bf
0.050027344 -0.94873714 -0.5977039 -0.52561504 0.11603888 -0.37389827 -0.3208983 0.026144736
-0.30469418 -0.23821962 -0.3751878 -0.12467015 -0.011256562 0.010239385 -0.79621696 -0.24210863
-0.73397005 -0.6388204 -0.7412426 -0.068189695 -0.32338795 -0.6616611 0.44980538 -0.9442478
0.002015692 -0.9347545 -0.07739672 -0.99035764 -0.7235363 -0.32594648 -0.34029987 -0.80457026
0.021134915 -0.76465845 -0.5395233 0.09266939 0.10053464 -0.13142787 0.06041833 -0.40018004
-0.50007546 -0.30412492 -0.37763068 0.1268565 -0.08427988 0.18299884 0.054393344 -0.22563292
-1.0500711 -0.641653 -0.47843572 -0.5660447 -0.08591359 -0.55232745 0.12750942 -0.026383564
-0.0855453 -0.12061106 -1.1524067 -0.28199708 -0.02044639 0.22915947 -0.62107927 -0.26357493
0.07964244 -0.88675404 -0.15333585 -0.66963845 0.06599237 -0.8066658 0.42117766 -0.18801066
-0.5011224 -0.5238691

7.odefunc.conv1._layer.weight f4 [74, 75, 3, 3]
00000000: 964d 0d3d 62cd fa3b 08ca 443d 2b16 ab3c
00000010: b87e ab3c cfb3 c9bc f002 5e3b 3709 793a
00000020: 5245 0dbe 74ea dcbd 18f7 2b3e 3150 553e
00000030: ffe9 bb3d c57e c73c 67bc 653a ef6f 893d
00000040: 964b 3abd 5dde 40be c155 1e3f 34ea 31be
00000050: cdd8 ebbc c8cd 1fbd bd56 cebd 12d8 bdbd
00000060: bf17 5cbe e6a0 b9be eeea a1be d59d e1be
00000070: 33b3 19bd d94f 5dbd 4ef2 f4bd 150e e6be
00000080: 464c 413e ad33 8f3e 88e0 973e 8464 a83e
00000090: b71b 5d3c a9f7 b4be 3ed7 50bd 2501 64bc
000000a0: 1a66 95be dabb 87bc c90d 11be 1a14 40be
000000b0: f2e3 4b3d 5b15 e03d c13c 303e 36d9 aebe
000000c0: 5157 853e 4eef 5e3e d518 333e 2fed 953e
000000d0: 7e6a 51be a723 15bb 884b 36bc d7e2 0b3d
000000e0: 22a8 143e ec00 71bd 8cc4 44be f8e6 89bd
000000f0: 2304 423d d125 a3bd 58cf dbbd ac03 323e
00000100: 347a 46be 9954 263e 6e32 403d 3ebb 5b3e
00000110: d6a1 96bd 08b8 94bc 0a14 a53d a0c7 7b3d
00000120: 1cf1 d2bd 21c1 733e 515b c3bc 9e79 d53c
00000130: a8dd f23e dca9 903c 488b 5fbd 09e3 a13e
00000140: 2d80 863c 61d2 d63e d623 6e3e 4ea4 6fbe
00000150: 7394 623e 5294 6d3e e0c1 f9be c945 20bd
00000160: fe19 e0bc e382 f6bc 7db7 dabd b3fb debd
00000170: f5b4 32bd 71f1 223e 7f2a 0bbf dec8 66bd
00000180: caa9 c83e dfe4 26bd f9ac 58be 4842 483e
00000190: 7dca 403d bf05 9e3e 2f6a 1abe 50ec 3dbe
000001a0: 3fe9 91be 9b98 d4be d0a0 b4bd 7707 a0be
000001b0: 6225 e9be 4572 933e f99d 5e3e 8010 afbe
000001c0: 8d71 193f a176 023f adc5 93bd 419e d7be
000001d0: 271e c1be 3e9a 6d3e 427c d93e 3bb4 763e
000001e0: 7a3b af3d a189 a93d a1a7 d43e 23cd ec3d
000001f0: 2549 963e 48e0 343e 634c 04bd 6329 c6be
00000200: 5e70 043d c835 f83c 313e 5dbd 581f 183e
00000210: ce8d 1dbe cbfc 643d 7d70 18be e6d2 79be
00000220: 4695 ed3b 9548 453e 9120 6b3d df1e 863e
00000230: fc0a fabd c5de acbd ee88 4cbe c83c 21bf
00000240: 0a38 cdbe 92ce c73c e716 a53e c1e1 913e
00000250: 4232 c03e 3422 d93d 0b8d 353e 4858 f2bd
00000260: a285 93be 6d1f 2cbe 784c 0ebe 5d65 5abe
00000270: 32b9 85be bc00 26be f341 93bd e68c d4be
00000280: 1f95 61be cb21 55bd e176 88be bd0a 5bbc
00000290: d716 933d f017 35bf e42b 59bd 3b5b b03d
000002a0: 1592 32be 588f 1ebe b7dd 99be 65c8 80bc
000002b0: c36f 6cbe c86e b2bd 88f6 d33c 4d4d a6be
000002c0: 3a0d 6f3e 96ff 6b3e 7406 5c3d d4ea e33d
000002d0: cb5d b43e e9dc 063e 260b 083e f273 133e
000002e0: 379e 58be 944a 8b3e ef35 483d 9fbe 14be
000002f0: 04ef b73c 497f 27be 828a 2cbd b264 9b3e
00000300: 3e0e b1be 4ab9 6c3e 7d7e 39bd b879 cdbe
00000310: 401b 603e 142d e53d 1e3c 633d eb60 073e
00000320: efa9 723e 1235 9b3d cfbf 253d 34e3 2c3e
00000330: 5a1b 3c3e 76b3 f9bd ed8b fcbd 35bc debc
00000340: ea16 fabc 233a 20be c6d2 8cbe 5c12 06be
00000350: c8b1 bfbd 7652 7abe b765 e1be 31b3 81be
00000360: 7c91 893e dd50 8c3d 354c 26be 1866 213d
00000370: e3ba 9cbe faf0 f9bc 1f38 6fbe 55de bcbe
00000380: 52ce 7bbe 3a54 19be c936 f5bd 9a8a 15be
00000390: be94 4d3e 1916 43be 93f2 6b3e 0403 553d
000003a0: 0ced 023d 442a 66b9 6ff5 ad3d d2a6 1d3d
000003b0: 75e3 1bbc b37d 063e 65de 133e bbf7 e4be
000003c0: d3b8 8a3e f417 89be 3386 e2bd cd0b 74be
000003d0: 9852 d03d 4b27 92ba 6ee3 1fbd 4bc2 3dbc
000003e0: cc4e 513e 2c56 3bbe 9528 32be 17d9 37be
000003f0: 8b64 723e d0cc b5be 3485 513e 2a98 48bd
0.03449782 0.007653878 0.048044235 0.020884594 0.020934448 -0.024621872 0.0033876263 0.00094999693
-0.13795975 -0.10786906 0.16793478 0.20831372 0.091754906 0.02435244 0.0008763731 0.06710803
-0.04548224 -0.18834825 0.618496 -0.17374498 -0.028789902 -0.039014608 -0.10075138 -0.09269728
-0.21493433 -0.36255568 -0.3162455 -0.4406573 -0.037524413 -0.054031227 -0.119602785 -0.4493262
0.18876752 0.27969113 0.2966349 0.32889187 0.013495377 -0.353452 -0.05098652 -0.0139162885
-0.2917946 -0.016569067 -0.14165415 -0.18757668 0.049777932 0.10941573 0.17210676 -0.34150094
0.2604318 0.21770975 0.17489941 0.2928252 -0.2045078 -0.0022756846 -0.0111264065 0.03415188
0.14517263 -0.05883877 -0.19215602 -0.06733507 0.047367226 -0.07966197 -0.10732907 0.17384213
-0.19382554 0.16243209 0.046923093 0.21458146 -0.073550865 -0.01815416 0.08060463 0.061469674
-0.10299894 0.23804142 -0.023847254 0.026058968 0.47434735 0.01765912 -0.05457619 0.31618527
0.01641854 0.4195738 0.23255858 -0.23402521 0.22126941 0.23201111 -0.48780727 -0.039129052
-0.027356144 -0.030091709 -0.10679529 -0.108878516 -0.043629605 0.15912415 -0.5436172 -0.056343906
0.3919204 -0.040745612 -0.21159734 0.19556534 0.047068108 0.3086376 -0.15079568 -0.18547177
-0.28498265 -0.4152268 -0.08819735 -0.31255695 -0.45536333 0.28798118 0.2173995 -0.34192276
0.5993889 0.50962263 -0.07215438 -0.42112926 -0.37718317 0.2320337 0.42477614 0.2409219
0.08556266 0.08278204 0.4153414 0.11562564 0.2935268 0.17663682 -0.03229941 -0.3870345
0.032333724 0.030299082 -0.05401439 0.14855707 -0.15386125 0.055905145 -0.14886661 -0.24396858
0.007250461 0.19265969 0.057404105 0.26195428 -0.12209126 -0.084409274 -0.1997411 -0.6298337
-0.40081817 0.024390493 0.32244036 0.2849255 0.37538344 0.10602227 0.17729585 -0.118332446
-0.2881289 -0.16808863 -0.13896358 -0.2132773 -0.26117855 -0.16211218 -0.07190313 -0.41513747
-0.22029541 -0.05203418 -0.26653197 -0.013369259 0.07182091 -0.7073965 -0.053020373 0.08611151
-0.17438538 -0.15484369 -0.30051968 -0.015720556 -0.23089509 -0.08712536 0.025874391 -0.3248085
0.2334489 0.23046717 0.05371709 0.11128774 0.35227808 0.13170208 0.13285503 0.14399698
-0.21154104 0.27205336 0.04887956 -0.14525841 0.022452839 -0.16357149 -0.04212428 0.30350262
-0.34581178 0.23117557 -0.045286644 -0.40131927 0.21885395 0.111902386 0.055477254 0.13220565
0.23697637 0.07578482 0.040466126 0.16883546 0.18369809 -0.121924326 -0.12331376 -0.027189353
-0.030528504 -0.15647177 -0.27504557 -0.13092941 -0.09360081 -0.24445519 -0.44022915 -0.25332025
0.26868808 0.06851361 -0.16240008 0.039404005 -0.30611333 -0.030510414 -0.23361252 -0.36888376
-0.24590424 -0.14973536 -0.1197334 -0.14603654 0.20076272 -0.19051398 0.23041753 0.05200483
0.031964347 -0.00021950254 0.08494078 0.03848917 -0.009514679 0.13133888 0.14440306 -0.44720253
0.27094135 -0.26776087 -0.11060753 -0.23832627 0.101720035 -0.0011150626 -0.039035253 -0.011581968
0.20440215 -0.1829459 -0.17398293 -0.17953907 0.23671167 -0.35507822 0.20460969 -0.04897324

7.odefunc.conv1._layer.bias f4 [74]
00000000: fa04 f03c 8ca2 893a ccc0 11bd 2c72 eb3c
00000010: 959c a9bc f243 c2bc 06a7 ab3c a6ea cbbc
00000020: 6f4b 9fbc 9cd2 3e3c 38d4 7d3c 949b fb3c
00000030: e1f2 fbbb c4ea 0d3d 461e 8f3c a720 643c
00000040: f48e e83c a73b adbc 8fa6 05bb 8a97 0bbd
00000050: be1a 333c 8e1f 013d 39ea 0cbd 7e40 9cbc
00000060: 55bd 81bb f6ef ad3c ee66 4ebc 4477 963c
00000070: a61f d6bb be35 9d3c ab88 de3b 2715 36bc
00000080: 998a 293b d633 b13a baac 5cbc 501b c8bc
00000090: 81a5 fcbc 740b fa3b 3cef bbbb c44c 8dbc
000000a0: c994 833c fc6b c73c 7305 e2bc 7d7c 52bc
000000b0: 88c5 0d3c bb4a c8bc 4408 aa3c d07b cb3b
000000c0: ea6e 10bd 5f89 403c 1931 09bc 2f6e 713c
000000d0: 3a34 4abc ca5c edbc ca57 06bd f276 153d
000000e0: 3ceb ecba cf8f 85bc dd21 9d3b 17d1 85bc
000000f0: ff11 843b 6e89 13bc 3d41 5fbb 215a 683c
00000100: 2995 89bc e677 2cbc 8a65 9f3c 797e 19bc
00000110: 755b 87bc 9d83 0c3a fe13 0b3d 7391 1cb9
00000120: 8a1a d2bc 40f7 9ebb
0.029299248 0.0010500713 -0.035584256 0.028740965 -0.020704547 -0.02371404 0.020953666 -0.024892163
-0.01944515 0.011646893 0.015492491 0.030713834 -0.0076888655 0.034647718 0.01747049 0.013923801
0.028388478 -0.021146609 -0.0020393466 -0.034080066 0.010931669 0.031524234 -0.03440306 -0.019073721
-0.0039593377 0.021232586 -0.012597783 0.018367417 -0.0065345345 0.019190665 0.0067911944 -0.011113442
0.0025869964 0.0013519477 -0.013468916 -0.024427086 -0.030840637 0.00763076 -0.005735306 -0.017248519
0.016062157 0.024343483 -0.027590489 -0.012847063 0.008653052 -0.024449697 0.020755894 0.006209828
-0.035262026 0.011751502 -0.008373522 0.0147357425 -0.012341553 -0.02897491 -0.032798566 0.03649039
-0.0018075476 -0.016303925 0.0047952966 -0.016335053 0.0040304656 -0.009004934 -0.0034065985 0.014181645
-0.016794758 -0.010526633 0.019457597 -0.009368532 -0.016523102 0.0005360188 0.033954613 -0.00014931503
-0.02564742 -0.004851252

7.odefunc.norm2.weight f4 [74]
00000000: 50d5 f73f d25b e93f d055 eb3f bb82 f13f
00000010: 696c d33f c41f 0840 318a e63f 4f75 f23f
00000020: 153b e53f 7cca d83f 4681 0f40 6537 e03f
00000030: da5d d23f e5aa f63f 6934 e43f 28d1 ed3f
00000040: f6a9 f53f 423e fb3f 2ed4 d13f b895 c83f
00000050: 56aa 0140 e994 db3f 6200 ff3f 29e5 db3f
00000060: 5ba2 e33f 57e1 0740 b61f ed3f 9efa db3f
00000070: 9545 e03f 7bd7 ce3f dd6c 0d40 a615 fd3f
00000080: e8ba 0240 9671 0940 7dcd ff3f 1155 e53f
00000090: 9b24 f03f 5298 e53f 5781 d73f 7f50 e53f
000000a0: a52d d53f f337 cc3f ae63 dc3f b22a 0640
000000b0: 6508 e53f 541e eb3f 4fc9 0e40 0e26 d43f
000000c0: 78fe 0140 cbbb d33f d400 de3f 0032 e53f
000000d0: 0e2b 0140 d187 ff3f 0d0a ce3f f12f dc3f
000000e0: 3e64 df3f 6be8 e63f dfd7 0040 df3c 0540
000000f0: 20cc d83f 31ad ee3f dd00 ec3f 5547 e03f
00000100: 89f3 d83f 8cdd ea3f 19e6 ff3f bc5b 0240
00000110: 78f7 0e40 10c6 0740 1220 e83f 8bb3 f93f
00000120: bc08 d83f 6b71 0640
1.9361973 1.8231146 1.8385563 1.8868021 1.6517459 2.1269388 1.8010923 1.894205
1.7908655 1.6936793 2.2422652 1.7516905 1.6434891 1.9270903 1.7828494 1.8579454
1.9192493 1.9628375 1.6392877 1.567069 2.0260215 1.7154819 1.9921992 1.7179309
1.7783922 2.1231287 1.8525302 1.7185857 1.7521235 1.615951 2.2097695 1.9772232
2.0426579 2.1475577 1.9984585 1.7916585 1.8761171 1.793711 1.6836346 1.791519
1.6654555 1.5954574 1.721792 2.096356 1.7893187 1.836863 2.231037 1.6574113
2.0311565 1.6541685 1.7344003 1.7905884 2.0182528 1.9963323 1.6096817 1.720213
1.7452466 1.8039678 2.0131757 2.0818403 1.6937294 1.8646604 1.8437763 1.7521769
1.6949321 1.8348861 1.9992095 2.036849 2.2338543 2.1214638 1.8134787 1.9507917
1.6877666 2.1006725

7.odefunc.norm2.bias f4 [74]
00000000: afad 78bf c0a2 93bf 88b6 babf b472 bfbf
00000010: 40a1 e1be 9156 05c0 5606 71bf d03f a1bf
00000020: 8fde 8abf e199 73bf 9c3f 8bbf 51e5 97bf
00000030: 4ac3 a8bf d32d b1bf 28b3 80bf d54c 8bbf
00000040: f61b 61bf abe0 cbbf 6839 44bf f8b2 78bf
00000050: bca5 efbf 1b29 60bf caba debf b0aa 80bf
00000060: bebf 5fbf a7b2 8ebf 82a5 97bf 1bea a5bf
00000070: e0da b3bf 5174 d2be 4e6a e1bf f5a1 96bf
00000080: 50c0 5cbf 1d7b 3fbf 5ed2 8dbf acb9 8dbf
00000090: c2e6 cbbf eb19 b6bf 3938 90bf 858c 9ebf
000000a0: 1577 01bf 913c 13bf a542 79bf ec0a b8bf
000000b0: b5b3 c9bf b7ab 53bf c232 b7bf d556 8dbf
000000c0: 01f5 f2bf 0e40 7bbf 7931 92bf bd6d 50bf
000000d0: a661 95bf 163a 95bf f6b2 88bf 44fc 63bf
000000e0: 8c16 c2bf 911a 02bf 5cdf cfbf f167 d8bf
000000f0: d108 c7bf 9c34 4ebf 00c5 7abf 7e1b f1be
00000100: cd7c a1bf 9ffa b0bf e1cc c0bf 0724 93bf
00000110: c758 c1bf b8f1 ebbf e36f 91bf 8ab9 ecbf
00000120: 804f aabf 4d3f 93bf
-0.9714002 -1.1534042 -1.4586954 -1.495688 -0.44068336 -2.0834086 -0.9415029 -1.2597599
-1.084917 -0.95156676 -1.0878787 -1.1866857 -1.3184597 -1.384211 -1.0054674 -1.0882822
-0.8793329 -1.5927938 -0.76650095 -0.97148085 -1.8722453 -0.8756272 -1.7400753 -1.005209
-0.8740195 -1.114827 -1.1847384 -1.2962068 -1.405117 -0.41104367 -1.7610567 -1.1768175
-0.86230946 -0.7479723 -1.1079824 -1.1072288 -1.5929797 -1.422666 -1.1267158 -1.2386633
-0.5057233 -0.5751429 -0.97367316 -1.4378333 -1.5757967 -0.8268389 -1.4312365 -1.1042124
-1.8981019 -0.98144615 -1.1421348 -0.8141745 -1.1670425 -1.1658351 -1.0679615 -0.890568
-1.5163131 -0.5082179 -1.6240039 -1.690672 -1.5549566 -0.80549026 -0.9795685 -0.47091287
-1.2616211 -1.3826483 -1.5062524 -1.149537 -1.5105218 -1.8433142 -1.136227 -1.8494122
-1.3305511 -1.1503693
