experiment_anode_mnist10_v2/model.pth (torch_old, 938011 bytes, 24 tensors)

0.weight f4 [64, 1, 3, 3]
0.15791166 -0.00085687975 -0.57503045 0.24076319 0.2543337 0.2913185 0.42287832 -0.36309966
-0.00882665 -0.23745237 0.32948816 0.3763043 0.020016203 -0.41938546 -0.1645287 0.016495364
-0.24071434 -0.29598662 -1.0171372 0.07228529 0.20253909 0.46542138 0.49642015 0.20001182
0.030081125 -0.38838422 -0.2692362 0.03136954 0.31044105 0.5309549 0.6534039 0.039177693
-0.63567126 -0.3601818 -0.45430514 -0.108108364 -0.15878977 0.015207286 -0.1482182 0.057966817
-0.06877913 -0.25852573 -0.304794 -0.21719334 0.06409565 0.35266313 0.23936307 0.40246838
-0.39512807 -0.3162769 -0.49846298 -0.41917014 -0.098929435 -0.30034915 0.034554724 -0.15860212
-0.10169129 0.115216315 0.09831114 0.45983648 0.30890474 -0.06491145 0.48337156 -0.18221655
0.13430908 0.018846344 0.33818978 -0.13730165 0.24230601 0.105836004 0.21245348 0.46818337
-0.049759842 0.34699312 0.33946675 -0.07545935 -0.030533737 0.50171524 -0.4597145 0.07470659
-0.241211 0.099358656 0.087394804 0.16625135 0.23530881 0.13631308 0.14234206 0.33884126
0.12706414 0.18863189 0.35400474 -0.029636025 -0.09908744 -0.03633869 -0.11628622 0.13527307
0.54542494 -0.0105519835 0.4069698 0.41720277 -0.30021766 -0.39998272 -0.501752 -0.24399821
0.4256657 -0.34869847 0.055989806 0.31526598 0.47714663 -0.31653044 -0.48439723 0.5143863
0.12055272 -0.4738102 0.46240455 0.18375643 -0.17011368 0.27182102 0.1624762 0.3555243
0.17240903 0.29314953 -0.07447027 -0.5888919 -0.07345528 0.12739773 -0.81382614 -0.21945094
0.12627028 0.4205576 0.39535367 0.13616881 0.30927867 -0.16575259 -0.38722467 -0.063809894
0.43599787 0.21409914 -0.5089532 0.17894872 0.40484503 -0.38726702 -0.5660167 -0.4847747
-0.12710701 -0.28644437 -0.38842317 -0.257038 -0.4034779 0.3965016 -0.26576778 0.2330252
0.38838768 -0.050082665 0.13882917 0.103034526 -0.77693117 0.042987566 -0.14664292 0.24624154
0.7514262 -0.10160159 0.24985717 0.021636011 0.3439808 0.14773475 -0.21508825 0.19924419
0.2704777 -0.11199339 0.3457653 -0.18527284 -0.36131063 -0.20378995 -0.27547652 0.3370876
0.51117635 0.5418949 0.35872054 -0.07280076 -0.31574655 -0.08892889 0.318322 -0.1564608
-0.2638855 0.19995242 0.15839179 -0.4544821 0.038099516 -0.08759647 -0.25342712 -0.80450225
0.18187709 0.8529289 0.04870629 -0.7226212 0.4132765 -0.1578161 0.14838989 0.05261291
-0.32810536 0.28570417 -0.53998506 -0.15695083 -0.2041467 -0.27998993 0.36812788 0.27870914
-0.00085434475 -0.69325733 0.0061319056 0.08425996 -0.49175438 -0.11256857 0.2440698 0.8157929
-0.6326027 -0.3496662 -0.27828085 0.27618203 -0.058493543 -0.3059142 0.20689082 0.25909203
-0.050757255 0.34879848 -0.267879 0.044237923 -0.72660077 -0.2604264 0.03644899 -0.07840049
0.32566983 0.36921933 -0.13802482 -0.20637809 0.171715 -0.033596773 -0.49154755 -0.31093532
0.3535744 0.27184713 -0.27089673 0.46544734 0.31340685 0.014797992 0.29115975 0.21180508
-0.5610204 -0.23997143 -0.09338531 -0.54621565 -0.54615015 -0.6510124 -0.58275044 -0.07648202
00000000: 98b3 213e 3aa0 60ba 3235 13bf a08a 763e
00000010: 0738 823e b327 953e 8283 d83e 33e8 b9be
00000020: a79d 10bc b726 73be acb2 a83e f5aa c03e
00000030: 05f9 a33c b1b9 d6be 367a 28be 4921 873c
00000040: d27d 76be 8f8b 97be 8d31 82bf 4f0a 943d
00000050: 6866 4f3e b64b ee3e c82a fe3e e6cf 4c3e
00000060: b16c f63c 4cda c6be 54d9 89be 597d 003d
00000070: 21f2 9e3e a9ec 073f 7a45 273f ca78 203d
00000080: 5abb 22bf c069 b8be af9a e8be eb67 ddbd
00000090: c999 22be fb27 793c 83c6 17be 9d6e 6d3d
000000a0: 13dc 8cbd 7c5d 84be f60d 9cbe ee67 5ebe
000000b0: 9544 833d 4390 b43e 981b 753e 5610 ce3e
000000c0: 3a4e cabe 0cef a1be 8a36 ffbe 789d d6be
000000d0: 849b cabd 5dc7 99be 4189 0d3d 9868 22be
000000e0: 8643 d0bd 88f6 eb3d 5a57 c93d b06f eb3e
000000f0: c328 9e3e 4bf0 84bd 7a7c f73e fa96 3abe
00000100: 5288 093e a663 9a3c 3627 ad3e ce98 0cbe
00000110: 111f 783e 8cc0 d83d 688d 593e bbb5 ef3e
00000120: fad0 4bbd 15a9 b13e 96ce ad3e 6f8a 9abd
00000130: e321 fabc 6970 003f b35f ebbe c5ff 983d
00000140: 0400 77be 8d7c cb3d 0cfc b23d cb3d 2a3e
00000150: cbf4 703e a895 0b3e 1ec2 113e 9a7c ad3e
00000160: 1a1d 023e b828 413e 1c40 b53e 40c7 f2bc
00000170: 5bee cabd e1d7 14bd 7827 eebd 0685 0a3e
00000180: f8a0 0b3f 3ae2 2cbc 585e d03e 9a9b d53e
00000190: 21b6 99be 89ca ccbe d272 00bf abda 79be
000001a0: dbf0 d93e 9b88 b2be 9155 653d 8b6a a13e
000001b0: 904c f43e 4710 a2be ea02 f8be d2ae 033f
000001c0: 58e4 f63d 4097 f2be 4ac0 ec3e a52a 3c3e
000001d0: 4832 2ebe 202c 8b3e 2960 263e 4807 b63e
000001e0: fe8b 303e b217 963e de83 98bd 9fc1 16bf
000001f0: b96f 96bd 8d74 023e e956 50bf bfb7 60be
00000200: ff4c 013e 5353 d73e cc6b ca3e d66f 0b3e
00000210: c659 9e3e 0cbb 29be 5042 c6be c3ae 82bd
00000220: 1d3b df3e ce3c 5b3e c24a 02bf 553e 373e
00000230: d947 cf3e dd47 c6be 78e6 10bf 6434 f8be
00000240: 5728 02be d6a8 92be 67df c6be 7c9a 83be
00000250: a894 cebe 4202 cb3e b712 88be 289e 6e3e
00000260: c0da c63e 7b23 4dbd 3c29 0e3e c403 d33d
00000270: f6e4 46bf bb13 303d 9029 16be be26 7c3e
00000280: 785d 403f 7f14 d0bd 8fda 7f3e 013e b13c
00000290: 401e b03e c747 173e 1840 5cbe ab06 4c3e
000002a0: 0e7c 8a3e ca5c e5bd 2608 b13e 2ab8 3dbe
000002b0: b5fd b8be 50ae 50be 420b 8dbe bf96 ac3e
000002c0: 74dc 023f a0b9 0a3f 38aa b73e 9118 95bd
000002d0: 88a9 a1be 5a20 b6bd 1afb a23e 4337 20be
000002e0: 001c 87be 54c0 4c3e 7531 223e e1b1 e8be
000002f0: 3d0e 1c3d c765 b3bd 33c1 81be dcf3 4dbf
00000300: fd3d 3a3e 8c59 5a3f 3f80 473d b4fd 38bf
00000310: fa98 d33e 8b9a 21be 85f3 173e a280 573d
00000320: 6dfd a7be d147 923e 763c 0abf b8b7 20be
00000330: d50b 51be d75a 8fbe 427b bc3e f7b2 8e3e
00000340: 1bf6 5fba 5079 31bf 27ee c83b 7c90 ac3d
00000350: 3bc7 fbbe 5a8a e6bd 6fed 793e ced7 503f
00000360: 40f2 21bf 7307 b3be d47a 8ebe bb67 8d3e
00000370: ed96 6fbd c9a0 9cbe 30db 533e b6a7 843e
00000380: d7e6 4fbd b795 b23e 7027 89be d332 353d
00000390: 8202 3abf 9c56 85be 894b 153d 7090 a0bd
000003a0: 32be a63e 510a bd3e 6156 0dbe c754 53be
000003b0: 0fd6 2f3e c59c 09bd 1fac fbbe ea32 9fbe
000003c0: b407 b53e 8c2f 8b3e fab2 8abe 1d4f ee3e
000003d0: dd76 a03e 4773 723c e412 953e 6ee3 583e
000003e0: 089f 0fbf 12bb 75be cc40 bfbd cad4 0bbf
000003f0: 7fd0 0bbf c0a8 26bf 222f 15bf 9ba2 9cbd

0.bias f4 [64]
0.12479199 0.1360403 0.2902612 0.049270395 0.2778606 -0.011332811 -0.24159563 -0.26161373
0.25615767 -0.13397548 -0.23883878 -0.1984578 -0.2315267 0.08850792 0.14140102 0.2947239
-0.09237528 -0.008284941 -0.09403068 0.20787582 -0.15410018 -0.27208608 0.025912557 0.08530565
0.32545486 -0.19673014 0.2150822 0.286755 -0.21876399 0.26806596 0.11308955 0.1673927
-0.16026402 -0.32399368 0.2152957 -0.17141199 -0.08727708 0.0908732 -0.21485274 0.12252298
0.08544651 0.06353136 -0.10324459 0.28816453 -0.31099677 -0.3166716 -0.12960806 -0.016658427
-0.31789812 0.0646601 -0.10520204 0.30574813 -0.16212136 0.102717616 0.084185615 0.0032856618
0.15760842 0.29451576 -0.27728125 0.31773016 0.129419 0.2718096 -0.22142565 0.14204934
00000000: f192 ff3d 264e 0b3e 1e9d 943e c1cf 493d
00000010: bf43 8e3e 41ad 39bc d864 77be 3cf2 85be
00000020: 1927 833e de30 09be 2792 74be 8638 4bbe
00000030: 5615 6dbe a443 b53d 6ecb 103e 0de6 963e
00000040: 402f bdbd 90bd 07bc 2893 c0bd 66dd 543e
00000050: 70cc 1dbe de4e 8bbe 9246 d43c bbb4 ae3d
00000060: 05a2 a63e a073 49be 823e 5c3e 8dd1 923e
00000070: ab03 60be f13f 893e 7e9b e73d fe68 2b3e
00000080: 401c 24be 80e2 a5be 7a76 5c3e a086 2fbe
00000090: 53be b2bd ba1b ba3d 5b02 5cbe 54ed fa3d
000000a0: 94fe ae3d bb1c 823d e671 d3bd 4d8a 933e
000000b0: f83a 9fbe c822 a2be fab7 04be 4177 88bc
000000c0: 8bc3 a2be 846c 843d 2b74 d7bd 058b 9c3e
000000d0: 2403 26be 9d5d d23d 8269 ac3d 4254 573b
000000e0: 1a64 213e c5ca 963e cff7 8dbe 87ad a23e
000000f0: 6a86 043e a12a 8b3e 68bd 62be 6275 113e

1.weight f4 [64]
0.7315465 1.0880824 1.0855544 1.0172809 1.099251 1.2883158 0.78663284 0.72393733
0.6489723 0.6842634 0.76980925 1.1676115 1.0104457 0.6207283 1.163375 1.2543147
1.0924898 0.93304473 0.7591674 0.82499707 1.1567193 1.2336898 1.2639337 1.010245
1.1585996 0.97359574 1.1156936 0.9675708 1.1873103 1.084901 0.9536191 0.8748128
0.73695487 0.99807227 0.75118196 1.044874 1.3475685 0.90071404 0.8623795 0.9784573
1.0805255 0.7965172 1.0779535 1.0726571 1.1564099 0.8726598 0.98928285 1.0524747
0.64058924 1.1269596 0.8927829 1.1693971 1.2166487 1.1385101 0.88658744 1.0843548
1.127571 1.1392665 1.0954928 0.70255935 1.034348 0.8092682 1.1102067 1.16973
00000000: a246 3b3f 4946 8b3f 72f3 8a3f 4336 823f
00000010: 42b4 8c3f 88e7 a43f c560 493f f553 393f
00000020: 0c23 263f e32b 2f3f 3812 453f 4b74 953f
00000030: 4956 813f 0de8 1e3f 79e9 943f 628d a03f
00000040: b5d6 8b3f 05dc 6e3f cb58 423f 0233 533f
00000050: 610f 943f 8ce9 9d3f 94c8 a13f b54f 813f
00000060: fe4c 943f 923d 793f 0ccf 8e3f b8b2 773f
00000070: c9f9 973f 09de 8a3f 6220 743f bbf3 5f3f
00000080: 13a9 3c3f aa81 7f3f 764d 403f 6ebe 853f
00000090: 207d ac3f 3295 663f e7c4 5c3f 2d7c 7a3f
000000a0: a94e 8a3f 8de8 4b3f 61fa 893f d44c 893f
000000b0: 3d05 943f a266 5f3f a441 7d3f 7eb7 863f
000000c0: a8fd 233f 3640 903f 6c8d 643f ceae 953f
000000d0: 25bb 9b3f b3ba 913f 65f7 623f 23cc 8a3f
000000e0: 3f54 903f 7cd3 913f 1c39 8c3f eeda 333f
000000f0: 8465 843f 332c 4f3f 411b 8e3f b6b9 953f

1.bias f4 [64]
-0.124323554 0.082861006 -0.24818075 -0.1411396 0.09406645 0.16997755 -0.16884835 -0.28101644
-0.05858073 -0.28794098 -0.41081876 0.0136784185 -0.43707255 -0.1407704 0.108432025 -0.013970463
0.003560663 -0.12053809 -0.28903592 -0.20234711 -0.025617711 -0.29133266 0.2853973 -0.08939565
0.15241838 -0.19915438 0.1748457 0.16952619 0.24497649 -0.008325538 -0.09838933 -0.13611275
-0.17907272 -0.20660432 -0.06244501 -0.010595449 0.09173554 0.24531987 -0.1710795 0.04333262
0.10264347 -0.14307033 0.037508946 0.07653954 -0.3151134 -0.30355787 -0.31167272 0.056586403
-0.1829976 0.0362824 -0.01861594 -0.020140199 -0.20579675 0.09941423 -0.297018 0.13818398
0.3452617 0.003932227 -0.036682393 -0.12994543 0.021202797 -0.16803715 0.069294095 0.009927647
00000000: 599d febd 08b3 a93d 1823 7ebe e686 10be
00000010: e9a5 c03d 980e 2e3e 95e6 2cbe 63e1 8fbe
00000020: 59f2 6fbd 006d 93be d656 d2be 721b 603c
00000030: f9c7 dfbe 1e26 10be 9c11 de3d 5ee4 64bc
00000040: 035a 693b addc f6bd 84fc 93be 1534 4fbe
00000050: 3cdc d1bc 8e29 95be 981f 923e 1115 b7bd
00000060: 9013 1c3e 20ef 4bbe c00a 333e 4698 2d3e
00000070: 1edb 7a3e d667 08bc 5880 c9bd 2461 0bbe
00000080: d75e 37be 1590 53be 57c6 7fbd 8998 2dbc
00000090: d8df bb3d 2235 7b3e 772f 2fbe 8c7d 313d
000000a0: bd36 d23d 0781 12be fba2 193d c3c0 9c3d
000000b0: 8b56 a1be f06b 9bbe 9193 9fbe 25c7 673d
000000c0: b963 3bbe db9c 143d 7580 98bc 0ffd a4bc
000000d0: 62bc 52be b099 cb3d be12 98be 1a80 0d3e
000000e0: 24c6 b03e e9d9 803b 4740 16bd 6a10 05be
000000f0: 7db1 ad3c ee11 2cbe 10ea 8d3d 92a7 223c

3.weight f4 [64, 64, 4, 4]
-0.05385078 -0.13686089 -0.03135342 -0.06596962 -0.092583254 -0.053421076 0.012870549 -0.07465165
-0.06068917 -0.02669054 0.0210798 -0.048420813 -0.00652567 -0.022325464 -0.07933644 -0.06464916
0.009305166 -0.027603285 0.005449667 -0.011408681 -0.05971666 -0.037006523 0.056157876 0.0720291
0.00063545373 0.09469806 0.03513534 -0.047979552 0.022839736 0.010090645 -0.06815741 -0.14366256
-0.039853223 0.0681685 0.08458174 0.15520366 0.15384011 0.25846353 0.16742143 0.21136223
0.12784363 0.14792137 0.19454533 0.16633636 0.061414946 0.09067726 0.07123697 0.05601789
0.08243773 -0.08519821 -0.07585849 -0.025003072 -0.011694248 -0.0872202 0.040983506 0.05818319
0.031159643 0.09339332 0.021288043 -0.014406876 0.032503195 -0.023475474 -0.049788088 -0.13146177
-0.07650416 -0.018008435 -0.013902028 -0.08558348 -0.0006280095 0.0040746746 -0.037254784 -0.04599932
-0.05345549 -0.024433127 -0.06252744 -0.029264655 -0.05530099 -0.052975647 -0.020856835 -0.031424798
-0.008325684 -0.038157556 -0.09586837 -0.035648853 -0.026795192 -0.13580951 -0.07525691 0.02435563
0.016540324 -0.013989568 0.072084785 -0.014303066 -0.011293313 -0.04455915 -0.059724275 -0.17843853
-0.015003694 -0.047004085 -0.082865216 -0.06493714 0.06505143 0.049218845 -0.050006315 -0.0261413
0.0067132697 0.035908666 0.010504304 -0.06958087 -0.059416097 -0.06571252 -0.071431145 -0.054685846
0.027257971 -0.042810142 -0.10213612 -0.060556095 0.019709768 0.01985044 -0.032481927 -0.026761279
-0.011907961 -0.0035739327 -0.03612766 -0.02467421 -0.019073507 -0.035390995 -0.06197516 -0.020557893
-0.03980297 0.017719865 0.042729806 0.095355056 -0.061963998 0.005722587 0.03748205 0.09316599
-0.03301513 -0.04042196 0.0018341612 -0.02994319 -0.076627746 -0.06017656 -0.004182613 -0.029844645
0.012978165 -0.039317627 -0.020995704 -0.05628968 0.02167337 0.052720327 0.052442502 -0.048148688
0.04341116 0.047984507 0.034494482 0.0034407487 0.03291873 0.007480129 -0.060554113 -0.055904746
0.0536936 -0.02929133 -0.06079756 -0.036431216 0.019463137 -0.028388012 -0.013096991 -0.07146273
0.024163388 0.031483058 0.019872095 -0.046151035 -0.015736798 -0.038713507 -0.048444044 -0.0026745254
-0.09543255 -0.061205916 0.017010482 0.010553393 -0.055121753 0.124537624 0.060608193 0.034407314
0.013520002 0.11555572 0.0660831 0.03412748 0.02478272 0.0933582 0.11903991 0.05448348
-0.03880467 -0.08889582 -0.06467092 -0.084430076 -0.10073904 -0.11426177 0.021967031 -0.055770986
-0.067059495 -0.066041775 0.032274276 -0.010686383 -0.04615184 -0.050791968 0.01535674 0.0147978775
0.05774902 0.024136433 -0.055063885 -0.014493092 -0.08368827 -0.10204294 -0.020781681 0.0020875842
-0.07281424 -0.026215171 0.032008704 -0.008296944 -0.09938454 -0.050072286 -0.02280669 -0.025637366
0.012987814 0.14838399 0.060213212 0.058194708 0.20692535 0.17749643 0.1570027 0.060592167
0.2001584 0.10383196 0.15992036 0.11628651 0.20658742 0.12673928 0.08289854 -0.006286511
-0.022562504 -0.052032553 -0.028173309 0.018333226 -0.08641882 -0.10218228 -0.054509785 -0.038345113
-0.03854838 -0.072108336 -0.051235743 -0.088285394 -0.0817802 -0.040991124 -0.09018942 -0.07263302
00000000: a392 5cbd 4325 0cbe 726c 00bd 151b 87bd
00000010: 4a9c bdbd 0fd0 5abd ffde 523c f7e2 98bd
00000020: 3595 78bd 1fa6 dabc 8baf ac3c e754 46bd
00000030: 4ad5 d5bb e4e3 b6bc 257b a2bd c766 84bd
00000040: b274 183c 4920 e2bc 1f93 b23b 7aeb 3abc
00000050: 7599 74bd 2794 17bd cd05 663d fe83 933d
00000060: 9494 263a 0ef1 c13d 13ea 0f3d 3586 44bd
00000070: 661a bb3c 3c53 253c 1d96 8bbd 471c 13be
00000080: 223d 23bd ed9b 8b3d 3139 ad3d b5ed 1e3e
00000090: 4388 1d3e 5555 843e 8670 2b3e 576f 583e
000000a0: 71e9 023e b378 173e e436 473e 1454 2a3e
000000b0: 3d8e 7b3d 00b5 b93d b0e4 913d 0473 653d
000000c0: 1dd5 a83d 667c aebd b25b 9bbd 3ed3 ccbc
000000d0: 3b99 3fbc 81a0 b2bd 52de 273d 7f51 6e3d
000000e0: 8242 ff3c ff44 bf3d 4364 ae3c d10a 6cbc
000000f0: 1222 053d a34f c0bc 98ee 4bbd ea9d 06be
00000100: 37ae 9cbd 6d86 93bc 55c5 63bc 6446 afbd
00000110: 01a1 24ba d984 853b 7998 18bd c869 3cbd
00000120: 25f4 5abd fb27 c8bc 630e 80bd 6ebc efbc
00000130: 4a83 62bd fefc 58bd f4db aabc 4ab7 00bd
00000140: 7368 08bc 194b 1cbd a356 c4bd 8804 12bd
00000150: 9781 dbbc a611 0bbe 4b20 9abd 7585 c73c
00000160: 937f 873c 8034 65bc 30a1 933d 6857 6abc
00000170: 9607 39bc a883 36bd 71a1 74bd 97b8 36be
00000180: 0ed2 75bc 5b87 40bd 3db5 a9bd c3fd 84bd
00000190: af39 853d b399 493d 6cd3 4cbd 4826 d6bc
000001a0: fdfa db3b f714 133d 3f1a 2c3c 6a80 8ebd
000001b0: 4b5e 73bd 4994 86bd 7e4a 92bd 44fe 5fbd
000001c0: 1c4c df3c b059 2fbd be2c d1bd ab09 78bd
000001d0: 6176 a13c 649d a23c c50b 05bd 783a dbbc
000001e0: 9c19 43bc a438 6abb 99fa 13bd 9221 cabc
000001f0: 0b40 9cbc 26f6 10bd aad9 7dbd 0769 a8bc
00000200: 7008 23bd 4029 913c 7305 2f3d 8349 c33d
00000210: f6cd 7dbd 8a84 bb3b c786 193d d0cd be3d
00000220: df3a 07bd 7f91 25bd 3d68 f03a 6c4b f5bc
00000230: 02ef 9cbd b27b 76bd 4d0e 89bb c27c f4bc
00000240: 5fa2 543c 850b 21bd 2fff abbc 0290 66bd
00000250: 5a8c b13c 45f1 573d f3cd 563d 8f37 45bd
00000260: e7cf 313d 678b 443d 164a 0d3d 2f7e 613b
00000270: cad5 063d df1b f53b 9707 78bd 60fc 64bd
00000280: d2ed 5b3d 5ff4 efbc dd06 79bd e638 15bd
00000290: 2871 9f3c fa8d e8bc c394 56bc 0d5b 92bd
000002a0: 4cf2 c53c 61f4 003d ceca a23c de08 3dbd
000002b0: 75ea 80bc 0e92 1ebd 436d 46bd 1747 2fbb
000002c0: 2472 c3bd 0eb3 7abd 9159 8b3c 23e8 2c3c
000002d0: 59c7 61bd 950d ff3d 4c40 783d afee 0c3d
000002e0: 0083 5d3c 7aa8 ec3d 9456 873d 42c9 0b3d
000002f0: 2105 cb3c 9532 bf3d 32cb f33d 122a 5f3d
00000300: a5f1 1ebd 030f b6bd 3072 84bd ade9 acbd
00000310: 4550 cebd 1302 eabd 34f4 b33c 1e70 64bd
00000320: 7d56 89bd e940 87bd 0832 043d f015 2fbc
00000330: b609 3dbd 3d0b 50bd d69a 7b3c cc72 723c
00000340: 3d8a 6c3d c5b9 c53c ab8a 61bd 6f74 6dbc
00000350: c164 abbd e4fb d0bd 583e aabc dacf 083b
00000360: a21f 95bd 33c1 d6bc 8f1b 033d e8ef 07bc
00000370: 1f8a cbbd 9918 4dbd 18d5 babc 7405 d2bc
00000380: d7ca 543c f9f1 173e 21a2 763d 935d 6e3d
00000390: 3de4 533e a0c1 353e 51c5 203e 7e2f 783d
000003a0: 53f6 4c3e daa5 d43d 2ac2 233e 9f27 ee3d
000003b0: a78b 533e f1c7 013e b6c6 a93d 14ff cdbb
000003c0: 00d5 b8bc 1620 55bd b6cb e6bc 902f 963c
000003d0: 5afc b0bd f144 d1bd a745 5fbd c40f 1dbd
000003e0: e8e4 1dbd 89ad 93bd 92dc 51bd f9ce b4bd
000003f0: 617c a7bd 4fe6 27bd 3bb5 b8bd 9fc0 94bd

3.bias f4 [64]
0.0016354775 -0.011532895 0.017502252 0.025770418 0.0169262 -0.00164033 0.014759745 -0.005289275
0.0011691208 -0.02340212 0.0021303971 0.024678744 0.0055584977 0.0018789613 -0.012027916 -0.027405068
0.003976593 -0.027729575 -0.0151765235 0.0057925126 -0.02703162 0.02159191 -0.019236665 0.018280614
-0.013409246 0.01686091 0.00649434 0.011845551 0.019427784 0.011278946 0.003495621 0.023651037
-0.010689586 0.03103736 -0.013579369 0.0070583704 -0.011973426 0.02984181 -0.0038116155 -0.023584913
-0.01955853 0.019819196 0.011488151 -0.023285236 0.0023261928 -0.016379874 0.024492092 0.015980951
-0.02311511 -0.010498721 0.021619696 -0.022467095 -0.026509445 0.021251552 0.015163462 0.021771941
0.029203665 -0.031078722 -0.016335614 0.016315293 0.02502878 0.0075292466 -0.007831182 -0.012499902
00000000: 855d d63a 78f4 3cbc e260 8f3c 7c1c d33c
00000010: d0a8 8a3c 5700 d7ba dcd2 713c a851 adbb
00000020: 2f3d 993a ceb5 bfbc 229e 0b3b 142b ca3c
00000030: 0f24 b63b 7b47 f63a bc10 45bc 9880 e0bc
00000040: 144e 823b 2229 e3bc f4a6 78bc 1ecf bd3b
00000050: 6a71 ddbc 84e1 b03c 3696 9dbc 3ac1 953c
00000060: 74b2 5bbc e41f 8a3c 79ce d43b d813 423c
00000070: 0427 9f3c 54cb 383c ca16 653b d2bf c13c
00000080: 6023 2fbc 1042 fe3c 007c 5ebc e749 e73b
00000090: 302c 44bc d076 f43c 4ccc 79bb 2635 c1bc
000000a0: 3639 a0bc de5b a23c cc38 3c3c aec0 bebc
000000b0: 0a73 183b 162f 86bc a4a3 c83c 7cea 823c
000000c0: e65b bdbc d402 2cbc ca1b b13c ea0c b8bc
000000d0: 562a d9bc bc17 ae3c 2b70 783c 125b b23c
000000e0: 863c ef3c ce98 febc 44d2 85bc a6a7 853c
000000f0: 2809 cd3c e6b7 f63b 5c4e 00bc 64cc 4cbc

4.weight f4 [64]
0.4100907 0.42758808 0.47595412 0.685057 0.70937383 0.806436 0.5867236 0.43592578
0.74794006 0.42183983 0.6693852 0.5889009 0.6711775 0.6382667 0.82578415 0.38226858
0.46586886 0.6330231 0.38434017 0.6460542 0.73656183 0.41890466 0.46636268 0.7572161
0.5379206 0.67419666 0.685953 0.462016 0.6213186 0.54261833 0.723912 0.6936712
0.5733499 0.5216005 0.74281645 0.7313009 0.7223685 0.4966802 0.6040897 0.6965876
0.42013535 0.5422323 0.55495244 0.68007976 0.31690466 0.49906448 0.6430473 0.5824225
0.59095794 0.62384737 0.6655268 0.68061465 0.5145749 0.6183931 0.63820285 0.69691586
0.65603846 0.47857043 0.48528722 0.7628638 0.70022607 0.6779117 0.6722836 0.54211736
00000000: 69f7 d13e d3ec da3e 42b0 f33e e55f 2f3f
00000010: 8699 353f 9772 4e3f 8533 163f aa31 df3e
00000020: 0079 3f3f 64fb d73e d45c 2b3f 36c2 163f
00000030: 4ad2 2b3f 7265 233f 9766 533f b5b8 c33e
00000040: 5d86 ee3e cd0d 223f 3cc8 c43e cf63 253f
00000050: 518f 3c3f ac7a d63e 17c7 ee3e ead8 413f
00000060: 2ab5 093f 2798 2c3f 9e9a 2f3f 5c8d ec3e
00000070: bc0e 1f3f 09e9 0a3f 4c52 393f 7094 313f
00000080: 0fc7 123f 9c87 053f 3829 3e3f 8936 3b3f
00000090: 24ed 383f de4c fe3e 9fa5 1a3f 9153 323f
000000a0: fb1b d73e bccf 0a3f 5d11 0e3f b519 2e3f
000000b0: 5441 a23e 6185 ff3e bf9e 243f a419 153f
000000c0: 0549 173f 76b4 1f3f f75f 2a3f c33c 2e3f
000000d0: 2ebb 033f 034f 1e3f 4361 233f 1469 323f
000000e0: 23f2 273f 2f07 f53e 9177 f83e 0b4b 433f
000000f0: 0442 333f 9f8b 2d3f c71a 2c3f 34c8 0a3f

4.bias f4 [64]
-0.3483815 0.07302906 -0.5683856 -0.2698519 -0.12251747 -0.136813 -0.3875602 -0.4355415
-0.37760532 -0.4166986 -0.15744704 -0.09300462 -0.3764312 -0.30524775 -0.3088228 -0.26784334
-0.3097608 -0.20682928 -0.2842424 -0.3082399 -0.32273877 -0.4369916 -0.29454234 -0.09124103
-0.24511774 -0.2955468 -0.3529162 -0.6397593 -0.33512348 -0.11865504 -0.1920993 -0.31340897
-0.9811463 -0.2061787 -0.3721347 -0.15993346 -0.22077851 -0.1717949 -0.122337066 -0.3156786
-0.31067777 -0.61025715 -0.3426531 -0.20463806 -0.27010638 -0.39610907 -0.27255434 -0.1781683
-0.1300717 -0.3149495 -0.1693845 -0.25556433 -0.82899755 -0.25641978 -0.019503457 -0.47990274
-0.26650074 -0.21796294 -0.24340478 -0.3501596 -0.31161982 -0.28082353 -0.21793969 -0.83052415
00000000: 0f5f b2be 4390 953d b881 11bf 072a 8abe
00000010: 70ea fabd b518 0cbe 4a6e c6be 4cff debe
00000020: 7c55 c1be 8559 d5be cc39 21be 3579 bebd
00000030: 97bb c0be 6f49 9cbe 061e 9ebe c322 89be
00000040: f898 9ebe 0ecb 53be 3888 91be 9fd1 9dbe
00000050: 043e a5be 5dbd dfbe 41ce 96be 94dc babd
00000060: 2500 7bbe e951 97be 6fb1 b4be 44c7 23bf
00000070: 4e95 abbe 6a01 f3bd aeb5 44be 2477 a0be
00000080: 672c 7bbf 8220 53be 7088 bebe 99c5 23be
00000090: c313 62be 01eb 2fbe db8b fabd a0a0 a1be
000000a0: 2811 9fbe d039 1cbf 3a70 afbe a48c 51be
000000b0: 624b 8abe cfce cabe 3e8c 8bbe c071 36be
000000c0: 8431 05be 1041 a1be 2173 2dbe 54d9 82be
000000d0: 2f39 54bf 7449 83be b7c5 9fbc d0b5 f5be
000000e0: c972 88be ad31 5fbe 1a3f 79be 1e48 b3be
000000f0: a28c 9fbe 1ac8 8fbe 952b 5fbe 3b9d 54bf

6.weight f4 [64, 64, 4, 4]
0.013033638 0.11171658 0.08941929 0.020806257 0.10910219 0.0078781815 -0.08979453 -0.09487466
0.027361203 -0.04322031 -0.1442189 -0.09921046 0.07846059 -0.031802673 -0.11157502 -0.01686994
0.027627258 0.013501204 0.011140999 0.010356376 -0.10194017 -0.06771222 0.009462835 -0.045072936
-0.04171861 0.07611262 0.057386637 0.028836079 0.00039876578 0.026414804 0.08755392 -0.008461752
0.008784816 0.038951747 0.039476525 -0.0031457609 -0.062437855 -0.003716279 -0.018410532 0.06859494
-0.0077793635 0.024666952 0.06731885 0.102373526 0.046234753 -0.03094168 0.015503974 -0.021633409
-0.030539699 -0.04685572 -0.0489466 -0.01848905 -0.049927972 -0.021467673 -0.014613428 -0.03906688
0.010750135 0.0019210329 0.04102889 -0.004829193 0.0140865445 0.016933978 0.046503857 0.06298407
-0.0483024 0.08387613 0.08021802 0.104652 0.026455797 0.01565082 0.036300074 0.0760574
0.018151855 0.02852055 -0.033103075 0.071222045 -0.04203622 -0.074733414 -0.014487101 0.054882333
0.07335981 0.020744648 0.0054677925 0.011346582 -0.0045320275 -0.0335896 0.004404871 0.021165567
-0.0407075 0.042568725 0.077290975 0.080435604 -0.08486555 0.06987492 0.006810744 0.033063535
0.002815126 -0.0014723507 -0.024675984 -0.024503767 -0.0023351065 -0.02690362 -0.005984832 -0.05943438
-0.05911414 -0.034612007 -0.033077776 -0.061903752 0.0020957063 -0.016903786 0.008269382 -0.028923037
-0.102719456 -0.09957343 -0.11726912 -0.02706998 -0.12950405 -0.123473704 -0.08552204 -0.14749663
-0.14461203 -0.06047007 -0.037275188 -0.15340513 -0.0901598 -0.017584663 0.007890316 -0.07358891
0.05255181 0.08377805 -0.06432474 0.007004823 0.016062343 -0.09273053 -0.0804214 -0.042570513
-0.027886832 -0.15038845 -0.0949976 0.020233229 -0.078590944 0.025485717 0.10186573 -0.01460627
0.0443162 0.024767729 -0.04049479 0.055626296 0.017673813 0.011003538 0.003897209 -0.006603035
0.004453424 0.008453277 0.032117724 0.012941216 -0.04091411 -0.012157075 0.008922417 -0.013235816
0.04224588 0.09799017 0.102863416 0.033490047 0.11756442 0.09204929 0.023436178 0.11438973
-0.010325746 -0.0020482636 0.049308572 0.0499723 -0.031453904 -0.021966955 -0.034530085 -0.004818846
0.028903417 0.050483517 0.13043284 0.040920764 0.08077256 0.031655904 0.08884943 0.025191193
0.012784407 -0.07625781 0.03983297 0.054529015 -0.097312905 -0.13022378 -0.031523455 -0.034834817
0.009749483 0.03443459 -0.03007293 -0.013932801 0.021209769 0.013596102 0.015000245 -0.030060291
-0.022322956 -0.0013994024 -0.021091398 -0.0027044916 -0.02662271 -0.037599523 0.036518894 0.036373142
0.0029913285 -0.009304446 0.0338345 0.012218052 0.031208808 0.062032815 0.0053314636 0.028973069
0.028465735 0.054368004 0.03012486 0.04647969 -0.019793708 -0.008970445 -0.047294 -0.018229958
-0.017352272 0.023771837 -0.081839815 -0.065660894 -0.07452553 -0.05986736 -0.08443262 -0.16245905
-0.08146899 -0.08869961 -0.03689846 -0.05303189 -0.004706688 -0.05983738 -0.043092143 -0.024420107
-0.07777019 -0.069392 -0.042730987 -0.11154956 0.0058408105 -0.038193263 -0.08954318 -0.19433418
0.0016505205 -0.020856166 -0.13116479 -0.19592404 0.124848075 0.012891271 -0.036911797 -0.05791742
00000000: 0a8b 553c aacb e43d 7621 b73d e271 aa3c
00000010: f870 df3d 7d13 013c 32e6 b7bd a54d c2bd
00000020: 9a24 e03c c807 31bd 1fae 13be db2e cbbd
00000030: f2af a03d 8543 02bd 7281 e4bd d432 8abc
00000040: 8f52 e23c 2734 5d3c bd88 363c caad 293c
00000050: 02c6 d0bd b4ac 8abd 020a 1b3c 669e 38bd
00000060: 22e1 2abd efe0 9b3d 400e 6b3d a439 ec3c
00000070: 7011 d139 dc63 d83c 784f b33d 29a3 0abc
00000080: 30ee 0f3c de8b 1f3d 23b2 213d 1c29 4ebb
00000090: d6be 7fbd d18c 73bb afd1 96bc 817b 8c3d
000000a0: 08ea febb 5912 ca3c 77de 893d 36a9 d13d
000000b0: a760 3d3d 6879 fdbc 6104 7e3c 8c38 b1bc
000000c0: 642e fabc c9eb 3fbd 3b7c 48bd 5976 97bc
000000d0: 4681 4cbd f9dc afbc 296d 6fbc 9804 20bd
000000e0: 5621 303c 2bcb fb3a e90d 283d 353e 9ebb
000000f0: 40cb 663c 20b9 8a3c d47a 3e3d cbfd 803d
00000100: bdd8 45bd 40c7 ab3d 5849 a43d ca53 d63d
00000110: d4b9 d83c 2636 803c 63af 143d fbc3 9b3d
00000120: 33b3 943c eea3 e93c 1797 07bd dddc 913d
00000130: 2c2e 2cbd d50d 99bd 4e5b 6dbc 4ccc 603d
00000140: ab3d 963d aef0 a93c 2b2b b33b 04e7 393c
00000150: 6781 94bb 4095 09bd bc56 903b 6963 ad3c
00000160: e8bc 26bd 8b5c 2e3d bb4a 9e3d 6cbb a43d
00000170: fdcd adbd 951a 8f3d a92c df3b a16d 073d
00000180: fa7d 383b e4fb c0ba 4a25 cabc 20bc c8bc
00000190: 9608 19bb fb64 dcbc 691c c4bb 7771 73bd
000001a0: ab21 72bd 52c5 0dbd 907c 07bd ca8e 7dbd
000001b0: 1e58 093b cf79 8abc 4d7c 073c 01f0 ecbc
000001c0: 945e d2bd 28ed cbbd cb2a f0bd ddc1 ddbc
000001d0: b69c 04be c8df fcbd 2e26 afbd 5b09 17be
000001e0: 2d15 14be 77af 77bd dead 18bd 3c16 1dbe
000001f0: b4a5 b8bd b60d 90bc 6246 013c c8b5 96bd
00000200: 9140 573d d493 ab3d b0bc 83bd b788 e53b
00000210: 2d95 833c 81e9 bdbd fab3 a4bd 6b5e 2ebd
00000220: ed72 e4bc 6eff 19be 1a8e c2bd 28c0 a53c
00000230: 4af4 a0bd 6cc7 d03c fb9e d03d 234f 6fbc
00000240: e784 353d b1e5 ca3c dddd 25bd 66d8 633d
00000250: acc8 903c 2f48 343c 5168 7f3b 465e d8bb
00000260: 07ee 913b 9d7f 0a3c e08d 033d 6507 543c
00000270: 8e95 27bd 782e 47bc 542f 123c 09db 58bc
00000280: 040a 2d3d 12af c83d 0eaa d23d dc2c 093d
00000290: 9dc5 f03d 5784 bc3d 3afd bf3c 2a45 ea3d
000002a0: 512d 29bc 293c 06bb c9f7 493d c1af 4c3d
000002b0: cfd5 00bd 0bf4 b3bc 6b6f 0dbd 69e7 9dbb
000002c0: dcc6 ec3c cec7 4e3d 3090 053e 889c 273d
000002d0: 156c a53d 9fa9 013d b1f6 b53d c35d ce3c
000002e0: b075 513c 0e2d 9cbd e527 233d d159 5f3d
000002f0: fd4b c7bd 6259 05be bd1e 01bd f4ae 0ebd
00000300: 4cbc 1f3c 490b 0d3d 815b f6bc 6746 64bc
00000310: 1cc0 ad3c 2fc2 5e3c 96c3 753c 0041 f6bc
00000320: a2de b6bc 276c b7ba dec7 acbc d73d 31bb
00000330: df17 dabc f501 1abd d694 153d 01fc 143d
00000340: 2a0a 443b ad71 18bc 0b96 0a3d 392e 483c
00000350: 9da9 ff3c 1f16 7e3d 8fb3 ae3b ee58 ed3c
00000360: f930 e93c fcb0 5e3d 69c8 f63c 7d61 3e3d
00000370: 6a26 a2bc c6f8 12bc 5ab7 41bd fe56 95bc
00000380: 5a26 8ebc 28bd c23c a29b a7bd 3879 86bd
00000390: d7a0 98bd 7a37 75bd 02eb acbd aa5b 26be
000003a0: 37d9 a6bd 24a8 b5bd d722 17bd f837 59bd
000003b0: 903a 9abb 0a18 75bd 6381 30bd ad0c c8bc
000003c0: fa45 9fbd 651d 8ebd b006 2fbd 1974 e4bd
000003d0: 4564 bf3b 8a70 1cbd 6a62 b7bd 8aff 46be
000003e0: 4756 d83a 8dda aabc 1050 06be 50a0 48be
000003f0: 59b0 ff3d e935 533c d330 17bd d13a 6dbd

6.bias f4 [64]
0.008723745 -0.0012702456 -0.00063408725 0.014973915 0.007084368 -0.009864007 -0.0269769 -0.01323171
0.020519666 0.02866553 -0.0099211205 -0.006286478 -0.0009766346 0.02646911 0.017967924 -0.024851644
-0.025441092 0.012094677 -0.0044643707 0.012803007 0.007993277 -0.02280196 0.0148538845 -0.017663509
0.016247312 0.011975831 -0.03088826 -0.01336274 0.005024647 -0.008032068 -0.01704029 0.0076452624
0.0015496378 0.015385694 -0.017773407 -0.011369586 -0.008694904 -0.024685208 0.02958349 -0.0029892311
0.010496389 -0.02889705 0.0031449078 0.013791998 0.022666218 -0.00020811951 -0.025672022 -0.02984091
-0.030016944 -0.007045146 0.027843572 -0.027507031 -0.025561705 -0.016571358 -0.009999701 0.023835251
-0.01176889 0.01348345 0.031517453 -0.00477265 0.023890262 0.029999007 0.015255039 -0.0011120848
00000000: 0aee 0e3c 5f7e a6ba e038 26ba 2755 753c
00000010: fc23 e83b a59c 21bc a9fe dcbc d0c9 58bc
00000020: dc18 a83c f9d3 ea3c 328c 22bc cdfe cdbb
00000030: 6b02 80ba bfd5 d83c 7831 933c ad95 cbbc
00000040: d669 d0bc c128 463c db49 92bb b4c3 513c
00000050: 3cf6 023c 2dcb babc b55d 733c 10b3 90bc
00000060: 1519 853c 4736 443c 6009 fdbc 65ef 5abc
00000070: cba5 a43b ef98 03bc 1498 8bbc 1c85 fa3b
00000080: 371d cb3a 4714 7c3c 8999 91bc 8047 3abc
00000090: 1275 0ebc a238 cabc 1359 f23c fae6 43bb
000000a0: 0cf9 2b3c 82b9 ecbc cc1a 4e3b d5f7 613c
000000b0: 81ae b93c a83a 5ab9 224e d2bc ed74 f4bc
000000c0: 18e6 f5bc f8da e6bb 3418 e43c 6d56 e1bc
000000d0: c866 d1bc a8c0 87bc c9d5 23bc 2542 c33c
000000e0: 4dd2 40bc b0e9 5c3c 7218 013d e463 9cbb
000000f0: 83b5 c33c 7ac0 f53c 45f0 793c 60c3 91ba

7.odefunc.norm1.weight f4 [74]
1.2377435 1.2455935 0.8814901 1.4386021 1.0486734 0.967211 1.0843074 1.1366073
0.99243116 1.0818018 1.0028287 1.0104249 0.92125225 0.82370716 0.81945086 0.7439873
0.7432699 0.9272915 0.83640486 1.2995514 0.8799562 1.1554053 0.96906185 1.0556368
1.2787267 1.1020254 1.1954561 1.0477731 0.7484147 1.0086311 1.0023105 0.9852677
0.73214173 0.7003249 0.7547289 1.0617332 0.7694674 1.1247762 1.0965014 0.92116225
0.94789225 1.0926013 0.66891074 1.0074714 0.79093915 1.2596793 0.95018405 0.90506345
0.9429231 0.9158931 0.9779981 0.8302408 1.0930407 1.0731442 1.1273628 1.0721316
1.2002813 1.1139102 1.2864192 0.9707635 0.96716964 1.2332784 0.83409256 1.2523979
1.1841295 0.85441786 0.96609807 0.84629273 1.2469677 1.2323153 1.0964702 0.84327924
1.2649606 0.88459444
00000000: 616e 9e3f 9c6f 9f3f 56a9 613f 1d24 b83f
00000010: ee3a 863f 249b 773f 96ca 8a3f 597c 913f
00000020: f80f 7e3f 7b78 8a3f b15c 803f 9a55 813f
00000030: 30d7 6b3f 79de 523f 88c7 513f f475 3e3f
00000040: f046 3e3f fa62 6d3f a11e 563f b357 a63f
00000050: cf44 613f 52e4 933f 7014 783f 1b1f 873f
00000060: 51ad a33f 2b0f 8d3f b504 993f 6e1d 863f
00000070: 1b98 3f3f d31a 813f b64b 803f 813a 7c3f
00000080: a46d 3b3f 7e48 333f ea35 413f e0e6 873f
00000090: d1fb 443f abf8 8f3f 285a 8c3f 4ad1 6b3f
000000a0: 11a9 723f 5cda 8b3f bc3d 2b3f d3f4 803f
000000b0: fd7a 4a3f 2c3d a13f 433f 733f 3db2 673f
000000c0: 6963 713f f877 6a3f 155e 7a3f a98a 543f
000000d0: c2e8 8b3f ca5c 893f 6d4d 903f 9c3b 893f
000000e0: d1a2 993f 9c94 8e3f 62a9 a43f f583 783f
000000f0: 6e98 773f 11dc 9d3f 1787 553f 934e a03f
00000100: 8e91 973f 21bb 5a3f 3452 773f a4a6 583f
00000110: a39c 9f3f 82bc 9d3f 2359 8c3f 26e1 573f
00000120: 3bea a13f c874 623f

7.odefunc.norm1.bias f4 [74]
-0.20059241 -0.44714227 -0.5066203 -0.13945687 -0.37471038 -0.18812388 -0.42969573 -0.21319482
-0.3825859 -0.24897012 -0.529887 -0.25319433 -0.6206978 -0.53072363 -0.6149381 -0.460757
-0.59082097 -0.113908805 -0.5651212 -0.39622474 -0.4931945 -0.3556076 -0.53118503 -0.13797164
-0.08870278 -0.367691 -0.072934784 -0.12091573 -0.68469185 -0.4495188 -0.3082967 -0.47196794
-0.51984316 -0.54085916 -0.64647865 -0.1263433 -0.5299944 -0.15193833 -0.053754713 -0.5033175
-0.13496456 -0.51965773 -0.41902733 -0.46229425 -0.5853266 -0.21725723 -0.69151026 -0.5561982
-0.63941276 -0.38457584 -0.47921327 -0.5424291 -0.19990276 -0.3043989 -0.13210164 -0.16279338
-0.21049714 -0.24043955 -0.12051658 -0.45361552 -0.2602834 -0.090727024 -0.43904844 -0.28126174
-0.14813447 -0.60444546 -0.69144475 -0.54966366 -0.06017154 -0.19514346 -0.31499586 -0.6387167
-0.3844609 -0.6503721
00000000: 1968 4dbe d5ef e4be deb1 01bf c8cd 0ebe
00000010: 0ada bfbe 8ca3 40be 1401 dcbe be4f 5abe
00000020: 4de2 c3be 06f2 7ebe ada6 07bf b0a2 81be
00000030: 0de6 1ebf 81dd 07bf 956c 1dbf 57e8 ebbe
00000040: 0b40 17bf 0549 e9bd c8ab 10bf f8dd cabe
00000050: fd83 fcbe 3312 b6be befb 07bf 7048 0dbe
00000060: cea9 b5bd ff41 bcbe d55e 95bd aba2 f7bd
00000070: f747 2fbf 5427 e6be 11d9 9dbe c8a5 f1be
00000080: 7114 05bf bf75 0abf a07f 25bf 2360 01be
00000090: b7ad 07bf b995 1bbe e72d 5cbd 6ad9 00bf
000000a0: 2634 0abe 4a08 05bf c08a d6be d5b1 ecbe
000000b0: f7d7 15bf ae78 5ebe d106 31bf 0163 0ebf
000000c0: 8eb0 23bf 20e7 c4be 715b f5be a2dc 0abf
000000d0: 4fb3 4cbe 2cda 9bbe a745 07be 4fb3 26be
000000e0: 908c 57be c935 76be 66d1 f6bd 4b40 e8be
000000f0: de43 85be 17cf b9bd f5ca e0be 8a01 90be
00000100: 90b0 17be f0bc 1abf 8602 31bf c2b6 0cbf
00000110: 6f76 76bd b0d3 47be 2347 a1be f082 23bf
00000120: 0fd8 c4be c97e 26bf

7.odefunc.conv1._layer.weight f4 [74, 75, 3, 3]
0.0014630259 -0.0028262625 -0.025960961 0.03288158 0.031795695 -0.04388036 -0.029876126 -0.0016056551
-0.008431993 0.021832908 0.04869898 0.07810819 0.021828948 -0.017342044 -0.01875399 -0.04769489
-0.056942333 -0.09119853 0.16131815 -0.011663975 -0.17906493 -0.12402776 -0.06727048 0.056714084
0.0033428762 -0.07866617 -0.19140911 -0.051419158 -0.04077666 0.0644637 0.092633896 0.060752872
0.14430197 0.10011062 0.075130805 0.017777015 0.00094972906 0.14279102 -0.021912606 0.022786122
0.053779025 -0.13244538 -0.00053076196 -0.13127661 -0.08974923 0.010076769 0.15153821 0.11589666
-0.09362725 -0.07379502 0.124002375 0.14400646 0.06767982 0.22339872 0.1748252 -0.18518017
-0.078477204 0.025990676 0.0019193147 0.09354293 0.06764783 0.067171074 0.028583283 0.11669664
0.042754486 -0.055776812 0.021477723 0.20631425 0.22178526 0.20348036 0.2142352 0.046629764
0.08441364 -0.07110966 -0.062317897 -0.010637084 0.1469113 0.16439375 -0.0035421615 -0.09269331
0.06710537 0.033360984 0.10417071 0.14466281 0.004496579 0.014418758 -0.07911724 -0.0353542
-0.047100447 -0.049622644 -0.08157662 0.030244557 0.054855272 -0.0006800267 -0.04641609 -0.023249354
-0.0054417294 0.010953246 -0.029344605 -0.0535688 -0.015240891 0.14540015 0.0075042723 -0.024499893
0.07010566 0.02702694 0.122815296 0.178462 -0.024724433 0.062867336 0.03129214 0.0919472
0.05236919 -0.08137361 0.05759451 0.08010095 -0.12560762 -0.15993927 0.09788597 -0.01070018
0.09548974 0.17008816 -0.00041833695 0.091483 0.12767892 0.27711952 0.0017076979 0.0938401
0.026520345 0.056802258 0.059027176 0.115372546 -0.16157466 0.081943534 0.14194034 0.01926669
0.05792546 0.078243084 -0.03252427 0.08133219 -0.08640425 0.10462648 0.12340307 0.04323008
0.0238905 0.09559986 0.042233933 0.018068304 0.07471765 0.035030354 0.1930389 -0.06381776
-0.056697063 0.04563203 0.058303814 0.016697591 0.09753431 -0.08672928 0.10332166 -0.11381426
0.10642397 0.031172607 -0.08054773 -0.016556082 -0.019816538 -0.033862688 0.041605294 0.06949665
0.01381318 -0.05464356 0.010104275 0.18565635 0.09758519 -0.024833545 0.09981983 0.049331542
0.006348804 0.053005926 -0.041875884 0.040437736 -0.11183169 0.11751032 -0.11810058 -0.104243204
0.034060888 -0.12253783 0.0357875 -0.07038484 -0.12410561 0.01358976 -0.038467318 0.12789495
0.0036166376 -0.12936765 0.086335704 0.10555118 0.07870397 0.055365216 0.027873585 -0.0300036
0.033267517 -0.12488979 -0.1291637 -0.029912017 0.080981374 0.063311405 0.010410219 -0.15152147
0.19103287 0.19726063 -0.04669076 -0.012226418 0.05612971 -0.15047151 -0.047947112 0.0847603
-0.04997664 0.010943114 0.09529514 0.07289996 0.016977044 0.03438982 0.17575395 -0.026857508
0.01646619 -0.108110994 0.0071635046 0.109573744 0.09698823 -0.002141148 -0.043054406 -0.20424558
-0.16649194 0.07480235 -0.0016024826 0.08289636 -0.018311145 0.02239151 -0.047303468 0.11074712
0.10066011 0.16114354 0.10210848 0.07657378 0.016979426 0.038561366 0.022773044 0.0036354873
0.027651777 0.044752922 0.02378445 -0.0048795533 -0.025046784 0.011019976 -0.049011465 -0.06643322
00000000: 01c3 bf3a d138 39bb 15ac d4bc d6ae 063d
00000010: 343c 023d e4bb 33bd c7be f4bc d874 d2ba
00000020: 5826 0abc edda b23c 9578 473d 30f7 9f3d
00000030: 9fd2 b23c e710 8ebc f8a1 99bc b85b 43bd
00000040: 5d3c 69bd 4bc6 babd 9630 253e 421a 3fbc
00000050: cc5c 37be 4402 febd 1bc5 89bd 074d 683d
00000060: 2814 5b3b bb1b a1bd c000 44be e59c 52bd
00000070: 6d05 27bd 8b05 843d d7b6 bd3d 01d8 783d
00000080: e5c3 133e cc06 cd3d 2ede 993d 1aa1 913c
00000090: 3df7 783a cf37 123e 1182 b3bc f6a9 ba3c
000000a0: 6547 5c3d c39f 07be d522 0bba 606d 06be
000000b0: 72ce b7bd 0819 253c d52c 1b3e 3a5b ed3d
000000c0: a5bf bfbd d821 97bd f5f4 fd3d 6e76 133e
000000d0: b89b 8a3d a2c2 643e 6105 333e df9f 3dbe
000000e0: a8b8 a0bd 66ea d43c 8491 fb3a 7093 bf3d
000000f0: f28a 8a3d fd90 893d 7d27 ea3c a6fe ee3d
00000100: 541f 2f3d 3a76 64bd 0df2 af3c 0b44 533e
00000110: ad1b 633e 285d 503e 7960 5b3e dafe 3e3d
00000120: 0fe1 ac3d f1a1 91bd 0d41 7fbd 2a47 2ebc
00000130: ea6f 163e d656 283e 9c23 68bb fdd5 bdbd
00000140: 8a6e 893d 87a5 083d 7457 d53d 7d22 143e
00000150: 0a58 933b a83c 6c3c 3808 a2bd 91cf 10bd
00000160: 66ec 40bd 1d41 4bbd a511 a7bd 6fc3 f73c
00000170: ecaf 603d d243 32ba cc1e 3ebd 6e75 bebc
00000180: 8950 b2bb 3e75 333c 1964 f0bc f56a 5bbd
00000190: eeb4 79bc c7e3 143e 66e6 f53b 00b4 c8bc
000001a0: 8e93 8f3d 9a67 dd3c 9686 fb3d bebe 363e
000001b0: e58a cabc 97c0 803d 302c 003d d04e bc3d
000001c0: 1381 563d 35a7 a6bd 39e8 6b3d f80b a43d
000001d0: 499f 00be 1fc7 23be 7078 c83d cf4f 2fbc
000001e0: 2090 c33d 972b 2e3e 3c54 dbb9 705b bb3d
000001f0: 43be 023e 9ce2 8d3e d5d4 df3a 3d2f c03d
00000200: 3241 d93c 7ca9 683d 7bc6 713d 7148 ec3d
00000210: d473 25be 03d2 a73d cf58 113e 2dd5 9d3c
00000220: 3f43 6d3d e93d a03d 2b38 05bd 7e91 a63d
00000230: b6f4 b0bd 6846 d63d c0ba fc3d 0612 313d
00000240: 03b6 c33c dcc9 c33d 7dfd 2c3d fb03 943c
00000250: 9105 993d fd7b 0f3d fdab 453e e3b2 82bd
00000260: 2e3b 68bd a7e8 3a3d fbcf 6e3d 63c9 883c
00000270: 11c0 c73d 1f9f b1bd 4e9a d33d 7317 e9bd
00000280: cff4 d93d b25d ff3c 35f6 a4bd 9fa0 87bc
00000290: 4b56 a2bc 9ab3 0abd 506a 2a3d 4254 8e3d
000002a0: ad50 623c edd1 5fbd 678c 253c b31c 3e3e
000002b0: beda c73d b86f cbbc 576e cc3d df0f 4a3d
000002c0: a109 d03b be1c 593d 0c86 2bbd 0aa2 253d
000002d0: 0308 e5bd 40a9 f03d b8de f1bd 767d d5bd
000002e0: 6e83 0b3d 1df5 fabd ea95 123d ed25 90bd
000002f0: 152b febd 96a7 5e3c e88f 1dbd e5f6 023e
00000300: 1c05 6d3b f478 04be c6d0 b03d 382b d83d
00000310: 8c2f a13d a3c6 623d 2557 e43c 1cca f5bc
00000320: 8543 083d 38c6 ffbd 7d43 04be 0c0a f5bc
00000330: 90d9 a53d 69a9 813d a08f 2a3c 7228 1bbe
00000340: 1f9e 433e b1fe 493e cf3e 3fbd 5051 48bc
00000350: 44e8 653d 3415 1abe 3164 44bd cf96 ad3d
00000360: 4eb4 4cbd bf4a 333c 192a c33d 934c 953d
00000370: 7113 8b3c 57dc 0c3d d8f8 333e 4704 dcbc
00000380: 1ae4 863c 4c69 ddbd d5bb ea3b 3368 e03d
00000390: c4a1 c63d 8152 0cbb d159 30bd c125 51be
000003a0: dd7c 2abe f931 993d 650a d2ba 91c5 a93d
000003b0: 4101 96bc 666e b73c 48c1 41bd 63cf e23d
000003c0: e326 ce3d d002 253e 401e d13d b7d2 9c3d
000003d0: 7018 8b3c 86f2 1d3d 898e ba3c 5b41 6e3b
000003e0: fb85 e23c d74e 373d 9bd7 c23c a9e4 9fbb
000003f0: ea2e cdbc 218d 343c 3fc0 48bd 240e 88bd

7.odefunc.conv1._layer.bias f4 [74]
0.035170026 -0.011559337 0.0046696006 -0.004580872 -0.011184968 -0.002307002 -0.036569525 -0.012668576
-0.018078826 0.008929811 0.03596528 0.013589632 -0.003240257 0.019979056 0.030078113 -0.017797146
0.015857164 0.00467409 0.02883783 0.028466828 0.012421388 0.02730707 0.015420694 0.004174534
-0.0024487926 0.003676854 -0.00012066738 0.0006271844 -0.013495028 0.032099873 -0.032182477 0.020471562
0.021520969 -0.0025657467 0.030797876 0.0036616733 -0.02579113 -0.004604833 0.035056293 0.020806178
0.011768058 0.032753155 0.03803903 -0.0095638465 0.02041895 -0.007685117 -0.013703555 0.024963021
-0.03740253 0.012467861 -0.021858536 0.033597335 0.032695316 0.009975534 0.019222539 0.03717445
-0.02151175 0.020759124 0.026597321 0.002737294 0.007820249 0.0004794673 -0.016073214 -0.015913019
0.0072877035 -0.023045432 -0.016188491 -0.034061924 0.025244676 -0.018983463 0.013583772 0.0041618417
0.036256142 0.02019037
00000000: 720e 103d 6063 3dbc 7303 993b 241b 96bb
00000010: 2841 37bc 1231 17bb edc9 15bd dc8f 4fbc
00000020: 0c1a 94bc 584e 123c 5450 133d 0ca7 5e3c
00000030: 7e5a 54bb 1eab a33c 6066 f63c 52cb 91bc
00000040: e2e6 813c 1c29 993b 503d ec3c 4433 e93c
00000050: 1483 4b3c 14b3 df3c 14a7 7c3c 88ca 883b
00000060: ec7b 20bb 60f7 703b ce0e fdb8 a269 243a
00000070: 401a 5dbc 287b 033d c6d1 03bd fab3 a73c
00000080: be4c b03c 1626 28bb d44b fc3c aff8 6f3b
00000090: eb47 d3bc 24e4 96bb 3097 0f3d b871 aa3c
000000a0: d0ce 403c 2c28 063d d0ce 1b3d aeb1 1cbc
000000b0: a445 a73c 6fd3 fbbb e084 60bc 407f cc3c
000000c0: 6533 19bd 0046 4c3c ac10 b3bc 5c9d 093d
000000d0: 86eb 053d 6c70 233c 9678 9d3c 3c44 183d
000000e0: 6939 b0bc 0a0f aa3c a0e2 d93c 2c64 333b
000000f0: 8020 003c 0361 fb39 f9ab 83bc 055c 82bc
00000100: b0cd ee3b c6c9 bcbc ba9d 84bc 8484 0bbd
00000110: eccd ce3c 3583 9bbc 788e 5e3c 0f60 883b
00000120: 5281 143d 4666 a53c

7.odefunc.norm2.weight f4 [74]
0.6898488 1.0205675 0.8554454 0.9493911 1.0793942 1.0685905 0.94249254 1.1234678
0.8292792 0.8398683 0.72485185 0.84073263 0.7565073 1.0576081 0.9153938 0.9132672
0.7800346 1.177599 0.7436789 0.99184567 0.969829 1.0197183 0.8366277 0.7970685
0.8697049 0.79506356 0.8545794 1.1766744 0.71045214 0.87032384 0.9231276 1.0540215
1.0199121 0.9409441 0.9298842 0.98822236 0.9767497 0.7282631 0.83798575 0.76081014
1.1186885 1.0082176 0.94965833 1.0349728 0.8054638 1.0467592 0.7927993 0.8608739
0.85267365 0.88191366 0.7658614 0.9042386 0.8043934 0.8896859 0.8271631 0.90064883
0.7614912 0.78128225 1.1114032 1.0564791 0.9672614 1.0845916 0.9330329 1.0945928
0.9373306 0.6278766 1.0472636 0.7913801 0.8785567 1.097812 0.78665036 0.93642575
0.83106965 0.82410425
00000000: ee99 303f f5a1 823f 78fe 5a3f 4c0b 733f
00000010: 9729 8a3f 93c7 883f 3147 713f cbcd 8f3f
00000020: a44b 543f 9c01 573f e48f 393f 413a 573f
00000030: 76aa 413f b45f 873f 4057 6a3f e1cb 693f
00000040: 59b0 473f 90bb 963f be61 3e3f 99e9 7d3f
00000050: b746 783f 2186 823f 3c2d 563f ae0c 4c3f
00000060: fba4 5e3f 4989 4b3f b7c5 5a3f 449d 963f
00000070: 31e0 353f 8bcd 5e3f 1752 6c3f 2dea 863f
00000080: 7b8c 823f b6e1 703f e40c 6e3f 24fc 7c3f
00000090: 450c 7a3f 736f 3a3f 3c86 563f 74c4 423f
000000a0: 2f31 8f3f 460d 813f cf1c 733f fd79 843f
000000b0: e032 4e3f 35fc 853f e5f4 4a3f 3b62 5c3f
000000c0: d248 5a3f 18c5 613f 7e0f 443f 2e7c 673f
000000d0: baec 4d3f 75c2 633f f6c0 533f ec90 663f
000000e0: 16f1 423f 1d02 483f 7642 8e3f b53a 873f
000000f0: 719e 773f e6d3 8a3f 3edb 6e3f 9e1b 8c3f
00000100: e6f4 6f3f 85bc 203f bc0c 863f e397 4a3f
00000110: 18e9 603f 1b85 8c3f eb61 493f 99b9 6f3f
00000120: fbc0 543f 7ff8 523f

7.odefunc.norm2.bias f4 [74]
-0.84197325 -0.5388284 -0.658505 -0.5530587 -0.53384846 -0.458039 -0.5221296 -0.41473645
-0.4768486 -0.6302421 -0.6173898 -0.6376295 -0.6321119 -0.5339164 -0.5458012 -0.47360358
-0.6649535 -0.6857973 -0.6370843 -0.5757534 -0.65438193 -0.5061026 -0.5648028 -0.5704883
-0.72006595 -0.4606733 -0.58194876 -0.46868974 -0.5973174 -0.6826093 -0.48490492 -0.42373297
-0.5730128 -0.64298314 -0.6499997 -0.40925902 -0.5818277 -0.539796 -0.43910924 -0.862967
-0.5654668 -0.4966435 -0.592078 -0.38446984 -0.5794114 -0.49755204 -0.65949637 -0.6559719
-0.5914536 -0.53946096 -0.43149015 -0.6644239 -0.5985793 -0.57310575 -0.8245645 -0.5651608
-0.58936363 -0.57822925 -0.6003402 -0.56316674 -0.55757374 -0.58250946 -0.54239607 -0.42245907
-0.4860343 -0.6048733 -0.41201043 -0.5011094 -0.4705106 -0.698125 -0.5351989 -0.53600323
-0.5901798 -0.6104066
00000000: 8f8b 57bf a8f0 09bf c993 28bf 4195 0dbf
00000010: 4baa 08bf 1684 eabe 49aa 05bf 5658 d4be
00000020: 8025 f4be 8c57 21bf 420d 1ebf b03b 23bf
00000030: 16d2 21bf bfae 08bf a1b9 0bbf 2b7c f2be
00000040: 643a 2abf 6990 2fbf f517 23bf 9364 13bf
00000050: 9385 27bf f18f 01bf eb96 10bf 850b 12bf
00000060: 3e56 38bf 5fdd ebbe 98fa 14bf 1af8 efbe
00000070: cbe9 18bf 7cbf 2ebf 7545 f8be 87f3 d8be
00000080: f8b0 12bf 8b9a 24bf 6166 26bf 668a d1be
00000090: a9f2 14bf 1230 0abf edd2 e0be 68eb 5cbf
000000a0: 6fc2 10bf 0f48 febe 6c92 17bf 3bd9 c4be
000000b0: 4e54 14bf 24bf febe c1d4 28bf c6ed 27bf
000000c0: 8169 17bf 1d1a 0abf 47ec dcbe af17 2abf
000000d0: 7e3c 19bf 0fb7 12bf a916 53bf 61ae 10bf
000000e0: 89e0 16bf d506 14bf e5af 19bf b22b 10bf
000000f0: 27bd 0ebf 571f 15bf 78da 0abf 8e4c d8be
00000100: 7dd9 f8be fad8 1abf 08f3 d2be b548 00bf
00000110: c4e6 f0be 52b8 32bf cc02 09bf 8237 09bf
00000120: 0616 17bf 9b43 1cbf
